log/GC_SAC/maze3Env/20210803-1455/GC_SAC_HER_critic.pth (torch_old, 46470 bytes, 10 tensors)

net1.0.weight f4 [64, 20]
00000000: 8a3a e73e f232 a83e 8bb7 d8bd 2d3b a73e
00000010: 66df 00be cb85 55be af36 22bd 57fe a6bd
00000020: df90 503d fdae a83d 6b43 c1bd 84e9 febc
00000030: 2d17 a6bd a91c 9abd 1db3 2d3e 5df2 923e
00000040: 08b3 cc3c 9e28 ed3d b38e 273e d889 81be
00000050: d4bd 883e 3dd3 ddbe 694e 40be 8446 a63d
00000060: b558 d83c 6801 573d 611c 183d 835a 0dbd
00000070: c146 bbbc 79bd 7d3c baa5 4a3e 0cae 58be
00000080: cf31 e0bd e34b a2bd 50c2 823c 09c8 00bf
00000090: 087d 27be a66d c53e a410 e5bc c031 423e
000000a0: e806 11bf 776a 8c3e b85a 54be d549 5abe
000000b0: e878 f7be 54e3 1d3e a533 3abc fa54 9ebc
000000c0: 9f5e 0c3d fb52 503d 2291 653e 5833 3c3e
000000d0: 08a2 1e3e f549 5d3d 5460 703e 6732 063f
000000e0: 22b1 11be 1d7a da3d 8414 a8be b42d 283e
000000f0: 34b1 2cbe b355 98be bcd0 ef3d f696 62be
00000100: 95a9 a7be 90c8 d73d c1aa 2c3b 9237 80bc
00000110: 30ae 493d c182 333e 744b 65bd ada3 65be
00000120: 8a97 8c3d 5005 96bd e9a5 d0be d6d1 133f
00000130: 2455 fa3d 1f66 853f 2a1f 99be 391d 04bf
00000140: e747 c0be 9d57 9abe 741b 60be 255d 16be
00000150: 821c 793d ee44 22be 754d 263d eb62 96bb
00000160: 790b 343d 5dbb 6b3d 4f03 22bd a138 7f3e
00000170: 0d17 3d3e bbef 193e d57c 2dbd da46 96bd
00000180: 627e 16be 616e d1bd ec26 e53d 515b 90be
00000190: ede9 4d3e 7ca1 19bf a83d 833c 6151 3fbd
000001a0: 8f68 02bf 3666 21be b94f 323c 6620 a43d
000001b0: d4d0 23be 5e19 8dbd 2e31 fa3d 4419 223e
000001c0: 6afb ccbd eec4 543e 07fd e83b 2104 cbbd
000001d0: 8174 64be cb49 333d 79cb f1bd 177f 24bd
000001e0: 76a2 813e 4bef f63d f0a0 433d ce8f 043d
000001f0: b856 41bc 986c 043e 6ba5 41be 1651 c5bd
00000200: 69b2 073e 0232 39bd 91bc 23be 4722 1fbe
00000210: ce05 c63d a933 453e 99e0 953d 21dc 303e
00000220: e85d 833d acf5 d7bf 7f6f f0bd 5ce3 d1bf
00000230: b7e0 103d be75 3b3f e1af fcbd 6227 84bc
00000240: b680 e43d 7909 d4bd ba09 63be 8b05 573d
00000250: df0a c13d e5b0 1ebd aad9 73be 466b 58be
00000260: 7a79 3c3c 5d3b 9dbd ccaf a53c 261d 8a3d
00000270: 6c13 13bd 02bd a43e b5db f63d 5fc0 bb3c
00000280: 0020 b83c 56ba fdbd aa2b 163e 0e58 073e
00000290: 3847 f33d c638 3a3e 5022 1b3e fd38 8fbd
000002a0: da6d 803d 234d 53bc 1bad d1bc 8a6c 56be
000002b0: 81d3 f0bc d218 103e a9df 5e3e 90d4 6cbf
000002c0: 3621 1dbe cf02 b9bd bb2f 2abd 6c24 a1bd
000002d0: 6e83 a23e aeee 6bbe 70e1 a6bd 028a df3d
000002e0: 5590 2d3e e896 623e b4a1 be3d ae2b 06be
000002f0: 843a a73d 0bd1 8fbe 6406 15bd c47a 1a3e
00000300: 9148 2ebc 1ff7 ff3d a1fb 973e c609 3cbe
00000310: 5605 033e 9e03 1cbe 79f9 553c cc0f 6dbd
00000320: 2190 583e 5e29 44be 48dc 313e 9856 21be
00000330: 15ff e4be 4038 1f3e 7888 113e 0e86 59be
00000340: d89d 8e3d 0c39 743d 08f9 dd3d b925 00be
00000350: b011 5abd 6248 713d b00f 4c3e 033a bfbd
00000360: e863 9c3d d049 013e 263d 883d cc27 08be
00000370: 6621 cb3e 368f 033f 403f 2bbc 9c44 a9bc
00000380: 4fd0 8c3e 2094 3e3d eb64 a23d 9a1b 93be
00000390: 260a 41be b077 24bd b4a5 533d b299 64be
000003a0: 4ece 063e 75d7 f93d 6c10 d3bd 86a8 483e
000003b0: f8a6 bf3d 7d5b 3d3e 4e31 e6bd b7b2 703d
000003c0: 247a eebd 3111 95be 6e1b 623e f037 753e
000003d0: c1f5 3fbe 5808 34bd 25cd 273e bd84 51bd
000003e0: 9eb5 983d 7149 46be 74b1 cf3d 7bbe ba3b
000003f0: 84ec a93d fd38 283e cf12 7a3c ec8d a63e
0.4516185 0.32851368 -0.10581883 0.32662335 -0.1258522 -0.20851819 -0.03960293 -0.0815398
0.05091941 0.08236501 -0.09436687 -0.031117208 -0.08109889 -0.07524998 0.16962858 0.28700534
0.024987713 0.11580013 0.16363029 -0.2530048 0.26707327 -0.43325225 -0.18779911 0.081189185
0.026409486 0.052491575 0.03713644 -0.034510147 -0.022860887 0.015487068 0.19789782 -0.21160144
-0.10947 -0.079246305 0.015961796 -0.5030523 -0.1635629 0.38560218 -0.027962036 0.1896429
-0.56651163 0.27424976 -0.20737731 -0.21317227 -0.48334432 0.1541875 -0.011364852 -0.01932763
0.034269925 0.050860386 0.22418645 0.18378961 0.15491498 0.05402561 0.23474246 0.5242066
-0.14227727 0.106678225 -0.32828152 0.16423684 -0.16864473 -0.29752883 0.11709735 -0.221279
-0.32746568 0.10536301 0.0026346894 -0.015651498 0.049238384 0.17530347 -0.05598016 -0.22425719
0.06864841 -0.07325232 -0.4075158 0.5774206 0.122232705 1.042179 -0.2990659 -0.5160709
-0.37554857 -0.3014497 -0.21885473 -0.1468397 0.060818203 -0.15846607 0.040601213 -0.0045894287
0.043956254 0.05755173 -0.039553937 0.24923946 0.18465824 0.15032856 -0.042355377 -0.073377326
-0.14696649 -0.10226131 0.111890644 -0.2819467 0.20108767 -0.6001203 0.01602061 -0.04670847
-0.50940794 -0.15761647 0.010883265 0.08013992 -0.1599763 -0.06889604 0.122164115 0.1582995
-0.10008891 0.20778248 0.0071102413 -0.09912897 -0.22310068 0.043771546 -0.118063875 -0.040160265
0.2531926 0.1205736 0.047760904 0.032363705 -0.0118004605 0.1293205 -0.18910758 -0.096346065
0.13251652 -0.045213707 -0.15989901 -0.1554042 0.09669076 0.19257988 0.07318229 0.17271473
0.064143956 -1.6871848 -0.11740016 -1.639751 0.035370555 0.73226535 -0.12338234 -0.01613206
0.11157362 -0.10353369 -0.22171679 0.05249552 0.094259016 -0.03874292 -0.23813501 -0.21134672
0.011503572 -0.07677338 0.020225428 0.06743841 -0.035907194 0.32175452 0.120536245 0.022918878
0.022476196 -0.123890564 0.14665094 0.13217184 0.11878818 0.1818572 0.15149808 -0.069932915
0.062709525 -0.012896809 -0.025595238 -0.20939842 -0.029397728 0.14071968 0.21765007 -0.92511845
-0.153447 -0.09033739 -0.041549426 -0.07868275 0.31740898 -0.23040268 -0.081484675 0.10914995
0.1694959 0.22127879 0.09308186 -0.131026 0.08165458 -0.28089175 -0.036383048 0.15085894
-0.010637418 0.124983065 0.29684165 -0.18363103 0.12795004 -0.15235755 0.013059967 -0.057876393
0.21148731 -0.19156405 0.17369187 -0.15755689 -0.44725862 0.15548801 0.14212215 -0.21242544
0.069637 0.059624717 0.108385146 -0.1251439 -0.053239524 0.05890692 0.1992786 -0.09337237
0.07636243 0.12625813 0.06652288 -0.13296431 0.39673918 0.513904 -0.010452092 -0.020662598
0.27502677 0.04652798 0.07929405 -0.28731996 -0.18851528 -0.040153205 0.0516717 -0.22324255
0.13164636 0.12199298 -0.103058666 0.19595537 0.09358019 0.18491931 -0.11239873 0.058764186
-0.1164439 -0.29114679 0.22080776 0.2394712 -0.18746091 -0.04395327 0.1638685 -0.05115198
0.07456516 -0.19363953 0.101412684 0.0056989766 0.08297065 0.1642799 0.015263273 0.32530153

net1.0.bias f4 [64]
00000000: 2c38 793d 0dd1 2fbe e6f3 28be 1e68 0b3e
00000010: b139 703c 662c 733e 8c69 1cbe a73a 6cbe
00000020: 9c2f d3bd 0177 febd 3068 3ebc 3828 91be
00000030: c524 ea3d 9d97 95bd 0edc 2cbe 93c6 913d
00000040: cad1 183d 0232 2a3e 2660 1bbe 30e8 863c
00000050: 0a65 d4bd 80b0 d6bd 039e 82bd 85ea 74bd
00000060: 8f58 5238 7420 bc3c 39b1 b13d 3f26 2e3d
00000070: c1e9 b2bd 2bb4 db3c 658f 513e 61d2 0c3e
00000080: 9044 5ebe 2aca 1a3e 6f86 563e 1d3a 5bbe
00000090: 7d35 603e 1667 80bd fd6d 9fbc cad6 533d
000000a0: f2c9 f7bd f29c d43d 1107 23be b14e f3bc
000000b0: 964e 29be 504a d2bd e974 8dbd a5aa ff3b
000000c0: 0665 65be 08bd d93d d1ac d43c 8ab1 b3bd
000000d0: 02aa 03be 1261 b2bd e635 13be 2807 22be
000000e0: 49b8 68be 7f73 d2bd 6f8c d13d e499 95bd
000000f0: cc46 13be a58e 883d 77b9 483e 45c5 453e
0.060844585 -0.1716959 -0.1649929 0.13613936 0.014662192 0.23747405 -0.15274638 -0.23069249
-0.10311815 -0.12425042 -0.01162152 -0.28350997 0.114327945 -0.073043086 -0.16880819 0.07117953
0.037309445 0.16620639 -0.15173396 0.016468138 -0.10370834 -0.104828835 -0.063777946 -0.059793968
5.015038e-05 0.022964694 0.08676381 0.042516943 -0.08735991 0.02681931 0.20464857 0.13752128
-0.21705842 0.15116182 0.2094972 -0.21408887 0.21895404 -0.06269662 -0.019461626 0.05171851
-0.12099065 0.103814974 -0.15920664 -0.029700609 -0.16533884 -0.1026808 -0.069070645 0.007802325
-0.22401819 0.10631758 0.025961312 -0.08774097 -0.12857822 -0.08709921 -0.1437603 -0.15823042
-0.22726549 -0.102759354 0.10231864 -0.07304743 -0.14382476 0.06667832 0.19601999 0.19313534

net1.2.weight f4 [64, 64]
00000000: a727 293e 6c67 8c3e 0c33 153d 7c38 b13e
00000010: b21c fdbc ea0c 853e 3b35 703e ff0f a93c
00000020: 1b43 c63d db29 50bd 9d09 5e3d 5a7e 90be
00000030: 3d87 aa3c 3187 2e3e eccf 153e 6882 82be
00000040: 3329 06bf 2e5f bfbd de56 c2be 61ea bebd
00000050: 94ef 41be a300 e63d 2e8c 3f3e ae1c d5bb
00000060: b828 913e 4caf 46be f993 adbf c3be 633e
00000070: 81da 65be d89f 6f3c 7fb9 d1bd e730 b1bd
00000080: cafe 003e 82c7 3bbc 8325 33bd 027a 30be
00000090: 32c6 9f3d ee7e 433e 5d08 51be c4c2 403e
000000a0: 4640 74bc 3304 cc3d 8d6f c13d 33ce 02be
000000b0: b843 b6bd b50f 03bf 1231 8c3e 93af e4bd
000000c0: f6f3 05be a92a b1be 9471 e4bc 9b70 023f
000000d0: 11f4 ebbe 1160 853e 7ea0 6e3b a56e 85be
000000e0: ae97 11bd 8b51 803e 296e aa3e fa78 98bc
000000f0: 9e2e 9d3d 61b2 d1bc aa57 b6be 6e5b 6cbd
00000100: 874a 313e ec3c 76bd 2755 d43d bab5 dfbc
00000110: 32de 303e 5ce9 7bbd b678 a4bc 8675 993e
00000120: d00f 8e3c 91af 0f3d fd1b 0d3e 8ef8 df3d
00000130: 4c8f b23d 2d55 0fbe f9b9 273e 6c72 9abe
00000140: e901 66be b9c7 d5bd e2ac 4f3c cb8e b63d
00000150: b5f5 aa3d cf3b a9bd d4e8 553e fb04 013e
00000160: 1c0a 8cbd b3cd d13d b25f c4bc d860 823d
00000170: 1e46 13bd b4c0 763c a963 94bd d8bf 26bc
00000180: b6ba d0ba 8cbf 223e c3c2 d03d cc3e 023e
00000190: 3cdb 3b3e 37d6 b83d bd6e 8d3c c166 c63d
000001a0: aabd 463d b187 7bbc 4e28 83bd 4271 163e
000001b0: 5319 e0bd 8fca a4bd f86f c3bc 8d55 1d3e
000001c0: 06ef 023e 66b5 dabc e33c 7dbd f46d 193d
000001d0: aba7 a4bc aafa 7bbc d069 c93d 1cd0 82be
000001e0: 438a fc3d 5b70 30be 7fbb 083c f910 083e
000001f0: 7c4a 263e 578d 2c3d 9626 193d 2f4a f53c
00000200: 2d86 5e3d 0f1c 293c 2b63 c5bc 96ec bbbc
00000210: 61eb fbbd 3095 b6bb fada 323e 5f5c b9be
00000220: 59cb 3abd 398b 38bd edd5 073e cf51 e03d
00000230: d2ff 753d 4e18 4b3c 6453 67be 1648 5e3e
00000240: dddd da3d 5851 443e d213 ccbd c3e6 34bd
00000250: 1be5 d4bd ab2f 91bd 5874 96bd 966a 2cbe
00000260: b582 f2bd f99b 2e3d 8246 113e 0ca0 553d
00000270: a6ca 8fbd b297 d5bd 40d4 523d 4119 32bc
00000280: 5c37 413d 3361 82bd d330 f3bd b5f1 913d
00000290: 60a9 4ebe 2bfc 4cbc 9f1d e03c 4307 1dbd
000002a0: 12cf aa3d 7215 0e3e 4d01 c8bd ee56 89bd
000002b0: 9e87 a53e 764c b03d 22e7 503e 2d81 c3bd
000002c0: 769e dbbd 5ad1 21bc 63ad 863d 4706 aebd
000002d0: db37 053e 05d4 08be 9a51 bf3c 1bc0 253e
000002e0: d181 983d e9bf 6b3d 582b dfbd 7ada 0abd
000002f0: 58af e3bc 70da e6bd eb7a 46bd a7f6 893d
00000300: 578b ef3b fd62 ac3e cb83 7abe f8cc 393c
00000310: ea98 8c3b 35ba 8d3e b60a a5bd f570 5bbe
00000320: 0f7e 193d f508 183e 5f44 88bd 8889 9dbe
00000330: bf58 973d 548a ffbc e23a 46be a56a dbbd
00000340: 4068 10be 226e 183d 140c 03be f7e5 90be
00000350: 53f1 c6bd 9d89 893d bcc2 a53e e75b 393d
00000360: 691e 393e 0695 05bd c64c 7cbf e2ae a43c
00000370: 81d9 33be ba1c c83c 6864 a63d f391 aebe
00000380: f4c4 1e3e b209 09bd d8de 63be 056b f73a
00000390: c7c7 693e d7fe 4fbe 1a41 f03d fa34 55be
000003a0: 5148 883e 95ef e1bc ce3c ed3d 64f6 223d
000003b0: 8191 4ebf f9c8 d9be b253 843d aebf cdbd
000003c0: 975d 36bf 3abe b53d d094 9938 bcc3 bfbd
000003d0: 0533 88be e02b fc3d 605b 86bd 5eae 20bf
000003e0: 7462 d1bd beb6 b73e d3b6 e4bc 9acd c73c
000003f0: bb6e 01bd 871b 48bd cb40 6cbf 54c9 3bbd
0.16519032 0.27422655 0.036425635 0.34613407 -0.030897472 0.25986415 0.23457806 0.02063751
0.09680768 -0.050821166 0.054208387 -0.282214 0.02081644 0.17043759 0.14630097 -0.25490117
-0.52406615 -0.09344326 -0.379569 -0.09322048 -0.18939048 0.1123059 0.18705818 -0.006503663
0.28351378 -0.19402808 -1.3560783 0.22240739 -0.22446634 0.014625512 -0.10240459 -0.086519055
0.12597194 -0.011461141 -0.043736946 -0.17234042 0.07801475 0.19091389 -0.20413347 0.18824297
-0.014907902 0.099617384 0.09445105 -0.12773971 -0.08899635 -0.5119584 0.27381188 -0.111663006
-0.13081345 -0.3460286 -0.02788619 0.5095307 -0.46084645 0.26049855 0.0036411579 -0.26060978
-0.035545044 0.25062212 0.3328717 -0.018612374 0.07674907 -0.025597753 -0.35613757 -0.05770438
0.17313586 -0.060116693 0.10367804 -0.027308334 0.17272261 -0.061501846 -0.02007709 0.29972476
0.017341524 0.035079543 0.13780208 0.1093608 0.08718738 -0.13997336 0.16379537 -0.30165422
-0.22461666 -0.10438485 0.012675496 0.08913954 0.08347646 -0.08263361 0.20889598 0.12599556
-0.06837866 0.10244312 -0.023971412 0.06366128 -0.03595554 0.015060592 -0.07245571 -0.010177575
-0.0015924785 0.15893382 0.10193398 0.12719268 0.1834535 0.09025233 0.017264718 0.096875675
0.04852072 -0.015352176 -0.06404172 0.14691642 -0.1094233 -0.080464475 -0.023857102 0.15364666
0.12786493 -0.026697826 -0.061825644 0.037458375 -0.020099482 -0.015379587 0.09834635 -0.255494
0.12331059 -0.1723036 0.008345484 0.13287725 0.16239351 0.04212698 0.037390314 0.0299426
0.05432718 0.010321631 -0.024095139 -0.022939961 -0.12300754 -0.0055719838 0.17466345 -0.36203286
-0.045604084 -0.045054648 0.132652 0.10953104 0.060058422 0.012395931 -0.22590405 0.21707186
0.10686848 0.19171655 -0.09964718 -0.044165384 -0.10395261 -0.0708917 -0.073464096 -0.16837534
-0.11841337 0.042629216 0.14187053 0.052154586 -0.07021074 -0.10429324 0.05147195 -0.010870279
0.047171935 -0.063661955 -0.11874547 0.0712618 -0.20181799 -0.012511293 0.027357874 -0.038337003
0.08340277 0.13875368 -0.09765873 -0.06706034 0.3233003 0.08608334 0.2040067 -0.09546123
-0.107235834 -0.009876573 0.0657604 -0.08497291 0.13009588 -0.13362129 0.02335434 0.16186564
0.074466355 0.057556067 -0.10896939 -0.03389976 -0.027793571 -0.112721324 -0.048457067 0.06736498
0.007310312 0.33669272 -0.24464338 0.011340372 0.0042906897 0.27681127 -0.080586836 -0.21429808
0.037473734 0.14847167 -0.06653666 -0.3076899 0.07389974 -0.03119389 -0.193584 -0.107137
-0.14102268 0.037214406 -0.12797576 -0.2830045 -0.09713998 0.06715701 0.32375133 0.04525366
0.18078007 -0.032612823 -0.98554647 0.020102922 -0.1756344 0.02442776 0.0812462 -0.34095725
0.15504819 -0.03345651 -0.22252977 0.0018876499 0.22830115 -0.20312057 0.11731167 -0.2082099
0.26617673 -0.027580062 0.11583863 0.039785758 -0.8069077 -0.42536142 0.06461276 -0.100463256
-0.71236557 0.088741735 7.323327e-05 -0.09363505 -0.26601425 0.12313056 -0.06560397 -0.62766063
-0.102238566 0.3588161 -0.027919209 0.02439003 -0.03159974 -0.048854377 -0.92286366 -0.0458463

net1.2.bias f4 [64]
00000000: a0a6 64bd 1125 5b3d eddf 9dbd e74a b8bd
00000010: 8ec3 fb3a 23cf 8dbc 2c85 ee3d 480d 96bd
00000020: f7a3 e6bd 4d69 b23d dff6 80bd 8a56 b13c
00000030: 5094 7ebd 6c23 bcbd 1fef d73d cecc 64be
00000040: 529e 413c fa33 e1bd 6fb1 d13d 2fee c9bd
00000050: 2fb0 40bd 9ce2 98bd 6212 8e3d 675a ddbd
00000060: 6f44 b9bd 438f 3cbe 8c70 723d 17a7 503d
00000070: 9313 09bd 760d cbbd 9bf6 93bd e065 403d
00000080: f8ad d1bd 7760 f139 6c10 ac3d 3cec 89bb
00000090: ba43 34bd 8a7e 88bd 16a4 1f3d cee0 55bd
000000a0: a366 2fbd f875 ddbc d40a acbd 588b c53c
000000b0: f6b6 6e3d 3318 0e3d fb53 d93d 5e32 08be
000000c0: 1092 60bc b781 4abc e4ba 0bbe 63a3 b03b
000000d0: aac8 72bd 87cc 13bd 13a1 d73d ec2e 9bbd
000000e0: d91c 2b3c df84 b5bd 9e32 13be 183a 2abe
000000f0: 8d07 a5bc d094 313d ddce c43d ab34 07be
-0.05582297 0.053502146 -0.07708726 -0.089986615 0.001920806 -0.017310685 0.11646494 -0.07326752
-0.112617426 0.08711491 -0.06297087 0.02164771 -0.06215316 -0.09186444 0.105436556 -0.22343752
0.011817532 -0.10996242 0.10238921 -0.09859883 -0.04704302 -0.07465097 0.069371 -0.108082585
-0.09046256 -0.18414025 0.059189364 0.0509406 -0.033465933 -0.09914677 -0.07224771 0.046972156
-0.1023826 0.00046038974 0.0840157 -0.0042090695 -0.0440099 -0.066647604 0.038974844 -0.052216344
-0.04282249 -0.027033791 -0.08400503 0.024114296 0.058279954 0.034691047 0.10611721 -0.13300464
-0.013706699 -0.012360028 -0.13645512 0.005390571 -0.0592734 -0.036083724 0.10528769 -0.07577309
0.01044389 -0.08863234 -0.14374778 -0.16623724 -0.020145202 0.04335481 0.096097685 -0.13203685

net1.4.weight f4 [1, 64]
00000000: 74ed c0be d4bb f3bd ca1d b93d 6961 65be
00000010: 9f9b b33e 9832 57ba 1756 06bf db04 e1be
00000020: 51d7 10bf 4355 43be f2a6 9ebe f17f bcbe
00000030: 1fb3 0f3e 12c0 6d3e a67f 4a3e c4b3 55bf
00000040: 5f33 003e f22b 03bf 4b07 9d3d b18f 76be
00000050: 641f d13e 86d5 8ebd f1b1 25be a462 2ebf
00000060: b257 7dbe 844b d73e ea1e 1dbe 8cbf 423e
00000070: d460 e73d 3fdf 933d 98c4 233e 686d 87be
00000080: 19ef 90be 2e49 e3be cf35 f83d 0c8c 3aba
00000090: 239c 43bf c306 d53d 63a8 5dbe 35ca 8fbe
000000a0: 7ebb 183e fc8e 73bf 4995 1b3e f826 5cba
000000b0: 5f99 803e 0886 7e3e 470b 0fbf 4e85 4a3d
000000c0: 5c59 85be c09f 38be 070e f73d 8a86 353e
000000d0: f64e 42bf c454 b0be b7d3 20be fe4b 2f3e
000000e0: faae fa3e 2c2a 52be d72a 6abe e9aa c63e
000000f0: 82d1 313e b84b a23d 689b 693e febe 31bf
-0.37681162 -0.1190106 0.09038885 -0.2240044 0.35079667 -0.0008209138 -0.5247511 -0.43949017
-0.56578547 -0.19075494 -0.30986744 -0.36816362 0.14033173 0.232178 0.19775257 -0.83477426
0.12519597 -0.5123893 0.07667407 -0.24078251 0.40844262 -0.0697432 -0.1618116 -0.68119264
-0.24740484 0.420498 -0.15343824 0.19018382 0.112977654 0.07220315 0.15992963 -0.26450658
-0.28307417 -0.4439177 0.12119638 -0.00071162055 -0.7641012 0.1040168 -0.21646266 -0.2808396
0.14915273 -0.9514005 0.15193667 -0.0008398141 0.25117013 0.24855816 -0.5587658 0.049443536
-0.26044738 -0.1802969 0.120632224 0.17727104 -0.75901735 -0.3443967 -0.15705763 0.17118832
0.48961622 -0.205239 -0.22867905 0.3880227 0.17365077 0.079245985 0.22813189 -0.69432056

net2.0.weight f4 [64, 20]
00000000: 5e0f d0bd d45c d63e 6de8 37be 6859 43bd
00000010: eac9 4dbe 7854 55bd 0ad8 4b3e 9b3d c43d
00000020: 1e6c 73be f1a2 e1bd ecfa 073d 03c9 a23d
00000030: c459 50be f405 14be e2e2 8cbe 4739 2cbf
00000040: 70f9 1bbc b01c 5ebe e4a6 5bbe 6e6a 413b
00000050: 7b93 373f f07f 51bd 581e 7dbd 48b8 e53d
00000060: c6bc 8a3d a03b 8a3d 5846 e3bd 2828 f8bd
00000070: 239c 0fbe 2750 5dbe a916 4a3e bb11 1bbe
00000080: 2f6c 333e c70e 203d f596 3ebe 6d75 843d
00000090: c840 d2bc a078 913c 88cc 29bd a101 a73d
000000a0: 431b 023e 238e a93e d2c0 19be df7f a8bd
000000b0: 356a bc3d b8a2 cabc 1fdb 66be 6fa9 84bc
000000c0: 234b 1b3d 1d21 1abd 1deb 85bd b5aa 233e
000000d0: 3570 8a3d 5fab 38bd 9c09 383e 85e7 05be
000000e0: 3ebe 4bbe 7443 963e 84b0 d8be e641 3dbe
000000f0: 4419 65bd 270b df3e 6094 b43d 72ba 32bc
00000100: d88f a1bd bc6d ba3d 52eb 3cbe a069 cd3d
00000110: e26b 483e ceba 37be 7ecc a8bd 7008 833d
00000120: 064c b93d 8e60 d7bd 096c f9be ab03 0ebe
00000130: 20bb 5c3e eede d1bd 4fcd 5c3e 19f1 63bd
00000140: 4909 993e 952f 0cbe 3110 3cbe caad 913d
00000150: 21d9 a1bc 7e16 9abd c4d0 04be 939c 333d
00000160: ef73 793d 9952 e53d 590a 6b3d 5603 1e3e
00000170: 920c bbbc 4d26 a23d d406 d23e bec0 ad3c
00000180: 8a91 8abd c068 6cbe 1e1c ce3e 9082 7dbc
00000190: 42ee 9cbe 996f 1e3e d0e1 703d 600a 44be
000001a0: b0e9 983e c079 3c3e 477e ab3d 1dda 27bd
000001b0: 3596 2c3e 0b43 163e 4c08 7fbc 5f94 463e
000001c0: cf81 4cbe db3b 67bb f90f 263e ffec 353e
000001d0: 88d3 3e3d 336c fb3b c238 0b3d f167 30be
000001e0: c1ca abbe 12bd 3abe cc4b a13d 9342 533d
000001f0: c76b d2bd b4ee d43d eb11 babc d127 ca3d
00000200: fc6f e93a ad6f a93d 3386 d8bd a846 453e
00000210: d7d0 b7bd c655 523e d255 abbe 5f7e 9a3e
00000220: e50e d5bd aca4 84be 9626 853e bf67 a9be
00000230: 8768 143f 7720 9cbe eee6 29be 1b5d b33e
00000240: 4e24 b5be 1009 bd3d 703d a53d 8e3c aa3d
00000250: 02b3 c33d 0671 833d a381 e8bc 113e 2cbc
00000260: a2dc 93be e217 87be 8a4a 7ebd c193 423d
00000270: 7a1f 143e ee4b 893e 4b32 abbd 3737 6e3d
00000280: 019e 4f3e 73f1 ddbd 9075 ba3c 25c4 ee3e
00000290: 5b3b 11be d0f7 80bd 6443 cd3d d66a fabd
000002a0: 51d7 243e 99a2 0a3e 345f d3bd ab86 5d3d
000002b0: b2bc 8a3d 01f6 623e efe5 153f 1b8a 173f
000002c0: 48c1 09be 6de9 e63c da83 3b3d 8534 193e
000002d0: 306b 83be 81a5 d3bd 5c80 40be 8244 133e
000002e0: 92cd 44bc 8093 45bd e9da 853d c7f1 503e
000002f0: 20af 9cbc 6742 433d ab65 c83b 71fc d6bd
00000300: 0774 6d3e 1f11 abbd c49f a7bc 8957 db3c
00000310: 70ed 52be c3b3 10be 2194 35bc ca09 6b3d
00000320: 7614 723e 2bf7 5cbc 503e 3cbc 5575 5fbe
00000330: 0f21 14be 44da e83d d6e5 4fbd b2f3 21be
00000340: 8998 c1bd 9dc3 cabd c8f4 f33c d240 013e
00000350: 4669 4bbd 1f0e fc3d dff7 ba3d 5711 db3d
00000360: dcc3 b53d 5fc2 92bf 659f 6b3e 5c0a 98bf
00000370: b03d 70be 9780 cbbe b6c1 87bd a5d2 d8be
00000380: c752 d7be 18a6 333e 6183 5a3e 5371 63be
00000390: ee4b 4abb 31a2 03be 6dbe 183c 6dff 46bd
000003a0: 10f6 113d b1a9 283e 0777 c3be 9de4 1d3e
000003b0: f2f6 423e c3bf 3a3e fb6b 98be 6527 1bbf
000003c0: ba8b 4c3e ef0d c2bd 50a1 c6bc d44a 463d
000003d0: 2f58 99be 4284 bdbd ea49 2cbd 8d99 c63d
000003e0: 2c46 973c ec70 5bbe 1351 97bd 091c 803b
000003f0: da7a 40be 1268 583e e26c aa3e aa74 0cbf
-0.10159181 0.41867697 -0.17959757 -0.047692686 -0.20096555 -0.05208251 0.19906631 0.09582063
-0.23771712 -0.11017407 0.033198282 0.07948496 -0.20346743 -0.14455396 -0.27516848 -0.672749
-0.00951992 -0.21690631 -0.21450382 0.00295129 0.7170941 -0.0511474 -0.061796516 0.112167895
0.06774287 0.06749654 -0.110974014 -0.12117034 -0.14024405 -0.21612607 0.19735207 -0.15143482
0.17521738 0.039076593 -0.18612273 0.0646771 -0.025665656 0.017757714 -0.04145482 0.081546076
0.12705712 0.33116254 -0.15014961 -0.082275145 0.09199945 -0.024735793 -0.22544526 -0.016194073
0.037913453 -0.037629236 -0.06538985 0.15983088 0.06759683 -0.045085307 0.17972416 -0.13076599
-0.1989679 0.29348338 -0.4232217 -0.1848217 -0.0559323 0.43563196 0.08817363 -0.01090871
-0.07888764 0.091029614 -0.18449143 0.10029912 0.19572404 -0.17942354 -0.08242129 0.06398094
0.090477034 -0.10516463 -0.48715237 -0.13868587 0.21555758 -0.102475986 0.21562694 -0.05564985
0.29889897 -0.13690026 -0.18365552 0.07113226 -0.019756855 -0.07523821 -0.12970263 0.043850493
0.06090158 0.11197395 0.057382915 0.1543096 -0.022833142 0.079174615 0.41020834 0.02121007
-0.067660406 -0.23086834 0.40255827 -0.015473023 -0.30650526 0.15472259 0.0588091 -0.19144583
0.2986579 0.18405819 0.08373695 -0.040979493 0.16854174 0.14674012 -0.015565943 0.19392537
-0.19971393 -0.003528348 0.1621703 0.17766188 0.04658845 0.0076728105 0.033989675 -0.1722715
-0.33553126 -0.18236187 0.07875785 0.051577162 -0.10274463 0.103970915 -0.022713622 0.098708756
0.0017809863 0.082732536 -0.105724715 0.19265234 -0.0897538 0.20540532 -0.33463913 0.30174538
-0.104032315 -0.25906885 0.26006 -0.33086964 0.57971996 -0.3049352 -0.16591999 0.3503197
-0.3537926 0.09230244 0.08068359 0.08312331 0.095556274 0.06418042 -0.028382128 -0.010512845
-0.28879267 -0.2638541 -0.062082805 0.04750419 0.14465132 0.26815742 -0.08359202 0.058158126
0.20275117 -0.108370684 0.022761136 0.4663402 -0.14182799 -0.062972665 0.10022619 -0.122274086
0.16097762 0.13538589 -0.10320893 0.054083508 0.06774272 0.22164156 0.58553976 0.5919511
-0.13452637 0.028187478 0.04578004 0.14961441 -0.25667715 -0.10334302 -0.18798965 0.14381602
-0.012011902 -0.04823637 0.065358944 0.2040473 -0.019126475 0.047670748 0.0061156354 -0.10497368
0.23188792 -0.08352875 -0.020461924 0.026775138 -0.20598388 -0.14131074 -0.01108268 0.057382382
0.23640618 -0.013486664 -0.011489466 -0.21822102 -0.14465736 0.11369756 -0.050756298 -0.15815619
-0.09452922 -0.099005915 0.029779807 0.12622383 -0.049660943 0.12307381 0.09129309 0.10696667
0.08875248 -1.1465567 0.23010023 -1.1878161 -0.23461032 -0.39746544 -0.06628744 -0.4234821
-0.42055342 0.17543828 0.2133918 -0.22211199 -0.0030868012 -0.1285484 0.009322745 -0.048583437
0.035635054 0.16470982 -0.38176748 0.1541924 0.19039515 0.18237214 -0.29769883 -0.60606986
0.19975176 -0.09475314 -0.024246842 0.048411205 -0.2995009 -0.09253742 -0.042062677 0.09697256
0.018466078 -0.21429795 -0.073885106 0.003909592 -0.18796864 0.2113345 0.33286196 -0.54865515

net2.0.bias f4 [64]
00000000: c5c3 313e d414 e43d 8a46 33be 5dcd 453c
00000010: 3408 5cbb c6ba 00be a9a3 4abe fe16 23bd
00000020: 9b1c 10be e380 3f3e 6c56 5bbd b365 e8bd
00000030: 3dd8 2c3d 1da3 09be b0a6 06be fa46 e73d
00000040: fe90 a7ba 79d8 eb3d d0ca 9abd 1fd0 b83c
00000050: 3046 dc3d 7d99 27be d5bf 40be 9010 04be
00000060: 8c4d e1bc 0265 8a3e 6825 d83a 5a0c c0bc
00000070: 79d0 b5bd e26b 11be f9b5 8a3e f3d1 45be
00000080: 096f 283e c445 1cbe 1344 723d b376 5a3c
00000090: 5d2f 943d ba67 893d e063 0a3e 775b 8e3c
000000a0: 0670 473e fc8d 66be c929 b33d 59ef 87be
000000b0: 5118 c5bd a60b 2fbe 4e76 d0bb 0a5c 663d
000000c0: 98b2 5c3e 7381 52be 6dca fc3d b956 813c
000000d0: 7ecc 433e 8206 363e 98c8 e03c 1c18 91bd
000000e0: 5315 7abe b814 7ebd 5738 ec3d 8a8d f33b
000000f0: aacf f0bc 3b7d 2ebe 58fe 203e 1b7e 1f3e
0.17359836 0.11136785 -0.17507377 0.012072888 -0.0033574225 -0.12571248 -0.19788994 -0.03981685
-0.14073412 0.1870151 -0.053549215 -0.113475226 0.04219841 -0.13441129 -0.13149524 0.112928346
-0.00127843 0.11515898 -0.07558215 0.022560177 0.10755575 -0.16367145 -0.18823178 -0.12896943
-0.027502798 0.27030188 0.001649064 -0.02344339 -0.08877654 -0.1420131 0.2709196 -0.1931837
0.16448607 -0.15260988 0.059146952 0.013333964 0.07235596 0.067092374 0.13514662 0.017377598
0.19476327 -0.225151 0.08748204 -0.26549795 -0.096237786 -0.17094287 -0.0063617593 0.05624012
0.21552503 -0.20557193 0.12343297 0.015788423 0.19120976 0.1777592 0.0274394 -0.070846766
-0.24422197 -0.062031478 0.115341835 0.0074326443 -0.029395897 -0.17039959 0.15722024 0.15575449

net2.2.weight f4 [64, 64]
00000000: 5b17 503c a232 95be 4f4f 173e 16ad a5bd
00000010: 2274 093e c22d e53c c51b e1be c11f 61be
00000020: c28e 9cbe 6cff d4bd bbef 5dbe b884 58bc
00000030: 3ac8 cc3e 235a 66bd b3af 26bf 66f7 8f3d
00000040: 2356 6fbe 6ec2 7dbe 188d b73d edac 8bbe
00000050: 6d71 9bbe 3a4f 09bf 874a 0abd 6f39 e2be
00000060: 39be e23d 8ee4 ca3d 092e 5d3e f5be af3b
00000070: ab3a 143e da66 a6be dde2 59bd c183 e1bd
00000080: 1f5d 7abe a96c 69be 84c7 6b3e ccd0 31bd
00000090: 8286 2f3e 190c 813d 0fdf 2ebe 8288 8abc
000000a0: a006 8fbe c470 c23e 68f5 b83d 2ee3 bdbd
000000b0: 222b 833d 550e 94be 98bf 813c 8176 c7bd
000000c0: 4d4e 133d 0d76 5d3e c5f3 2bbe b840 d23b
000000d0: f5f7 043e 3bb8 f73d 39b8 01bd 92c5 ec3e
000000e0: fdfd 0f3e ab88 8c3e f465 443d b6d0 d23c
000000f0: 6516 f03d be06 81be f284 003d 1adb 1cbe
00000100: 98a2 80be 38be 1c3d e0f1 a43d a54e 94be
00000110: fc31 95be 061f ad3c a80b 903b 5fa7 383d
00000120: 53c9 30be dd8a 1dbe 2069 cfbe ee8a 973e
00000130: ba9d 8a3d 951d ac3e 1fd3 083e 77d4 2f3e
00000140: bb13 86bb e86c 823e 7911 b8be 43b3 9a3e
00000150: eceb e6be bb49 08be a721 3cbe 72eb 683e
00000160: 2807 a7be 6b26 ad3c f916 8a3d 3040 883d
00000170: a465 9abe 7211 cbbe 26f0 9bbe a473 8f3d
00000180: 32ae a1bb 1dfd 2cbe 1876 31bc 402a 803f
00000190: 0875 1e3e 2ebd dfbb c541 d13f 2176 7ebd
000001a0: dea4 f93f 9fe7 213e 2468 a0bd e157 04be
000001b0: 4ed5 173b c856 26be fc35 ac3d fb71 61be
000001c0: 4e7d 3ebf 264d ca3d 3002 63be 2617 243a
000001d0: 40e6 eebd 960d aebe b249 163e f075 a6bc
000001e0: 67b5 f63d 2a81 673e 889e 913e d96d 52be
000001f0: 2ac1 16bd 01db bf3e ba77 2e3e 528f 9640
00000200: 647f 07bd 5a25 ccbd 8b1b 06be a1d1 ffbd
00000210: 821f 2bbe 83c6 afbd 56b8 083e f0e0 2b3d
00000220: d769 05bd 59de 7b3d 69ce 75bd d8a8 843d
00000230: c205 0c3e 311f 323e 2d30 263e 1c75 06be
00000240: ba23 f53d 0e9f 17be beb3 3a3c 70f3 9f3e
00000250: 0cee 0dbe 4367 bd3d 983b bebc e57b bf3e
00000260: d881 b1bd a1e4 8c3d 3c4f d53c c44e 7abd
00000270: 41e1 7bbe e2e9 c8bd a56e 2fbe 4fd6 23be
00000280: d595 fd3d a7c9 5a3d 02c1 f53d 9013 103e
00000290: 9d58 1abe 626f 2c3d 9469 9ebc 1d65 26be
000002a0: c5b0 fcbd 70ea 1dbc ec8e bfbd eab2 ecbc
000002b0: a8e3 c4bd 7d52 7f3d 7d2e f2bd d23c b5bd
000002c0: 3b0a 95be c1c6 b0bd 3072 f1bd f282 05be
000002d0: 6846 813d 5e09 b13b 8974 05be 9ae4 913d
000002e0: b683 9f3d fc8f 183e 44e1 1c3e d14f 213d
000002f0: 1b31 593d fd5b ae3c 61e3 193e a89f 11be
00000300: 5b2b 8d3c b6f5 a93d 768b c03c aaf5 27be
00000310: 66b6 263d 03d0 093d 6358 9ebd 558d 623c
00000320: 7a95 e0bc 466d cebc df88 7ebc a408 b33c
00000330: 9e00 8f3e 2b80 b93d d914 5fbe 500f 593d
00000340: 9e2a 5e3d e4a9 2dbe efc5 47bd 6479 a03d
00000350: e333 f9bc 29ae 29be 24b4 bb3d c342 893e
00000360: 4ae3 743c c7b1 953d 3cd8 96bd 3acc a1bd
00000370: 062e b739 5115 1ebe 8cf6 f0bd e4b1 9d3b
00000380: c101 8cbc 87e9 c73c e2f7 8b3e 9db7 88bd
00000390: 29d0 7cbe b977 0f3e cc6d c6bd b646 303e
000003a0: 4541 703c e1fa 0abd 1125 0b3e 3d5f b63d
000003b0: e4df 203e c803 bfbc 7476 34be f208 a83e
000003c0: 1038 58bd 6e34 223d 4ef2 acbe 337a 1ebe
000003d0: 28d8 403e de46 adbc b686 673c 6fe9 583d
000003e0: ab10 603e 17cd 953e 962a 9d3d d147 17be
000003f0: 8fd9 f4bd 4d73 86be c8a3 94bd d88d 08be
0.012700881 -0.29140192 0.14776348 -0.08089654 0.13423207 0.02797592 -0.439665 -0.2198477
-0.30577666 -0.1040028 -0.21673481 -0.013215236 0.3999651 -0.056238305 -0.65111846 0.070296094
-0.23372702 -0.247812 0.08962458 -0.2728037 -0.30359975 -0.53636515 -0.03376248 -0.44184443
0.11071438 0.099068746 0.21599592 0.00536334 0.14475505 -0.32500345 -0.05319487 -0.11011458
-0.24449585 -0.22795357 0.23025328 -0.043412015 0.17141154 0.063011356 -0.17077278 -0.016910795
-0.27934742 0.37976658 0.090311825 -0.09271847 0.06404711 -0.28917184 0.01583843 -0.097394
0.035963345 0.21627064 -0.1679221 0.0064164065 0.12985213 0.12095686 -0.03166983 0.46244484
0.14061733 0.2744802 0.047948793 0.025734287 0.117230214 -0.25200456 0.031376787 -0.15317956
-0.2512405 0.038267344 0.080539465 -0.2896625 -0.29139698 0.021132957 0.004395921 0.045081493
-0.17264299 -0.15385003 -0.40509892 0.29598182 0.06768365 0.3361632 0.13361786 0.17170893
-0.0040917075 0.25473714 -0.3595083 0.3021489 -0.4510187 -0.13309376 -0.18372212 0.22746065
-0.32622647 0.021136483 0.06742663 0.06652868 -0.3015567 -0.39661747 -0.30456656 0.070044786
-0.004934096 -0.1689343 -0.010831378 1.0012894 0.15474331 -0.006827972 1.6348196 -0.062124375
1.9503438 0.15811013 -0.07832363 -0.12924148 0.002316791 -0.16244042 0.08408734 -0.22016136
-0.7440995 0.09877996 -0.22168803 0.0006259553 -0.116650105 -0.3399474 0.1467655 -0.020319909
0.120463185 0.22607866 0.28441262 -0.20549716 -0.03680531 0.37471774 0.1703786 4.704995
-0.033080474 -0.09968062 -0.13096444 -0.124911554 -0.16711238 -0.08582785 0.13351569 0.041962564
-0.03257164 0.061491344 -0.0600113 0.06477517 0.13674071 0.17394711 0.16229315 -0.13130611
0.11969705 -0.14806768 0.011395393 0.31240416 -0.13860339 0.09248211 -0.023221776 0.37399212
-0.08667344 0.06879545 0.026038758 -0.061110273 -0.24597646 -0.098102346 -0.17132051 -0.15999721
0.12382094 0.053414967 0.11999704 0.14069963 -0.15072866 0.04209841 -0.019337453 -0.16249509
-0.123384036 -0.009638414 -0.09353432 -0.028893907 -0.096137345 0.062334526 -0.11825273 -0.08849491
-0.29109368 -0.08631659 -0.11789358 -0.13038233 0.06312257 0.005402728 -0.13032736 0.071236804
0.07788794 0.14898676 0.15320307 0.03938276 0.053025346 0.021284098 0.15028144 -0.1422106
0.017232588 0.08298819 0.023504 -0.16402307 0.040701292 0.03364564 -0.07731702 0.0138276415
-0.027415026 -0.02519859 -0.015535562 0.021854706 0.27930158 0.09057649 -0.21785296 0.05299312
0.05423986 -0.1695934 -0.04877275 0.078356534 -0.03042025 -0.16570343 0.091652185 0.26808748
0.014946768 0.07309299 -0.07365462 -0.07900281 0.0003493877 -0.15437819 -0.11765775 0.004812466
-0.01709068 0.024403347 0.27337557 -0.066756465 -0.24688782 0.14010514 -0.09688911 0.17214474
0.014663999 -0.033930663 0.13588358 0.08904884 0.15710407 -0.023317233 -0.17623311 0.32819325
-0.05278784 0.039600782 -0.33778614 -0.15476303 0.18832457 -0.021151956 0.014131239 0.052956995
0.21881358 0.29258034 0.07674138 -0.1477349 -0.119555585 -0.26259843 -0.07257801 -0.13335359

net2.2.bias f4 [64]
00000000: 0956 a9bd 5deb bbbd c882 febd 0b11 823d
00000010: 66ec f33d 1ae5 f4bd 6cfa 003e 293f c9bc
00000020: 4b65 c8bc 46d6 f5bc 01bc 03bd e669 d0bd
00000030: adb7 393d 9504 913c 22c2 963c 86aa 92bd
00000040: 02d5 ae3c 035b 843d dc16 08bd 8904 d33c
00000050: 3870 4c3d 5824 93bd 1113 9ebd 9383 b43d
00000060: 2e22 593c 5c06 283d d5df f83c 7084 b6bd
00000070: 0328 9cbc 83d9 2abc dc00 9e3d 36d5 54bd
00000080: dadd 89bd ec15 4ebb 83c1 df3d 8213 003e
00000090: 8c77 923d 0a3c df3d c8a5 663d 7051 aebc
000000a0: 00c4 05bd af55 13bd 8878 6dbe 4c2e aa3d
000000b0: 05d5 ca3d e1e9 08bd d66e a8bd f502 cebd
000000c0: c636 adbd 4834 38bd 57c4 8b3d d647 6dbc
000000d0: ba58 0fbe d028 9e3d 8171 e0bd 5553 003d
000000e0: d854 18bd 49eb 30bd f469 df3d 6673 cb3d
000000f0: fd94 b4bc 58f9 e13d b520 813d 5064 e7bd
-0.08268363 -0.09175751 -0.12427288 0.06350907 0.11910324 -0.1195776 0.12595528 -0.02456625
-0.024462363 -0.0300094 -0.032161716 -0.101764485 0.045341183 0.01770238 0.018403117 -0.07161431
0.021341804 0.064626716 -0.033224925 0.025758998 0.049911708 -0.071846664 -0.077184804 0.08814158
0.013252778 0.04102169 0.030380169 -0.08911979 -0.019062048 -0.010427835 0.07715008 -0.051961146
-0.06731768 -0.0031446172 0.10925581 0.12507442 0.07151708 0.109001234 0.056310445 -0.021279067
-0.032657623 -0.035970386 -0.2319051 0.08309612 0.099039115 -0.03342617 -0.08224265 -0.10059158
-0.08457713 -0.044971734 0.06824558 -0.014482459 -0.1399869 0.07722628 -0.10959149 0.03132947
-0.03719029 -0.043193135 0.10908881 0.0993412 -0.0220437 0.11033887 0.063050665 -0.1129843

net2.4.weight f4 [1, 64]
00000000: b1a0 50be 9f3e 8ebf 507f e83d cc55 cb3d
00000010: 4a45 5bbe 60d6 84be b520 dabe 1313 c73d
00000020: 5dda d63d e9ba 863e 43fc 0dbf d618 3fbf
00000030: e8ba acbe d220 cfba 5816 483e c8aa a2bf
00000040: a64a c3bd d17b 093e 3546 acbe 5945 0d3e
00000050: 47ca 59be 474e 913e c395 a83d fc73 4c39
00000060: 1fb2 5a3e b1d2 03bf 8240 d33d f578 8c3e
00000070: b838 e73d 09f3 c93c 05c4 fb3d f65f 44bf
00000080: fc66 953d e130 b53c 93a6 89be d835 793e
00000090: ddef b5be 3add e239 eb10 d23d 5120 603e
000000a0: 6956 d43d c2d9 edbe 2fd5 ebbe 225d 303e
000000b0: 71af 09be e031 10bf 7d8c 3cbe c1e0 973a
000000c0: a5d7 dc3d 045f ad3e b994 013d da1c 6a3e
000000d0: e7c5 33bf 98ad 553e 8aab 00bf bd69 2b3d
000000e0: fd9f a8be c31d 6cbe 9f78 c2be df23 7e3e
000000f0: e40d 773e f195 bbbe 5287 413d 2dc9 653a
-0.20373799 -1.111286 0.11352408 0.09928474 -0.2141315 -0.25944805 -0.42603078 0.09720435
0.10490868 0.26314476 -0.55463046 -0.7464727 -0.33736348 -0.0015802628 0.19539773 -1.2708368
-0.095357224 0.13426138 -0.33647314 0.13795985 -0.21268569 0.28380033 0.0823169 0.00019498164
0.2135701 -0.51493365 0.10315038 0.27436033 0.11290115 0.024652021 0.12293247 -0.76708925
0.07295033 0.022118034 -0.268849 0.24336946 -0.35534564 0.00043270906 0.10257133 0.21887328
0.10368044 -0.464552 -0.46061084 0.17223027 -0.13445832 -0.56326103 -0.18412967 0.0011587368
0.107833184 0.33861554 0.031635974 0.22862568 -0.7022385 0.20867002 -0.5026175 0.041848887
-0.3293456 -0.23058228 -0.37982652 0.24818371 0.24126393 -0.36637834 0.047248192 0.0008765634
