log/GC_SAC/maze3Env/20210818-1211/GC_SAC_HER_actor.pth (torch_old, 25959 bytes, 6 tensors)

net.0.weight f4 [64, 25]
00000000: 2d43 763e 2c89 1bbe 5bd3 36be 6b63 10bd
00000010: 1256 2ebe b658 f23d 1ed4 92bd b6c3 f93d
00000020: e188 cfbd 9237 b7be a03d 3e3c 10c2 953c
00000030: 1f10 7a3e a389 bb3e 1a30 bf3d 4c3d 373d
00000040: df6e 583b 0d16 48be d6c2 d8bd b063 60be
00000050: 0b1c 82bd 1a76 b33d 25d5 143e 6be1 45be
00000060: 5da3 babd a740 b33c 2a3c 30be f626 a33d
00000070: 54f3 b73d 0cbc fc3d 35af 143e fe46 67be
00000080: 3c97 be3d a421 923e 8bf2 93be 37d1 b5be
00000090: 879b 57bd 602b 00be db32 2c3e 4d19 dcbc
000000a0: 4b10 1a3e 8e5d 98be 702f 613e 7a33 dd3d
000000b0: 49b7 633e 2e09 d03d 43a5 6e3e de9a 20be
000000c0: aeb1 05be 608a 99bb 4b95 74ba 6a4a afba
000000d0: 6087 febd a3b5 bb3d 66aa 3ebc 8747 463e
000000e0: 0a83 22be a50e 62bd 86ff 3a3d 39ea 66be
000000f0: 12d0 773e caaf 2f3e d9f1 f83d d32e d0bd
00000100: 4f0f 9abe 9817 8abe 3124 30bc 53f4 203e
00000110: 637c 7d3e 5fa3 c73c 4258 263e d6ac 7bbe
00000120: 40de c3be fe0c e63e 3a6a ee3d ace6 203d
00000130: 91ea 353e 80aa 15bd 5cca 04be 82dc f7bb
00000140: 5876 08bd c2e9 27be e21e 193e c9bd c83d
00000150: 43fb c63d d342 51be 18ce f63b 9b59 143e
00000160: 0fe7 16be 3552 5abe c390 7dbb 5bf4 65bd
00000170: 8248 523e 4f2d b53d a756 9e3d 514c cbbd
00000180: 265c 9f3d 7603 773e b446 3c3f e95f 3f3e
00000190: 6444 2b3e 70eb 893d bfd6 1e3e d951 2b3d
000001a0: 192a 2b3e 0bff 443e df1f bf3d be9e fbba
000001b0: 33e0 77be 9d45 8abd d4ac 623e 5d0e 903d
000001c0: 7351 0bbe 0383 303e 17f0 43be e04b 94bd
000001d0: aa1c eebe 6418 25be 9290 41bd d54d 82bd
000001e0: f5d9 83bd 6789 523e 3c21 d8be da95 f5be
000001f0: 7a52 b4bd bbf7 8ebc e086 823d b4ab 0c3d
00000200: a599 a43d 11a1 4f3c fefa e73d 84ad 0d3e
00000210: b3b0 bebe b369 3abe a176 8abe df8f adbe
00000220: 7805 4a3c 5ff0 073f 86d5 533e 9e67 2b3c
00000230: efec e9bd d8e6 3cbd 9239 953d 1641 6fbd
00000240: bc79 a4bd 3384 2ebe 6939 a43d b309 8cbd
00000250: 5dd3 16bf 5a63 bdbd ea50 973e b627 723b
00000260: f8fd 04be d4ee f6bd 8b88 583d 000a cfb9
00000270: 4d63 9cbd 1480 5a3e 34e4 1c38 f709 303e
00000280: 4f01 6cbc 2b87 473c eac8 9a3e 9836 c93d
00000290: 3308 1cbe 8534 413c 58ac 933d 31ab dabe
000002a0: b403 0ebf b963 fdbe 25b0 d1be 2826 c6be
000002b0: d983 253e 3331 673e 3e2a eb3d 30fc 873e
000002c0: ab1b 86be f23a 25be 5de7 213e acfe e8bd
000002d0: 9def 403e ab1c b1be 53a9 8dbe 5dab 813a
000002e0: 2fc5 c3bd e109 23be 2093 6cbe fc9b a8be
000002f0: df44 4abe 7c83 8b3e 44dc 633e 0836 ae3d
00000300: 0f88 f3bd 87d8 aabd 7476 b03d 05de d53d
00000310: 774b 513e ac28 f63e 884e a7ba 1865 04bd
00000320: 680f e4bd 3393 d2bd 9281 ca3d 0294 453e
00000330: e26c 0cbe d0cd 293c dcee 243e 81e5 04be
00000340: d7af 3abd 061e d8bd 92e9 4bbd a515 04be
00000350: 38e0 00be c035 933d a582 9f3d ae02 bc3c
00000360: 1bcf 8e3e e7b6 863e 54b5 0bbe 638b 503e
00000370: 1ed3 74be f441 a83d 2917 b83e 87ce e83e
00000380: 8254 35be 4738 2c3d 2da6 5dbe c060 f73b
00000390: 1bdd 643d 12ed 013d 8741 45be 5b90 143e
000003a0: 5f6a 5dbd c4c6 463d fd3b 6c3e bfb3 b4be
000003b0: 6bf5 57bd dc25 7e3e acfb 543e 51b1 b03b
000003c0: b95e 603c 3972 f7bc 50fe 603e 780b c2be
000003d0: 769f 27bd 7f29 a0bc 71d8 483e 91d0 79be
000003e0: f0ce 0bbf adf9 9abd 5b75 3a3e 6087 b5bb
000003f0: 82ca c63d ece5 a43b 6e62 d3bd 5020 ecbd
0.24049063 -0.15189046 -0.17854063 -0.035251062 -0.1702502 0.118333265 -0.071693644 0.12195532
-0.101335295 -0.35784584 0.011611372 0.018281013 0.24420212 0.36628446 0.093353465 0.04473619
0.0033025069 -0.19539662 -0.10584037 -0.21913028 -0.06353005 0.087627605 0.14534433 -0.19324271
-0.0911319 0.021881415 -0.17210451 0.079664156 0.08981958 0.123405546 0.14519961 -0.22585675
0.093061894 0.2854129 -0.28895983 -0.3551118 -0.052638557 -0.12516546 0.16816275 -0.026867533
0.15045278 -0.29758877 0.21990752 0.10800834 0.22237886 0.10158001 0.2330523 -0.15684077
-0.1305606 -0.004685685 -0.0009330108 -0.0013373618 -0.124281645 0.09165504 -0.011637306 0.19363223
-0.158703 -0.055189747 0.045653842 -0.22550286 0.24200466 0.17156902 0.12155504 -0.10165181
-0.30089805 -0.26971126 -0.010750816 0.15718202 0.24754481 0.024369894 0.16244605 -0.2457765
-0.382555 0.44931787 0.11641355 0.039282486 0.17765261 -0.036539555 -0.12967819 -0.0075641284
-0.033315986 -0.16397765 0.14953187 0.09801824 0.09715893 -0.20435648 0.0075318925 0.14487307
-0.1473658 -0.21320422 -0.003869102 -0.05614124 0.20535472 0.088465326 0.077313714 -0.099266656
0.07781248 0.24122414 0.73545384 0.1868893 0.16725308 0.06734359 0.15511607 0.041826103
0.16715278 0.19237916 0.09332251 -0.0019197089 -0.24206619 -0.06751559 0.22136241 0.070339896
-0.13605289 0.17237477 -0.19134556 -0.072410345 -0.46506244 -0.16122586 -0.047257014 -0.063625015
-0.064380564 0.20560227 -0.42212856 -0.4796589 -0.08804794 -0.017452111 0.063733816 0.034343436
0.08037118 0.012672679 0.1132717 0.13835722 -0.37244186 -0.18204384 -0.27043632 -0.33898827
0.012330405 0.5310115 0.20686921 0.010461716 -0.114221446 -0.046118587 0.07286371 -0.05841168
-0.080310315 -0.17042617 0.080187626 -0.068377875 -0.58916265 -0.092474654 0.2955392 0.003694994
-0.12987506 -0.120572716 0.052864593 -0.00039489567 -0.076361276 0.2133792 3.740583e-05 0.17191301
-0.014404609 0.012178223 0.3023141 0.09824866 -0.15237503 0.011792307 0.07210606 -0.42708734
-0.554744 -0.49490145 -0.409547 -0.38700986 0.16163577 0.22577362 0.114826664 0.2655959
-0.26192984 -0.16135767 0.15810914 -0.113767 0.18841405 -0.34592184 -0.27668247 0.0009892989
-0.09559094 -0.15921737 -0.23102999 -0.32931507 -0.19752835 0.27248752 0.22251993 0.085063994
-0.118911855 -0.083420806 0.08616343 0.104427375 0.20438944 0.48077905 -0.0012764493 -0.032322973
-0.11135751 -0.10281982 0.09887995 0.19294742 -0.1371341 0.010364011 0.16106743 -0.12978174
-0.04557785 -0.105526015 -0.049783297 -0.12898882 -0.12585533 0.071879864 0.0778859 0.022950497
0.27892384 0.26311418 -0.1364339 0.20365672 -0.2390866 0.082157046 0.3595517 0.45470068
-0.17708018 0.042045858 -0.21645422 0.0075493753 0.055874925 0.03172023 -0.19263278 0.14508192
-0.05405652 0.0485294 0.23069759 -0.35293385 -0.052724283 0.2481913 0.2079913 0.0053922315
0.013694459 -0.030205833 0.21972013 -0.37899375 -0.04092356 -0.019551037 0.19613816 -0.24395968
-0.54612637 -0.07567153 0.1820883 -0.0055398196 0.09706594 0.0050322916 -0.10321508 -0.115296006

net.0.bias f4 [64]
00000000: 07c2 073e 9dcc f63d b721 f6bc 97d2 2abe
00000010: 1201 6d3e e81d 61bd 08b1 b6bd 970b 83bd
00000020: 2a74 15be 7d9b 953d 52aa 143e e135 49be
00000030: 867d 083e bee0 a93d d0dc f3bc ea57 4dba
00000040: 6a42 a23e 1f11 babd 53da 933d fe7c 8cbd
00000050: 102c 873d 4aab 43bd be2f b33d ce27 263e
00000060: b250 2c3e 88a4 88bd fff5 a93c a6a1 8f3d
00000070: 64e5 063d b0a9 8fba 2c2f 16be 4b21 8abd
00000080: f40a 34be cb12 153d ab57 05be d62e ea3c
00000090: d127 ef3d c1c6 15bd 9148 e4bd 7bf9 e8bd
000000a0: ddaa 05bd 9e20 c7bd 1439 49bd 275a cabd
000000b0: 1201 7bbd f738 8d3c b936 6fbd c9ca cb3d
000000c0: 4555 f3bd 8350 753e 9f39 493e 55c7 7b3c
000000d0: 95bc 75bc e2af 903d f541 53be ae56 22be
000000e0: 9b30 13bc 4080 8dbd 8081 523d b7a7 cd3d
000000f0: cde2 19be 7c28 2b3c 4d8f 04be 7f70 6abd
0.1325761 0.12050746 -0.030045373 -0.16681896 0.2314494 -0.05496016 -0.08920485 -0.06398695
-0.14595094 0.07305048 0.14518097 -0.1964946 0.13329133 0.08294819 -0.029768378 -0.00078332296
0.31691295 -0.09085297 0.072193764 -0.06859778 0.06600201 -0.047770776 0.087493405 0.16226122
0.16827658 -0.06672007 0.020747183 0.07013254 0.032933608 -0.0010960605 -0.14666432 -0.067446314
-0.17582303 0.036394875 -0.13021724 0.028586786 0.11677516 -0.0365665 -0.111466534 -0.113757096
-0.03263365 -0.09723018 -0.0491267 -0.098804764 -0.061280318 0.017239077 -0.058401797 0.099507876
-0.11881498 0.23956494 0.19650887 0.015367349 -0.014998575 0.07064797 -0.2063063 -0.15853378
-0.008983756 -0.06909227 0.051393032 0.10041755 -0.15027924 0.010446664 -0.1294529 -0.05723619

net.2.weight f4 [64, 64]
00000000: 2120 033e e0a7 873d 993d 583e e0a6 673e
00000010: 2866 d3be 61cd f13d 9c40 0bbe 0e9b debd
00000020: c4b8 90bc beb1 da3d 2d1b 53be ea46 b3bd
00000030: 48e4 5d3d 6f1b 04be 0e3e ca3e 4acc eabd
00000040: 5791 f6be cd81 183e 3d0b 0dbf 8184 bf3b
00000050: d151 863d 32b9 b13d d289 d33e 0997 97bd
00000060: 4315 303d 2aa0 16be b040 00bf b9d4 06bf
00000070: a218 74bd 4fa8 29bc 9e22 7e3d 8099 5a3b
00000080: 9674 4ebe f71e 433e c8cc 5cbf 7b83 c2bc
00000090: d6a4 903d c10b 3a3e 39fe 62be 48fe 2c3d
000000a0: f5a1 9cbe ee24 8c3e 0ccd 493d 489e fcbe
000000b0: 65aa b4bd 6c77 87be 8148 40be 8867 4f3b
000000c0: 75a0 a9bd 0173 62be a1fa 603d a1a9 45bd
000000d0: 987f 42bd e81d 49be 43d3 033e 0cb2 463e
000000e0: 442e 33be 93cb f13c bab5 933d 7e66 4e3c
000000f0: 93bd a13d 937a 48bd 621b 563b 13e3 34be
00000100: c6b8 b6bb 9e41 e93d 7498 993d 63f3 4bbe
00000110: f907 c33d 1d3e aabd 7b90 9cbc e60e 723d
00000120: 4410 0e3e 75e2 a8bd 86dd 85be 4379 b8bd
00000130: dde8 193c d63d 62be 8c8c 81be d1fc 01be
00000140: 46bf efbd 1523 593d 8bc5 f4bc 2b1a ffbd
00000150: 62b2 cd3d 4ac7 10be a77a 1d3e f3a3 003e
00000160: 6717 313e 4888 49be bb2d 7b3e 21bd bebe
00000170: ea92 3cbd baca 59bd 3000 0d3e 9005 28bd
00000180: 243d 8ebd ac33 073e 039d 15bc 6506 a1bd
00000190: 2c44 333d f5b0 c63d 591c f33d a730 c3bd
000001a0: 383e b73d ce89 753e 20df b9bb 26d0 9b3c
000001b0: c57b 07bf c115 313d 673d e3bd e578 9e3d
000001c0: 550c 9d3d 6b60 adbd c3cd 453d 8bd3 533e
000001d0: 56e1 e93b 5b22 b1bf a92a d1be 21a3 a93d
000001e0: 9915 523d 1b3e 673e 4639 2c3d 2ac1 91bc
000001f0: 8d06 313e e29b d03c 725c 47be 6c39 4abd
00000200: d305 ccbe eca2 a2bd 2e4c c43e a114 883e
00000210: 9ec8 60be df86 093e 1e27 9b3e 91d1 0cbf
00000220: c41b a8be 3235 f9bd 9f37 dcbe 8151 bfbe
00000230: f4bb 7abe 91ef 9f3e 5592 97bd a06a 083e
00000240: 46c4 1c3e 9517 1fbd 5408 44be 0576 a7be
00000250: 1080 123d 6b10 1abe 7a29 903e 378a 10be
00000260: 8d97 163c 5d96 253e 9543 173d 73e4 1bbf
00000270: 7a29 63be 1129 913e 2c62 e7bd 78e4 cdbd
00000280: 15d8 24be 523b 24bd 1c2c ae3d 16ed 143d
00000290: da03 d93d 5080 1d3e f99c f13d feae a1bd
000002a0: 10d5 833e 5998 55be 706f 1bbc f91f 89be
000002b0: 49f3 3bbe 884b 883e 492b 57bc 71d6 2a3e
000002c0: 91d5 343e a9fb 12bd 72f4 c5bd 8b3c 113e
000002d0: 4a61 e2bc fed4 f73d c6b2 d2be 3c1d acbd
000002e0: 0178 1fbe ef2f 6abc feac 913d 8e28 0f3d
000002f0: 5e89 c2bd ad3f 593e c4d7 7e3e 55e1 963e
00000300: 2c5c 53be 722b dd3d 6c89 863e faac 86bd
00000310: 9daf 5d3e fa8b 303e 72ee a03e fb77 69bd
00000320: 93d5 8e3d 53d4 9c3e ba9f cf3d 8738 51bd
00000330: c92c c83e ead2 fa3c a8ee b2bc 0d81 d33e
00000340: 5378 2ebd 1fae ae3c d7f1 903a 6e3a b33d
00000350: 21ec 83be 6831 073f 8677 ec3d 311d 863d
00000360: 109d 87be 181c 4dbf c2a5 d8be 43f7 d53e
00000370: 9f4c 00bd 9baa 3f3e d71f e23d c1cd 34bd
00000380: 1e03 9cbd 3390 8fbd adce cfbd 44d2 513e
00000390: 7478 06be 5aee 263d 6d52 4fbe 2ecb 25bf
000003a0: fbe5 16bf 5d78 013e 28f1 bd3d 29b8 edbd
000003b0: 913d 8c3d 92ad 2d3d e376 483d 8273 0cbd
000003c0: 5699 d1be df1b 2ebe 2452 01be dffa 243e
000003d0: 2ebc c73d a3f4 233f 7a31 5f3d fd82 22be
000003e0: a7d2 d23d 8431 7bbe 469d dbbd 735d 593d
000003f0: 033f a6be 8377 d23d a000 22bf 32b2 61be
0.12805225 0.066238165 0.21117248 0.22622252 -0.41288877 0.11806751 -0.13598865 -0.10869418
-0.017666228 0.10678433 -0.20615835 -0.0875376 0.054172784 -0.1290109 0.3950047 -0.11464746
-0.4815776 0.14893265 -0.55095273 0.005844653 0.06558574 0.08677901 0.41316086 -0.074018545
0.042989027 -0.14709535 -0.50098705 -0.5266834 -0.059593804 -0.010355069 0.062044732 0.0033355653
-0.20161662 0.19054781 -0.8624997 -0.023744335 0.0706269 0.18168546 -0.22167291 0.04223469
-0.30592313 0.27371925 0.049267814 -0.4933951 -0.08821563 -0.264583 -0.18777658 0.0031647403
-0.08282558 -0.22114183 0.05492652 -0.048257474 -0.047484964 -0.19640315 0.12873559 0.19403857
-0.17498118 0.029516017 0.07212396 0.012597678 0.078974865 -0.04894502 0.003267013 -0.17664747
-0.005576226 0.113894686 0.07499781 -0.19917063 0.09523005 -0.083126284 -0.019111862 0.05909624
0.13873392 -0.08246318 -0.2614557 -0.09007504 0.009393898 -0.22093901 -0.2530254 -0.12694098
-0.117064044 0.053011972 -0.029879352 -0.12456163 0.100437894 -0.14138523 0.1537882 0.12562542
0.17294084 -0.19680893 0.24529164 -0.3725367 -0.046038546 -0.05317185 0.13769603 -0.04102093
-0.069452554 0.13203305 -0.009131673 -0.07862548 0.043766186 0.097017206 0.11870641 -0.09530764
0.08947414 0.2397835 -0.0056723505 0.019020151 -0.5292323 0.043233637 -0.11095696 0.077379026
0.07668368 -0.08465656 0.048291933 0.20686166 0.007137458 -1.383861 -0.4085286 0.082830675
0.05129013 0.22582285 0.042046808 -0.017792303 0.17287655 0.025464956 -0.19468859 -0.049371168
-0.39848194 -0.07941231 0.3833937 0.2657824 -0.2195153 0.13430355 0.30303282 -0.5500727
-0.32833683 -0.12168349 -0.43011186 -0.3736687 -0.24485761 0.31237462 -0.074009575 0.13321924
0.15309247 -0.03884085 -0.19143802 -0.3270723 0.03576666 -0.15045325 0.28156644 -0.14115225
0.009191406 0.1617064 0.036929686 -0.6089546 -0.22183791 0.28351644 -0.11298022 -0.100533426
-0.16098054 -0.040095635 0.08504507 0.036358915 0.10596438 0.15380979 0.11797518 -0.07894705
0.2574849 -0.20858897 -0.009487018 -0.26782206 -0.18354525 0.26620126 -0.013132879 0.16683365
0.17659594 -0.035884533 -0.09665765 0.14183252 -0.027634282 0.12101172 -0.41152018 -0.084040135
-0.15573122 -0.014293655 0.07113074 0.034950785 -0.09498857 0.21215697 0.24886996 0.2946879
-0.2064063 0.10799302 0.2627672 -0.065759614 0.21649022 0.17240897 0.3143192 -0.056999188
0.0697433 0.3063074 0.10137887 -0.0510793 0.39096668 0.03061815 -0.021842316 0.41309395
-0.04259522 0.021323262 0.0011058402 0.08751379 -0.2576609 0.5280976 0.11546235 0.065485366
-0.26487017 -0.8012099 -0.42313963 0.41790208 -0.03132307 0.18717425 0.11041229 -0.044141535
-0.07617782 -0.07009926 -0.10146842 0.20490366 -0.13131887 0.040754654 -0.20246287 -0.6476315
-0.5894467 0.12643571 0.092745125 -0.116073914 0.0684768 0.042401858 0.048941504 -0.034289844
-0.409373 -0.1700282 -0.1262899 0.16111325 0.09752689 0.6404516 0.054490544 -0.1587028
0.10294085 -0.24530607 -0.10723357 0.053067636 -0.3246995 0.10276701 -0.63282204 -0.22040632

net.2.bias f4 [64]
00000000: 3c3a 20bd 4fe3 a53d 2197 37bd 3540 563c
00000010: af58 d7bd 2f49 803d b4d7 273e 9299 fcbc
00000020: 38d0 b93d 33ce dfbd 55de 2cbe a137 b83d
00000030: da0e ca3b e104 dabc fdba a3bb fea8 4fbd
00000040: 31f1 1d3e 40b2 b53d 993c 2d3e d81d c1bc
00000050: a92d e43d 3925 b5bb da81 393e d5f2 3f3d
00000060: 0dc4 673e 129f 5c3e 6201 96bc 1020 133e
00000070: 8210 1b3d 9c94 1c3c 8379 323e 87f1 fdbd
00000080: 5111 b83d 27b8 8fbd 3d7a 0fbe a22f 293e
00000090: 8a2b 363e 6f02 033d 2d57 60bd f7a1 95bd
000000a0: c2ab a73d d83d 09bd de2a 90bd b5f9 fabd
000000b0: a35a 983d 8a08 833e 9e8c 91bd b855 af3d
000000c0: 168a 3f3d ee26 a83d 9ebc 7ebd 0759 bbbd
000000d0: 5a0b 843e 1c93 9d3c 92e9 bebd d488 a93d
000000e0: 0ef0 273e c449 a33b 5454 ba3d 9063 fa3d
000000f0: 157c a83c fc82 323e 1517 5a3e 05fc 053e
-0.039118037 0.08099996 -0.044821862 0.013076832 -0.10514962 0.06263959 0.16390878 -0.030834947
0.09072918 -0.10928001 -0.16881688 0.08994985 0.006166321 -0.026613655 -0.004996656 -0.050698273
0.15424038 0.08871889 0.16917647 -0.0235738 0.111415215 -0.005528119 0.1811594 0.046862442
0.22633381 0.21545056 -0.018311206 0.143677 0.03785754 0.009556916 0.17429166 -0.12399583
0.08987678 -0.07017546 -0.14011474 0.16522077 0.17790046 0.031984743 -0.054770637 -0.07306283
0.08187057 -0.033506244 -0.07039426 -0.12254659 0.074391626 0.25592452 -0.07106899 0.085612714
0.04676255 0.0821055 -0.062191598 -0.0914784 0.2578991 0.019235186 -0.09321894 0.08278051
0.16400167 0.004983159 0.090981156 0.12226021 0.02056698 0.17432779 0.21297868 0.13084419

net.4.weight f4 [6, 64]
00000000: 0005 c03e 2119 05be f3d5 173e d7e1 fd3e
00000010: a5cf a0bf e10b b43e 5943 12bf ccbf ca3e
00000020: e21d afbd 7a7d aa3d d144 123f 35a6 1dbf
00000030: ef97 71bd 6d6e 423f 9994 5cbe 187a 263e
00000040: ab7d 7c3e 44a5 7d3d 3660 17bf f07a 843e
00000050: d3d4 88bf c9f5 f7be 3693 2f3e 1bcd 893e
00000060: 3709 62be 390f 16bf e5e0 503f 1787 c13e
00000070: 6a05 203e ba86 75bd 3566 36bf 0df4 1dbf
00000080: eaab febd 2ae4 9d3e a677 e83d 9637 35be
00000090: ce8c 28bf 2504 4f3f 9567 0cbf 097a ae3e
000000a0: 449e ac3e 9fb8 e83c 7428 adbd 03bd 863d
000000b0: 598c 283e f3ca 2cbe 43c5 d5be c7eb a7bf
000000c0: 3809 bebe 769e 53bf b282 f4be 2b6d 2abe
000000d0: 12c2 6abe ef81 863e c51e ff3b 5e7c c4be
000000e0: d7ee bf3e 67a5 06bc d6c1 3fbf 5b51 74be
000000f0: 44e3 34be 8130 85be 5500 ec3e 2fbd 213f
00000100: f565 ed3e 9651 cabe b981 33bf 66c0 ee3e
00000110: 2d72 6fbf bfe3 943e e0a5 1bbf 4ec4 f83e
00000120: e76c 54bf f18a 94bd c7b7 bdbe ea96 953f
00000130: 065c 83bd bf92 b53e ed08 6d3e 8325 8a3c
00000140: 1dc9 a8be dff1 b6be 8160 74bf 9524 2ebf
00000150: fe9c 8cbf 143d 65be e457 a83e b1bd e53e
00000160: 8377 aa3f b272 a9be 0fe2 9a3e 57fe 0e3e
00000170: 4c70 c43e c13a f53d c863 143f 6f51 0cbf
00000180: 25ec bf3d c60e 613e d116 ddbd 244e ebbe
00000190: 914c 123f 31ad 5c3f 524b 593e d908 f0be
000001a0: b607 aabc dcc3 603e 2f10 b03c 1f26 183e
000001b0: 723e 27bb b79c af3e ee97 573d 2eca 033f
000001c0: 68c8 c0be d96e 87be 5c7b 26be e33c afbe
000001d0: aeca cf3d f41a 33be 5341 743c 7172 243f
000001e0: 54e1 4a3e 3227 a5bd 2a56 fabe 88af 143f
000001f0: 1302 eebe 446e 5a3e 9000 6abf f7d7 40be
00000200: bcff f93e 0ecd 67be 9036 483e d8a3 c33e
00000210: 2031 b0bf a389 03bc 4631 fe3e c325 2ebf
00000220: 79ba afbe 0c37 fd3e 1dc7 9cbd ea8c b7bc
00000230: 0424 d2bc cc19 c43e 542b 963e 31d6 9b3e
00000240: a8e5 dfbe 4dd2 8ebe 4f44 cbbe 0987 b1bd
00000250: d25e 85bf 0f0a b23e 6e00 2abe efaf a5be
00000260: c0cd 043f 024b 8bbf 1482 15bd 9f6c b43c
00000270: 2760 86be 6c9e a3bd c66d 5bbf 39e1 e93e
00000280: 6da3 82bb aa8f a5be d20c c5bd 3b1a 373d
00000290: 1fda 223d 2fc4 38be 16bc 44bd 25fe 0bbf
000002a0: 5009 03bf 1be4 3cbf ff44 eb3c 8e61 ed3e
000002b0: e74c 32bf 2aad 31ba d5ac fa3e b47f 10be
000002c0: 2143 993e aea0 2fbe 3746 c2be ec2e 603f
000002d0: 7207 90be c07d 5c3f 766c dc3c 3b50 8a3e
000002e0: 8beb 6bbe 4dd6 87bd b9b0 2e3e 92ac fabb
000002f0: c0d5 ddbe 55bd 003f a4c1 05be e391 3e3e
00000300: d835 3dbd 1188 fdbc d4e6 483c ae51 4bbd
00000310: 04db b53b 190c 14bd cdc8 c2bc b675 573d
00000320: 117f 9ab9 d9b9 fcbc 93dc 423d 3183 ed3b
00000330: 95f0 2a3d 19ea 15be e2fc b43a 6d8e 8fbc
00000340: e9f2 edbb 3c1a 563c 26a8 e23d 3177 b2bd
00000350: 8d0d b83e 27de 7f3d b9bc 483d da65 6f3b
00000360: 62df efbc 4621 2f3d 0be4 0e3e 82be f5bc
00000370: 792a 753d 78db 1abd a833 9c3d bcd4 2abd
00000380: 6547 f93d e83d 93bd eee7 7e3c 82c7 3c3d
00000390: edf8 463d f0bd fc3b b758 843c f89e 983c
000003a0: f184 5abc d850 743d 95ce f23d be9d 24bd
000003b0: 78fd 063e 413c 3ebe bc9e 59bd 76a0 8dbc
000003c0: 2dba 9fbc 18e5 eb3d 34c9 ffbc f64a 52bd
000003d0: fb98 d1be b707 f0bd 9b3d 863d 941f 8b3c
000003e0: b141 f9bc f460 01bc 8f16 00be 8eb4 ed3d
000003f0: 24f8 393d d591 4bbd 0d2d dfbd bfaa 953d
0.37503815 -0.12997867 0.14827709 0.49586365 -1.2563368 0.35165313 -0.57134014 0.39599454
-0.085506216 0.08324714 0.57136256 -0.61581737 -0.058982786 0.75949746 -0.2154106 0.16257513
0.24657314 0.061925188 -0.5913118 0.25875044 -1.0689949 -0.48429707 0.17146 0.26914296
-0.22073828 -0.5861698 0.8159316 0.37798378 0.15627065 -0.05994294 -0.71249706 -0.61700517
-0.12435134 0.30838138 0.11350946 -0.17696986 -0.6583985 0.808657 -0.54845554 0.3407748
0.33714497 0.028408347 -0.084549814 0.0657902 0.16459788 -0.16874294 -0.4175206 -1.3118829
-0.37116408 -0.8266367 -0.47755963 -0.16643207 -0.22925594 0.26271006 0.0077856504 -0.38376135
0.37486908 -0.008218146 -0.74905145 -0.2385916 -0.1766482 -0.26013568 0.46094003 0.63179296
0.4636685 -0.3951537 -0.70119816 0.46631163 -0.93533593 0.29080006 -0.6079998 0.4858727
-0.8297867 -0.072530635 -0.37054273 1.168668 -0.064140365 0.3546352 0.23147936 0.01686359
-0.32965937 -0.35731408 -0.95459753 -0.6802457 -1.098541 -0.2238658 0.32879555 0.44871286
1.3317722 -0.33095318 0.30250594 0.1396421 0.38366926 0.11974097 0.57964754 -0.5481176
0.09371213 0.21978292 -0.107953675 -0.45958054 0.5714808 0.8620177 0.21220139 -0.4688175
-0.02075563 0.21949714 0.021492092 0.14858292 -0.0025519398 0.3429925 0.052635126 0.51480377
-0.37652898 -0.26451758 -0.16257995 -0.3422614 0.1014608 -0.1749075 0.014908153 0.64237124
0.19812518 -0.080641165 -0.48893863 0.5808034 -0.46485958 0.21331125 -0.9140711 -0.18832384
0.48827922 -0.22636816 0.19552064 0.3821094 -1.3764992 -0.008028421 0.49646968 -0.6802637
-0.34321955 0.4945606 -0.07655165 -0.02240606 -0.02565194 0.3830093 0.29329932 0.30436853
-0.437299 -0.27894822 -0.39700553 -0.08668334 -1.0419562 0.347733 -0.16601726 -0.3236079
0.5187645 -1.0882266 -0.036501005 0.02202445 -0.26245233 -0.07989201 -0.85714376 0.45679644
-0.003986767 -0.3233617 -0.09621586 0.04470275 0.039758798 -0.18043588 -0.048030935 -0.5468467
-0.51186085 -0.7378556 0.028719423 0.4636349 -0.69648594 -0.00067778176 0.48959985 -0.14111215
0.29934028 -0.17151138 -0.37944195 0.875716 -0.2813068 0.8612938 0.026907187 0.27014336
-0.23039071 -0.066326715 0.17059602 -0.0076499665 -0.4332714 0.502889 -0.1306215 0.18610339
-0.046193928 -0.03094867 0.012262065 -0.049638443 0.0055497903 -0.03614435 -0.02377739 0.052602492
-0.0002946784 -0.030850338 0.047573637 0.0072483052 0.041733343 -0.14640082 0.0013808275 -0.017523969
-0.007261623 0.013067778 0.11067228 -0.0871414 0.35947838 0.06246772 0.049008105 0.0036529214
-0.029281322 0.04275634 0.13954179 -0.029998068 0.05985496 -0.037806958 0.0762704 -0.041706786
0.121718206 -0.07189542 0.015558226 0.046088703 0.048577238 0.007713072 0.016155584 0.01863049
-0.01333736 0.05964741 0.11855809 -0.040189497 0.13182628 -0.18577673 -0.053129897 -0.017288428
-0.019497955 0.115183055 -0.03122387 -0.05134102 -0.40937027 -0.117202215 0.06554719 0.016982831
-0.030426832 -0.007896651 -0.12508605 0.11606704 0.04540266 -0.049699623 -0.10897265 0.07307958

net.4.bias f4 [6]
00000000: 99d1 153d ba55 973d 48ec e33d 53f5 a7be
00000010: 7ade 6cbe 0835 69be
0.03657684 0.07389398 0.111290514 -0.32804355 -0.23131743 -0.22774136
