log/GC_SAC/cannot_used_lidar/maze3Env/20210805-1306/GC_SAC_HER_actor.pth (torch_old, 24935 bytes, 6 tensors)

net.0.weight f4 [64, 21]
00000000: 60a8 debe 3bf7 1e3b f2ba ca3d c13a d8be
00000010: 163f ecbd 4fa3 46be 419a 28bd baa6 1bbe
00000020: 4694 693e 0587 6c3d ff61 eabd 94d3 14bc
00000030: e479 383e fbe7 873d c78c e43d 9234 2d3e
00000040: 18a1 9ebd 580f cb3d db42 d03d 780b 01bf
00000050: 083e 23bd 3ae6 d33d 1fe1 553e c3a8 553e
00000060: 35fb 2d3e 7c94 063d aff5 e8bd 99a2 52be
00000070: ac9a 1bbe bc78 c6bd 95db 40be 6743 23be
00000080: b88d 923c 1bd4 453e d733 133e 593a 5dbe
00000090: ae96 be3d 79b0 f7bd 0a08 d3bd 3a63 23be
000000a0: d18b 133e d0ed d93c e0ce 10c0 d546 0e3d
000000b0: e05c d13c 02a2 d7be ea46 d3bc 82f3 a4bd
000000c0: d2ca 3b3e abd7 b9bd 9428 2f3d 6665 453d
000000d0: f7cb cebd c646 533d 0b78 893d e6d8 603d
000000e0: 88c8 26be e6e8 29bd 7ad4 dfbd 2290 4d3e
000000f0: 9140 633c 0cfb bb3c c537 523e fd1f edbe
00000100: 578d 3ebe d259 8cbd 1a35 683d d8ba b13d
00000110: d60c ce3d 8a42 0dbe dc89 49bd 745a 23bd
00000120: 8c16 f63c db4d d83d 0a6e 373e bf04 08bc
00000130: 67fc fb3d 20dc 34bd 4bc7 ba3d 9a34 d03d
00000140: b4ab 15be 058e 58bf 99e4 31bf a179 09be
00000150: d6d6 a93d ac41 55be 7373 313e 44a4 c3bd
00000160: 50f7 cabc 5d0f 44be 0891 b4bd c637 31be
00000170: c847 82bc 9037 7bbd 2850 f33c a21f bd3d
00000180: 6e1b fcbd f604 c53d de42 12be e121 5e3e
00000190: c4eb 11bd e00d 2fbc d4e5 5f3d d090 f1bc
000001a0: a4a9 713d 0e02 083f 4bbf ac3e 6932 23be
000001b0: f4c9 4bbd 9572 a73b 9432 373d c00f 833d
000001c0: c8da 67be c463 953d 8aba f73d e955 1b3c
000001d0: 2046 32be 20c8 c13d f4ad 0d3e 6028 3abe
000001e0: 8469 71be e1b1 02be d898 ae3d 72e7 173f
000001f0: 29a9 313c 59b6 593e cece 1f3e 5a29 68be
00000200: 5190 433e 8ddd cabd f2b0 81be ff3e 4f3e
00000210: f199 4ebe 233a 27bb f74a aeba a6e0 a13d
00000220: 7139 3e3e b145 463e a1fb 10be 19f4 493e
00000230: 6b8c 3a3e 6d1f 253e 3b4a 28be d217 e5bd
00000240: ed91 bdbd 788c 893f 461d b1bd c592 bb3c
00000250: 040c 98be f246 fb3d 555d 90be 6367 6fbe
00000260: 1ceb 003d 7910 d9bd 99b5 f3bb eb78 70bd
00000270: 7902 863d a162 af3d f5f2 a23b e162 a33c
00000280: efae 0f3e 39b0 07be 136a 433e f5bc 1cbd
00000290: cb41 083e 4e71 663f b081 343f 41f9 5cbe
000002a0: 6c38 173e 9563 b53e 5f7f 283e dc03 2dbd
000002b0: 31f5 20be eb91 47be 3ab6 bb3c 575a 463d
000002c0: 810d 353e 09a5 48be 38be d63d b915 413d
000002d0: a62c 863d e609 f63d c755 39be fbbf 02be
000002e0: 7d02 1b3e fd12 303e ab16 96bf 55d1 363f
000002f0: 8433 543d 301a 58bc f954 4ebe 96f6 f4bd
00000300: 2141 5dbe a1c8 423e 004e 223c 8cfd b5bd
00000310: 0c61 5abd 7a4b a03d 997c 113e 28d8 11bd
00000320: 9657 de3d 8b2d 3ebe 5cd0 34be 22f5 ac3d
00000330: ec74 213d 29da 4cbe ba74 c63d 5a0a 40be
00000340: e5ca 2cbe cef2 c83d 39c5 b2bd dd41 993d
00000350: 7275 ab3d 65af 9bbd aecf 2a3f 5029 6e3c
00000360: afe5 e7bd e112 5ebe b7f7 8e3d 92af 4fbc
00000370: 2b53 bf3d a3a4 093e 0748 dd3d 0f32 1d3e
00000380: 8f09 0a3e 9d47 353e 35ad 6a3d 0d79 cbbd
00000390: 9337 873e 2a58 a93e cd28 41be 59c9 f5be
000003a0: 48d7 71be 1013 50be a843 993d 8caa 253e
000003b0: 865c e7bd de9a 96bc 2711 28be 36f0 e43c
000003c0: bcb9 e73c 222e 4f3d 3a42 8b3d 4bd7 603e
000003d0: e6e9 f83d 8c14 393d f4d7 dabd 99df 38bd
000003e0: fc2c 343e 328a 903e a67c fd3d 6099 32be
000003f0: 00ba 4abe e49b 4b3d c406 403d e079 16be
-0.43487835 0.0024256248 0.09898938 -0.42232326 -0.1153547 -0.19398235 -0.041162733 -0.1520032
0.22810468 0.057745952 -0.114444725 -0.009083647 0.18015248 0.06636044 0.11159664 0.16914585
-0.0774557 0.09915036 0.10169002 -0.50408125 -0.03985408 0.103466466 0.20886658 0.20865159
0.16990359 0.03285645 -0.113749854 -0.20569839 -0.15195721 -0.09690997 -0.18833764 -0.1594368
0.017889842 0.19319193 0.14375244 -0.21604289 0.093060836 -0.12094206 -0.10304268 -0.1595582
0.14408804 0.026602656 -2.2626266 0.03473552 0.025556982 -0.4211579 -0.02579065 -0.08054258
0.18339089 -0.090743385 0.042763308 0.048192404 -0.10097497 0.051581167 0.067123495 0.05489435
-0.16287434 -0.041481875 -0.109291986 0.20074514 0.013870374 0.022946857 0.20529087 -0.46313468
-0.18608604 -0.06853069 0.056691267 0.08678216 0.10061042 -0.13794914 -0.04920374 -0.039881185
0.030040048 0.10561725 0.1791307 -0.008301913 0.12304001 -0.04415524 0.09120043 0.10166283
-0.14616281 -0.84591705 -0.6948944 -0.13425304 0.0829293 -0.20825833 0.17329197 -0.095528156
-0.02477613 -0.19146486 -0.08816725 -0.17306432 -0.015903369 -0.061332285 0.029701307 0.09234549
-0.12309919 0.09620087 -0.1428332 0.21692611 -0.035625234 -0.01068446 0.05466254 -0.029487997
0.058999673 0.53128135 0.33739695 -0.15937199 -0.049753144 0.005110095 0.04472597 0.063994884
-0.22642052 0.072944194 0.120961264 0.009480932 -0.17409563 0.09461999 0.13835889 -0.18179464
-0.23575407 -0.12763168 0.085252464 0.5933753 0.010843554 0.21260966 0.15606233 -0.22672024
0.19098021 -0.09905539 -0.2533031 0.20238875 -0.20175911 -0.002551683 -0.0013297488 0.079041764
0.185766 0.19362523 -0.14158489 0.19722022 0.18217628 0.16125269 -0.16434567 -0.11186184
-0.09256349 1.0745993 -0.086481616 0.022897134 -0.29696667 0.12269391 -0.28196207 -0.23379283
0.031474218 -0.10598845 -0.0074374196 -0.058709066 0.0654344 0.08563734 0.0049728104 0.01994461
0.14031576 -0.13250817 0.19083433 -0.03826614 0.13306348 0.9001664 0.7051039 -0.21579458
0.14767617 0.35427538 0.16454838 -0.04224001 -0.15718533 -0.19489257 0.02291404 0.048426
0.17680933 -0.19594206 0.104855 0.047139857 0.06551485 0.12013607 -0.18099128 -0.12768547
0.15137668 0.17194743 -1.1725668 0.71413165 0.05180694 -0.013189837 -0.20149602 -0.11961095
-0.21606876 0.19021846 0.009906292 -0.08886251 -0.053315207 0.07826896 0.14207686 -0.035606533
0.108565494 -0.18572061 -0.17657608 0.08445193 0.039418146 -0.20005096 0.096902326 -0.18753949
-0.16874273 0.09811936 -0.087290235 0.074832655 0.0837201 -0.07601813 0.66723144 0.014536217
-0.113231055 -0.21686889 0.069808416 -0.012676137 0.09342035 0.1344171 0.10804754 0.15351127
0.13480209 0.177031 0.05729409 -0.09935198 0.26409587 0.33075076 -0.1886322 -0.4800518
-0.2361728 -0.20319772 0.074836075 0.1617834 -0.11296944 -0.018384393 -0.16412793 0.027946573
0.028286807 0.050581105 0.06799741 0.21957128 0.121539876 0.04518561 -0.10685721 -0.045135114
0.17595285 0.28230435 0.123772904 -0.1744132 -0.19797516 0.049709216 0.046881452 -0.14694929

net.0.bias f4 [64]
00000000: c1bc 743e 50b9 2ebc bd9d e13d 8ab8 873d
00000010: 2689 e93d bef2 75be db6c 643d 01b1 db3c
00000020: 8375 2abc e0f3 d3bc bd08 57be 2555 3e3e
00000030: a023 4dbe dd6e 2abd 0bc7 b03d c987 5b3e
00000040: c368 d4bd 5611 58be 9823 07be 7064 ddbd
00000050: 0362 e2bd be88 87bd ea80 46be e3d3 19be
00000060: d3c5 63be bcaf d0bd 401e 22be e000 403e
00000070: 4c81 ddbd 8f03 45be c572 483e 2040 9fbc
00000080: 60e3 1ebd 1796 1d3e 24e2 cf3d e9bc 61be
00000090: 4083 0c3e 64d4 cf3d 31dd d33d 16d3 603d
000000a0: 3152 ca3d e960 223e f575 08be 81d9 393e
000000b0: ae8d e13d 5bad 503e f099 fcbc 2331 2b3e
000000c0: 60ae 81bb af98 fe3d c444 54be c41a 4abe
000000d0: 9d70 f13d b128 97bd 076b 56be 3eb0 51bd
000000e0: 133b 153e 6044 aa3d d0cd 2abd a834 babd
000000f0: 4421 51be ba52 f43d 210f 3f3e 1295 0bbe
0.23900129 -0.010664299 0.11016414 0.06626995 0.11403112 -0.2401838 0.055767875 0.0268178
-0.010403994 -0.025873125 -0.20999427 0.18587168 -0.20033121 -0.041609634 0.086317144 0.21438517
-0.10371544 -0.21100363 -0.13197172 -0.108101726 -0.110538505 -0.066178784 -0.19385114 -0.15022235
-0.22243433 -0.10189769 -0.15831852 0.18750334 -0.10815677 -0.19239639 0.19575031 -0.019439757
-0.03879106 0.15389286 0.10150555 -0.2204472 0.13721943 0.10147932 0.10344923 0.054888807
0.09878958 0.15857281 -0.13326247 0.18149377 0.110133514 0.2037863 -0.030835122 0.16717963
-0.0039575547 0.12431466 -0.20729357 -0.19736773 0.117890574 -0.07380808 -0.20939265 -0.05119347
0.14573316 0.08313823 -0.041700184 -0.09092075 -0.20422846 0.11929841 0.18658115 -0.13631085

net.2.weight f4 [64, 64]
00000000: aa33 9bbd 2aa7 f33d 2e6f e13d 1c06 6bbc
00000010: 50eb 453d e3ec cc3d 4b71 ff3d 5255 b73d
00000020: 1cb1 20bd a0c6 963c ed69 0e3e 785c 0abc
00000030: cc06 633d 540f f33d be10 963d 6697 93bd
00000040: dce5 af3d f1ff d1bd 2ee7 cb3d 2416 f83d
00000050: 4a10 9fbc f011 be3c 14a4 643d 60c4 ef3c
00000060: ff2d c53d c131 3cbd bce9 71bd 0e95 fc3d
00000070: 00c6 f03d a403 3b3e bbc8 043e 087d 933c
00000080: bc55 753d 3d7e ac3d 4df2 9bbd 1fae f0be
00000090: 4186 d2be 7162 c7bd a3e7 41bd 0cf0 c4bc
000000a0: 055d 85bd c07c f8bd c8d6 073d 4fe4 48be
000000b0: 812e a43d 4065 173d 8e9d cc3e c0a5 e6bd
000000c0: 2cfc f33d f656 a73d 8054 f73c 8ef2 c8bd
000000d0: d593 c8be 2490 28bd 366b a9bd 11e6 943d
000000e0: 3034 4f3d 0f0b b23d 0cb5 3c3d 3109 9b3c
000000f0: 50e6 07bd 2b4b b83d 48d3 d1bd 9b9b 633d
00000100: 3ace ce3d 1e02 b1bd 3876 65bf 5f78 ac3d
00000110: 081a 8ebc 6c90 31be 54ae c0bd d74a 0abf
00000120: 945b 123e 6a7f 9f3d 9bf2 3b3e d0a3 29bf
00000130: a079 563d b802 983d 0bbe b3bd c1aa af3e
00000140: e80d e73d 4544 473e 00f8 57bc de30 94bd
00000150: 4c1f 2bbe 18c2 b73d ba9e 8b3d 0c5b b73d
00000160: 1876 f3bd 93fd 70be d6f5 91bd 6e5a 8ebd
00000170: 7acf f7bd 23ec 04bf 5344 e8bc 4804 e8bc
00000180: 10c4 74bd 00de ceba 50a3 6f3c d3a8 07bf
00000190: d7c0 9b3e 889c 613d 5bc4 b23d a450 013d
000001a0: e954 08bc 04b0 943d 6a0e d8bd d071 1c3e
000001b0: 151c aa3c a80b 56bd 19a7 f6be d01b 783c
000001c0: 1212 fbbd 2bfc 01be 5169 a8bd 602a a63c
000001d0: 596d 353f 9afb 09bd 1c2d 183d be40 c93d
000001e0: 40b4 f6bd 390c 81be 0028 233b 5687 cfbd
000001f0: 98fc efbd f7fc 2fbe 908e 013c e32f 7bbd
00000200: fdd2 80bd b80e b3bd 729b a13e 1783 323d
00000210: 08a3 ef3c a5e4 3a3e b1ed d13d 3735 393d
00000220: 427a a2bd 3854 aa3d f47e 913d 18ec 1bbe
00000230: 881d 8abd b0a0 043c 6565 483e c36c e9bd
00000240: 3c17 083d 8f4a 503e aa24 e13b a04d 12bc
00000250: 3070 d03e 301f dbbd 6eff f3bd bc25 5bbd
00000260: a624 113d db69 0c3e 16be bb3d 98c5 a6be
00000270: a005 dfbd f5a0 fd3d 7aba 5e3d d483 fa3d
00000280: b8ad f53c ee55 dfbd ec03 b03b f288 6e3e
00000290: 4e3a b9be e2a6 c23d 6bb5 44be 2071 d43c
000002a0: dc20 6ebe 108c 87bd 7032 493c 7390 a1bd
000002b0: 9b1a 02be 9cd1 c53d d6ae cf3d 1055 ca3c
000002c0: a408 05bd 4ca2 90bd 7750 513e 90a2 61bd
000002d0: 8009 e4be 10c8 343d 5048 473d 368e 2dbd
000002e0: b0c6 353e 8c51 0f3d e09d 10bd ab53 523d
000002f0: 9444 3f3d 9064 473e ba9e cabd a92f c3bd
00000300: 1922 9f3d 4e61 acbd 9857 8fbe e73a 013e
00000310: 58ee 913d 0272 833d 02dd bc3c b18d 16be
00000320: b9ba a73e 78ac f9bc 1ce8 513e 3afd 183d
00000330: a64e 9ebd 4544 d3bd b1c7 793d 1d38 dabd
00000340: ac6c cbbd 7252 263e 2b35 703d d289 85bd
00000350: b3f6 f4be 6082 043c be79 c03d 648a 0a3d
00000360: 0761 013d a870 b13d 68b8 a6bc b750 dc3c
00000370: 1054 9c3d 58c8 bfbe 6c48 4cbd 321d c8bd
00000380: 40e8 0dbd 6ef3 853d 5442 15bc 53fb 163d
00000390: e781 53be 19ea b63d 1731 42bd b867 62bc
000003a0: b160 623c 7c28 25bd 0083 d23b d845 b2be
000003b0: 2621 2a3d d000 d5bd e356 8dbc 2498 85bd
000003c0: 8c1b a23d f256 d0bd e99b a03c 60ad 97bd
000003d0: 5883 80bd 41ea 2f3d d89a d43c f107 dfbc
000003e0: b307 fbbe e509 9abd 668d da3d 53f0 e33d
000003f0: f6cf b2bd feef a13d f230 c43d f769 f33c
-0.075782135 0.118971184 0.11007534 -0.014344718 0.048320115 0.1000612 0.12472781 0.089518204
-0.039231405 0.018405259 0.13907595 -0.008444898 0.055426404 0.11868158 0.07327412 -0.07206611
0.08588764 -0.10253895 0.099562034 0.12113598 -0.019416947 0.023201913 0.05582054 0.029268444
0.09627914 -0.045945887 -0.059060797 0.123331174 0.117565155 0.18263108 0.12967198 0.018003955
0.059896216 0.084225155 -0.076145746 -0.47007844 -0.41118053 -0.09735573 -0.047340047 -0.024040245
-0.06511883 -0.12133169 0.033163816 -0.19618343 0.080166824 0.036961794 0.39963955 -0.11262083
0.11913332 0.08170883 0.03019166 -0.09811889 -0.39175287 -0.04115309 -0.08272402 0.07270444
0.05058688 0.086935155 0.046071097 0.018925281 -0.033178627 0.08998712 -0.10245377 0.05556832
0.10097928 -0.08642982 -0.8963351 0.084213965 -0.017346397 -0.17340249 -0.094082505 -0.54020447
0.14292747 0.07787974 0.18354265 -0.66265583 0.052362084 0.074223936 -0.08776482 0.34309962
0.11281949 0.19459637 -0.013181686 -0.07235883 -0.16711158 0.08972567 0.06817384 0.08952913
-0.11887759 -0.23534231 -0.071269676 -0.06950842 -0.1210012 -0.51922816 -0.028352892 -0.028322354
-0.059757292 -0.0015782714 0.014626339 -0.5299198 0.30420563 0.05508092 0.08728858 0.031571046
-0.008321025 0.07260135 -0.10549624 0.15277791 0.020765344 -0.05225721 -0.4817436 0.01514335
-0.12259306 -0.1269385 -0.082232125 0.020283878 0.70869976 -0.03368721 0.037152395 0.09826802
-0.12046099 -0.25204638 0.0024895668 -0.10133235 -0.117181 -0.17186342 0.007907525 -0.061324965
-0.06290243 -0.08743042 0.31563908 0.04358205 0.029252544 0.18251283 0.10250414 0.045216765
-0.07933475 0.08316845 0.071042925 -0.15226781 -0.06743914 0.0080949515 0.19569929 -0.11397698
0.033225283 0.20340942 0.006870826 -0.00892964 0.40710592 -0.10699308 -0.11913954 -0.053502783
0.03543534 0.13712256 0.091671154 -0.32572627 -0.10889745 0.12384216 0.054377057 0.122321755
0.029990062 -0.10905062 0.0053715613 0.23294428 -0.36177295 0.095044866 -0.1920983 0.025932848
-0.23254722 -0.06618512 0.012280092 -0.078888796 -0.12705462 0.096591204 0.10140769 0.024698764
-0.032478943 -0.07062206 0.20440851 -0.055086672 -0.44538498 0.044136107 0.048652947 -0.04237195
0.17751575 0.03498988 -0.03530681 0.051349323 0.04669626 0.19471955 -0.09893556 -0.09530575
0.077701755 -0.08416997 -0.27996516 0.12620126 0.071255386 0.0641823 0.023054603 -0.14702488
0.32759646 -0.030477747 0.20498699 0.03735087 -0.07729845 -0.10315756 0.060981456 -0.10655234
-0.09932837 0.16242388 0.058644455 -0.06520428 -0.47844467 0.008087724 0.093982205 0.033823386
0.031586673 0.086640656 -0.020351604 0.026893957 0.07633221 -0.37457538 -0.049873754 -0.097711936
-0.03464532 0.06540571 -0.009110052 0.036860775 -0.20655023 0.08931369 -0.047410097 -0.013818674
0.013816998 -0.040321812 0.006424308 -0.34818912 0.04153552 -0.104005456 -0.017253345 -0.06523159
0.079154104 -0.101728335 0.019605594 -0.074061155 -0.06275052 0.04294801 0.025952742 -0.027225466
-0.49029312 -0.075214185 0.10671501 0.111298226 -0.08731072 0.07907103 0.09579648 0.029713614

net.2.bias f4 [64]
00000000: 8774 35bd 3577 ce3d 0218 f43b 263a 063e
00000010: 0a0b 61bd db05 c6bd 39a1 113e e2c2 733d
00000020: 9697 333e a1e1 00be 8aad 04be 948b 1ebe
00000030: 89b4 49bd 7f8f f3bc 9cec 893e 0826 5dbc
00000040: fbce b3bc eef8 283e 6cb4 b43d 1997 19bd
00000050: 301f afbc 38ff a6bd de40 003d e54f c43d
00000060: 9b9e 4c3b 9eda b33c 61c7 ca3a e9f7 47bc
00000070: dc3b be3d f6e6 88bc 93e7 91bc 937d ae3d
00000080: cbeb 45bd ad40 bebd aaad 43bd 8ee5 cb3d
00000090: 6d4e a53b 9988 8f3d 59c8 4d3d 747e c63d
000000a0: f9a4 81bd 3828 07bd a047 16bc 357e af3d
000000b0: f055 c53b 70d2 283c 0912 533c 67bb 7b3d
000000c0: 886e d73d f6a7 dbbc 4026 e73c e0ad 02be
000000d0: 0274 173c 0fca 04be 5fdc 923d 08c8 183e
000000e0: 25f9 773d 08a7 223e d13f 223d ecfb dd3b
000000f0: a7cf 46bd f486 7a3b dec5 61bd bb4d 113e
-0.044300582 0.10081331 0.007449151 0.1310812 -0.05494217 -0.096690856 0.14221658 0.059512027
0.17538294 -0.1258607 -0.12956825 -0.15482932 -0.049244437 -0.02973151 0.2693833 -0.013497837
-0.021949282 0.16501209 0.08823475 -0.037497614 -0.021377176 -0.08154148 0.031311862 0.09585551
0.0031222466 0.02195483 0.0015470796 -0.0122051025 0.09288761 -0.016711693 -0.017810619 0.08520045
-0.048320573 -0.0928968 -0.04777304 0.099558935 0.0050447495 0.07008476 0.050239895 0.09692088
-0.06330294 -0.03299734 -0.00917235 0.08568994 0.0060222074 0.010304078 0.012882718 0.061458018
0.10519129 -0.026813488 0.028216481 -0.1276164 0.009243967 -0.12967704 0.07170939 0.14920056
0.060540337 0.1588403 0.03961164 0.006774416 -0.048537876 0.003822741 -0.05512034 0.14189808

net.4.weight f4 [6, 64]
00000000: d53b 42bd 29a5 cfbe 2cd8 59bc 1eb2 62be
00000010: af49 113e 84ce d1bc 918d fdbe 12ad 723d
00000020: fd08 13be 3a30 cd3d 1ef8 883f b609 65bd
00000030: d266 713e 664f d23c 639c 37be 53f0 373f
00000040: f4d3 2b3d aecf 82be 9b69 13be 926b 243f
00000050: d868 eabd a27a d7be be0a 963d 17d1 52bc
00000060: eb72 84be a8bf 933d 8086 acbe 67a7 12bf
00000070: f0b8 d63d f178 adbd 19eb a43c a4b6 913d
00000080: dc07 a9bd 4ee6 353f e0de 313f 68c1 983f
00000090: 2a39 013f 806c e6bd 57c5 a5bd 6809 da3e
000000a0: 6ef6 11be fb51 3d3e d4a1 51be 7e10 2d3f
000000b0: 3282 c73d 0e0f 9cbd 12ee 693e 7e64 97bd
000000c0: 6a28 4cbe b096 eabc 5c47 f23a 9c30 0a3f
000000d0: 711d b53e 5e35 42bd 6ce2 b03d ebb0 edbe
000000e0: 5db0 a23e a748 e2bd 569c 093d c82e c5bd
000000f0: 32c7 aa3e 895b a8be 4617 3d3e 25bb 8bbe
00000100: 694c 57be 0a83 cdbd 373d b4be 1038 a83e
00000110: 8864 7c3e 9cf8 4abc 1f3a d8be f9ee a4be
00000120: ddf0 053f 0734 b7be d4e8 b13f 9561 e4bc
00000130: 7e52 ad3e e7a5 033c 4a35 f63c b8bf 28bf
00000140: ff6b da3c 6bff e0bd 4558 df3c 7fef a4be
00000150: 7475 1b3d a12a cc3e cfef 83bd a148 9abd
00000160: acbe 24be 2fde 3abf ca7e 5c3f b647 333f
00000170: a62d 3b3f a671 803d e61c 8f3d 0eff 74ba
00000180: 908e 2fbd 529d 053f c477 4abe 6923 20bf
00000190: 78d4 1dbf e67b debe 1ddd acbe 281a 28bb
000001a0: 09c6 813b 7bcd 733e 0c18 1c3f 507e 553e
000001b0: a06b 07be 609f b73e dcd5 6a3f 9822 9cbc
000001c0: ca4b 923e a8b1 223d c82d 4a3d 48fa ca3d
000001d0: d5c8 873e f722 223d 2402 cfbd 156f e2be
000001e0: 9172 323f 1afd 643d ce09 163d 0121 fcbc
000001f0: 785c 783e 821a e0be 82d8 2f3f fb7e 283f
00000200: c87f 81bd 9bba 2d3f d743 6b3e 3347 963d
00000210: 6d43 87be 318d 7cbd 5cb7 1dbf bfbf 863e
00000220: 0051 84bd 06c6 b43d a26a e33d e904 aebd
00000230: 7875 063e 49d5 3abd bcd9 cb3e 4acd 743e
00000240: e4bb 093d 7700 cdbe b64b 5e3f f760 d2be
00000250: 109a 12bd 5ea0 b6be 8a10 01bd bf05 66be
00000260: 4550 913d cb24 2a3d a8e6 ff3e efb5 12bf
00000270: 1c3b 05bf 3554 b1bd 6e59 853d 1755 8bbe
00000280: 610d d1bd 1ab9 073f dd3b d73e 7e11 a83f
00000290: 2924 50be 08b5 343e 9548 05be f870 9ebe
000002a0: 6d54 e0bd 48b4 9cbe 8c3f 4b3c c524 ae3c
000002b0: c216 05bf e492 5cbe 3e13 aa3e 3f05 a6bd
000002c0: 17b2 c63e b8db a63c 63b4 b93d 8ed6 24bf
000002d0: 91f0 41be 51a2 83b9 ab9a 2fbd 4b17 bc3e
000002e0: 84f5 3e3e 4d9d bb3e d8ca c4bd 59f7 cb3c
000002f0: 02f0 0e3f 88be 79be 9697 253d 4ddb 4dbe
00000300: 5955 dbbd 2639 1f3d 07a5 81ba 13de 47bc
00000310: dcb3 93bd ccad 963d fc84 333a 5dc9 e03c
00000320: c9d3 273e 0ee9 bebd 9e95 463e a4e8 1c3d
00000330: 99d7 9f3c 0fb8 583b 45e8 99bd 54c9 65bd
00000340: 864b 743c 975c 223d b907 fdbc 195d 1fbe
00000350: a6b4 ef3d 7bed e3bd 2a11 e53d ce89 6fbd
00000360: 86e9 91bd 35e5 1b3c 432f 4a3d ce24 143c
00000370: d59f 63bd 16f8 8dbd bbc6 b43d 47a5 51be
00000380: 31d5 633e 06d7 423d ebc4 a73d adf2 573d
00000390: 55e3 d63b a597 91bd eacc 453c fa1c 36bd
000003a0: f72c ddbc 9a79 d8bc a564 173e edb6 94be
000003b0: 274c 59be 984c b53c c1f6 41bd e4ca e7bd
000003c0: 6821 4d3c 22cf 313d 97f9 803d 744b c23b
000003d0: 184b 10be de56 91bd 676f 0fbd 214f f13d
000003e0: 452a 33bd 6fbd 8c3d 488c 963d 4938 ff3b
000003f0: 6831 adbd 5c06 113c 3529 5ebe 4fbc 2cbd
-0.04742034 -0.40555695 -0.013296168 -0.22138259 0.14188264 -0.02561117 -0.4952207 0.059247084
-0.14358898 0.10018964 1.0700719 -0.055917464 0.23574379 0.025672626 -0.1793075 0.7185108
0.04195018 -0.25549072 -0.14395754 0.6422664 -0.114457786 -0.4208575 0.07326268 -0.012867234
-0.25868925 0.0721429 -0.33696365 -0.57286686 0.10484493 -0.08470333 0.020131635 0.07114914
-0.08253452 0.7105454 0.69480705 1.1934023 0.5047785 -0.112511635 -0.0809428 0.425853
-0.14254162 0.18488304 -0.20471889 0.6760329 0.0974163 -0.07620059 0.22844723 -0.07392214
-0.19937292 -0.028636307 0.0018484402 0.5398042 0.35374025 -0.047414176 0.086369365 -0.4642404
0.3177518 -0.110490136 0.03359636 -0.096280634 0.333551 -0.32882336 0.1846591 -0.27291217
-0.21025242 -0.10034759 -0.35202953 0.32855272 0.24647725 -0.012388375 -0.42231843 -0.32213572
0.52320653 -0.3578188 1.3899179 -0.027878562 0.33852 0.00803516 0.030054707 -0.6591754
0.026662825 -0.10986217 0.02726377 -0.3221397 0.03795381 0.39876273 -0.06442224 -0.07533384
-0.1608836 -0.72995275 0.86130965 0.700313 0.7311653 0.06271677 0.06987934 -0.00093458674
-0.042860568 0.52193177 -0.1977225 -0.6255403 -0.61652327 -0.43453902 -0.33762446 -0.0025650356
0.003960375 0.23808853 0.6097419 0.20848966 -0.1322465 0.3586378 0.91732574 -0.019059464
0.28573447 0.039720207 0.049360067 0.099110186 0.2652041 0.039584126 -0.1010783 -0.44225374
0.69706064 0.05590544 0.036630444 -0.030777456 0.24254024 -0.43770224 0.6868974 0.65818757
-0.063232005 0.6786286 0.22975098 0.07337799 -0.2641863 -0.061658088 -0.6160791 0.26318166
-0.06460762 0.088268325 0.11104323 -0.0849703 0.13130748 -0.04561356 0.39814556 0.23906437
0.033626452 -0.40039417 0.86834276 -0.41089603 -0.035791457 -0.35669225 -0.031509914 -0.2246313
0.07095388 0.041538995 0.49980664 -0.5730886 -0.5204332 -0.08658639 0.06511198 -0.27213356
-0.1020763 0.5301682 0.4203786 1.3130338 -0.20326294 0.17647183 -0.13015969 -0.30945563
-0.10953603 -0.30606294 0.0124052875 0.021257767 -0.5198785 -0.2154041 0.33217806 -0.08106469
0.38807747 0.020368442 0.09067609 -0.64389884 -0.18939425 -0.00025107202 -0.042872112 0.3673652
0.18648344 0.36643448 -0.09609002 0.024898218 0.5583497 -0.24389088 0.040427767 -0.20103188
-0.10709638 0.03887286 -0.0009891101 -0.012198943 -0.0721204 0.07357368 0.00068481243 0.027439767
0.16389383 -0.093217954 0.19393012 0.0383078 0.019511985 0.0033068692 -0.07515005 -0.056100205
0.014910584 0.03963908 -0.030887472 -0.15562858 0.11704378 -0.1112928 0.111849144 -0.05848103
-0.07124619 0.009515096 0.04936148 0.009041978 -0.05557235 -0.06932084 0.08826967 -0.20473205
0.22249295 0.047568344 0.08191856 0.052721668 0.006557862 -0.07109002 0.012072781 -0.044461228
-0.02699898 -0.026425172 0.14784487 -0.2904581 -0.21220456 0.02213125 -0.047354463 -0.11317995
0.012520172 0.043410428 0.062976055 0.005929405 -0.14091146 -0.07096647 -0.03501835 0.11782671
-0.043741483 0.06872069 0.07350975 0.007788692 -0.08456689 0.008851614 -0.21695407 -0.042171773

net.4.bias f4 [6]
00000000: 34c8 dd3c 6cc3 eabd 5b2c b53d 113e eabd
00000010: dbda f23d 7017 11be
0.027073003 -0.11463055 0.08846351 -0.114376195 0.118581496 -0.14169097
