log/GC_SAC/square3Env/20210721-1150/GC_SAC_HER_actor.pth (torch, 24159 bytes, 6 tensors)

net.0.weight f4 [64, 13]
0	0xbe9c1248	-0.30482697
1	0xbd6381d3	-0.055543732
2	0xbd9967fa	-0.07490535
3	0x3f8db7fc	1.1071773
4	0xbec6b272	-0.38808018
5	0xbccd5700	-0.025065899
6	0xbdc5371e	-0.096296534
7	0xbe17ae0b	-0.14812486
8	0x3d962967	0.073321156
9	0xbe6331a8	-0.22186911
10	0xbeadf88d	-0.33978692
11	0x3e77c3e2	0.24195817
12	0xbbdfe680	-0.0068328977
13	0x3db1005f	0.08642649
14	0xbdc2ea52	-0.09517349
15	0xbc0069c0	-0.007837713
16	0xbf165643	-0.58725375
17	0xbf5e36a2	-0.86802113
18	0xbd91b4a8	-0.071145356
19	0xbc009860	-0.007848829
20	0xbe916ea4	-0.28404725
21	0x3e283506	0.16426477
22	0xbe4c3da6	-0.19945392
23	0xbf006f3b	-0.50169724
24	0x3e56a0f4	0.20959836
25	0x3c873c60	0.016508281
26	0x3eb6e30d	0.357201
27	0xbf129e64	-0.57272935
28	0xbb7cb680	-0.0038560927
29	0x3db30fae	0.08743225
30	0x3e0fbbe9	0.14036526
31	0x3dea4944	0.114397556
32	0xbe911b0d	-0.2834095
33	0xbd76c0da	-0.06024251
34	0xbec0606e	-0.3757357
35	0xbe54020e	-0.20703909
36	0x3e0d8de7	0.13823663
37	0xbd7698ba	-0.060204245
38	0x3e09c758	0.1345495
39	0x3d1edc8e	0.038784556
40	0xbe00e412	-0.12587002
41	0x3dec72e8	0.11545354
42	0x3cec1395	0.028817931
43	0xbd47f69a	-0.048819162
44	0xbe74b214	-0.23896056
45	0xbd47667a	-0.048681714
46	0x3e2fcddb	0.17168371
47	0x3decfab3	0.115712546
48	0xbe4fdc77	-0.20298944
49	0x3f9077b9	1.1286536
50	0xbf46bff2	-0.77636635
51	0xbe168114	-0.14697677
52	0xbe6bb552	-0.23018387
53	0xbe71f8b7	-0.23630033
54	0x3c9423d0	0.018083483
55	0xbdb8f9d2	-0.090320244
56	0xbe82f733	-0.25579223
57	0x3e7fc192	0.24976185
58	0xbe425bf0	-0.18980384
59	0x3c4c1000	0.012454987
60	0x3dfcd9f4	0.12346259
61	0x3e30e2d8	0.17274034
62	0xbe36ff4d	-0.17870827
63	0xbe47a6ac	-0.19497174
64	0xbe6a298a	-0.22867408
65	0x3d6f27f5	0.058387715
66	0xbed3a2ef	-0.41335246
67	0xbe42273e	-0.18960282
68	0x3d93052d	0.071787216
69	0xbd844342	-0.06458141
70	0xbe09a30b	-0.13441102
71	0x3e0cca5b	0.13749067
72	0x3ebd6529	0.36991242
73	0x3ea721a9	0.32642868
74	0x3e6ad95f	0.22934483
75	0x3e23fff8	0.16015613
76	0x3f019aef	0.50627035
77	0xbde68320	-0.11255479
78	0x3dfa1a21	0.12212015
79	0xbd5f972e	-0.054587536
80	0xbe774f97	-0.24151455
81	0x3f46deb4	0.7768357
82	0x3e93115b	0.2872418
83	0xbe14bf58	-0.14526117
84	0x3e3e3422	0.18574575
85	0x3c979219	0.018502282
86	0x3de57102	0.11203195
87	0xbe987275	-0.29774824
88	0x3ec485f9	0.38383463
89	0x3e445517	0.19173084
90	0xbe5a6f34	-0.21331483
91	0x3def9859	0.1169898
92	0xbcad2736	-0.021136861
93	0x3e25d5c8	0.16194832
94	0x3e23e0bb	0.16003697
95	0x3d5b3dcc	0.05352573
96	0x3e888775	0.26665846
97	0xbe2d3de3	-0.16918139
98	0xbf05803d	-0.521488
99	0xbef3bb0b	-0.4760364
100	0xbeeba089	-0.46020916
101	0x3f7f4930	0.9972105
102	0xbe1e2f88	-0.15447819
103	0xbe39c3c8	-0.18141091
104	0xbe0810db	-0.1328768
105	0x3e9ee21d	0.31031886
106	0x3e000446	0.1250163
107	0xbe86983a	-0.26288015
108	0x3f7564f5	0.95857173
109	0xbb38b500	-0.0028184056
110	0xbf0cbd1e	-0.5497607
111	0xbf07cd21	-0.53047377
112	0xbeac4479	-0.3364599
113	0xbeb46dca	-0.35240012
114	0xbe2f3a59	-0.17112102
115	0xbf04b0ea	-0.5183245
116	0x3d9c2600	0.076244354
117	0xbc5f5663	-0.013631436
118	0x3da899b3	0.08232441
119	0x3e6320dc	0.22180504
120	0xbe2156b5	-0.15755732
121	0x3d5e5a4b	0.05428533
122	0x3cbd5f70	0.023116797
123	0xbd4d8ab3	-0.050181102
124	0xbde2298d	-0.110430814
125	0xbd436dc5	-0.047712106
126	0x3c034aa2	0.008013399
127	0x3f89cd51	1.0765783
128	0x3ecd18b8	0.4005792
129	0xbdba8654	-0.09107652
130	0xbeaeffc4	-0.3417951
131	0xbe318a2e	-0.17337868
132	0xbe16a3ba	-0.14710894
133	0xbd9e3eac	-0.077267975
134	0xbedd8f9b	-0.43273625
135	0xbe8c8afd	-0.2744979
136	0x3c87f09c	0.016594224
137	0xbd5b014c	-0.053468034
138	0x3e8c28c5	0.27374855
139	0xbd1a4036	-0.037658893
140	0xbf024953	-0.50893134
141	0xbf13dede	-0.57761943
142	0xbbdc02c0	-0.006714195
143	0xbec6c2dc	-0.3882054
144	0xbf4d8bab	-0.8029124
145	0xbe382e26	-0.17986354
146	0xbddbe726	-0.107374474
147	0xbfc0b770	-1.5055981
148	0x3e85b7a9	0.26116684
149	0x3e571946	0.21005735
150	0xbd2b8465	-0.04187431
151	0x3e00a539	0.12563027
152	0x3df2269e	0.11823772
153	0x3e705932	0.23471525
154	0x3e8bc1fc	0.27296436
155	0x3d4c1e00	0.049833298
156	0xbd4f8709	-0.05066589
157	0x3d96f107	0.07370191
158	0x3e8a27f9	0.26983622
159	0xbdc03d79	-0.09386725
160	0xbe1ae0a0	-0.1512475
161	0x3dedbf18	0.11608714
162	0xbebdb996	-0.37055653
163	0xbe839915	-0.2570273
164	0xbdd61c06	-0.10454564
165	0xbebcae75	-0.3685185
166	0x3cb7ff05	0.02246047
167	0xbf740f1e	-0.95335567
168	0x3e644e3a	0.22295466
169	0xbeb916fa	-0.36150342
170	0xbe6e5977	-0.23276316
171	0x3e32b7b8	0.17452896
172	0x3f40e215	0.75344974
173	0x3d497788	0.04918626
174	0xbd20cd8c	-0.039258525
175	0x3e8df70c	0.27727544
176	0x3c20a413	0.009804743
177	0x3e183cb4	0.14866906
178	0x3e81258e	0.25223964
179	0xbc99dd50	-0.018782288
180	0x3c0799b9	0.008276396
181	0xbd08485c	-0.033272132
182	0xbcafbd22	-0.02145249
183	0x3d34b5e9	0.044118796
184	0x3dd028e4	0.10164049
185	0x3bb1c44e	0.0054250127
186	0x3edde0b7	0.43335506
187	0x3dd10838	0.10206646
188	0x3d41ada1	0.047284726
189	0x3e0d67b5	0.13809092
190	0xbe245fc8	-0.16052163
191	0xbdb35107	-0.08755689
192	0x3ee907d5	0.45513788
193	0x3f9665c9	1.1749812
194	0xbe7b68a6	-0.24551639
195	0xbdb64eac	-0.08901724
196	0xbd81dd34	-0.06341019
197	0x3d876894	0.066117436
198	0x3d44fa1d	0.04809009
199	0xbddb1355	-0.10697047
200	0xbe591d6e	-0.21202633
201	0xbcf1ce6a	-0.029517371
202	0xbef39da3	-0.47581205
203	0xbc141d5d	-0.009040204
204	0xbef9a043	-0.48755082
205	0xbeaefd7c	-0.34177768
206	0x3fa221f3	1.266661
207	0x3e8b41f7	0.27198765
208	0x3dc4227b	0.09576889
209	0xbdd5a8fa	-0.1043262
210	0xbdbdbeda	-0.09264918
211	0xbec40d18	-0.3829124
212	0xbeeeacc4	-0.46616185
213	0xbdc01cd4	-0.093804985
214	0x3d4b9079	0.049698327
215	0xbd5303d1	-0.05151731
216	0x3ea242a3	0.31691465
217	0x3e29d9dd	0.16587014
218	0x3e4f81cc	0.20264357
219	0xbf57a1bc	-0.8423116
220	0x3d666218	0.056245893
221	0xbdafb8b5	-0.08580152
222	0xbdbb3874	-0.09141627
223	0xbe251790	-0.1612227
224	0xbda12d20	-0.07869935
225	0xbd430555	-0.047612507
226	0xbe81108c	-0.25207937
227	0x3c8ca63c	0.01716911
228	0xbe3a0a5f	-0.18168019
229	0xbe3e5baf	-0.18589662
230	0xbe8ba45d	-0.27273837
231	0x3da4bfe5	0.080444135
232	0x3e2cd9fd	0.16880031
233	0xbe35b1a4	-0.17743546
234	0xbca4c535	-0.020113567
235	0xbaa9f7e4	-0.0012967554
236	0x3e6cd506	0.23128137
237	0x3ea0ac09	0.31381252
238	0xbe5d13f2	-0.2158964
239	0xbdb15a98	-0.086598575
240	0x3d06095f	0.03272378
241	0x3e761131	0.24029996
242	0x3ea6fcad	0.3261465
243	0x3e9921ee	0.299087
244	0xbf0a140f	-0.53936857
245	0x3f10c22a	0.5654627
246	0xbcfefd20	-0.031126559
247	0xbd779131	-0.0604412
248	0xbe90ecdb	-0.28305706
249	0xbe397a21	-0.18112995
250	0x3ba6d7ed	0.0050916583
251	0x3e5e8ef7	0.21734224
252	0xbde1fe58	-0.1103484
253	0xbcb4069b	-0.021975806
254	0xbdae39ec	-0.085071415
255	0xbeaba658	-0.33525348

net.0.bias f4 [64]
0	0x3dc4bd31	0.09606398
1	0x3d49ae14	0.04923828
2	0x3cdbfcda	0.026853967
3	0x3d8810c3	0.06643822
4	0xbe67ae14	-0.22625
5	0x3d1bab7b	0.038005333
6	0xbe001156	-0.12506613
7	0xbeaaa41f	-0.3332834
8	0xbe9ca21a	-0.30592424
9	0xbd98081e	-0.07423423
10	0xbe071cca	-0.13194576
11	0xbe4c64fd	-0.19960399
12	0xbea7340e	-0.32656902
13	0x3eee0390	0.46487093
14	0x3dbd0620	0.09229684
15	0xbf0a7703	-0.5408785
16	0xbd607152	-0.05479557
17	0xbe7698dc	-0.24081749
18	0x3e6ce782	0.23135188
19	0x3e0a9019	0.13531531
20	0xbe9ffbbf	-0.31246755
21	0x3e0ff47a	0.14058104
22	0x3cde3955	0.027126947
23	0xbebb9076	-0.36633652
24	0xbde66581	-0.11249829
25	0xbecc0779	-0.3984945
26	0xbe1f244a	-0.15541187
27	0xbdf44860	-0.11927867
28	0xbd28ff6d	-0.041259218
29	0x3e49086e	0.19632122
30	0x3e0d20db	0.13782065
31	0xbe832b31	-0.2561889
32	0xbe8cd274	-0.27504313
33	0xbec9afb1	-0.39391854
34	0x3e1f67b8	0.1556691
35	0xbe90cd95	-0.28281847
36	0xbd551d67	-0.052029993
37	0xbe02a1e4	-0.12757069
38	0xbec7bfd1	-0.39013532
39	0xbc3fcb9f	-0.011706262
40	0x3e206cb4	0.15666467
41	0xbe89fb35	-0.26949468
42	0xbe8dbf55	-0.27685037
43	0x3c45d81a	0.012075448
44	0x3ec034f9	0.37540415
45	0xbd9fbdee	-0.07799898
46	0x3c741638	0.0148978755
47	0x3e3740c5	0.17895801
48	0x3e0a1ba3	0.13487105
49	0xbe87d94c	-0.26532972
50	0xbe0d8a8f	-0.13822387
51	0xbec2b8ff	-0.38031766
52	0xbd8b977a	-0.06816001
53	0xbe556017	-0.20837437
54	0x3cf9471a	0.030429412
55	0x3f135931	0.5755797
56	0x3e30c7c4	0.17263705
57	0xbdbd8759	-0.09254331
58	0x3e9d5edb	0.3073643
59	0x3ea7841f	0.32717988
60	0xbd99ea1d	-0.07515357
61	0xbea68b10	-0.3252797
62	0xbe0dad53	-0.13835649
63	0xbea54127	-0.3227627

net.2.weight f4 [64, 64]
0	0x3dad73e6	0.084693715
1	0x3ce262fd	0.027635092
2	0xbe045fd3	-0.12927179
3	0x3db4c9ef	0.08827578
4	0x3d43b8b4	0.04778357
5	0xbe1a3b31	-0.15061642
6	0xbdd265e7	-0.102733426
7	0x3daecc3c	0.08535048
8	0xbcc3e320	-0.023912013
9	0xbd819c79	-0.06328673
10	0xbd35c2d1	-0.044375245
11	0xbda214e6	-0.07914142
12	0xbdfce2a9	-0.123479195
13	0x3dc027a2	0.09382559
14	0xbda167f1	-0.078811534
15	0xbda98f8e	-0.08279334
16	0xbdbec27b	-0.09314438
17	0xbcc2f320	-0.023797572
18	0xbe3d343f	-0.18476962
19	0xbc984cc0	-0.018591285
20	0xbbb68fd5	-0.0055713453
21	0xbdfd7fd9	-0.12377901
22	0xbdbf325e	-0.09335779
23	0xbd0c18f7	-0.034203496
24	0xbd72a589	-0.059239898
25	0xbe020a85	-0.12699325
26	0xbdc0cef2	-0.09414472
27	0xbd08612b	-0.03329579
28	0x3d3cbfbd	0.046081293
29	0x3df093dc	0.11746952
30	0xbdf760a4	-0.120789796
31	0xba39a500	-0.0007081777
32	0xbd57c2fc	-0.052676186
33	0xbd369f5d	-0.044585574
34	0xbda20855	-0.079117455
35	0x3d65a8f1	0.05606932
36	0xbdc0f249	-0.09421212
37	0xbccb4158	-0.024811432
38	0xbdfca535	-0.12336198
39	0xbaea31a2	-0.0017867575
40	0x3d24a9da	0.040201046
41	0xbd8173ad	-0.063208915
42	0xbddf55cc	-0.10905036
43	0xbca0a8c6	-0.019611727
44	0x3d8faeb2	0.07015742
45	0x3d8f85eb	0.07007965
46	0xbd3e1fbd	-0.046416987
47	0x3d0ee520	0.03488648
48	0xbe2521d3	-0.16126184
49	0x3c7fe5e0	0.015618771
50	0x3de3408e	0.11096297
51	0x3d81014b	0.06299075
52	0xbc452940	-0.012033761
53	0xbddd82b6	-0.10815947
54	0xbd2d4238	-0.04229948
55	0xbe01ad3e	-0.12663743
56	0xbd9a8af4	-0.075460345
57	0xbd5aaa6c	-0.053385183
58	0xbdd5d4ce	-0.1044098
59	0xbd6c0d14	-0.05762966
60	0x3d1c254f	0.038121518
61	0xbde9d3ae	-0.11417328
62	0xbcd591b0	-0.026070446
63	0x3d9b3bec	0.075797886
64	0x3d6e3a40	0.05816102
65	0xbe05eea8	-0.13079321
66	0x3da52e7b	0.08065506
67	0x3d9c290a	0.07625015
68	0xbd53eb44	-0.05173804
69	0xbe1c9003	-0.15289311
70	0xbd70e603	-0.058813106
71	0x3dbe706b	0.09298786
72	0xbdcc23a7	-0.09967738
73	0xbe3c001b	-0.18359415
74	0xbdd94fc3	-0.106109165
75	0xbd35ea0c	-0.044412658
76	0x3bc31dea	0.005954494
77	0xbd970920	-0.07374787
78	0xbe6f0abc	-0.23343939
79	0xbe0bf431	-0.1366737
80	0xbe1636ff	-0.14669417
81	0xbdcda0ec	-0.10040459
82	0xbe8aa447	-0.2707846
83	0x3d6eeecf	0.058333214
84	0xbe1de93e	-0.15421006
85	0xbe3ebb0d	-0.18626042
86	0x3d3e7cd8	0.04650578
87	0xbe52647b	-0.20546143
88	0x3d86b014	0.06576553
89	0xbd9312e7	-0.0718134
90	0x3dc28eca	0.09499891
91	0xbe75eb47	-0.24015532
92	0x3d2cc140	0.042176485
93	0xbb6afc00	-0.003585577
94	0xbdce2ce6	-0.100671574
95	0x3d7b3aec	0.06133549
96	0xbeb4affc	-0.35290515
97	0xbdbe6ed7	-0.09298485
98	0x3a4c035b	0.00077824824
99	0xbbeb7532	-0.0071856016
100	0xbd795185	-0.06086876
101	0x3d43c6ad	0.047796894
102	0x3db623ed	0.08893571
103	0xbe25aeb4	-0.16179925
104	0x3dbca68b	0.09211453
105	0xbda14804	-0.07875064
106	0xbd481fa7	-0.04885831
107	0xbe453159	-0.19257106
108	0xbc852591	-0.016253265
109	0x3e205457	0.15657173
110	0x3d0cf436	0.034412585
111	0x3d8772ac	0.06613669
112	0xbe2b0622	-0.16701558
113	0xbddb28ca	-0.10701139
114	0xbd98093e	-0.07423638
115	0x3cb4ce5a	0.022071052
116	0x39fc3e00	0.0004811138
117	0x3d1206a2	0.035650857
118	0xbd615514	-0.055012777
119	0xbe3dd4d6	-0.18538222
120	0x3d04ec69	0.03245202
121	0xbd9c31fb	-0.076267205
122	0xbdc25cae	-0.094903335
123	0x3be8a35b	0.0070995516
124	0xbe90b00c	-0.28259313
125	0x3bb14dbc	0.005410878
126	0x3da88932	0.08229293
127	0xbdb40196	-0.08789365
128	0x3e7c8a93	0.24662237
129	0xbc293e43	-0.010329786
130	0x3f1aa9de	0.60415447
131	0xbf1d2d70	-0.6139746
132	0xbd1a1608	-0.037618667
133	0x3ec943db	0.39309582
134	0x3c0f1dbe	0.008735118
135	0xbe0c205a	-0.13684216
136	0xbe1afe7c	-0.1513614
137	0x3ea6ffb6	0.32616967
138	0xbf2d32c5	-0.67655593
139	0xbf1a76f4	-0.6033776
140	0xbed97e94	-0.42479384
141	0xbe5cf504	-0.21577841
142	0xbef10b87	-0.47079107
143	0x3b2e25a9	0.002657274
144	0xbd92229b	-0.07135507
145	0xbd404234	-0.046938136
146	0xbd145f3c	-0.036223635
147	0xbdd23648	-0.102642596
148	0xbe117b52	-0.14207199
149	0x3e1d737d	0.15376087
150	0xbb9039bd	-0.004401414
151	0x3d9df34b	0.0771242
152	0x3ea90a5b	0.33015713
153	0xbe1f5dee	-0.15563175
154	0x3d2e390f	0.042534884
155	0xbe424099	-0.18969955
156	0xbe3ea468	-0.18617404
157	0x3dd5c242	0.10437442
158	0x3e18d80c	0.14926165
159	0x3d9980f7	0.07495301
160	0xbe714346	-0.23560819
161	0x3ea14418	0.31497264
162	0xbf1c94d2	-0.6116458
163	0xbe71299a	-0.23551026
164	0xbe079ac3	-0.1324263
165	0xbdd6e4ea	-0.10492881
166	0xbd77e5eb	-0.060522
167	0x3e3cd98f	0.18442367
168	0x3d93e9bd	0.072223164
169	0xbcb2aa99	-0.021809863
170	0xbebad428	-0.36489987
171	0xbe75542f	-0.23957895
172	0xbf1fb19a	-0.62380373
173	0xbe1de683	-0.15419964
174	0xbe90d5a8	-0.28288007
175	0x3d2bcf20	0.041945577
176	0xbd84b99c	-0.06480715
177	0x3ca76f5e	0.020438846
178	0x3d8a92df	0.06766295
179	0xbf35e7af	-0.71056646
180	0x3b92c5e0	0.004479155
181	0xbedb8f7f	-0.42882916
182	0xbf6dbe55	-0.9286855
183	0xbd4683f2	-0.048465677
184	0xbf333d93	-0.7001583
185	0xbf9b1ce6	-1.2118194
186	0xbf4eb526	-0.8074516
187	0xbf528277	-0.82230324
188	0x3da36cde	0.07979749
189	0xbf5ab802	-0.85437024
190	0xbb9564c0	-0.0045591295
191	0xbe81e9e9	-0.25373772
192	0xbe5380a0	-0.20654535
193	0xbd8816ee	-0.066449985
194	0x3eaa0345	0.3320562
195	0xbe5d46f2	-0.21609095
196	0xbbec9840	-0.007220298
197	0x3eafc9ed	0.34333745
198	0x3eddeca1	0.43344596
199	0xbd65b497	-0.056080427
200	0xbe53f9bc	-0.20700735
201	0xbf088587	-0.53328747
202	0xbe291a65	-0.16513975
203	0x3ea16059	0.3151882
204	0xbf03f0f4	-0.5153954
205	0x3daa054e	0.08301793
206	0xbf1924dd	-0.59821874
207	0x3d3499de	0.04409205
208	0x3c0a764f	0.0084510585
209	0x3ddc0914	0.10743919
210	0x3d1b0df9	0.037855122
211	0x3d8804cc	0.0664154
212	0x3cf0213d	0.029312724
213	0xbe3a6384	-0.18202025
214	0x3d945719	0.07243175
215	0x3e117bd2	0.1420739
216	0x3dc9668b	0.09834012
217	0xbe8af2e2	-0.2713843
218	0xbe83572a	-0.25652438
219	0xbd9c3560	-0.07627368
220	0x3d9e3314	0.07724586
221	0x3c894600	0.016757011
222	0xbf7046b5	-0.9385789
223	0xbd5f16bc	-0.05446504
224	0xbcb29d3e	-0.021803495
225	0x3e033a6f	0.1281526
226	0xbf36ac61	-0.7135678
227	0xbec78959	-0.38971975
228	0xbde0933d	-0.109655835
229	0xbd62af35	-0.05534287
230	0x3e42b21e	0.19013259
231	0x3e62000b	0.22070329
232	0xbd30480a	-0.04303745
233	0xbe521653	-0.20516329
234	0x3d326d72	0.043561406
235	0xbe3b38da	-0.18283406
236	0xbe35dec5	-0.17760761
237	0xbf726d68	-0.9469819
238	0xbe8c6e0d	-0.27427712
239	0xbc2e4a90	-0.010637894
240	0xbdd5313a	-0.1040978
241	0xbda74468	-0.08167344
242	0xbdef9004	-0.11697391
243	0xbdecde25	-0.11565808
244	0x3dd52ce2	0.10408951
245	0xbe9a6365	-0.30153957
246	0xbf58d1aa	-0.8469492
247	0xbf8bf1f6	-1.0933216
248	0xbe64daff	-0.22349165
249	0xbf581def	-0.84420675
250	0xbf56d99a	-0.83925784
251	0xbe85ab5f	-0.26107308
252	0xbee211aa	-0.44154102
253	0xbf3c9b6b	-0.7367465
254	0x3c016d80	0.007899642
255	0x3e03975f	0.12850712

net.2.bias f4 [64]
0	0x3c5ad690	0.01335682
1	0x3cf9f2f7	0.030511362
2	0xbd6ee49b	-0.058323484
3	0xbd7ffef3	-0.062498998
4	0xbe4e19b4	-0.20126992
5	0xbe5b648c	-0.21425074
6	0xbd318ae9	-0.043345366
7	0x3c3681d1	0.011139349
8	0xbdf724e2	-0.12067582
9	0xbdd4047e	-0.10352419
10	0x3ef36394	0.4753691
11	0xbf1070c0	-0.5642204
12	0x3efdb436	0.49551553
13	0xbd3709b5	-0.04468699
14	0xbe2a29c8	-0.16617501
15	0x3de6a343	0.112616085
16	0xbc4f33b6	-0.012646606
17	0xbe4ea1c1	-0.20178892
18	0xbd991d25	-0.07476262
19	0x3d5baa43	0.05362917
20	0x3c210773	0.009828436
21	0xbe0548db	-0.13016073
22	0xbe345262	-0.17609552
23	0xbe029f62	-0.12756112
24	0x3e7f444c	0.24928397
25	0xbe0497a1	-0.12948467
26	0x3eb4d526	0.3531887
27	0xbdd53554	-0.10410562
28	0xbe0f0909	-0.1396829
29	0xbe48a240	-0.19593143
30	0xbe4c6123	-0.1995893
31	0xbdfcb63c	-0.12339446
32	0x3e7ce893	0.24698095
33	0x3ed38492	0.4131208
34	0x3e91f4aa	0.28506976
35	0x3ef07a8c	0.46968496
36	0xbdafb621	-0.0857966
37	0xbe0b1e94	-0.13585883
38	0x3e9e19bd	0.30879012
39	0xbd48b022	-0.0489961
40	0xbe924965	-0.2857162
41	0x3e484f0d	0.19561405
42	0xbe1f7071	-0.15570237
43	0x3ea10744	0.31450856
44	0xbd21f22d	-0.039537597
45	0xbe1dfa30	-0.1542747
46	0xbde867e3	-0.1134794
47	0x3e79c53f	0.2439165
48	0xbe29d58e	-0.16585371
49	0x3d6116be	0.05495333
50	0xbcfbfb60	-0.030759513
51	0xbe31d945	-0.17368038
52	0xbe1e8cba	-0.1548337
53	0x3defc0e2	0.11706711
54	0xbc37c84a	-0.011217186
55	0x3cec8361	0.02887124
56	0x3ec34326	0.38137168
57	0xbc5cdd83	-0.013480547
58	0xbcf6580c	-0.03007128
59	0xbc2788ac	-0.010225456
60	0x3b1103de	0.002212755
61	0xbdea92fa	-0.11453815
62	0xbe1c92be	-0.15290353
63	0x3e9e6d9a	0.30942994

net.4.weight f4 [6, 64]
0	0x3d76474d	0.06012659
1	0xbdb572e3	-0.088598035
2	0x3ed7c4f9	0.42142466
3	0x3ef6fece	0.48241276
4	0xbc926d5a	-0.017874409
5	0x3e453bbf	0.19261073
6	0xbd779611	-0.06044585
7	0x3cc75d7a	0.024336565
8	0xbd297ef8	-0.041380852
9	0xbd793ee5	-0.060850997
10	0xbf07d305	-0.53056365
11	0xbdfbe8f1	-0.123002894
12	0xbd4d5219	-0.050127123
13	0x3d81817d	0.06323526
14	0x3e6a2bb2	0.22868231
15	0x3e9737d1	0.29534772
16	0xbc4cbe19	-0.012496495
17	0xbe24e62d	-0.1610343
18	0x3d06d688	0.032919437
19	0x3e49c105	0.19702537
20	0x3dae365d	0.08506463
21	0xbea65c92	-0.324925
22	0x3df64f11	0.120267995
23	0x3e791ffe	0.2432861
24	0x3eb205af	0.3476996
25	0x3dabaed8	0.08382958
26	0xbe7ae5da	-0.24501744
27	0x3cd3af97	0.025840564
28	0x3e5999a7	0.2125002
29	0x3d570be7	0.052501585
30	0x3e969560	0.2941084
31	0x3d082c24	0.03324522
32	0x3d323ec9	0.043516908
33	0xbdc390d5	-0.09549109
34	0x3ec658ac	0.38739526
35	0xbf1e8464	-0.6192076
36	0xbc0dbbc2	-0.008650722
37	0x3c3a8fa5	0.011386787
38	0xbed58975	-0.41706434
39	0xbc202ffa	-0.0097770635
40	0xbef31997	-0.4748046
41	0xbe5aba8d	-0.21360226
42	0x3d75615f	0.059907313
43	0x3eb2e6d1	0.34941724
44	0x3e37b0ef	0.17938589
45	0x3d5d94e3	0.054097068
46	0xbd925b45	-0.071463145
47	0xbe14e6a0	-0.14541101
48	0x3d3bcc5b	0.045849185
49	0xbdda48e0	-0.10658431
50	0xbcc765d9	-0.024340557
51	0xbca38984	-0.019963033
52	0xbc9aa90c	-0.018879436
53	0x3e46ce31	0.19414593
54	0xbedecb80	-0.43514633
55	0x3dac9d41	0.08428431
56	0xbf4e24ce	-0.8052491
57	0x3eb91859	0.36151388
58	0x3d455893	0.048180174
59	0x3d979f4a	0.07403429
60	0xbd259eea	-0.040434755
61	0x3ef0a182	0.4699822
62	0x3e0816e6	0.13289985
63	0xbf2bb1c5	-0.6706813
64	0xbdb92f43	-0.090422176
65	0x3de7d255	0.113194145
66	0x3e83226f	0.25612208
67	0x3deba871	0.11506737
68	0x3c606b6f	0.013697489
69	0x3d8b9b11	0.06816686
70	0xbd00aaf0	-0.03141302
71	0xbe24ef93	-0.16107015
72	0xbc929e6d	-0.017897809
73	0x3b311db7	0.0027025768
74	0xbeabda5e	-0.33565038
75	0xbe63c77c	-0.22244066
76	0xbe97337a	-0.2953146
77	0x3d4a7166	0.04942455
78	0x3dba8329	0.09107048
79	0x3e477546	0.1947833
80	0xbd9366ce	-0.07197343
81	0xbdf99303	-0.121862434
82	0x3dd1785d	0.102280356
83	0xbde4c74d	-0.11170826
84	0x3d55553e	0.052083246
85	0xbe888301	-0.26662448
86	0xbda54ba1	-0.08071066
87	0xbe63bfa8	-0.2224108
88	0xbedf84ba	-0.4365595
89	0xbca09f8c	-0.019607328
90	0x3ea62152	0.32447296
91	0xbdf1486a	-0.1178139
92	0xbe8185a3	-0.2529727
93	0xbd7a1a3f	-0.061060186
94	0xbe1e6332	-0.15467528
95	0x3d0fef58	0.035140365
96	0xbdc5df32	-0.09661712
97	0x3ec62b95	0.38705125
98	0xbeb23caa	-0.34811908
99	0x3e67cf2a	0.2263762
100	0x3d518625	0.05115332
101	0x3dad2aac	0.08455405
102	0x3e97a3b1	0.29617074
103	0xbdad903f	-0.084747784
104	0xbc945248	-0.018105641
105	0xbdf4cfc7	-0.11953693
106	0xbc962805	-0.01832963
107	0xbf191090	-0.597909
108	0x3e59daa7	0.21274815
109	0xbd9e26f2	-0.07722272
110	0xbd62dfa8	-0.055389076
111	0xbd6bfee3	-0.057616126
112	0xbd08baa3	-0.033381116
113	0xbe37696f	-0.17911313
114	0xbc11fd2c	-0.008910459
115	0x3c5d3f18	0.013503812
116	0xbd082f53	-0.033248257
117	0xbda67fb0	-0.08129823
118	0x3ed3efa4	0.4139377
119	0xbdd18e6f	-0.10232245
120	0xbf385aa3	-0.720133
121	0xbee84477	-0.45364735
122	0x3dbc38f6	0.09190552
123	0xbd1e29db	-0.038614135
124	0x3dcd0084	0.10009864
125	0xbe39641b	-0.18104593
126	0xbe876ab0	-0.26448584
127	0x3f5ec4de	0.87019145
128	0xbbe42b0e	-0.0069631403
129	0x3d524f28	0.05134502
130	0xbf1b586b	-0.6068179
131	0xbeeefb1b	-0.46675953
132	0x3d47b57e	0.04875707
133	0x3e2fcccb	0.17167966
134	0xbe251d88	-0.16124547
135	0xbd1e5964	-0.03865947
136	0xbd865841	-0.06559802
137	0x3ca3092f	0.01990184
138	0x3e79fac8	0.24412072
139	0x3e807022	0.2508555
140	0xbeab08cb	-0.33405146
141	0x3d5df11c	0.054185018
142	0x3e05b2e2	0.1305652
143	0xbe28ad1e	-0.16472289
144	0xbcb01c43	-0.021497851
145	0x3ec2669f	0.3796892
146	0x3e0f2292	0.13978031
147	0xbe30111c	-0.17194027
148	0xbc58538a	-0.013203511
149	0xbe75fd36	-0.24022374
150	0x3c5b4079	0.013382071
151	0xbea0a702	-0.31377417
152	0xbe926908	-0.28595757
153	0x3c320d4b	0.010867427
154	0x3dc4b179	0.09604163
155	0xbd3353db	-0.043781143
156	0xbdc22e7d	-0.09481523
157	0xbd4f476b	-0.05060522
158	0x3e921cab	0.28537497
159	0xbdb7863c	-0.0896115
160	0xbc169ae5	-0.009192203
161	0x3e2e0fe2	0.16998246
162	0x3dac208d	0.08404646
163	0xbf23a6e6	-0.6392654
164	0xbdc35c49	-0.09539086
165	0x3dcff08a	0.10153301
166	0x3e9a986b	0.3019441
167	0x3cc1565a	0.023600746
168	0xbf173aee	-0.59074295
169	0x3d90707f	0.07052707
170	0x3cdc7656	0.026911896
171	0x3ef6725f	0.48134133
172	0xbe0a698c	-0.13516825
173	0x3dd74972	0.105120555
174	0xbe011f03	-0.12609486
175	0x3e524774	0.2053507
176	0x3dd98760	0.10621524
177	0x3df96e48	0.121792376
178	0x3e21e47a	0.15809813
179	0x3da1018d	0.07861624
180	0xbd3b3cf3	-0.045712423
181	0xbeaa4d18	-0.33261943
182	0xbe84d92b	-0.25946936
183	0x3ce7ef7a	0.028312434
184	0x3f6c1cba	0.92231333
185	0xbe29ee40	-0.16594791
186	0x3e19f71c	0.15035671
187	0x3b42cb2c	0.002972315
188	0xbd82a74e	-0.06379567
189	0x3e8d7444	0.27627766
190	0x3d015f84	0.03158523
191	0xbd285e79	-0.04110572
192	0xbdfa575e	-0.12223695
193	0x3db4f8ce	0.08836518
194	0xbde59566	-0.11210136
195	0xbdf8759c	-0.12131807
196	0x3de37d45	0.11107878
197	0x3c994cb5	0.018713335
198	0xbc59217b	-0.013252611
199	0xbddd92aa	-0.108189896
200	0x3c7bb684	0.015363339
201	0xbce84ef0	-0.028357953
202	0xbe089a1f	-0.13340043
203	0x3d37a77c	0.04483746
204	0xbe665d20	-0.22496462
205	0x3deae13d	0.11468742
206	0xbca72501	-0.020403387
207	0xbd505179	-0.05085895
208	0x3c9e26da	0.019305635
209	0x3d6821d3	0.056672882
210	0x3d2b5d26	0.04183688
211	0x3e092c2e	0.1339576
212	0x3cce6109	0.025192754
213	0x3c87897c	0.01654505
214	0x3e10abee	0.14128086
215	0x3c2192ad	0.00986163
216	0x3da364fd	0.07978246
217	0x3d870576	0.065928385
218	0xbd4c223e	-0.049837343
219	0xbd259a07	-0.040430095
220	0xbc2a7570	-0.010403976
221	0x3d0e34bb	0.034718256
222	0xbd620442	-0.05517984
223	0x3d834bff	0.064109795
224	0xbe6f4c35	-0.23368914
225	0x3d1c810e	0.038209014
226	0x3e063ec9	0.13109888
227	0xbe35a317	-0.17737995
228	0x3d294fb7	0.041335788
229	0xbb8d4f3f	-0.0043124254
230	0xbd42b754	-0.047538117
231	0x3cfe20d6	0.031021517
232	0xbc13c940	-0.00902015
233	0x3dcb55a0	0.09928441
234	0x3c170cf8	0.009219401
235	0x3d1ca5d5	0.038244087
236	0xbcd2bb1b	-0.025723984
237	0x3c98abab	0.018636545
238	0x3d549b2c	0.051905796
239	0xbd62979d	-0.05532037
240	0xbd0e58cb	-0.03475265
241	0x3d26f109	0.040757213
242	0x3de18a3e	0.11012696
243	0xbd278465	-0.040897746
244	0x3c803cd1	0.015654
245	0xbc458706	-0.012056118
246	0x3c75ef75	0.015010704
247	0x3d9d785f	0.076889746
248	0xbda84e3f	-0.08218049
249	0x3dc5f617	0.096660785
250	0xbc2756df	-0.010213583
251	0xbd46647f	-0.048435684
252	0x3c514f35	0.012775232
253	0xbe761437	-0.24031149
254	0xbccd2b7b	-0.025045147
255	0xbda772b7	-0.08176177

net.4.bias f4 [6]
0	0xbbe83b97	-0.007087182
1	0x3d1370e6	0.03599634
2	0xbc89c5b9	-0.016817914
3	0xbe9ae201	-0.30250552
4	0xbe20b5e2	-0.15694383
5	0xbe324f8f	-0.17413162
