log/GC_SAC/square3Env/20210805-1809/GC_SAC_HER_actor.pth (torch_old, 22887 bytes, 6 tensors)

net.0.weight f4 [64, 13]
-0.116488226 -0.002507165 -0.22554243 -0.02568953 0.067419864 -0.22407392 -0.029754521 -0.105584
-0.31373355 -0.14270082 0.7139295 0.30669695 0.13529098 0.060148828 -0.21927956 -0.011442572
0.13681646 -0.22078213 0.124919444 -0.09846817 0.14682917 -0.008987835 -0.13437738 0.2011701
0.34695104 0.11598262 0.2283433 0.0560791 0.017213106 0.10293619 0.13666517 0.23285845
0.02332116 -0.18824083 -0.32510576 0.18670093 -0.41696605 -0.13299125 0.09399173 0.04911
-0.12571304 0.25031206 0.16621837 -0.07192986 -0.18140694 -0.007258037 0.19220003 0.11772943
0.16235772 -0.5678386 -0.18335083 -0.02745746 0.16254988 0.13689001 0.24991235 0.19209589
-0.15896726 0.14072943 0.056903053 0.12976477 -0.11825234 -0.008274873 0.06090197 -0.19599375
-0.1671556 -0.13116398 0.21478955 0.10963312 -0.01258389 -0.02944738 0.045924783 0.16066445
0.028357374 0.011846184 0.053853404 -0.8040927 -0.3303156 -0.08186267 0.048380803 -0.3558731
0.15052465 0.12551257 -0.07760233 -0.16079217 -0.21064956 0.0038485187 -0.032919396 0.18224151
-0.8769746 -0.47494653 -0.04634492 0.17401904 -0.11011869 0.10883579 0.20204139 -0.3005089
0.18538082 0.152967 0.22066312 0.21494694 0.1742883 0.024784898 0.19362724 0.07606909
-0.7605025 0.0016709568 2.0116568e-05 -0.39199892 0.08757253 -0.16587554 0.14449562 0.17893748
-0.015678667 -0.83789355 0.04481981 -0.042174548 5.5909157e-05 -0.026262194 0.06888339 -0.06763877
0.0019536733 0.02433042 -0.2591693 0.024403945 0.18267776 -0.038450655 -0.20899758 -0.7262472
0.019654516 -0.17246434 -0.35552013 -0.047345392 0.13643783 -0.07067039 0.1268926 0.013564557
-0.011754066 0.32072768 -0.09564225 0.1317977 -0.092569076 -0.48387143 -0.077340126 0.15897323
-0.07264354 0.20769086 0.047572915 -0.17457089 -0.26175132 0.044440903 -0.10533002 0.10986907
-0.16183002 0.51786625 0.5834387 -0.096174255 -0.13241188 -0.06669144 -0.20932242 -0.24037178
-0.16375074 -0.053627342 -0.262342 0.08565676 -0.21463451 0.0079502165 -0.036010742 -0.13673887
-0.21538816 -0.03274546 -0.028213624 -0.059419468 -0.04486346 -0.04067619 -0.2218678 0.14754462
-0.27384984 0.1701296 0.2082097 0.14837158 -0.046708167 -0.23358946 -0.196779 0.0059879804
-0.065506816 -0.38239172 0.25256917 0.0771319 -0.01041222 0.29950634 -0.11665089 -0.5932378
0.24094199 -0.16213734 0.22033867 -0.06823583 0.2084793 0.11160922 -0.07541524 0.03244432
0.029129893 0.16562168 0.06226207 -0.0934851 0.06737992 0.4959348 0.05601552 -0.26090664
0.14294586 -0.10896642 -0.21751665 0.20897976 -0.16138399 -0.14396928 0.10230229 -0.023264565
0.014699264 -0.060554184 -0.608067 0.2884438 -0.24190895 0.074943446 -0.17076558 -0.19298594
0.2749559 -0.28884995 0.22016656 -0.14643362 -0.16415776 0.20345815 0.2648612 0.30375504
0.25783747 0.18447548 0.29773086 -0.23535766 -0.030402645 -0.19692323 0.25495836 -0.13003087
0.19424136 -0.062322676 0.23443054 -0.055774525 0.19979063 -0.38833326 -0.25615245 -0.0885093
-0.058571342 -0.028861701 0.028014025 0.033272732 -0.22328962 0.32245257 0.012822743 -0.39606762
00000000: 6191 eebd 404f 24bb 98f4 66be d972 d2bc
00000010: 6d13 8a3d a273 65be c1bf f3bc 6d3c d8bd
00000020: afa1 a0be 2a20 12be 15c4 363f 6207 9d3e
00000030: b889 0a3e 9e5e 763d d28a 60be a079 3bbc
00000040: 9d19 0c3e b614 62be c4d5 ff3d aea9 c9bd
00000050: 635a 163e b641 13bc 399a 09be 89ff 4d3e
00000060: 91a3 b13e 4c88 ed3d d3d2 693e 33b3 653d
00000070: 8002 8d3c 36d0 d23d f4f1 0b3e 7272 6e3e
00000080: 040c bf3c 34c2 40be 4374 a6be 872e 3f3e
00000090: 937c d5be dc2e 08be bc7e c03d 9127 493d
000000a0: ebba 00be e728 803e 2635 2a3e f64f 93bd
000000b0: bec2 39be d4d4 edbb 16d0 443e 211c f13d
000000c0: 1a41 263e df5d 11bf 52c0 3bbe 78ee e0bc
000000d0: 7a73 263e e52c 0c3e 06e9 7f3e c9b4 443e
000000e0: 50c8 22be 601b 103e 2d13 693d 0ee1 043e
000000f0: 482e f2bd 5593 07bc 5874 793d 96b2 48be
00000100: d62a 2bbe da4f 06be cbf1 5b3e 5487 e03d
00000110: a92c 4ebc a23b f1bc a01b 3c3d 3985 243e
00000120: b94d e83c 7f16 423c 6395 5c3d 05d9 4dbf
00000130: 201f a9be 9ea7 a7bd f32a 463d 0035 b6be
00000140: 2223 1a3e 5e86 003e f8ed 9ebd b4a6 24be
00000150: 85b4 57be 6e37 7c3b 7dd6 06bd 859d 3a3e
00000160: 6881 60bf 312c f3be 2cd4 3dbd 0c32 323e
00000170: e885 e1bd 4ce5 de3d f0e3 4e3e 4ddc 99be
00000180: 78d4 3d3e 62a3 1c3e 83f5 613e 0d1b 5c3e
00000190: a278 323e b309 cb3c 3846 463e 1cca 9b3d
000001a0: 4bb0 42bf 0204 db3a 00c0 a837 15b4 c8be
000001b0: 3a59 b33d 47db 29be a9f6 133e 633b 373e
000001c0: 8c70 80bc 3180 56bf fa94 373d 38bf 2cbd
000001d0: 0080 6a38 d023 d7bc bc12 8d3d 3286 8abd
000001e0: 3309 003b 9750 c73c d7b1 84be c8ea c73c
000001f0: e10f 3b3e 6f7e 1dbd 7603 56be 56eb 39bf
00000200: 8202 a13c 7e9a 30be bc06 b6be 3eed 41bd
00000210: 5cb6 0b3e a3bb 90bd 22f0 013e e03d 5e3c
00000220: 2094 40bc 6b36 a43e 15e0 c3bd faf5 063e
00000230: db94 bdbd ffbd f7be 8064 9ebd e1c9 223e
00000240: 23c6 94bd eaac 543e d1db 423d b6c2 32be
00000250: 4504 86be aa07 363d 44b7 d7bd 0903 e13d
00000260: c5b6 25be e292 043f 3d5c 153f 02f7 c4bd
00000270: fb96 07be 8695 88bd 9e58 56be 0524 76be
00000280: 46ae 27be 58a8 5bbd b151 86be d06c af3d
00000290: 26c9 5bbe a041 023c 0080 13bd 4605 0cbe
000002a0: b78e 5cbe 1a20 06bd 4220 e7bc d461 73bd
000002b0: bfc2 37bd 149c 26bd 5031 63be f015 173e
000002c0: 0c36 8cbe 7436 2e3e ec34 553e b8ee 173e
000002d0: 1051 3fbd 1332 6fbe 6f80 49be d236 c43b
000002e0: 7028 86bd d9c8 c3be bf50 813e 54f7 9d3d
000002f0: 0498 2abc e558 993e a9e6 eebd 6fde 17bf
00000300: 7fb9 763e 5507 26be 76a0 613e 3abf 8bbd
00000310: 997b 553e 6093 e43d 4e73 9abd 56e4 043d
00000320: d0a1 ee3c bb98 293e 8306 7f3d 1e75 bfbd
00000330: 7cfe 893d 2beb fd3e 8870 653d 8e95 85be
00000340: 6660 123e c929 dfbd afbc 5ebe cafe 553e
00000350: d841 25be af6c 13be dd83 d13d 5495 bebc
00000360: 2fd5 703c aa07 78bd 47aa 1bbf e8ae 933e
00000370: fbb6 77be f37b 993d 2cdd 2ebe 1b9e 45be
00000380: 05c7 8c3e 24e4 93be 5873 613e b2f2 15be
00000390: f918 28be 5557 503e e39b 873e c885 9b3e
000003a0: 4603 843e 24e7 3c3e 2e70 983e 9901 71be
000003b0: f80e f9bc 3ea6 49be e789 823e d026 05be
000003c0: 35e7 463e 1046 7fbd 8f0e 703e d473 64bd
000003d0: ea95 4c3e 9ed3 c6be 6a26 83be 5d44 b5bd
000003e0: 81e8 6fbd 606f ecbc ab7d e53c fd48 083d
000003f0: 09a6 64be 8118 a53e 7b16 523c 60c9 cabe

net.0.bias f4 [64]
-0.35936803 -0.23928605 -0.10732344 -0.071375325 0.0017141494 -0.24636063 0.16509536 -0.18996757
-0.24176118 -0.16823302 -0.06453451 0.14671461 0.14672384 0.1604908 -0.16685787 0.3029355
0.16998814 0.11875854 -0.010226969 -0.012831466 -0.09190679 -0.37548047 0.2747971 0.04625836
0.0712253 -0.1467759 -0.07282382 -0.094664924 -0.021420572 -0.21679072 -0.18370405 -0.18127298
-0.33657563 0.1018181 -0.013513934 -0.1804833 0.17421246 0.2546986 -0.07237068 0.03163764
-0.22647241 0.0076974053 -0.020263314 0.106168404 0.1743572 -0.015105859 -0.22977181 0.048172634
0.12599637 0.051619824 0.22295849 -0.071446344 -0.13029684 -0.11029821 0.1636747 -0.1804494
0.05600805 -0.06686549 0.025119826 0.22415367 0.09476969 -0.119842775 0.09394166 -0.14572349
00000000: 16ff b7be 6707 75be 64cc dbbd 3a2d 92bd
00000010: 4fad e03a f645 7cbe c20e 293e dc86 42be
00000020: 3e90 77be 4745 2cbe ab2a 84bd 5b3c 163e
00000030: c63e 163e b357 243e cadc 2abe 5d1a 9b3e
00000040: 5f11 2e3e ad37 f33d 048f 27bc 123b 52bc
00000050: a139 bcbd fa3e c0be 35b2 8c3e 6879 3d3d
00000060: 92de 913d 6c4c 16be a824 95bd afdf c1bd
00000070: 327a afbc 63fe 5dbe ea1c 3cbe a09f 39be
00000080: a453 acbe 0286 d03d 8c69 5dbc 9dd0 38be
00000090: c064 323e db67 823e 1437 94bd 7896 013d
000000a0: 62e8 67be 843a fc3b 40ff a5bc d26e d93d
000000b0: b28a 323e 917e 77bc 4d49 6bbe ab50 453d
000000c0: 3105 013e 4f6f 533d 3b4f 643e 7652 92bd
000000d0: 896c 05be 07e4 e1bd 579a 273e bac7 38be
000000e0: b268 653d c6f0 88bd 18c8 cd3c 8a88 653e
000000f0: 9c16 c23d 2170 f5bd 7c64 c03d 8a38 15be

net.2.weight f4 [64, 64]
-0.17518382 0.45560965 0.052102987 0.05933471 0.17305243 -0.13052207 -0.05024213 0.042551544
0.028127752 -0.16573827 -0.08358105 0.049286522 -0.06036015 0.13979179 -0.1636207 0.0909197
0.06860502 0.036898315 0.06532124 -0.7669646 -0.6195683 -0.07804344 0.089812316 -0.058691397
0.043810315 0.01006335 -0.030712694 0.09797397 -0.34854975 -0.118917175 0.0587186 -0.06698058
0.18625343 0.030932605 0.052078314 -0.15743715 0.1414451 -0.011694059 0.31391057 0.08302595
8.055568e-05 0.23821765 0.03342396 -0.13511324 -0.18405354 -0.18165329 0.065744564 0.17250624
0.036316436 0.023993056 0.010221893 -0.078167416 -0.083961025 0.4664461 0.03333051 0.094726205
0.12020878 0.11500353 0.007855765 -0.051219348 -0.10507274 0.09278777 0.11999548 0.00017591781
0.24987522 -0.086251006 0.021338116 -0.23586774 0.118692175 -0.03022901 0.24562836 0.081868246
-0.054031078 0.110306986 0.09276883 -0.10451758 0.10694927 0.0020314492 0.04002551 0.0824633
-0.054520365 -0.27379143 -0.12648118 0.29744753 -0.09900709 0.20854908 0.084093064 0.10574339
-0.2847823 0.09907837 0.10985941 0.051961128 0.1701371 -0.0906938 -0.022195447 -0.031799786
-0.12912524 0.068342015 0.12340453 -0.08160935 0.04779415 -0.04403995 0.14567296 0.20695984
-0.039113864 0.23962197 -0.02837269 -0.20074973 -0.1576908 -0.0094050905 -0.06405035 -1.0136535
-0.0044414443 0.09942549 -0.11912949 -0.04654835 0.055145457 -0.7311368 0.2519844 0.008755368
0.046481818 -0.23546687 -0.08182765 -0.05689376 -0.1835666 0.11314264 -0.03222852 -0.21281926
-0.014939884 0.0036009545 0.13849866 0.06508255 0.054496743 -0.06507189 -0.38075483 0.07107564
-0.06550855 -0.024750218 -0.26816717 0.16673304 0.055443406 0.1789691 -0.46524632 0.00357907
0.14060108 0.02274896 -0.18501246 0.27199394 0.14050801 0.0336815 0.33888218 -0.0813569
0.17115718 0.03799531 -0.022603512 -0.16422129 0.1244095 -0.06742357 -0.13881123 0.006969254
-0.2297022 -0.1323644 -0.13426748 0.120377935 0.045084115 -0.1228313 -0.17484565 -0.0360732
0.024126187 -0.027376635 -0.092310965 0.04637056 -0.02973045 -0.14927727 -0.07581088 -0.07756182
0.02109203 0.016403673 0.23718643 -0.029246036 -0.11499544 -0.217464 -0.3152546 -0.206364
0.2705033 -0.1500687 0.035619877 0.042374857 0.12967211 0.032392304 -0.39999744 0.11362655
-0.10240288 -0.20235975 -0.27409607 -0.89795816 0.13576315 -0.024253797 -0.020193972 -0.123937495
-0.07696429 -0.48861822 0.090602 -0.010032901 -0.046998203 0.17375036 -0.713411 0.19468948
0.2010698 0.08059677 0.11348085 0.062256366 0.18665203 0.47090095 -0.005458408 -0.02377759
-0.38553393 -0.08347836 -0.022173569 0.12276706 0.1264376 -0.14330624 0.03364138 -0.1994512
-0.021701692 -0.09823177 0.006787218 0.2100793 -0.16491671 0.010329068 -0.26340386 0.019725123
-0.10358617 0.31949064 0.083822876 -0.00057141465 -0.011783543 -0.24094212 0.024011865 -0.12953074
-0.04676567 -0.059495784 0.017624414 0.04982288 0.24061264 0.028928088 0.063684605 -0.1838787
0.06618607 -0.52056974 -0.105396226 -0.16557111 -0.0490664 0.028160956 0.2287127 0.018798927
00000000: 6363 33be ab45 e93e f169 553d f408 733d
00000010: a834 313e 94a7 05be b1ca 4dbd 874a 2e3d
00000020: 2c6c e63c 4bb7 29be 8b2c abbd aae0 493d
00000030: 343c 77bd 9425 0f3e 2f8c 27be 1c34 ba3d
00000040: ca80 8c3d b022 173d 24c7 853d cb57 44bf
00000050: 079c 1ebf 3dd5 9fbd 85ef b73d 6466 70bd
00000060: 7272 333d c0e0 243c 3099 fbbc 94a6 c83d
00000070: 1d75 b2be d98a f3bd ea82 703d 1d2d 89bd
00000080: 38b9 3e3e 6066 fd3c 1250 553d 3437 21be
00000090: fcd6 103e 7098 3fbc e3b8 a03e 8209 aa3d
000000a0: 00f0 a838 54ef 733e 90e7 083d 205b 0abe
000000b0: 8878 3cbe 5203 3abe 16a5 863d 7aa5 303e
000000c0: 8bc0 143d 168d c43c ba79 273c 3d16 a0bd
000000d0: c2f3 abbd 06d2 ee3e 9385 083d d0ff c13d
000000e0: 0530 f63d f986 eb3d 77b5 003c 61cb 51bd
000000f0: 6030 d7bd 8407 be3d 31c0 f53d 9476 3839
00000100: 4adf 7f3e 5ea4 b0bd 46cd ae3c 5087 71be
00000110: e214 f33d d4a2 f7bc 0086 7b3e 8aaa a73d
00000120: b14f 5dbd a1e8 e13d 96fd bd3d 500d d6bd
00000130: 3808 db3d 1022 053b caf1 233d 85e2 a83d
00000140: bf50 5fbd 642e 8cbe 4884 01be 0b4b 983e
00000150: 3bc4 cabd e48d 553e fc38 ac3d fe8f d83d
00000160: fcce 91be 9ae9 ca3d f8fd e03d 31d5 543d
00000170: 6c38 2e3e acbd b9bd 3ad3 b5bc 7e40 02bd
00000180: 6839 04be e6f6 8b3d 84bb fc3d ce22 a7bd
00000190: ccc3 433d 3c63 34bd 4b2b 153e 48ed 533e
000001a0: dc35 20bd 765f 753e d86d e8bc 5691 4dbe
000001b0: b279 21be cf17 1abc d42c 83bd 66bf 81bf
000001c0: 8989 91bb 979f cb3d 29fa f3bd 7ca9 3ebd
000001d0: 34e0 613d c82b 3bbf 1904 813e ad72 0f3c
000001e0: b863 3e3d 3a1e 71be 4195 a7bd 6e09 69bd
000001f0: e2f8 3bbe 54b7 e73d 0d02 04bd 4bed 59be
00000200: 6ac6 74bc fefd 6b3b 98d2 0d3e 004a 853d
00000210: fa37 5f3d 6944 85bd 4cf2 c2be 1b90 913d
00000220: 5929 86bd f8c0 cabc 354d 89be 11bc 2a3e
00000230: a018 633d ad43 373e c434 eebe d58e 6a3b
00000240: bbf9 0f3e 075c ba3c e873 3dbe ca42 8b3e
00000250: 55e1 0f3e 9df5 093d f781 ad3e 729e a6bd
00000260: d443 2f3e f8a0 1b3d 002b b9bc a029 28be
00000270: 68ca fe3d 5e15 8abd 8824 0ebe 575e e43b
00000280: 0e37 6bbe 898a 07be 6a7d 09be b588 f63d
00000290: 1faa 383d fa8e fbbd bd0a 33be 7ec1 13bd
000002a0: 48a4 c53c f744 e0bc 880d bdbd 0eef 3d3d
000002b0: 468d f3bc 24dc 18be bc42 9bbd bbd8 9ebd
000002c0: 31c9 ac3c ff60 863c 00e1 723e 6295 efbc
000002d0: bb82 ebbd e2ae 5ebe 0d69 a1be 1651 53be
000002e0: 697f 8a3e 9cab 19be 26e6 113d 4291 2d3d
000002f0: c4c8 043e cbad 043d 77cc ccbe 09b5 e83d
00000300: 9ab8 d1bd 6537 4fbe 5256 8cbe 96e0 65bf
00000310: 7f05 0b3e e6af c6bc d46d a5bc f1d2 fdbd
00000320: 749f 9dbd 2b2c fabe 8b8d b93d 0961 24bc
00000330: 3081 40bd 9deb 313e 1aa2 36bf ae5c 473e
00000340: 3ee5 4d3e eb0f a53d a668 e83d 8800 7f3d
00000350: b621 3f3e ee19 f13e 72dc b2bb 38c9 c2bc
00000360: b464 c5be b4f6 aabd 58a5 b5bc 4c6d fb3d
00000370: dc78 013e dfbe 12be 8bcb 093d ef3c 4cbe
00000380: bfc7 b1bc bd2d c9bd 5067 de3b 071f 573e
00000390: eddf 28be 403b 293c dfdc 86be 9596 a13c
000003a0: fc24 d4bd 4794 a33e 54ab ab3d fdca 15ba
000003b0: c30f 41bc 88b9 76be 88b4 c43c b5a3 04be
000003c0: 5c8d 3fbd dab1 73bd 1361 903c 1413 4c3d
000003d0: 2963 763e 99fa ec3c 136d 823d b34a 3cbe
000003e0: 908c 873d 0f44 05bf fad9 d7bd 798b 29be
000003f0: d9f9 48bd ceb1 e63c a933 6a3e 3500 9a3c

net.2.bias f4 [64]
0.014331259 0.1794548 -0.103884935 0.044403173 -0.06569308 -0.1369213 0.04130138 -0.13931295
0.0265293 -0.026677908 -0.03343817 -0.017382585 0.025540823 0.066951744 0.0030002734 0.03846606
0.10970763 0.07777059 0.08024424 0.07371098 -0.07889334 0.08743119 -0.093743876 -0.08404632
0.296037 -0.14931567 -0.06935014 -0.05366932 -0.020762216 0.09363592 0.1696408 0.03844209
0.0410191 0.08673478 0.10898337 -0.056732114 0.113586925 0.013772893 -0.023132844 -0.1303805
-0.07920021 -0.09591328 0.0654573 0.059491687 0.11308404 0.10073367 0.00092816754 0.06570949
0.09259477 0.1816257 0.013028626 -0.052517805 0.25279382 -0.071575075 0.041394938 0.10948615
0.08802032 0.17168878 -0.32863113 -0.09608796 0.010755395 0.2199612 0.03102923 0.08938806
00000000: a8cd 6a3c 00c3 373e a0c1 d4bd 1ae0 353d
00000010: 188a 86bd 1935 0cbe a32b 293d 0ea8 0ebe
00000020: f953 d93c a18b dabc 76f6 08bd ec65 8ebc
00000030: fd3a d13c ff1d 893d 3ca0 443b 968e 1d3d
00000040: 65ae e03d 3046 9f3d 1857 a43d c8f5 963d
00000050: d592 a1bd 200f b33d cafc bfbd 7a20 acbd
00000060: 2992 973e 35e6 18be 7207 8ebd 5cd4 5bbd
00000070: 8615 aabc 30c4 bf3d 51b6 2d3e 7475 1d3d
00000080: a503 283d 01a2 b13d ac32 df3d ef5f 68bd
00000090: 43a0 e83d b3a7 613c 1781 bdbc 7782 05be
000000a0: b833 a2bd 2f6e c4bd 7a0e 863d 8ead 733d
000000b0: 9b98 e73d 744d ce3d 4550 733a b292 863d
000000c0: 54a2 bd3d 16fc 393e 0576 553c e91c 57bd
000000d0: 316e 813e f495 92bd bd8d 293d 463a e03d
000000e0: ff43 b43d 2fcf 2f3e 5742 a8be c4c9 c4bd
000000f0: 6537 303c 823d 613e 0331 fe3c 1611 b73d

net.4.weight f4 [6, 64]
0.2058717 -0.010720492 0.025752986 0.4280164 -0.40003172 -0.57928395 -0.12747139 0.08412316
0.31537595 1.0317546 -0.24643055 -0.28892058 0.09678197 0.044174716 0.32263345 -0.35400608
-0.09081293 -0.49713412 0.56325465 -0.05548312 0.23740982 0.11375762 -0.32389888 0.47957426
-0.4603886 0.022872064 -0.0014108004 0.44925424 -0.06668591 -0.41782677 0.20389825 -0.2822668
0.41676748 0.37119496 -0.8497806 0.08587456 0.26857832 -0.64402705 -0.37125972 0.68322563
0.11213532 -0.39769405 0.39331934 0.13629398 0.16365765 0.0035613354 -0.1634573 0.10375855
1.1240789 0.07789195 0.49544445 -0.08136208 -0.17140312 -0.013953016 -0.308873 -0.45418137
0.09367961 0.06232663 -0.71467996 0.008550076 0.1986879 -0.30358416 0.004499472 0.20907834
-0.24130057 -0.2804665 -0.024274379 -0.26510215 -0.10563298 -0.06814296 0.09751437 -0.08158485
-0.1599604 -1.1317459 0.28527424 0.37029898 0.06425471 -0.28349912 -0.0040398845 0.48321524
0.38404292 0.3612844 -0.2683945 0.14546657 -0.21692537 -0.4854759 0.2770384 -0.45356318
0.18800497 -0.07730977 -0.017947888 -0.24031575 -0.5775281 0.4880234 -0.5574334 0.45705295
0.479331 -0.30567235 0.7462375 0.15183942 0.52644104 0.46326798 0.39204392 -0.341992
-0.0135774985 0.3160562 0.09175329 -0.31570497 -0.027223581 0.43328905 -0.19312094 0.06978702
0.81762147 -0.5025203 -0.22622687 -0.37410638 -0.044462524 0.017751038 -0.18884815 0.41768685
0.10024895 -0.4721868 0.6971641 -0.617464 0.25335976 0.090053 -0.050638948 0.28547978
0.08347095 0.0956136 0.310679 0.063872054 0.13624077 0.23822589 -0.586806 0.13823803
0.3795559 0.059907272 0.11214699 0.25084892 0.025172437 -0.35536098 0.78011155 -0.09028766
0.10973083 -0.21590273 -0.049792226 0.30776966 0.011232003 -0.010237564 0.51381844 0.46836954
-0.20435335 -0.012575223 -0.0019170393 -0.066168144 0.025693899 0.16182226 0.3677502 -0.09298356
-0.3885368 0.091154225 0.3901865 -0.1472315 0.22712252 -0.33415172 -0.3579761 -0.1138475
-0.12196421 -0.14552416 -0.28825492 0.47624004 -0.2693652 -0.19272651 -0.36572504 -0.20342709
0.9091621 -0.16887681 -0.44249192 0.033627145 -0.31355926 0.086400956 -0.2880575 0.1796728
-0.06402122 -0.20594683 0.66647226 -0.1912356 -0.2026755 -0.10292827 -0.09097795 0.3483655
-0.032789603 -0.0941788 -0.01011197 0.022798026 -0.09666342 0.0061355554 0.054515567 -0.05114329
0.020638892 -0.15870346 -0.0005861721 -0.025642674 0.12594293 -0.040892202 -0.03070369 -0.013945515
-0.18663642 0.007072098 0.14355682 -0.01415626 0.06681681 -0.013055742 -0.16034155 0.10680415
-0.010202055 0.062337164 0.007086143 0.09441497 0.053487733 -0.0012240186 -0.1066688 0.020057099
0.19773382 -0.015534509 -0.10148024 -0.030189125 0.091826394 -0.012147151 0.00724751 0.03668692
0.12411239 -0.018005764 0.10173778 0.0007695867 0.04621076 0.029853193 -0.058868248 -0.04617173
-0.0048952736 -0.032470442 0.13379279 -0.050104685 -0.021768732 0.0639923 -0.079033226 -0.050116975
0.029143313 0.0017827481 -0.12440779 -0.007727224 -0.05144897 -0.04060452 -0.032820154 0.011716729
00000000: 08d0 523e 01a5 2fbc edf7 d23c f724 db3e
00000010: f5d0 ccbe f44b 14bf dc87 02be c348 ac3d
00000020: f578 a13e 8910 843f 4a58 7cbe 66ed 93be
00000030: a035 c63d 8cf0 343d 3630 a53e 4940 b5be
00000040: 21fc b9bd 5d88 febe 7531 103f 4542 63bd
00000050: 8f1b 733e c1f9 e83d 13d6 a5be c28a f53e
00000060: 0eb8 ebbe 325e bb3c 9bea b8ba a704 e63e
00000070: 9f92 88bd 64ed d5be b4ca 503e 4685 90be
00000080: 8c62 d53e 440d be3e 398b 59bf 00df af3d
00000090: 1983 893e f5de 24bf c115 bebe e0e7 2e3f
000000a0: 34a7 e53d 8e9e cbbe 2761 c93e a690 0b3e
000000b0: df95 273e 4b65 693b 5a61 27be 5d7f d43d
000000c0: d1e1 8f3f d185 9f3d e5aa fd3e 2aa1 a6bd
000000d0: 4d84 2fbe 319b 64bc 9a24 9ebe 768a e8be
000000e0: 18db bf3d 354a 7f3d 44f5 36bf 9e15 0c3c
000000f0: d774 4b3e 626f 9bbe 4f70 933b a218 563e
00000100: 7f17 77be 4e99 8fbe 10db c6bc 78bb 87be
00000110: 1b56 d8bd 898e 8bbd 9db5 c73d f515 a7bd
00000120: a9cc 23be 0ddd 90bf 770f 923e d497 bd3e
00000130: f997 833d cc26 91be 0261 84bb fd67 f73e
00000140: 46a1 c43e 45fa b83e 016b 89be 30f5 143e
00000150: af21 5ebe 4c90 f8be fad7 8d3e 6f39 e8be
00000160: 6084 403e 9654 9ebd 7307 93bc 5515 76be
00000170: e2d8 13bf 34de f93e f5b3 0ebf d802 ea3e
00000180: df6a f53e 1681 9cbe 6c09 3f3f cb7b 1b3e
00000190: d7c4 063f 7631 ed3e fbb9 c83e 9319 afbe
000001a0: 2874 5ebc 1ed2 a13e 26e9 bb3d 15a4 a1be
000001b0: fd03 dfbc 10d8 dd3e 7fc1 45be 7fec 8e3d
000001c0: a44f 513f 2ca5 00bf 04a8 67be df8a bfbe
000001d0: 561e 36bd a06a 913c 6961 41be 0ddb d53e
000001e0: 524f cd3d 78c2 f1be 5979 323f 1f12 1ebf
000001f0: 5fb8 813e b56d b83d c96a 4fbd 682a 923e
00000200: d1f2 aa3d 10d1 c33d 5111 9f3e 5acf 823d
00000210: b382 0b3e 7df1 733e eb38 16bf 458e 0d3e
00000220: 2755 c23e 5461 753d 52ad e53d 456f 803e
00000230: 6d36 ce3c e0f1 b5be 64b5 473f bde8 b8bd
00000240: 8fba e03d 9b15 5dbe eff2 4bbd fc93 9d3e
00000250: 6f06 383c 75bb 27bc 9b89 033f 22ce ef3e
00000260: 0142 51be 4f08 4ebc 2a45 fbba 2a83 87bd
00000270: 037c d23c bcb4 253e c149 bc3e 2a6e bebd
00000280: 4cee c6be 11af ba3d 86c6 c73e dbc3 16be
00000290: ce92 683e ef15 abbe a548 b7be e128 e9bd
000002a0: 5fc8 f9bd 4904 15be 2696 93be bcd5 f33e
000002b0: 3cea 89be 195a 45be 5040 bbbe 314f 50be
000002c0: d9be 683f 0bee 2cbe 4d8e e2be 9ebc 093d
000002d0: d78a a0be fcf2 b03d 467c 93be 25fc 373e
000002e0: 8f1d 83bd bae3 52be ed9d 2a3f 44d3 43be
000002f0: 2b8a 4fbe 0fcc d2bd a652 babd f65c b23e
00000300: 644e 06bd d1e0 c0bd adac 25bc edc2 ba3c
00000310: 79f7 c5bd c50c c93b b74b 5f3d a07b 51bd
00000320: e512 a93c 2983 22be 58a9 19ba 9610 d2bc
00000330: 2ff7 003e 957e 27bd 4e86 fbbc bb7b 64bc
00000340: 9e1d 3fbe 0fbd e73b 8f00 133e a8ef 67bc
00000350: 40d7 883d c0e7 55bc 9330 24be 22bc da3d
00000360: 8526 27bc 4155 7f3d e032 e83b a35c c13d
00000370: f415 5b3d 406f a0ba 2c75 dabd c94e a43c
00000380: bc7a 4a3e 7484 7ebc dfd4 cfbd 2f4f f7bc
00000390: 7a0f bc3d d804 47bc 857c ed3b 0645 163d
000003a0: a32e fe3d d380 93bc e65b d03d 17be 493a
000003b0: 7e47 3d3d af8e f43c d51f 71bd 911e 3dbd
000003c0: 8868 a0bb baff 04bd fa00 093e 923a 4dbd
000003d0: 5754 b2bc 650e 833d 2cdc a1bd 7547 4dbd
000003e0: f5bd ee3c 1aab e93a 83c9 febd a734 fdbb
000003f0: 28bc 52bd ed50 26bd 6d6e 06bd 86f7 3f3c

net.4.bias f4 [6]
0.03309488 -0.09093359 0.0038486174 -0.040734272 0.017877962 -0.055315882
00000000: 7f8e 073d 643b babd 1639 7c3b fbd8 26bd
00000010: ce74 923c e892 62bd
