log/GC_SAC/cannot_used_lidar/maze3Env/20210804-1438/GC_SAC_HER_critic.pth (torch_old, 48518 bytes, 10 tensors)

net1.0.weight f4 [64, 24]
000000 57 2b e5 3e 26 6a 3d be 88 ef e2 3c d2 58 81 bd
       0.44759628 -0.18497524 0.027702108 -0.06315769
000010 12 bb 60 be d4 d8 03 bd d0 d8 5c bc b8 15 bf bc
       -0.21946362 -0.032189205 -0.0134794265 -0.023325786
000020 a2 3a b1 bd 0e 3d 11 3e 30 53 69 3e 70 7c 71 3d
       -0.086537614 0.14183447 0.2278564 0.058956563
000030 e0 91 22 be d4 a1 cc bd 60 c2 3c 3e a4 4c b8 bd
       -0.1587596 -0.09991804 0.18433523 -0.08998993
000040 a4 25 36 bd ee 3a b4 bd 34 e1 c9 be 5f 68 8c 3f
       -0.04446949 -0.088003024 -0.3942963 1.0969352
000050 5a 7b f7 bd f3 45 48 bf 5b c1 ad 3e 09 d1 d3 3d
       -0.12084074 -0.78231734 0.3393658 0.10342605
000060 1e a0 25 3f 2c 92 9a bd 7d a3 45 be 55 11 75 3e
       0.64697444 -0.07547411 -0.19300647 0.23932393
000070 87 4f 07 3d 24 53 d0 3d 19 9d 26 be 31 00 5f 3e
       0.033034828 0.10172108 -0.16270865 0.21777417
000080 21 d2 35 3e 91 95 22 be 71 ec 28 be 39 9d ec bd
       0.17755939 -0.15877368 -0.16496445 -0.11553425
000090 f1 39 f7 3d 95 55 56 3e 2d 7f d9 3d cb 49 0d be
       0.12071598 0.20931084 0.1061996 -0.13797681
0000a0 fc e7 16 be da 76 11 be a2 b1 6a bf 84 3c a7 bd
       -0.14736933 -0.14205495 -0.91677296 -0.08165839
0000b0 d6 9a 2e 3e 0a 4a 43 3c 0c bf 4e be b1 f6 8d be
       0.17051253 0.011919508 -0.20190066 -0.27727273
0000c0 ca 34 b2 3e 5a 9f 6b be 4e 70 8f bd 6a 0f 30 3e
       0.348059 -0.23010007 -0.07003842 0.1719338
0000d0 d8 96 31 be 88 ae 96 3d a0 15 a4 3c 4c 38 3a bd
       -0.17342699 0.07357508 0.020029843 -0.045463845
0000e0 08 80 3b bc be 2c 78 3e 5a 94 c1 3d ba 51 aa 3d
       -0.011444099 0.24235818 0.09452124 0.08316369
0000f0 c0 f7 24 3c e4 04 55 3e c8 03 05 be 4a 1c 1e 3d
       0.010068834 0.20802647 -0.12989724 0.038601197
000100 10 96 c8 3d be 47 b6 bd 37 85 7e 3d 64 53 53 3e
       0.09794247 -0.089004025 0.062138762 0.2063728
000110 ba 9d 3c be eb ca ff bd ee b8 6b bd 38 41 a4 be
       -0.18419543 -0.124898754 -0.05754941 -0.32081008
000120 74 db 33 bf 3d 2e f2 3e 56 10 05 be 1f c5 84 3d
       -0.70256734 0.47300902 -0.12994513 0.0648291
000130 e9 a4 92 3d f8 57 07 be 53 fb 95 bd 3c 34 2c 3e
       0.0716036 -0.13217151 -0.07323327 0.16816801
000140 67 c1 bc 3d fc be b7 bb 11 34 ce 3d f1 bf 91 3d
       0.09216576 -0.005607484 0.10068525 0.07116688
000150 e5 62 bf 3c c4 cd 68 be 4b d2 94 bd 15 bc b1 3d
       0.023362586 -0.22734743 -0.07266673 0.08678452
000160 ce b3 48 be 5a fc 05 3e 65 03 60 bf 95 68 94 3e
       -0.1959984 0.13084546 -0.8750518 0.2898604
000170 04 f4 42 be b9 b6 95 bd e3 67 95 3e 49 08 62 bd
       -0.19038397 -0.07310242 0.29180822 -0.055183683
000180 40 53 9f be e4 e9 e3 3e b0 2a a9 bc c2 fe 97 be
       -0.31118202 0.44514382 -0.020650238 -0.29686552
000190 df f5 5c bd 40 8f e8 3d e8 dd ed 3d b7 06 80 3d
       -0.05394542 0.11355448 0.11614591 0.06251281
0001a0 1a 5d d9 bd 74 89 08 be 97 62 49 bd 6a 20 a1 bd
       -0.10613461 -0.13333684 -0.04916629 -0.078675106
0001b0 b4 1a 05 3e 9f 31 0f bd 23 9d 4a bc 5e b7 31 3e
       0.12998468 -0.03495943 -0.012366566 0.17355105
0001c0 29 8a 41 be 9f dc 6e 3d 33 0f 6b be d8 59 52 3e
       -0.1890036 0.05831587 -0.22955017 0.20542085
0001d0 68 55 2b 3e 49 23 fc be ce 5e ec 3d 0c 98 aa 3d
       0.16731799 -0.4924567 0.1154152 0.08329782
0001e0 66 f6 5e 3e 2e 3d dc 3d b0 34 f6 bc 3f 6b aa 3f
       0.21773681 0.107538566 -0.03005442 1.3313979
0001f0 44 f3 18 3f 10 be 9c bd f6 07 da 3d c0 13 20 bc
       0.59746194 -0.07653439 0.1064605 -0.009770334
000200 26 db 81 be 5a 1a 6b 3d 73 bf 06 be dd 2c 82 3b
       -0.2536251 0.057398178 -0.1315897 0.0039726333
000210 df 02 6d be a6 21 b6 3d e3 d9 00 be 07 14 6c be
       -0.23145626 0.08893137 -0.12583117 -0.23054515
000220 5a 9a 60 be a5 f0 bc 3d 5c ba df be 2c a8 ee be
       -0.2193388 0.09225587 -0.43696868 -0.4661268
000230 a2 42 31 3e 63 bf da 3f fa ec 85 bf e5 5f ad bf
       0.17310575 1.7089657 -1.0462945 -1.354489
000240 12 e2 0b be 08 2d 47 3e 20 90 98 3b e5 ba a4 bc
       -0.13660458 0.19450772 0.004655853 -0.02010865
000250 7b c4 43 3d f4 bf 88 bd ee 26 02 be c5 88 4f bd
       0.0477948 -0.06677237 -0.12710163 -0.050667543
000260 2a 32 3c be b9 8a 2e 3d da ae bc bd 92 61 1f 3e
       -0.18378511 0.042612765 -0.09213038 0.15564564
000270 14 9d d3 bd 94 34 10 be ed 0f 04 bd 6f bc 24 bd
       -0.10332695 -0.14082557 -0.03224175 -0.040218767
000280 7c 36 3a be 4a 24 63 3e ba fd 42 3f 95 8b 20 bf
       -0.18184847 0.22181812 0.76168406 -0.62712985
000290 60 4d ed bb ea 5f f8 3d c9 55 07 3e 51 74 86 bc
       -0.00724189 0.12127669 0.13216318 -0.016412886
0002a0 e3 c5 31 3f 0a c4 e8 3c 3e aa 2f 3e d9 92 56 3e
       0.69442576 0.028413791 0.17154786 0.20954455
0002b0 1a 40 b4 3c 7e 53 4e 3e f9 b9 6a 3d 96 1c 79 bb
       0.022003222 0.20149037 0.057306264 -0.0038011423
0002c0 af 91 06 be 3c 37 83 bd 89 b5 fe 3d ba 19 07 3c
       -0.13141511 -0.064070195 0.12436969 0.00824588
0002d0 42 19 68 3c ef eb 7c be cd 1c 3f be d4 2b 8e bb
       0.014166178 -0.24699377 -0.1866333 -0.004338721
0002e0 0d 82 65 3d 5b b6 9e bc 44 48 7f be d0 da 75 bd
       0.05603223 -0.019374063 -0.24929911 -0.06002313
0002f0 00 8f 95 bc 1a 29 ec 3c d2 d8 fb 3c 3c 83 00 3e
       -0.018256664 0.028828193 0.030743036 0.12550062
000300 62 b6 61 bd 1b 6a e9 be a4 82 13 3e 4d 8c c0 3d
       -0.055105574 -0.45588765 0.14405304 0.0940176
000310 ed 35 c7 3d 4c 92 21 3e d5 23 2b be 14 4c a2 3d
       0.097270824 0.15778464 -0.16712888 0.07924667
000320 8f 5d 38 3e ab 51 cd 3c a4 f7 1c bd 72 61 5c 3d
       0.1800444 0.025063356 -0.038322106 0.05380387
000330 86 97 9b 3d 52 62 1d 3d f0 79 af bd b2 98 ba bd
       0.0759726 0.038423844 -0.085681796 -0.091111556
000340 b4 94 71 3e 08 30 10 3d 9b 1e 7f be 88 01 24 be
       0.23591882 0.035202056 -0.24914019 -0.16016209
000350 21 6b f5 bd cb 24 13 bf 30 b7 b3 bd 0d d2 dd be
       -0.11983324 -0.57478017 -0.087751746 -0.4332432
000360 b6 95 7e bf 8e 5e 79 3d fc 0a 27 3e 8c 48 1b be
       -0.9944719 0.06088119 0.16312784 -0.15164393
000370 1f f0 ce be 0f 18 bc bd b5 6d eb 3d f9 da b4 bd
       -0.40417573 -0.09184276 0.11495534 -0.08830828
000380 1b 09 02 3d 22 6d 5e 3d 89 47 3a bb f5 51 07 3e
       0.031746965 0.054303296 -0.0028423986 0.13214858
000390 ef 39 c0 bd d2 28 87 3b 91 4e ce bd b5 21 06 3e
       -0.0938605 0.004124739 -0.10073579 0.13098796
0003a0 c5 82 09 be 64 e8 6f 3d 90 f5 aa 3e 35 ca 8a 3f
       -0.13428791 0.058571234 0.33390474 1.0842959
0003b0 24 b8 0b 3d 8a 76 56 3e 47 e1 51 bc 34 86 1c 3e
       0.034111157 0.20943657 -0.012810058 0.1528557
0003c0 07 8c 64 3f d2 4b 41 bd cc 41 70 bd fb 46 56 3e
       0.89276165 -0.04719145 -0.0586565 0.20925514
0003d0 22 45 03 bd 62 cd 8e bd 5f b3 77 bc ae 1a 12 be
       -0.032048352 -0.069727674 -0.015118449 -0.1426799
0003e0 c2 31 ff 3d 9c 30 df 3d f7 79 70 bd 1e f5 64 be
       0.124606624 0.108979434 -0.058710065 -0.2235913
0003f0 9e 01 5a be b1 5b 45 bd fc 5a cf 3d c7 82 07 bd
       -0.2128968 -0.048183147 0.10124776 -0.033083703

net1.0.bias f4 [64]
000000 58 bd 54 3e b0 cf 3a 3e 63 54 a2 3d c2 fe 4b be
       0.20775354 0.18243289 0.07926252 -0.19921401
000010 1c ef 19 be 7b 6a 4a be c8 ec 21 3e b7 34 0e be
       -0.15032619 -0.19767182 0.15812981 -0.13887297
000020 34 d5 5f 3e 7b ed 88 3d ec 1a b2 3d 63 1e 29 3d
       0.21858674 0.06685921 0.08696541 0.041288745
000030 3d 6f db bd 43 1a 5c 3d d9 2d 28 3c 43 0f ef bd
       -0.107145764 0.053735983 0.010264837 -0.11672833
000040 7f 30 0e 3e e3 88 64 be 1d af d7 3d b4 47 c4 3b
       0.13885687 -0.22317843 0.10531447 0.005989993
000050 da 25 49 3e 72 37 90 bd 84 ab cc bd 5f 6e be bd
       0.19643345 -0.07041825 -0.099936515 -0.09298395
000060 35 d3 29 bd 8a ee 0e be ad 33 ed 3d 5f 81 eb bd
       -0.04146119 -0.13958183 0.11582122 -0.11499285
000070 7c 3a 30 3e 68 54 c9 39 4e 9a 1a 3d 1d ae 4b 3e
       0.1720981 0.00038400595 0.037744813 0.19890638
000080 5c 97 b0 3d b8 78 29 be 86 12 f1 bd a2 84 4c 3c
       0.086226195 -0.16549957 -0.11771111 0.012482794
000090 2f 96 cd bd e2 99 e8 bb 29 34 28 be 22 8e 16 3d
       -0.10038411 -0.0070984224 -0.16426148 0.036756642
0000a0 02 9d c3 bd 41 e6 10 be fe 5c 19 3e 55 9e 29 bd
       -0.09551431 -0.14150335 0.1497688 -0.041410763
0000b0 c3 59 96 bd 7c d7 ae bd 4e 95 24 3e f7 dc 76 3e
       -0.073413394 -0.08537194 0.1607258 0.24107729
0000c0 70 88 83 bc 6c 6d 1e be 83 02 61 3e 3f 51 f2 3d
       -0.01605627 -0.15471429 0.21973614 0.11831903
0000d0 2f b0 1d be a5 2e 32 3e 75 79 35 3e a2 aa 91 3d
       -0.1539924 0.17400606 0.17722113 0.07112624
0000e0 70 96 bd 3d cb 96 a0 bd 93 6a 26 3e 5a f3 e3 3d
       0.09257209 -0.078412615 0.16251592 0.111304
0000f0 7f 34 2c 3d 71 7b 30 3e 00 fa 48 bd a0 c0 26 3d
       0.04204225 0.17234589 -0.049066544 0.040711045

net1.2.weight f4 [64, 64]
000000 82 45 39 3e 21 80 86 3e 48 43 85 3e c1 25 5f 3d
       0.18092921 0.2626963 0.26027894 0.054479364
000010 79 12 aa bc 8b 99 72 be 43 de 9b 3c a3 a0 8f 3e
       -0.020760762 -0.23691384 0.019026881 0.28052244
000020 1e a4 74 3e 73 1a 31 be 0c 18 9f 3c 98 ca 35 3d
       0.2389073 -0.17295246 0.019420646 0.04438266
000030 73 7f 24 3e ab 0c 1b 3e fe b5 f6 3c 5a 70 9e 3c
       0.16064243 0.15141551 0.030116078 0.019340683
000040 49 d0 9e 3d 02 1f 16 3e 41 05 a0 3c 44 c2 72 3d
       0.07754571 0.14660266 0.019533755 0.059267297
000050 be 32 3b 3e af 25 be 3c cf 36 7a bd ca 1f f2 3d
       0.18281075 0.023211328 -0.061087426 0.118224695
000060 9c 91 06 bd f1 ce 97 be df 5e 88 3d 92 f4 81 bd
       -0.032853708 -0.2965007 0.0665872 -0.06345476
000070 fe e9 48 3e c2 b7 3d 3e e4 a6 ae 3d 0b 84 33 3d
       0.19620511 0.1852713 0.085279256 0.043827098
000080 50 19 02 3e a8 46 81 bd 0e 18 73 3e 79 04 51 bd
       0.12704968 -0.06312305 0.23739645 -0.051029656
000090 f8 b3 ff 3d bc 1a 63 3c e4 c8 c4 3d b2 60 82 bd
       0.12485498 0.013861354 0.09608629 -0.063660994
0000a0 c8 fd 71 3e dc 64 a8 bd e7 b0 bf 3d 3b 80 6b bd
       0.23631966 -0.082223624 0.09359913 -0.057495337
0000b0 d3 c4 07 3d 86 1e a1 3c 98 be 9c 3c 93 e7 00 3e
       0.03314669 0.019667875 0.019133851 0.12588339
0000c0 9c 17 8c 3d e7 a3 d1 3c 76 b8 c4 3d 93 20 08 3e
       0.06840441 0.02559085 0.09605496 0.13293676
0000d0 de 86 f0 bc a3 6d 6f 3e f5 f8 45 3e 5e 28 63 bd
       -0.029361185 0.23381667 0.19333251 -0.05545842
0000e0 ef 99 99 3d 0a 0c 42 3e bf 69 45 bf 1c 1e 2b bc
       0.07500064 0.18949905 -0.7711448 -0.01044419
0000f0 9f c9 32 3e a2 0b a0 3e 32 00 08 3e 2b 11 6e bd
       0.17459725 0.31258875 0.13281325 -0.05812184
000100 57 af 1c bd 66 98 14 bf a6 ce b7 3c e2 14 1f bf
       -0.038253155 -0.5804504 0.022437405 -0.6214124
000110 00 c3 e1 bc fa 23 c9 bd 2d d9 99 be b7 7e 10 bf
       -0.027558804 -0.09821315 -0.30048504 -0.5644335
000120 c3 b2 3b be 44 f3 05 3d 90 12 ce 3d 49 19 98 be
       -0.18329911 0.0327027 0.10062134 -0.2970679
000130 74 25 e4 3d 63 ad ea 3c 45 f9 12 3e f8 50 81 be
       0.11139956 0.02864713 0.14352901 -0.25257087
000140 be 01 36 3d 2a 24 55 bf 39 25 4c 3d fb f5 04 3e
       0.044435255 -0.83258307 0.049840186 0.12984459
000150 91 a6 d3 3d 84 44 4c 3e 7d 02 57 3c af 77 23 3e
       0.103345044 0.19948012 0.013123152 0.15963624
000160 23 82 b4 bb 88 0c cd 3d 55 89 21 be e1 22 f9 3d
       -0.0055086776 0.10012156 -0.15775044 0.12164856
000170 36 23 90 bc 3f 97 6a 3e b3 da 28 bd b1 d3 5c 3e
       -0.017594915 0.22909258 -0.041224193 0.21565129
000180 2a b8 9c 3e c5 25 4b bd 06 6e 20 bd 9e d3 3c be
       0.30609256 -0.049596567 -0.039167427 -0.184401
000190 cf c5 df be f7 a9 45 3e ce 8d 6e 3e 0d 78 51 be
       -0.43705603 0.19303118 0.23296282 -0.20455952
0001a0 01 e3 c6 3d cd ce 0f be 92 b5 bd b9 93 86 ae 3e
       0.09711266 -0.14043732 -0.0003618417 0.34087047
0001b0 52 b2 f3 3d de fe 0a 3e 2e e6 2b be 11 54 16 be
       0.11899246 0.13573787 -0.16787025 -0.14680506
0001c0 45 58 99 bd 70 ff a9 3e 98 f9 a4 be e3 83 8d bd
       -0.07487539 0.33202696 -0.32221675 -0.06909921
0001d0 88 8f 87 3e b8 c9 dc bd c9 33 74 be d3 1a 39 3e
       0.26476693 -0.10780662 -0.2384788 0.18076639
0001e0 53 43 1f 3e 88 e5 95 bf 4d dd 42 3f 7b 1b b6 3d
       0.15553026 -1.1710672 0.7611893 0.0889196
0001f0 21 34 d9 3c 3e db ba be 89 dc b1 3d df 5c 50 be
       0.026514115 -0.36495394 0.08684642 -0.20347928
000200 ae cd 52 be 6c 4c 6d bd 25 03 63 bc dc bc 1e be
       -0.20586273 -0.05793421 -0.01385573 -0.15501732
000210 c7 9b bd bd 9b 1d 76 3d be 1b 43 be cf 99 29 bf
       -0.09258228 0.060086828 -0.19053552 -0.6625032
000220 cd 83 68 3d c5 17 ef be fd f7 eb bd ab e0 e8 be
       0.05676632 -0.46697822 -0.115219094 -0.45483908
000230 35 f7 fc bc b2 db 94 bc 4c 70 de bd 28 9f 35 bd
       -0.030879596 -0.018171165 -0.10861263 -0.044341236
000240 8f 1f ff 3d 7d 22 f7 bb de d2 12 3d 3c 4b e0 bd
       0.12457191 -0.007541953 0.03584563 -0.1095185
000250 fa 58 4e 3e 37 bd 14 bd 10 47 e1 bd ae dc 9f 3d
       0.2015113 -0.03631326 -0.10999882 0.07805763
000260 23 c2 7b bc 41 62 0d 3e 5b cd dd bd 83 5c 93 3d
       -0.01536611 0.13807012 -0.10830184 0.071953796
000270 16 c9 88 3d 13 46 bb 3c fa 44 85 bb 07 6d 88 bc
       0.06678979 0.022860562 -0.0040670605 -0.01665355
000280 57 be f6 be e7 1d f4 3c 3d f8 93 3d b0 c8 b0 bd
       -0.48192093 0.029799415 0.07225082 -0.08632028
000290 11 fe ff 3c 80 b7 3b be 44 36 a4 3c 90 65 7f be
       0.031249078 -0.18331718 0.020045407 -0.24941087
0002a0 b0 43 74 bd 40 cc 72 be 7e 93 8a 3d 94 14 be bd
       -0.059634864 -0.23710728 0.06766413 -0.09281269
0002b0 25 af 6a 3d 8a 04 21 bc 9b 7c e5 bd 95 5e 04 3e
       0.057295937 -0.009827742 -0.11205407 0.12926705
0002c0 37 9f 19 3e 55 67 ef 3d 10 86 a3 3c a9 1d f2 bd
       0.15002142 0.11689631 0.019961387 -0.118220635
0002d0 b8 c2 05 bd bb 46 0b bf b4 10 2d be 65 32 3d bd
       -0.0326564 -0.544048 -0.16900903 -0.046190638
0002e0 67 a6 27 3e 45 0b f4 bc 23 83 d5 3e 5c cf 19 be
       0.16372071 -0.02979053 0.41701612 -0.15020508
0002f0 4c c4 cb be 19 ee be bd 5c b6 d5 3d 03 71 8e bc
       -0.397982 -0.09322757 0.10435173 -0.017387873
000300 f4 0c ee 3d 6c b7 80 3e 4c 52 0b 3e dd cc d0 3d
       0.11623564 0.2513994 0.13605613 0.101953246
000310 d9 55 c0 bc d9 4e 85 be 7b 20 2e 3e 77 56 39 3e
       -0.023478435 -0.26036718 0.17004578 0.1809939
000320 2a 64 8b 3e 40 2c aa 3c 99 82 fe 3d df 82 e6 3d
       0.27224857 0.020773053 0.12427253 0.112554304
000330 ca b6 ab 3c e1 ec 1c 3d 0b 0d de 3c 82 fe e6 3c
       0.020961184 0.038311843 0.027105829 0.02819753
000340 e2 4e c1 3d e8 f1 a9 3d 2b 15 c3 3d 43 1e 8e bc
       0.09438874 0.08298093 0.09525522 -0.017348414
000350 d4 e6 51 3d ee 94 a4 3d c5 85 8c bd a5 8b 1a 3e
       0.051245525 0.080362186 -0.06861452 0.15092333
000360 23 05 88 bd 18 43 52 be eb fd c2 bb 38 94 70 bd
       -0.06641605 -0.20533407 -0.0059506795 -0.058735102
000370 7d 59 e2 3d c3 6a 58 3c 0f 58 17 bd 8b 45 65 3e
       0.11052225 0.013209048 -0.036949214 0.2238981
000380 d1 d5 6e bd 2f 07 6b be a7 cf 03 3e 10 37 82 bd
       -0.05830938 -0.22951959 0.12872182 -0.063581586
000390 2c 87 41 3d 21 cf 9e 3d fd 2b b4 3c c0 2b 72 be
       0.04724805 0.077543505 0.021993631 -0.23649502
0003a0 31 a2 4d 3d d9 16 68 bd 32 97 ae 3d 8c a1 3e bd
       0.050203506 -0.056662414 0.08524932 -0.04654078
0003b0 a1 63 6f 3c b2 b0 4c 3e 5b ca a5 bd 2a bf 8a 3d
       0.014611156 0.19989279 -0.08095237 0.06774743
0003c0 f5 9c 82 3c 9e a5 a6 bc 26 16 a9 bd 13 2e f9 3d
       0.015943984 -0.020342644 -0.082561776 0.12166991
0003d0 8d 2a f6 bd 75 57 09 3e b8 a7 67 3e d0 64 3e 3d
       -0.12019835 0.13412268 0.22622573 0.04648286
0003e0 be 3d 8e 3e c0 2a da 3e bd 8a 30 bf 20 cc 76 3d
       0.2778148 0.4261074 -0.689617 0.060253263
0003f0 e8 0c 7d 3e 12 93 f5 3d 10 ca a7 3d 56 0e 69 be
       0.24711955 0.11990942 0.08192837 -0.22759375

net1.2.bias f4 [64]
000000 5b 70 6c 3c 42 4c 99 bd 4d 73 ef bd 09 df 82 3d
       0.0144310845 -0.07485248 -0.11691914 0.06390197
000010 9c 0d 0d 3e be de 1c 3e 02 5f 9b bc 99 d9 f4 ba
       0.13774723 0.15319344 -0.018966202 -0.0018680572
000020 1f d3 2d 3d ab 75 e6 bd 22 dd c0 3d d1 fd a9 3d
       0.04243767 -0.11252912 0.09417178 0.08300365
000030 30 4a 08 3e 8c a3 5c bd b3 7f 53 3d e5 f9 d9 3d
       0.1330955 -0.053866908 0.051635455 0.10643367
000040 85 13 14 3d 97 82 c8 3d 40 b3 fc 3d 84 bb 9e 3d
       0.036151428 0.09790533 0.12338877 0.077506095
000050 b7 11 d4 3d 0a eb 1b 3c bc 59 4b 3d 62 35 fe 3d
       0.10354941 0.009516487 0.049646124 0.12412526
000060 ab ef a8 bc 74 65 28 bd ff 1d 14 be 74 67 73 3d
       -0.020622095 -0.04111238 -0.14464568 0.059424832
000070 08 a7 b6 3d 55 e6 13 bd da 6e e3 3d 97 cf 79 3d
       0.089185774 -0.036108334 0.11105128 0.06098899
000080 1f be d0 3d b5 02 c7 3d 3f 7b fa 3d 1e e5 f8 3b
       0.10192513 0.09717313 0.122305386 0.0075956723
000090 f7 0d 4b 3e 82 88 cd bc 61 13 c8 3d d0 66 28 3d
       0.19829546 -0.025089506 0.09769321 0.041113675
0000a0 07 ac 47 3d eb 39 7d bd da 27 c5 bd 95 e3 7d 3d
       0.048748042 -0.061822813 -0.09626742 0.061984617
0000b0 a4 f5 fa 3d 09 d2 2e bd 07 95 f7 3b 0f d1 df b9
       0.122538835 -0.042680774 0.0075556072 -0.00042689635
0000c0 0d 4d 06 bd 84 1f 07 bd 7a e3 a1 3c 5b 40 09 3e
       -0.032788325 -0.03298904 0.01976179 0.13403456
0000d0 d9 b9 73 bd 8d b6 38 3d 64 8b e0 3d f8 16 91 3d
       -0.05950341 0.04509597 0.10964087 0.07084459
0000e0 9e a8 1e 3e e2 81 e2 3d 8d d0 f2 3d 63 2f db 3d
       0.1549401 0.110599294 0.11856184 0.10702398
0000f0 ef 84 cf 3d 30 13 1d 3d 6f 5a 31 bd d8 15 fc 3d
       0.10132777 0.038348377 -0.043299135 0.12308854

net1.4.weight f4 [1, 64]
000000 ed c7 3c 3e 63 86 05 bf 10 b7 b3 be 25 e8 09 3e
       0.1843564 -0.5215818 -0.35100603 0.13467462
000010 31 c8 6d 3e 47 ee 0c bf 99 7a 57 3e 37 78 52 be
       0.23220898 -0.5505108 0.21042861 -0.20553671
000020 e0 db f5 be d9 f9 e1 bf 85 8f 02 bf 9a c9 96 3e
       -0.48019314 -1.7654372 -0.51000243 0.29450685
000030 48 58 4f 3e 43 38 01 bf b1 60 59 3e e9 8b 29 3f
       0.2024852 -0.50476474 0.21228291 0.6622911
000040 07 56 37 3e 4f 4d ea be 3c 0d 1f 3e 1f dc 60 3e
       0.1790391 -0.45762107 0.15532392 0.2195897
000050 73 2f 36 bf 56 19 d3 be e1 1f 04 3e d7 fd 43 3e
       -0.7116615 -0.41230267 0.12902786 0.19139801
000060 ce 44 ec be e0 c2 83 3e a7 a3 fd be 95 3c 46 3e
       -0.46146244 0.25734615 -0.4953892 0.19359048
000070 c1 7b dd be 33 19 24 3e d6 df 31 bf 79 5a fc be
       -0.4325848 0.16025238 -0.6948217 -0.49287775
000080 64 85 1c be c1 0f 29 3e 61 bb 3a bf a1 35 48 bf
       -0.1528526 0.16509916 -0.7294217 -0.7820683
000090 cb 2e cb 3d 08 5e 2a bf 55 c9 38 bf 2f 91 b6 bf
       0.099210344 -0.6654973 -0.7218221 -1.4263057
0000a0 e5 a4 76 3f 6c 21 0d bf 1e 72 9e be 96 90 38 bf
       0.9634536 -0.5512912 -0.3094644 -0.7209562
0000b0 79 ba e7 be 83 18 00 bf ad 84 32 3e dc 8d 41 3e
       -0.45259455 -0.500374 0.17433424 0.18901771
0000c0 fc 58 47 3e 9c c9 49 bf 45 83 5e be 97 9f ee 3d
       0.19467539 -0.78823256 -0.21729763 0.11651533
0000d0 6b bf 3d bf 0b 85 33 bf cd e9 45 3e 13 3b eb be
       -0.74120206 -0.7012488 0.19327469 -0.45943508
0000e0 95 4b 26 bf d3 91 27 bf 2d 71 e7 be 6f cc 4e bf
       -0.6495908 -0.65456885 -0.45203534 -0.8078069
0000f0 51 b3 6e 3e 78 0f 2f bf 5b 16 36 3f 25 36 08 3e
       0.23310591 -0.6838298 0.7112786 0.13301904

net2.0.weight f4 [64, 24]
000000 84 f1 65 c0 75 e8 19 bd 00 1e 32 3e 8d 15 57 bf
       -3.592866 -0.037575204 0.17394257 -0.8401726
000010 d1 d8 db 3d d8 27 50 3e 17 2c d2 bd 2c b1 72 bd
       0.10734714 0.20327699 -0.10262316 -0.059250996
000020 8b 04 9a bc 3c 81 33 bd 84 42 42 3e ef f6 84 3d
       -0.018800994 -0.04382442 0.18970686 0.06492411
000030 9c 95 39 3d 87 ce 95 bc fc e9 2a 3d e2 2c 67 bd
       0.045308694 -0.018286956 0.04172705 -0.056439288
000040 99 43 1f 3e 86 27 ab bd d6 10 22 bd 47 5a 7a bc
       0.1555313 -0.08357148 -0.039566837 -0.015280313
000050 36 22 ef bd 63 9d 5b 3e fc b8 89 bd a3 5a a5 bd
       -0.11676447 0.21446757 -0.06724736 -0.08073928
000060 fe a0 30 bc fb 51 6c 3e 20 c7 71 3d db 47 a9 be
       -0.010780571 0.23078148 0.05902779 -0.33062634
000070 48 18 75 3e 68 06 dc 3d cc 60 02 be a8 4b d3 bd
       0.23935044 0.107434094 -0.12732238 -0.10317165
000080 6a b7 71 be 46 c1 51 bd 7a ac b9 bd 46 2d db bd
       -0.23605123 -0.05120971 -0.090661004 -0.107019946
000090 42 35 5c be 3e ee 89 be c3 6c c6 bc de 4c 81 bc
       -0.21504691 -0.26939577 -0.024221784 -0.015783723
0000a0 45 a0 cc 3d ad 15 49 be 46 21 c9 bd ad 72 57 3d
       0.099915065 -0.19637175 -0.098207995 0.052599598
0000b0 dc 0a 32 3e 7d 87 80 3e f9 ad 81 be 02 89 72 bd
       0.17386955 0.2510337 -0.25328043 -0.059212692
0000c0 01 ca b7 3d 26 02 71 3d ac 4c 22 be 86 79 00 3e
       0.08974076 0.05883994 -0.1584956 0.12546358
0000d0 d4 33 87 3d dc 67 0d bd 63 ee 12 3d bc 51 24 3e
       0.06601682 -0.034522876 0.035871875 0.16046804
0000e0 eb 4d 05 be da ba 31 3e ae d8 76 bb 4f d3 bb 3d
       -0.13018005 0.17356434 -0.0037665772 0.09171163
0000f0 b2 f5 f7 3d ad aa 76 bd 98 b6 e9 bc 0b 71 b9 3d
       0.121074095 -0.060221363 -0.02852945 0.09054764
000100 43 32 42 3e f2 c9 22 3d fa 0d 05 3f 8f e5 8f 3d
       0.18964486 0.03974337 0.5197445 0.07026207
000110 8e fc 96 bd 54 3e 9a 3e 1d bd d4 bb 19 ae c8 bd
       -0.0737239 0.30125678 -0.0064922706 -0.097988315
000120 7d e5 bf 3e a1 19 9a 3e c8 ce 22 3e ef 42 81 be
       0.37479773 0.30097678 0.15899193 -0.2524638
000130 62 c5 19 be cc b9 e0 3d 42 b6 03 3c 9b 67 32 be
       -0.15016702 0.10972938 0.008039059 -0.17422335
000140 aa 8d c8 3d 0b 3f 49 3e b2 a0 85 bc f6 c9 9d 3c
       0.09792645 0.19652955 -0.016311977 0.019261342
000150 e8 9a f0 bd c2 f2 c1 3d 6c a2 4d 3d 4e f5 fa bd
       -0.11748296 0.094701305 0.050203726 -0.122538194
000160 cc cf 9e 3d 06 a1 d6 bd 13 7c 53 3f 89 33 a1 3f
       0.07754478 -0.104799315 0.826112 1.2593852
000170 63 76 ea bd 9d 95 2a 3d 74 9e 87 3d 1b 51 ce 3d
       -0.11448362 0.04164659 0.066220194 0.100740634
000180 41 f4 9b 3d 75 aa cf bd 1c 27 bd 3d d9 9d 81 bc
       0.07614947 -0.10139934 0.09235975 -0.015822338
000190 0b 59 c2 bd 57 28 04 be 24 87 b5 3c bb 31 34 bd
       -0.0948964 -0.12906013 0.022159167 -0.04399274
0001a0 01 df 34 3d b0 cf 03 3e 71 c6 f1 bd c9 22 9d bd
       0.044157986 0.12872195 -0.11805428 -0.0767265
0001b0 d1 2d d2 3d 9d f7 cd 3d 3f be 83 3c be 3f 3f bc
       0.10262645 0.10056994 0.016081927 -0.011672912
0001c0 57 0d e3 bd 72 06 11 be b7 d0 69 3f 3e d3 1f 3f
       -0.11086529 -0.14162615 0.913341 0.62431705
0001d0 2c 47 3c be 5c c2 2c 3e 4b 1c 11 be d4 5b fc bc
       -0.18386525 0.16871017 -0.14170949 -0.030805506
0001e0 39 11 fb bc 15 86 c4 bc 40 9b 12 3e 4e b5 17 be
       -0.03064786 -0.023989717 0.14317036 -0.14815256
0001f0 d9 bb b3 bd a8 86 28 3e 17 be 3f bd f0 c2 88 bd
       -0.087760635 0.16457617 -0.046812143 -0.066778064
000200 0f c9 39 bd 2e fd 90 bd 1d 3c 0f be c4 28 8a 3d
       -0.04535776 -0.0707954 -0.13987775 0.06746057
000210 fb f1 40 3e d5 1a 08 3e d8 c1 c9 3d 0e f7 00 be
       0.18842308 0.13291486 0.09851426 -0.12594244
000220 53 af 0d bd c7 fa bf ba db a0 75 3e 23 3f c0 3d
       -0.03459103 -0.0014646881 0.23987143 0.093870424
000230 88 dd 06 3e ce fe c8 3f 2a e4 23 bd 80 50 d9 3f
       0.13170445 1.570276 -0.040012516 1.6977692
000240 29 c5 2c be a8 52 a1 3d 58 f6 da 3d c3 3c 08 3e
       -0.16872086 0.078770936 0.106915176 0.13304429
000250 4e e6 08 bd 17 94 4a be 21 e3 1a 3e ea d8 77 3d
       -0.03342276 -0.19783054 0.15125705 0.0605096
000260 10 fc 73 bd aa 60 64 bd 8f fc 42 3e 1b 74 74 3e
       -0.059566557 -0.05575625 0.19041656 0.23872416
000270 51 c4 c4 bd 7d 2e a3 bd 49 3b d2 bd a3 57 d3 3d
       -0.09607757 -0.07967851 -0.10265214 0.1031945
000280 ff 41 d2 bd dd aa f8 3d 2e 61 c9 bf 3a 70 dd 3e
       -0.10266494 0.121419646 -1.5732782 0.43249685
000290 54 9f 9c 3d 8e e5 1b 3d d1 44 80 3d 20 29 9a bd
       0.07647577 0.038060717 0.06263126 -0.07527375
0002a0 27 1d 2d 3f 49 8b 36 be c4 41 39 3e 22 95 b6 be
       0.6762261 -0.1782657 0.18091494 -0.35660654
0002b0 ea a2 c3 be 33 b3 e3 bd 54 9a 15 3e 04 32 70 3e
       -0.3821023 -0.11118164 0.14609653 0.2345658
0002c0 12 24 3e 3e 52 f8 03 3e 5e 1d 01 3d 79 e8 ac bc
       0.18568447 0.12887695 0.031522147 -0.021106945
0002d0 1e 4d 94 3d 68 ef e5 3d b2 bd 2f bd 22 0b 4a 3e
       0.072412714 0.11227304 -0.042905517 0.1973081
0002e0 d2 bb 0e be f8 71 a2 bd f0 ab ea 3e 74 67 00 bd
       -0.13938835 -0.07931894 0.45834303 -0.03134866
0002f0 48 75 1e bd 2b 80 0b bf 8e e9 b4 3e b3 aa 5a 3e
       -0.038686067 -0.54492444 0.35334438 0.21354179
000300 a7 6b d8 3e 1d 3a 0d be e8 df 72 3d 11 3f 87 3d
       0.42269632 -0.137917 0.059295565 0.06603826
000310 30 d8 c2 bd e2 91 21 3e 89 e0 43 bd 7e 10 f9 3d
       -0.09513891 0.15778306 -0.047821555 0.12161349
000320 7a 2c 82 bc e9 30 10 be 6e da bc 3d e5 8d 11 3e
       -0.015890349 -0.14081158 0.0922135 0.14214285
000330 01 1b 6d 3d 23 15 7b 3d 1c 24 ed 3a 91 87 46 be
       0.05788708 0.061299454 0.0018092426 -0.19387652
000340 e6 ad 3e bb 3f 26 46 be 34 29 18 3e 63 35 65 3e
       -0.002909535 -0.19350527 0.14859468 0.22383647
000350 e2 66 0f be c4 4f 96 be 60 f2 83 3d 2f de 75 be
       -0.1400409 -0.2935773 0.06442714 -0.24010538
000360 ed e4 33 be de f0 28 bf 1c dd 0f 3e 73 e8 46 3e
       -0.17567797 -0.65992534 0.1404919 0.1942461
000370 74 ca 43 be f6 cb 3d 3e 80 7d cd 3d 88 a0 36 be
       -0.19120198 0.18534836 0.10033703 -0.17834675
000380 04 a5 06 3e 92 3a 29 bd e8 b7 ae 3d de da a2 bd
       0.13148886 -0.041315623 0.08531171 -0.07951902
000390 10 a9 0e 3d 00 ec 06 be 40 72 6c 3d 1e ad 1f 3e
       0.0348292 -0.13175964 0.057726145 0.15593383
0003a0 19 72 0e be ef 1a 4c 3d eb c7 10 3e 8f a5 4e bd
       -0.13910712 0.049830373 0.14138763 -0.050450858
0003b0 58 17 f8 bd db 34 87 3e 5a fc 4a 3e 19 42 3c 3e
       -0.121138275 0.26407513 0.19822827 0.18384589
0003c0 56 7a 30 3e 6a a6 43 3e 9c e0 2d bd 84 1a d3 3d
       0.17234167 0.1910645 -0.042450532 0.10307792
0003d0 ec 19 07 be 6e b1 43 3e b1 20 9b bb b4 9b d1 bd
       -0.13193482 0.19110653 -0.0047341217 -0.10234776
0003e0 1b bb 0d 3e 67 fd 39 3e 1f 36 06 3e 3f 0d 4d 3e
       0.13840906 0.18163072 0.13106583 0.20024584
0003f0 d6 0a 14 3d 9b ff e8 bb bc 49 6f bd 3e 3d e7 bd
       0.036143146 -0.0071105487 -0.058419928 -0.11290978

net2.0.bias f4 [64]
000000 15 30 00 3d 89 ec 15 bc 1c 6e ca 3d a6 92 cc 3a
       0.031295855 -0.009150633 0.09884283 0.001560767
000010 e9 46 12 bd 20 57 b6 3c 5b b3 02 3e 70 c6 b6 3d
       -0.035712156 0.022258341 0.12763731 0.08924568
000020 0c 28 4d 3d c6 0a 03 3e ff 2d 11 3e ca f5 ef 3d
       0.05008702 0.12797078 0.14177702 0.117168024
000030 31 a3 95 bd 7d 04 c1 bd cc 1a 91 3d d2 f4 cf 3c
       -0.07306517 -0.09424684 0.07085189 0.025385294
000040 92 b4 6e bd 65 71 4d be ea 51 d8 3d 01 a3 36 be
       -0.058277674 -0.20062788 0.10562499 -0.17835619
000050 a0 4d 1d 3e cc dc 42 3e d2 8d fb 3d 71 ed 30 be
       0.15361643 0.1902954 0.122829095 -0.17278077
000060 74 39 e4 bd 34 b8 91 bc 0e 4c 46 3e 6b b1 5b 3d
       -0.11143771 -0.01778803 0.1936495 0.053635996
000070 27 59 f2 bd 6e e8 82 3e 14 99 8d 3e ef f1 2c 3e
       -0.11833411 0.25567955 0.27655852 0.16889165
000080 ed ec 4a 3e 30 36 24 bd c3 12 53 3e 99 81 29 3e
       0.19816943 -0.04009074 0.20612626 0.16553344
000090 5e bb ed 3d 22 a2 ed bd 78 59 1a 3e 47 a7 26 3e
       0.11608003 -0.1160319 0.15073192 0.16274749
0000a0 3e 58 36 3d f2 4c e7 3d 5c e3 f5 3d 22 50 13 3e
       0.044517748 0.11293973 0.12006256 0.14386037
0000b0 e9 2e 60 be bd 87 3f 3d e3 7c 2b bd b7 21 ef bc
       -0.21892895 0.04676031 -0.041867148 -0.029190881
0000c0 b0 45 9f 3c ab a1 2d 3d 59 f8 38 be 46 0e c5 3d
       0.01944241 0.042390507 -0.18063487 0.09621863
0000d0 8a 46 03 3c cf 14 11 3d 78 39 99 bc 8e cb bb bc
       0.008012423 0.035420235 -0.018704161 -0.02292421
0000e0 9e 9a a8 bd a8 a9 b2 3c 94 4e d7 3d 51 3f 8b 3d
       -0.08232616 0.021809414 0.105130345 0.06799186
0000f0 7c a5 2d be c0 91 9f 3d a4 91 07 be 87 b9 7c 3d
       -0.16957659 0.077914715 -0.13239151 0.06170037

net2.2.weight f4 [64, 64]
000000 f4 09 1b 3e 14 f7 a3 3c e4 60 9f bd 4e dd 21 bf
       0.15140516 0.020015277 -0.07782152 -0.6322831
000010 a0 05 45 bf 50 6e 63 3d c0 de 65 bc 85 d5 2e 3e
       -0.7696171 0.055525124 -0.0140301585 0.17073639
000020 33 24 dd 3d c7 4b 81 3e 5f 0f 18 3b 97 00 34 3c
       0.1079792 0.25253126 0.0023202521 0.010986469
000030 2c 32 c7 bc 3c d0 4e 3e a8 57 2f 3d e8 38 d2 bd
       -0.024315916 0.20196623 0.042808205 -0.1026476
000040 4f 03 98 3e 86 d9 9b bd 64 32 54 3e 1a 11 32 3e
       0.29690024 -0.07609849 0.20722347 0.17389336
000050 d7 a7 eb 3d 5c a4 51 3d af 34 9f 3c 3e 51 93 be
       0.11506622 0.051182136 0.019434301 -0.2877292
000060 3d ce bf 3e eb c3 a2 3e e6 78 9c 3d 5b 5a 51 be
       0.37462035 0.317901 0.07640247 -0.20444624
000070 d0 60 0f bf 9a 32 1b 3d 89 ed 0a bd 6f 06 47 3b
       -0.560071 0.037890054 -0.033917937 0.0030368825
000080 97 58 0e 3e f7 c5 84 3e d7 e5 bd 3d 02 f4 18 be
       0.13900982 0.25932285 0.09272354 -0.14936832
000090 e4 41 4b 3d 92 fb 84 3e 53 e5 11 3d 6a cb 4d bd
       0.049623385 0.25973183 0.03561909 -0.05024282
0000a0 a2 85 e4 bd fc 9f 18 be 65 0e 20 3e 92 08 5a 3e
       -0.11158301 -0.14904779 0.15630491 0.21292332
0000b0 74 f9 89 be 9d 48 ce 3d 5a 1e a9 3e df 9f 67 bc
       -0.2694813 0.10072444 0.3303097 -0.014137237
0000c0 4d 15 98 bd 56 36 68 bc 96 0b 0e 3d 94 b6 ba 3c
       -0.07425938 -0.014173111 0.034679018 0.022792138
0000d0 d7 38 a7 3e ab 64 6b 3d 41 31 84 3d c3 3d ec 3d
       0.32660553 0.05746905 0.06454707 0.115352176
0000e0 77 0d ef be 20 6f 1d bf a9 3c 76 bf 35 5c 5d 3c
       -0.4668996 -0.6149769 -0.9618631 0.013510753
0000f0 5e ee 02 bf b4 19 00 bf 63 69 9a 3e b4 5f af 3e
       -0.5114497 -0.5003922 0.3015853 0.34252703
000100 8f a3 e4 3d 5f 0f fe bd ce 7c 09 bc 09 e9 3e be
       0.11164009 -0.124052756 -0.008391572 -0.18643583
000110 70 bd 24 3d f5 59 38 be d5 c0 2d be 11 46 cb bd
       0.040219724 -0.18003066 -0.16968091 -0.099254735
000120 85 10 08 be 9e 54 40 3e aa 2d e1 bd 1f 5d 20 be
       -0.13287552 0.18782279 -0.10995038 -0.15660523
000130 6c 73 a9 3b 15 8b 32 be d2 aa df 3d da 09 98 be
       0.00517123 -0.17435868 0.10921253 -0.29695016
000140 5b bb 00 be 73 6e 11 3c 9a 45 5a 3c 17 ca 02 bd
       -0.1257147 0.008876431 0.013322258 -0.03193101
000150 15 6d 19 be 86 e8 07 bd df bc ff 3c f8 8a 50 be
       -0.14983018 -0.033180736 0.03121799 -0.20365512
000160 d4 ee 0e 3f 3e 68 0b be 95 c8 03 3d 8f 1a 22 3d
       0.5583317 -0.13613984 0.03217371 0.03957611
000170 f0 ef 33 be 9e 73 ea 3d b7 ff 67 bc f8 07 14 3d
       -0.17571998 0.114478335 -0.014160088 0.036140412
000180 e9 f8 03 3c 29 31 35 be 9f bc 97 3d 48 11 e7 bd
       0.00805495 -0.17694534 0.074090235 -0.11282593
000190 1a 06 57 bd c0 b3 a2 3d 0a 76 14 3e 13 db 3c be
       -0.052496053 0.07944441 0.14498153 -0.18442945
0001a0 20 1a bb 3c ae c0 40 3d ef d0 ad bd 75 3a ac bd
       0.022839606 0.047058754 -0.084871165 -0.08409587
0001b0 b0 8e 0c be 4d 23 ca 3d 49 09 ea 3d 86 6c 17 3e
       -0.13726306 0.09870014 0.11427552 0.14787492
0001c0 c6 c1 94 bc fe 5a 41 3e 6f 68 aa 3d c6 47 b7 3d
       -0.018158805 0.18882367 0.083207004 0.089492366
0001d0 ff 19 10 be b6 6c 83 be 78 93 b7 be 31 4c ed 3d
       -0.14072417 -0.25668877 -0.35854697 0.11586798
0001e0 96 d2 d7 3c d9 56 ad be 22 75 3e 3e af ab 9f bc
       0.026345532 -0.33855322 0.1859937 -0.019491045
0001f0 34 77 4e bf d4 94 c1 bd c5 46 c0 bd 25 e4 1c 3e
       -0.8065064 -0.09452215 -0.09388498 0.15321405
000200 a5 71 19 3e 46 bc b0 bd d4 06 8f bd 0e 65 7b 3e
       0.14984758 -0.0862966 -0.06983724 0.24550268
000210 da f5 18 be c7 93 9d be 18 2b 91 be 55 06 9f bd
       -0.14937535 -0.30776808 -0.2835319 -0.077648796
000220 f2 cd 0a be 56 1e 46 be bf 0c 30 bd 47 0e c0 3d
       -0.13555124 -0.1934751 -0.042980906 0.09377723
000230 db 27 13 be 3b 92 bf 3e 8d f5 49 3e 33 10 5b 3f
       -0.14370672 0.37416252 0.19722576 0.85571593
000240 5a 1f 42 bf dd fc 73 3e 91 4d a8 bf ab f2 7d 3d
       -0.7582909 0.23826928 -1.3148671 0.061999004
000250 be 28 81 3e ca 35 79 3e b6 4d 21 bc 41 77 68 bd
       0.25226396 0.24336925 -0.009845188 -0.056754354
000260 6a 2e f5 3c b1 7e 9d 3e e4 00 c0 3d 98 7a 20 be
       0.029929359 0.3076072 0.0937517 -0.15671766
000270 35 b7 85 be 9b e3 fd bd cb ab c5 3b cc 77 a0 be
       -0.26116338 -0.12396928 0.006032442 -0.31341398
000280 77 50 6b be 71 c5 04 3e 98 d3 bd 3d e3 7f 90 be
       -0.22979914 0.12965943 0.09268874 -0.2822257
000290 9a 68 d7 3d 0c cc e0 3e c2 a9 b6 bd a8 30 13 3e
       0.10517998 0.43905675 -0.089190975 0.1437403
0002a0 89 9d 0e bf 89 a0 20 3d 87 98 46 3d 3b 4c 74 3e
       -0.5570913 0.0392156 0.048485305 0.23857205
0002b0 f9 6c b3 3f 1c e3 d0 3d e2 2b 84 bd e6 c7 9b be
       1.4017631 0.10199568 -0.064536825 -0.30425948
0002c0 ac bf 35 bd 36 b5 92 bf ba 8c c7 3d 59 2d bd bb
       -0.044372246 -1.1461551 0.09743638 -0.005773228
0002d0 c3 4d 66 3e 9a 38 a9 be 3a 98 51 3c 12 d6 11 be
       0.22490601 -0.33050996 0.012792641 -0.14241818
0002e0 40 f2 35 3f 68 38 c0 3d ad e8 b4 bd b2 11 95 3d
       0.7107277 0.09385759 -0.08833442 0.07278766
0002f0 36 08 2b bf d8 a6 9a bd 41 9e f2 3e f2 40 dc bf
       -0.66809404 -0.07551354 0.47386363 -1.720732
000300 f1 bf a9 3e cf db 0c 3d 8b 93 88 bd cc c3 ce be
       0.33154252 0.034389313 -0.066687666 -0.40383756
000310 e7 76 6b 3d a1 e5 51 3e 37 81 b5 be cb c0 7e 3d
       0.05748644 0.20497753 -0.35450146 0.06219558
000320 8f d8 ba bd 24 70 09 3f d0 b6 af be a8 9b d4 be
       -0.091233365 0.5368674 -0.34319162 -0.41525006
000330 95 91 0d bc 6b b9 c7 be 4e 3d 25 bd 67 30 0c be
       -0.0086406665 -0.3900865 -0.040341668 -0.13690339
000340 fe d6 cc 3e 6b 1e 3c bd 02 24 32 3e cb f4 b6 3c
       0.40007776 -0.045927446 0.17396548 0.022333523
000350 67 d4 91 bd 9d ae c2 bd b0 08 84 3d 35 e8 ee be
       -0.07120591 -0.09505961 0.064469695 -0.46661535
000360 99 cf 3c be ee 13 36 be 02 0d c6 3c cf 27 ff bb
       -0.18438567 -0.1778104 0.024176124 -0.007786728
000370 c7 ff a9 be e0 eb 1b 3e d5 93 9c bc 89 7c 5a 3e
       -0.33202955 0.15226698 -0.01911346 0.21336569
000380 1e 65 72 3e 8a 3e af be 38 b0 3d 3e d9 c1 83 3e
       0.23671386 -0.342274 0.18524253 0.25733832
000390 f6 53 4b bd ae e6 a6 be a6 fa 78 3e 82 ba b9 bc
       -0.04964062 -0.3259787 0.24314365 -0.022671942
0003a0 a6 94 46 3e 10 79 6c bd 1b 59 49 bc db 1f 1a be
       0.19392642 -0.05773264 -0.012289311 -0.15051214
0003b0 7c c1 6a bf 89 48 cc bd 85 70 0c 3e 88 f2 a8 3d
       -0.91701484 -0.099747725 0.13714798 0.08249384
0003c0 ef b0 9f 3c dc a8 8b 3e 35 9a 3e be 42 a3 31 3e
       0.019493548 0.27277267 -0.18613513 0.17347434
0003d0 fe 8a 5e be 14 4a a7 be 4b 8d e3 be ca ec 18 3e
       -0.21732709 -0.32673705 -0.44443735 0.14934078
0003e0 aa 65 af be 03 6f e7 be 2a 1b 48 3d 36 c9 10 3e
       -0.3425725 -0.45201883 0.04885403 0.14139256
0003f0 34 5a 3b bf b5 cb fc 3d b8 97 c2 be c5 d6 17 3f
       -0.73184514 0.123435415 -0.38006377 0.5931209

net2.2.bias f4 [64]
000000 7a ea 06 3e 43 75 14 bd 83 37 08 3d 28 17 08 bd
       0.13175383 -0.036244642 0.033256065 -0.03322521
000010 0b 99 d9 3d 7a 01 2d 3e aa 40 16 3e 51 77 17 3e
       0.10624894 0.16895095 0.14673105 0.1479161
000020 cb 0a 4e bc 7f 25 74 3d d8 a8 56 3b 46 60 34 3e
       -0.012575815 0.05960607 0.0032754447 0.1761485
000030 fd 5b e4 3d 74 1d fa 3d 61 39 1d 3e ba 14 fc 3c
       0.11150358 0.12212649 0.1535392 0.030771602
000040 61 a7 63 bd d9 75 ea 3c 29 fe ba 3d 3b 0b ca 3d
       -0.055579547 0.028620647 0.091305085 0.09865423
000050 27 ba f9 3c ee f2 41 3d 44 7e 2f 3e 49 49 bf bd
       0.030484272 0.047350816 0.1713801 -0.0934015
000060 22 b8 05 3e dd 19 d3 3d 05 49 11 3e a0 0d 3e 3e
       0.13058522 0.103076674 0.14188011 0.18559885
000070 32 b0 e0 3c c9 5e ae ba c3 2e 30 3e be b3 35 3d
       0.027427766 -0.0013303395 0.17205338 0.04436087
000080 4e 99 1c bd f8 a7 d6 3d 24 f2 b0 3d 39 16 83 bd
       -0.03823214 0.10481256 0.08639935 -0.06400723
000090 4f 48 05 3e a9 b1 99 3d ad fc cd bd 12 9c 7c 3c
       0.13015865 0.07504589 -0.1005796 0.015418069
0000a0 02 4a 32 39 78 04 20 3e 8e bb a8 3d c5 ab 22 bd
       0.00017002973 0.15626705 0.08238898 -0.039714593
0000b0 49 93 4a 3c 9a 83 ad 3b f1 9a ec bc ac e1 f2 3d
       0.012364217 0.005295229 -0.028882476 0.1185945
0000c0 95 71 3d bd 4c 5d f3 bd d5 9b 90 3d dc 74 14 3e
       -0.0462509 -0.11883029 0.070609726 0.14497703
0000d0 a0 d0 df bd fa f8 5d bd 22 15 8d 3d 39 b1 dd 3d
       -0.10928464 -0.05419252 0.068887964 0.10824818
0000e0 1a 66 ad bd 6c 54 d7 bd 39 b2 37 bd b0 99 28 bd
       -0.0846674 -0.10514149 -0.0448477 -0.041162193
0000f0 8b 35 09 3b 6f ac 93 3d 9a 27 52 bd 82 63 1e 3d
       0.0020936455 0.072106235 -0.0513073 0.038669117

net2.4.weight f4 [1, 64]
000000 ce 8e 04 bf 65 e2 cd be cb 53 88 bf 9d d3 49 bf
       -0.517804 -0.40211788 -1.0650572 -0.7883852
000010 6c 91 c7 3d 21 71 4a 3e 27 fb 15 bf 5a 1d 70 3e
       0.09744534 0.19769718 -0.58586353 0.23448697
000020 1c 61 d0 be a2 05 4c bf fc 3c 48 bf b8 f0 3a 3e
       -0.4069909 -0.79696095 -0.78218055 0.1825589
000030 b1 49 56 3e a5 2d 9f be e2 d5 5b bf 91 0b 22 3e
       0.20926549 -0.31089512 -0.85873234 0.15824725
000040 61 d6 98 3e ef 19 49 bf ed e9 02 3e f1 cf 52 3e
       0.29851058 -0.78555197 0.12784548 0.20587136
000050 33 2a 11 3e a5 54 27 bf a2 dc 05 3e 0b 9a 35 bf
       0.14176254 -0.6536353 0.13072446 -0.70938176
000060 fb 6b b8 be da 44 77 3e 46 84 29 3e db 74 27 3e
       -0.36019883 0.24147359 0.16554365 0.1635317
000070 cd d0 29 3e 2c f3 48 3e 00 11 51 3e 67 eb 22 bf
       0.16583557 0.19624013 0.20416641 -0.63640445
000080 5d db 2a 3e 4d 8a 1d bf 3d ea 20 bf 4a 66 83 be
       0.16685243 -0.61539155 -0.6285742 -0.25663978
000090 9b 10 08 3e fe 32 00 bf 1c c3 3a bf 6c 1b 34 bf
       0.13287584 -0.5007781 -0.72953963 -0.7035434
0000a0 b8 31 e1 be 28 f4 da be 0a 40 18 bf 14 09 a9 be
       -0.43983245 -0.427644 -0.59472716 -0.3301474
0000b0 c5 58 ca 3d 87 ab 21 bf 05 45 3b bf 3e 48 73 bf
       0.09880213 -0.63152355 -0.7315219 -0.9503211
0000c0 69 6d 14 bf 89 30 99 be b5 31 12 bf 43 6c 71 3e
       -0.57979447 -0.29919842 -0.57107097 0.23576455
0000d0 a3 c8 04 c0 34 f7 83 bf ba 89 b9 be d7 15 4b 3e
       -2.074746 -1.0309815 -0.3623789 0.1983255
0000e0 ad ed 86 bf 51 15 8d 3f c2 84 21 3e f9 5a 20 bf
       -1.0541283 1.102213 0.157733 -0.62638813
0000f0 04 02 29 3e 28 ef dc be 76 bc 25 3f 9f dd 33 bf
       0.16504675 -0.43151212 0.64740694 -0.7026004
