log/GC_SAC/cannot_used_lidar/maze3Env/20210805-1226/GC_SAC_HER_critic.pth (torch_old, 48518 bytes, 10 tensors)

net1.0.weight f4 [64, 24]
000000 a8 e7 38 3f 8e f7 b3 bd 60 47 93 3d e7 b9 fd 3e
       0.7222848 -0.08787452 0.07191348 0.49555895
000010 96 92 6e 3d d4 41 a2 3d 41 aa 28 be 69 17 af bc
       0.058245264 0.07922712 -0.16471197 -0.021373468
000020 e7 08 67 bd c9 f0 05 3e 9b be 92 bd 3b 4b 53 3c
       -0.056404974 0.13080133 -0.07165261 0.012896354
000030 9b 0d 3b be 19 f2 68 bd bb d8 d7 bd e1 ec 4a 3e
       -0.18266909 -0.056871507 -0.10539385 0.19816925
000040 c6 cc 07 be bf b3 40 3d 8f db fe bd 00 0d 14 bd
       -0.13261709 0.04704642 -0.12444221 -0.03614521
000050 00 2c 01 be 22 db a7 bb 26 ab 00 bd de 62 2b be
       -0.12614441 -0.005122558 -0.03141322 -0.16736934
000060 a6 46 77 3e e4 43 26 3c 00 1b ef ba 82 d8 41 3e
       0.24148044 0.010148022 -0.00182423 0.18930247
000070 46 c4 ab 3e 10 89 28 bd 4f d0 09 bd 59 ab 47 3d
       0.33548182 -0.041146338 -0.033645924 0.048747394
000080 a9 3b 39 3e 2b 36 fb 3d c5 e0 99 bd f7 90 c8 3c
       0.18089165 0.12266191 -0.075135745 0.024483187
000090 87 58 c6 3d 4b 61 34 3d c3 5b 38 be 57 c9 4c be
       0.09684854 0.0440381 -0.18003754 -0.1999868
0000a0 24 e3 95 3d 11 94 19 be 82 50 d8 3e 82 ca 59 bd
       0.07318714 -0.14997889 0.42248923 -0.053171642
0000b0 fa a0 a9 bd 3e 99 e1 3e d1 8f e8 bc dc ed 37 bc
       -0.08282657 0.44062227 -0.02838889 -0.011226144
0000c0 13 80 ca bd 9f 4c fe bd e8 d0 0c 3d 76 57 25 3e
       -0.098877095 -0.12416958 0.034378916 0.16146645
0000d0 aa a4 d3 be 50 30 45 3d 54 2d 23 be 5a 7a 2d bd
       -0.41336566 0.048141778 -0.1593526 -0.04235301
0000e0 48 23 45 bd 9a 28 42 3d a4 92 a5 3b 4c d7 2b 3e
       -0.04812935 0.047402002 0.0050528813 0.16781348
0000f0 88 19 2f 3d 7e 08 82 3d b7 3f 9c 3d 4a 31 11 be
       0.042748958 0.06349276 0.0762934 -0.14178959
000100 6d e5 04 3e a4 6b 9a bd a5 7f 60 3e 64 8d ec 3f
       0.12978144 -0.07540062 0.21923693 1.8480649
000110 a4 7f 3f 3e ef 89 5b 3e 67 2a 9b 3d 62 cf d5 3d
       0.18701035 0.21439336 0.07576447 0.10439946
000120 fe 66 28 3d 95 f9 01 be 51 be 16 be 8a 6c 2d 3e
       0.041113846 -0.12692864 -0.14721037 0.16935936
000130 f8 13 b5 be 50 6b 54 3c 20 90 4f bd 2e 14 43 bd
       -0.35366797 0.012965038 -0.050674558 -0.047626667
000140 cb 3f 89 3c b9 cd 4a 3e db 24 3c 3e 1b da 1e bc
       0.016754052 0.1980504 0.18373434 -0.009695555
000150 7a 45 b0 3d b5 e8 01 3e d5 f2 43 3e a3 b6 02 be
       0.086070016 0.12686427 0.19135602 -0.12764983
000160 1d c0 f4 bc da c4 2e be 05 6a a7 bf b0 9b 1b 3f
       -0.029876763 -0.1706728 -1.307923 0.60784435
000170 1f 71 03 be 8d 1e 4d 3e 3d c9 35 bd fa 09 d9 3d
       -0.12836121 0.20031185 -0.04438137 0.10597606
000180 64 4c 6c 3d 11 9b 99 3d 80 f4 f7 3b 3e 88 ac 3e
       0.05769004 0.0750028 0.0075669885 0.33697695
000190 6e 52 1c 3f d0 57 62 3d cc 45 40 3e 74 4f 3b 3e
       0.6106328 0.055259526 0.18776625 0.18292028
0001a0 82 69 1e 3d 3e 41 3f be 4a 92 ee bd e4 61 51 3e
       0.03867484 -0.18677232 -0.11648996 0.20447499
0001b0 bc 0c a5 3d d2 8b 3c be d0 15 29 be e2 bd a1 bd
       0.080590695 -0.18412712 -0.16512227 -0.078975454
0001c0 11 bd 8f 3b 11 14 e8 bd ef d7 82 bf be 54 71 bf
       0.004386552 -0.11331952 -1.0222148 -0.9426993
0001d0 90 05 9a 3d ad 47 8e 3d f8 35 72 be e2 ee ba 3c
       0.07520592 0.06947265 -0.236534 0.022818986
0001e0 f2 fc 4a 3e 07 38 df be 60 bf f1 bc 71 ce 77 ba
       0.19823053 -0.43597433 -0.0295102 -0.00094530644
0001f0 3a b4 cd bd a0 f7 cb bb b5 37 bc 3d 02 0a 39 3e
       -0.10044141 -0.0062245876 0.09190313 0.18070224
000200 83 83 aa bd 80 43 16 be 63 78 da bd 20 72 21 be
       -0.08325865 -0.14674187 -0.10667493 -0.15766191
000210 46 71 5c 3e 88 44 2d 3c 40 d9 72 3e 53 38 95 3d
       0.21527585 0.010575421 0.23715687 0.072861336
000220 56 9b 83 3c 5e a0 01 be dc d7 63 3e 86 d1 ac 3e
       0.01606528 -0.12658831 0.22250313 0.33753604
000230 04 1e 15 bd a5 c2 3c be 48 68 c7 bd 54 c5 57 3e
       -0.03640558 -0.18433626 -0.09736687 0.21071368
000240 50 7f 2d 3e 5a 98 00 3f f0 35 04 3e 8b 09 39 3f
       0.16943097 0.5023247 0.129112 0.72280186
000250 a2 99 ac 3f 08 05 b0 bc 65 20 46 3d 09 37 71 be
       1.3484385 -0.021486774 0.048370738 -0.2355615
000260 0b d7 95 bd 89 b3 6c 3d 77 64 ab bd 68 af 7c bc
       -0.07316407 0.057788406 -0.083687715 -0.0154226795
000270 23 c2 d9 bc e9 c2 3a be c3 5f ab bd 5b b9 13 be
       -0.02658183 -0.18238415 -0.083678745 -0.14426176
000280 b7 f7 2a be e3 1c 28 3d 39 d6 8d 3c cc b4 46 be
       -0.16696058 0.041043174 0.017314063 -0.19404906
000290 e8 c3 2e 3e 3b 26 d7 3f 31 f1 7c 3f 74 82 50 3f
       0.1706692 1.6808542 0.9880553 0.81449056
0002a0 93 b6 0a 3f b4 d7 e2 be 88 bb 75 3d 7e 56 fc be
       0.54184836 -0.44305193 0.059993297 -0.49284738
0002b0 fd 56 4d be 5c e9 f0 3d 58 a5 19 be 77 cc 6d bc
       -0.20052715 0.1176326 -0.1500448 -0.01451408
0002c0 99 2b 1a bd 25 4e b0 bb f8 72 a0 bd 7e 48 de 3d
       -0.037639234 -0.0053804093 -0.078344285 0.108536705
0002d0 53 9b 24 3d 8a da 12 3e 4e 30 bd bd 26 7b 0e 3e
       0.04018719 0.14341179 -0.09237729 0.13914165
0002e0 d0 7c be bd f0 db 2b 3e 06 c7 5c be 61 4f 30 be
       -0.0930115 0.16783118 -0.21560296 -0.1721778
0002f0 8f 16 c3 bd f1 79 d4 3e ea 9b 2c 3d f6 a8 67 3e
       -0.09525787 0.41499284 0.04214088 0.22623047
000300 5b 84 d2 bc 11 8a 2e be de 84 b3 bd 18 74 ef 3d
       -0.025697878 -0.17044856 -0.08765577 0.11692065
000310 fe 13 2f 3d a5 69 c9 bd 27 ce 84 bc b5 19 37 bc
       0.042743675 -0.09834603 -0.016211582 -0.011175563
000320 cd ce ce bd 2d 6f 88 bd 85 d0 88 bd 8f 8e 8f 3d
       -0.10098038 -0.0666183 -0.06680397 0.07009613
000330 3f b3 28 bc 4d cc 40 3c 7f c2 a6 3c 0f 8f f0 3d
       -0.010296642 0.011767459 0.020356415 0.11746036
000340 a9 b3 e9 bd 3d 90 8a 3e 80 d6 2d bf 6a d4 14 c0
       -0.114112206 0.2706317 -0.67905426 -2.3254647
000350 50 d8 ee 3d 5e 14 e0 bd 8c cc 0e 3e ef a9 5f bd
       0.11662352 -0.10941385 0.13945216 -0.05460542
000360 1a ea 1a c0 03 5b 9c bd 64 d5 02 3e 19 0d bd bd
       -2.4205384 -0.076345466 0.12776715 -0.09231014
000370 57 1f 8c 3e 46 38 50 be a8 ff c7 3d da ec 1a be
       0.2736766 -0.20333967 0.097655594 -0.15129414
000380 4c 8f fa 3d 5f 1c 06 bd 0c 05 24 be c2 88 df 3d
       0.12234363 -0.0327419 -0.1601755 0.10914756
000390 04 99 89 bd 43 4b 36 3d 08 0d c2 3d 31 2e 75 3d
       -0.067186385 0.04450537 0.09475142 0.059858505
0003a0 c8 9e 86 3c d5 62 41 bd 79 53 93 3d 5b 50 e0 bd
       0.016433135 -0.047213394 0.071936555 -0.109528266
0003b0 08 7a b4 3c 8e 20 a6 3f c2 a3 22 3e a7 65 88 bf
       0.022030845 1.2978685 0.15882781 -1.0656022
0003c0 c0 9d 94 be a2 4f 0b bf e8 f8 df bd c1 a7 80 bf
       -0.29026604 -0.54418385 -0.10936147 -1.0051194
0003d0 ce f7 93 bf bc d5 45 be 55 fa 51 3e 8c f3 f5 bd
       -1.1559999 -0.19319814 0.2050565 -0.120093435
0003e0 ce 59 f1 bd a8 e9 f2 3c db e5 31 be c9 46 1c 3e
       -0.11784707 0.029652432 -0.17372839 0.15261377
0003f0 13 4f 22 be 90 4a ad bd 1e 40 bb 3d 14 1e 24 3c
       -0.15850477 -0.08461487 0.09143089 0.010016937

net1.0.bias f4 [64]
000000 df 72 24 3e ad 02 40 be 67 19 2b be 58 91 70 3d
       0.16059445 -0.1875102 -0.16708909 0.05873236
000010 f3 0d 00 3e 86 23 00 3d 8b 63 10 bd 89 4e 8a bd
       0.12505321 0.031283878 -0.03525118 -0.06753261
000020 16 47 92 bd 84 82 f7 3d bc 6e 0e be 88 cb 74 3e
       -0.07142465 0.12085441 -0.1390943 0.23905766
000030 92 df 4a 3e 46 7a 51 3e 5d 19 56 be 15 4b 90 bb
       0.19811848 0.204568 -0.20908113 -0.0044034817
000040 e5 01 c9 3d ab 13 2a 3e af 92 4a 3e 04 0e b3 bc
       0.098148145 0.16609065 0.19782518 -0.02185727
000050 90 db 08 3e 3b bf 83 bd 7e 0d 98 bd 43 37 f4 bd
       0.13365006 -0.06432959 -0.074244484 -0.11924603
000060 35 a9 75 bd 75 ba 4f bc bf fb 27 3e 5f 3f 5a 3e
       -0.05997582 -0.012678732 0.16404627 0.21313237
000070 78 0a 27 be 7b ed 4c 3e 11 5c 18 be 41 06 52 3e
       -0.16312587 0.20012467 -0.1487887 0.20510198
000080 44 e3 80 3d 2e dc 14 bd d9 38 59 be e5 32 ca 3d
       0.062933475 -0.036342792 -0.21213092 0.098729886
000090 e2 e0 04 be 9e b9 f0 3d 77 6c 9d 3d a0 4c 45 be
       -0.12976411 0.11754154 0.07686704 -0.19267511
0000a0 1e 76 f0 3d d8 a0 31 be 7f e9 f3 3d 31 bb e6 bd
       0.11741279 -0.17346513 0.1190977 -0.11266173
0000b0 8a 95 25 be 58 a4 43 3e 1c a3 61 3e 5a 9c 66 3e
       -0.16170326 0.19105661 0.22034878 0.22520581
0000c0 b2 72 e1 bd 71 eb fe 3d 7e 34 ce bc 11 d6 37 be
       -0.110082045 0.12447251 -0.025171515 -0.17952754
0000d0 94 d6 b7 bd ae 3c c1 bd 88 c6 9e 3b b3 c0 6a 3d
       -0.089764744 -0.09435402 0.004845444 0.05731268
0000e0 ed 31 6c bc a2 42 88 bd f1 98 85 3d 10 a9 c1 3d
       -0.0144162 -0.06653334 0.06523312 0.09456074
0000f0 ab 01 e5 bd 91 10 43 be ef 85 58 3e 5c ab d1 3d
       -0.11181959 -0.19049288 0.21144842 0.10237762

net1.2.weight f4 [64, 64]
000000 62 4c a5 3e 88 ac b5 3d 23 7d 4e 3d 02 0a 42 3e
       0.32284838 0.08870798 0.05041231 0.1894913
000010 68 d3 a4 3c 70 b5 15 bd 0d 05 90 be 2c 4e b6 3d
       0.020120338 -0.036549985 -0.28128853 0.08901629
000020 de 1b 45 bd e7 9e fc 3d c6 18 56 be e5 96 32 3e
       -0.04812228 0.12334996 -0.20907888 0.17440374
000030 79 32 6b be 89 e0 1a 3e c1 a4 de bc 60 a1 18 3e
       -0.22968473 0.15124716 -0.02717817 0.1490531
000040 9d 0b 1c be 89 d0 71 3e 9f bd 80 3e 66 2b 29 bd
       -0.15238805 0.23614706 0.2514467 -0.041301154
000050 1e a5 15 3e 13 81 dd 3b b5 e6 7b 3e 4f 65 0f bc
       0.14613768 0.0067597716 0.24599726 -0.008752181
000060 1a 57 6d 3c 3a cd db 3c 4f e6 7d 3d fa b2 04 bc
       0.014486099 0.026831258 0.061987218 -0.008099312
000070 9c 02 9a 3d e0 2b fa 3d a0 76 b4 bc a8 17 1c 3e
       0.07520029 0.122154 -0.022029221 0.15243399
000080 ca c2 38 bc 3b a4 8f 3d 58 a8 ce bc ec 5c de 3d
       -0.01127691 0.07013746 -0.025226757 0.10857567
000090 b2 ef 09 bd 73 9e 0e bc 79 a8 bd 3b 1c 6c 2d 3a
       -0.033675857 -0.008704769 0.005787906 0.0006615536
0000a0 a3 f0 62 be 55 8e aa 3c c6 83 2b be dc 45 42 3e
       -0.22162108 0.020819822 -0.16749486 0.18971962
0000b0 8a ca f5 bd 4d 89 26 bc 35 95 2a 3e f5 d9 d5 3d
       -0.12001522 -0.010164571 0.1665848 0.10441963
0000c0 b8 15 12 3d 89 6d 09 3e 20 18 3f bd c0 bb 25 3c
       0.035665244 0.1342069 -0.046653867 0.010115564
0000d0 6a 92 18 3e 96 69 46 bc 91 ef 65 ba ea 9f a7 3d
       0.14899603 -0.012110135 -0.0008771355 0.08184798
0000e0 8b 86 8e 3e 8c 5e 4a 3e dd 1c a1 bd ff be 84 3c
       0.27837023 0.1976263 -0.07866833 0.016204355
0000f0 eb 03 72 3d 44 9e 96 3c 29 bf 81 bd a9 54 b4 bc
       0.059085768 0.018386014 -0.06335289 -0.022013025
000100 ba 3b c0 bc 0f 38 9f bc 81 a1 37 bd b0 27 43 3e
       -0.02346598 -0.01943591 -0.044831757 0.19058108
000110 e3 5f 60 bd 7b 74 a0 bd 7f e7 a4 3e c0 a5 54 3e
       -0.054778945 -0.07834717 0.32207868 0.20766354
000120 8e 51 48 3e 32 b0 78 3c c3 2d 0a 3e d1 24 58 be
       0.1956236 0.015178727 0.13494019 -0.21107794
000130 93 50 12 3d 86 4c 47 3d 4b 9e a2 3e d2 9e a4 bd
       0.035721373 0.048656963 0.31761393 -0.08038105
000140 4c 0e 75 3d 0d 7d 9b bf 4a 9c c6 3e a5 93 15 3c
       0.059828088 -1.2147537 0.38791114 0.0091294395
000150 73 e8 21 bd 13 e6 b1 bd f9 74 a9 3d a3 8f b8 be
       -0.03952832 -0.08686461 0.08274264 -0.36047086
000160 b1 50 61 bf 79 80 e9 3c 81 21 7e 3e 78 73 d7 3e
       -0.8801375 0.028503643 0.24817468 0.42080283
000170 a4 7b 38 3e 5d f8 8b bd de ab 6f 3c 80 80 b4 3e
       0.18015915 -0.06834481 0.014628379 0.35254288
000180 1a 0a a7 bd 8c a9 9b bd 30 db f8 3c 87 b3 c8 be
       -0.081562236 -0.07600698 0.030377954 -0.39199468
000190 8b 2f 7a 3e ee 48 f8 3c 76 88 51 bf 55 08 da 3d
       0.24432199 0.030308213 -0.8184885 0.106461205
0001a0 ae 2f d6 3e 6b 12 92 bd 2e 8a 8b 3d e3 5a 04 39
       0.41833252 -0.07132419 0.06813465 0.00012622359
0001b0 04 57 39 3d 46 52 28 3e 97 8f 06 3e 81 cb 45 3e
       0.045249 0.16437635 0.13140713 0.19315912
0001c0 3f 26 f3 bd 8d ad 4c 3e a7 d5 3c 3d 93 ea be 3d
       -0.11872529 0.1998808 0.046102192 0.09322085
0001d0 e5 47 05 3e a1 e1 83 bd df c5 89 3d 69 34 8c 3d
       0.13015707 -0.0643952 0.06727194 0.06845934
0001e0 3d 30 7d 3e a5 ee d4 3d f7 49 1c 3e 28 aa 3f bf
       0.24725433 0.1039708 0.1526259 -0.7486901
0001f0 9d cc 86 bd 3b 37 49 be aa 4a cc bd b1 d5 d1 3d
       -0.06581996 -0.19649975 -0.099751785 0.102458365
000200 97 34 8c 3e a9 13 ab bd 5b f2 ac 3d 7b a5 83 3e
       0.27383873 -0.08353359 0.08444663 0.2571219
000210 d7 a1 55 be b2 de 90 3d 40 2d bf be 55 12 22 3e
       -0.20862518 0.07073726 -0.3733921 0.15827306
000220 82 1a ca bd 87 50 bf bc 50 36 5f be 03 81 32 3e
       -0.09868337 -0.023353828 -0.21798062 0.17432027
000230 de 48 07 be a9 db 55 3e b4 84 20 3b 3b bd 5e 3e
       -0.1321139 0.20884575 0.002449316 0.21751873
000240 f3 e8 9f bd e3 68 72 3d b4 f8 18 3e e3 8b 8b bc
       -0.078081034 0.05918206 0.14938623 -0.017034477
000250 8a d0 8c 3e 49 46 dd 3d 91 9c 08 3c c7 18 d6 bd
       0.27502853 0.108044215 0.00833811 -0.10453945
000260 d1 28 15 3e 65 cb e7 3d f8 e1 de 3d 1c 53 2f 3c
       0.14566351 0.11318091 0.10882944 0.010700967
000270 21 30 55 3c 9b d4 ca 39 f4 74 0a be c2 8b c7 3d
       0.013011963 0.00038686846 -0.13521177 0.097434536
000280 f2 ac f5 3d 6c 1f 00 bd f5 48 fe 3c df 55 e0 3c
       0.11995877 -0.031279966 0.031040648 0.027384697
000290 a5 32 17 3e 16 7e d7 3d 8e 9c bc 3d fc 79 c0 3d
       0.14765413 0.10522096 0.09209548 0.09398267
0002a0 64 54 7f be 39 40 ef 3d aa 3e be bd 74 bd 23 3e
       -0.24934536 0.116821714 -0.09289296 0.1599024
0002b0 96 59 22 be c4 ac 11 be d9 37 9c 3d 72 ec 19 bd
       -0.15854487 -0.14226061 0.076278396 -0.037579007
0002c0 19 54 0a bd 03 c1 08 3d c3 e1 6e bc b2 7b 4d 3d
       -0.033771608 0.033387195 -0.014580193 0.050166793
0002d0 6c c0 97 3d 1e ef 13 be 9d 5b 96 3d b8 5c b3 bd
       0.074097484 -0.14446685 0.073416926 -0.08757919
0002e0 47 99 4f 3e 97 5a 20 3e 80 a3 75 bd b0 4d b3 bd
       0.20273314 0.15659557 -0.05997038 -0.08755052
0002f0 2f e0 15 3e b9 23 1a be 79 8e d7 bb ed b3 e8 bd
       0.146363 -0.1505269 -0.0065782634 -0.11362443
000300 f8 a0 dd 39 38 fe d2 bd 85 92 e8 3d 11 e1 7f 3e
       0.00042272336 -0.10302395 0.113560714 0.249882
000310 7f 46 06 be 03 72 41 be 1b 21 f8 3c 2f d9 88 be
       -0.1311283 -0.18891148 0.030289223 -0.26728198
000320 54 92 70 bd bc f4 0f 3f 87 f1 0b 3e 5c d3 07 be
       -0.0587333 0.5623281 0.13666354 -0.13264221
000330 91 cb 12 40 09 5e 8b be 93 7e 50 3d 70 d1 d9 bd
       2.2936747 -0.2722018 0.05090196 -0.1063565
000340 95 5b 87 3f 64 0b aa bd b0 c7 02 be a3 9a 56 be
       1.0574824 -0.08302954 -0.12771487 -0.20957427
000350 6c 04 c2 bd b3 57 74 be f4 82 f0 bd 45 7c d4 3d
       -0.094735 -0.2386158 -0.11743727 0.10375265
000360 92 d9 86 bc b6 1c b8 bc a4 4f 02 ba 45 1c a4 3e
       -0.016461167 -0.022474628 -0.0004970974 0.32052818
000370 a5 4b 0e be 84 80 15 be c5 d8 fe bd 57 32 3b 3b
       -0.13896044 -0.14599806 -0.12443689 0.002856394
000380 1a 16 b2 bd d3 bb 12 bd 28 16 d1 3d 85 c6 e5 3e
       -0.08695622 -0.035823654 0.10209304 0.4487802
000390 c1 07 23 be 11 e3 3a bd aa a4 21 be 97 a4 17 bd
       -0.15920927 -0.045626704 -0.1578547 -0.0370222
0003a0 db 4e 93 3c ab 1a 56 3d dc 76 0b bd e8 d1 6e 3f
       0.017981937 0.052271526 -0.0340489 0.9328904
0003b0 54 0e 0b 40 c5 b4 1f be 33 4b 29 bd 49 06 e8 be
       2.1727495 -0.15596302 -0.04133148 -0.45317295
0003c0 2f b2 d7 3f 6d 2a f7 bd b2 ec 40 bc 75 6d 82 3c
       1.6851252 -0.12068639 -0.011775183 0.015921334
0003d0 2f 12 4e bd 9e 0b d9 be 68 14 de bd ef ae 10 be
       -0.05031031 -0.42391676 -0.10843736 -0.14129232
0003e0 ff f3 63 3e 43 78 d6 3d 82 a3 3d 3e 55 f4 0f 3d
       0.22261046 0.10472157 0.18519405 0.035145123
0003f0 45 19 be bd 66 0f ce bc 0d 71 db 3c ff 38 22 3e
       -0.092821635 -0.025153827 0.026787305 0.15842055

net1.2.bias f4 [64]
000000 4e 79 01 3e ae fe ce 3d fe 9c 06 3e f0 62 fa 3c
       0.1264393 0.1010717 0.13145825 0.030564755
000010 06 3b 89 bc 4c 9a 40 3d 7a da 81 3c 94 fd 39 3e
       -0.016751777 0.04702215 0.015851248 0.18163139
000020 61 91 bb bd 29 3c 0b 3e 4f 94 2b bd 4e 98 8e 3d
       -0.09158588 0.13597168 -0.041889485 0.069626436
000030 69 b1 16 3d 88 e9 d0 3d e7 92 3d bc 02 14 0f be
       0.036790285 0.102007926 -0.011570669 -0.13972476
000040 32 23 85 3d fa 76 3e 3d fd 4f 89 3d 7b 2d 1d 3e
       0.065008536 0.046500184 0.0670471 0.1534938
000050 b4 20 f3 3c ef c0 0b be ce d0 76 bd 6e 2d 99 bb
       0.02967868 -0.13647817 -0.060257725 -0.004674605
000060 01 bd 30 3e 23 4c aa 3d 69 3b de 3d 34 2a 49 3d
       0.172596 0.08315303 0.10851175 0.049112514
000070 a2 7e 0e be 47 61 21 be 33 1d 54 3d a4 a6 ce bc
       -0.13915494 -0.15759765 0.05178566 -0.025225945
000080 8b 5e 40 be 3f 7f ef 3d fd 91 1d 3d 25 87 d6 bb
       -0.18786065 0.11694192 0.038469303 -0.006546872
000090 a8 ac 1d 3d 5f df e1 bb ce bd 4a 3d e4 c8 47 bc
       0.038494736 -0.006893083 0.049497418 -0.012193892
0000a0 9e 4c d8 bc f5 40 c4 3d f8 58 45 3e 9f 84 fc bc
       -0.026403721 0.09582702 0.1927222 -0.030824957
0000b0 3f b9 17 bb ba 24 dd bd 83 09 21 3e da 12 af bc
       -0.0023151187 -0.10798021 0.15726285 -0.021371294
0000c0 db 9f f6 3d 70 6f 03 3e e0 d1 0d be 37 e5 55 bc
       0.12042209 0.12835479 -0.13849592 -0.013055137
0000d0 c1 3f 96 bc 06 42 1a 3e 68 76 ce 3d cb 68 31 bd
       -0.018340947 0.15064248 0.10081178 -0.04331283
0000e0 6b 9f 83 be 8e 13 db bd 97 a5 f2 bc d7 d1 9e 3d
       -0.25707564 -0.10697089 -0.029619975 0.077548675
0000f0 76 35 84 3d f7 d8 0a 3e 04 ad 46 3e 4f 96 aa bd
       0.06455509 0.13559328 0.19401938 -0.0832945

net1.4.weight f4 [1, 64]
000000 7b 6f 8e 3d 07 88 f4 be 57 b7 c0 3d d3 dd 3f bf
       0.06954857 -0.4776003 0.09409969 -0.7494785
000010 57 60 02 bf 23 49 b8 3d b9 85 97 3d c8 b3 fd 3f
       -0.5092825 0.08998325 0.073985524 1.982049
000020 b4 c4 23 bf 56 b7 d9 be fd b5 bc be 9d d9 90 3e
       -0.6397202 -0.42522687 -0.36857596 0.28291026
000030 81 0a c7 3d 61 1b 49 bf 7b ca 01 bf 74 5e 15 bf
       0.097188 -0.785574 -0.50699586 -0.5834725
000040 bf 15 ff 3d 08 18 11 bf 6f ae 3e bf cd 67 c7 3e
       0.124553196 -0.56677294 -0.74484915 0.3894638
000050 cf 98 fd be 2f 68 02 bf 3c 18 48 bf fb cb 01 bf
       -0.49530646 -0.5094022 -0.7816198 -0.50701874
000060 10 ea 1a 3e 4b 8b db 3e f3 db 10 3e 9f 22 0a bf
       0.1512835 0.4287971 0.14146404 -0.5395908
000070 b2 94 00 bf 98 a8 01 bf 0e fb 2c bf 15 2f d4 3d
       -0.5022689 -0.5064788 -0.6757058 0.10360543
000080 75 04 26 bf 59 06 2a 3e 81 25 fb be d7 78 c9 3d
       -0.6485055 0.16603984 -0.4905205 0.098375015
000090 b0 3b f9 be 9d 26 e9 3d 7f 37 02 bf 07 e8 0c 3e
       -0.4867835 0.11384318 -0.5086593 0.13760386
0000a0 bf 5b 77 be 4a 9f 5b 3e f3 fa 39 3e 7a dc cf 3d
       -0.24156092 0.21447483 0.18162136 0.101494744
0000b0 84 83 0e 3e 5a 28 f2 be c7 f2 b6 3e 47 5a 0c bf
       0.13917357 -0.4729641 0.357321 -0.5482525
0000c0 21 4f 9e 3e 1b 2d af be 1d e7 16 bf cc c9 bc be
       0.30919746 -0.342141 -0.589464 -0.3687271
0000d0 97 0f 18 bf 8f 72 51 3e 12 24 24 bf d0 91 9f 3d
       -0.5939879 0.20453857 -0.6411754 0.077914834
0000e0 28 6f 07 bf 41 b3 1f bf 8b 30 15 3e cb 0a 41 bf
       -0.52903986 -0.62382895 0.14569299 -0.75407094
0000f0 4f a0 04 bf 06 e7 80 3e 7e 40 6e bf f5 cd d6 be
       -0.5180711 0.25176257 -0.9306716 -0.41954008

net2.0.weight f4 [64, 24]
000000 6b db 81 be e2 3c 06 3e f0 ff 7d 3d e4 db 4d 3d
       -0.25362715 0.13109162 0.06201166 0.050258532
000010 8f bc d4 3e b8 79 9b 3c ba 01 bc 3a 1d aa 2e be
       0.4155011 0.018978938 0.0014343776 -0.1705708
000020 9a 31 a5 bd 78 85 a6 3d 3a 42 b5 3d fd 55 17 3b
       -0.08066101 0.08130926 0.08850522 0.0023092024
000030 0d 91 61 3e 83 69 47 3e ff 23 4c bd e5 96 3a 3e
       0.22027989 0.19473843 -0.049839016 0.18221624
000040 7d 49 22 be 5d 2d b7 bc e3 34 50 3f d1 eb 27 be
       -0.15848346 -0.022360498 0.813307 -0.1639855
000050 a4 07 07 be 54 4d 7e be 4e 91 33 3e 1b bc dd 3d
       -0.13186508 -0.24834186 0.17535898 0.10826894
000060 34 7e d0 3e 08 14 b8 bd c0 88 91 bb 0c 58 d1 3e
       0.40721285 -0.08988196 -0.0044413507 0.40887487
000070 b8 0f 94 bd 50 ce 50 3d ca 77 94 bd 08 a0 97 3d
       -0.072295606 0.050978005 -0.072494105 0.074035704
000080 9a 12 69 bd 72 80 e0 bd ac 93 2c 3e 53 70 b8 3c
       -0.056902505 -0.10961999 0.16853207 0.022514498
000090 f4 f6 b8 3d 43 54 ce 3c 0a fd 3e 3e de 03 1d bd
       0.090314776 0.025186663 0.18651214 -0.038333766
0000a0 e0 c4 47 be 14 02 f7 bc 88 8c f3 bf 80 56 23 bd
       -0.19508696 -0.030152358 -1.9027262 -0.039877415
0000b0 5a 50 3a 3e be 9a 4b be 0c b2 93 bd 0d db 61 be
       0.18194714 -0.19883248 -0.07211694 -0.22056217
0000c0 27 6c 40 bd f8 69 a3 bd 68 3e 23 3e ec ad 08 3d
       -0.046978142 -0.07979196 0.15941775 0.03336899
0000d0 eb 2d 49 be 26 26 4e be 40 21 10 3e 48 c4 cb bd
       -0.19646423 -0.2013174 0.14075184 -0.09949547
0000e0 fe 77 34 bd e4 fe 8c bd 66 e5 e2 3d ae 93 d2 3d
       -0.044059746 -0.06884554 0.110789105 0.10282074
0000f0 10 e4 51 3c 44 d4 90 3d f0 ff 6c 3c 6e d7 ae bd
       0.012810722 0.070717365 0.014465317 -0.08537184
000100 41 01 0f 3d 1a dc 22 3e 82 65 91 bf 4e 26 ff 3e
       0.034913305 0.15904275 -1.1359103 0.49833912
000110 5e ce 25 be 90 0e 17 3e 79 bf e7 3d d3 99 58 3e
       -0.16192004 0.14751649 0.113158174 0.2115243
000120 9b 3c 8b be ab 11 aa 3d 80 cc 68 3d 0a 60 8c bf
       -0.27194676 0.08304151 0.05683565 -1.0966809
000130 d0 4c 94 be 47 c8 46 be ac b6 4b 3e a2 0c 09 3e
       -0.28964853 -0.19412337 0.19893903 0.13383725
000140 e8 42 f1 3c 90 c4 f9 3d 34 2f d0 bd 02 82 e1 3d
       0.029450849 0.121956944 -0.10165253 0.11011125
000150 8e 33 54 3e 0c 3a 8d bd cb 3e fb bb 80 c1 10 bd
       0.20722792 -0.06895837 -0.0076673976 -0.035340786
000160 ed fe fe bd bf 37 48 be ba 68 a7 bc e1 9a 00 be
       -0.12450967 -0.19552515 -0.02043568 -0.12559082
000170 30 25 cf 3d d2 38 cb 3d ff fe a0 3e c8 fe fc 3e
       0.10114515 0.09922947 0.31444547 0.49413133
000180 a9 5e cb 3c 3e c7 3b be 80 b6 10 3d 8f 92 5b 3d
       0.02482541 -0.18337724 0.035330296 0.053606566
000190 8b b6 17 be 22 26 f6 bd c0 0a fe bd ef 79 0e 3e
       -0.14815728 -0.12018992 -0.12404394 0.13913701
0001a0 65 d1 8b bc 36 3c 28 3d ea 35 eb 3d c2 4c fb bc
       -0.01706762 0.041073047 0.11484893 -0.03067625
0001b0 fb fc 31 3e ce 9d 89 3c 4a ec 92 3d 95 06 22 3e
       0.1738166 0.01679888 0.07173975 0.15822823
0001c0 5f a9 d2 3d bb 33 c2 bd ec 23 92 3e 6a 8d 8e 3c
       0.10286211 -0.09482523 0.2854303 0.017401416
0001d0 45 71 14 be 25 eb 23 3e 88 eb 84 3d 3f b9 b0 3d
       -0.14496334 0.1600767 0.064902365 0.08629083
0001e0 33 3a 1a bc 7d be a3 bd 84 26 24 3e cd a1 1e 3d
       -0.00941329 -0.07995317 0.16030318 0.038728524
0001f0 05 2f 50 3e 70 8b ae 3d 96 84 c4 bd 97 fd 2a bd
       0.20330437 0.08522689 -0.09595601 -0.04174575
000200 86 b4 a3 3d 86 14 c6 3d 4b 20 44 3e 63 96 a5 bc
       0.079934165 0.09671883 0.19152944 -0.020213312
000210 65 22 04 be 47 62 52 3e d3 57 1a be c2 4c d7 bd
       -0.12903745 0.20545302 -0.15072565 -0.10512687
000220 c3 b2 40 be ad d9 24 3e 2b cd 18 bf 5b 5b f8 bf
       -0.18818192 0.16098662 -0.5968806 -1.940288
000230 28 2b 5b 3d db 44 1f 3e 6c be 74 be 88 fc b3 3d
       0.053507954 0.1555361 -0.23900765 0.08788401
000240 eb 89 97 be fb 6c 30 be 64 10 49 3e 71 46 d0 be
       -0.2959741 -0.17229073 0.19635159 -0.40678743
000250 77 b2 66 bc 52 e0 3e 3e 44 08 fe 3d 79 6d 30 3e
       -0.014080635 0.18640259 0.1240392 0.1722926
000260 85 d9 0b 3e 3c 7f 8f 3d 1b a2 4a 3e 3c b4 a9 bd
       0.13657196 0.0700669 0.19788401 -0.0828633
000270 9a 09 5d bd 6f 19 2f be 18 e8 f9 3c 4c e6 fa bd
       -0.053964235 -0.17099546 0.030506179 -0.12250957
000280 cc f4 08 3d 3e 47 89 bd 15 a0 99 3f c3 b5 3a bf
       0.03343658 -0.067030415 1.2001978 -0.72933596
000290 09 47 cd bd ab 4a 15 be 6c 2d 1f be d4 20 85 bc
       -0.100233145 -0.14579265 -0.15544671 -0.016251005
0002a0 ec 18 6f bd 95 c0 d8 3e 00 42 75 3d cd 30 e3 bc
       -0.058373377 0.42334428 0.059877396 -0.027733231
0002b0 46 56 28 3f 88 c6 90 3d dc c0 cd ba 1c b0 45 3e
       0.6575664 0.07069117 -0.0015697735 0.19305462
0002c0 6a 89 3e be 39 c9 aa bb 2c d4 29 3c 54 ef ec bd
       -0.18607107 -0.005211976 0.010365527 -0.11569086
0002d0 c2 1a db 3d df 2e 42 bd f0 c9 29 be 3e d2 e7 bd
       0.10698463 -0.04740798 -0.1658094 -0.113193974
0002e0 36 9c d6 bd e2 7c 40 3e 4e a1 cb be 55 ee 4e 3f
       -0.104790136 0.18797639 -0.39771503 0.80832416
0002f0 4e d0 30 3e ca fb 61 be bb 62 14 bd e5 54 10 be
       0.17266962 -0.22068706 -0.03622697 -0.14094885
000300 d4 f0 cf bd 57 b0 1b bf 10 9c 60 3c 45 64 7d be
       -0.10153356 -0.6081595 0.013709083 -0.24745281
000310 ad 0b 1a bd b6 9b 97 bd 1b 88 a9 3c b6 cb 1e 3e
       -0.03760879 -0.074027464 0.020694783 0.15507397
000320 8d 61 a6 bc 14 5c f3 3d 7a 0d 82 bd 94 c9 1b bd
       -0.020310188 0.11882797 -0.06350227 -0.038034037
000330 ec 98 a7 bd 39 65 00 3e 02 2b 18 3e 2a 82 a2 3d
       -0.081834644 0.12538613 0.14860156 0.07934983
000340 e4 f6 90 bd 81 fe 31 3e e3 e0 36 be d7 32 0e 3e
       -0.07078341 0.17382242 -0.17859225 0.13886581
000350 e8 da 29 3d 38 51 66 be 58 ea 70 3e 7b f2 5e 3d
       0.04146853 -0.2249192 0.23526895 0.054430466
000360 3b 2c dd bd 2a 26 1f bf 80 b0 92 3a 0f 7a 2a be
       -0.10799452 -0.6216761 0.0011191517 -0.16648124
000370 76 09 53 3f e4 53 1b bd 5d 9d 1a 3e c4 e6 80 3c
       0.8243631 -0.0379218 0.15099092 0.015735038
000380 c1 0c 3f 3e 59 22 24 3e 0e 8e 54 bd 32 67 eb bd
       0.18657209 0.16028728 -0.051893286 -0.11494292
000390 20 6c 31 3d 8c 13 9b bd f1 71 67 3e 2e 7a e7 3c
       0.043316007 -0.07572088 0.22602059 0.028256502
0003a0 7e 61 fe bd 71 43 b4 bd 8d 03 a1 be 87 6e a1 3e
       -0.12420939 -0.08801926 -0.31448022 0.31529638
0003b0 a8 bc a2 bc 75 76 35 3d 80 e4 8d bd 2c 1f ca be
       -0.019865349 0.044302423 -0.069283485 -0.39476907
0003c0 95 58 ab bd 32 87 3b be e8 6b a0 3d 87 9c b4 3b
       -0.08366505 -0.18313292 0.078330815 0.0055118236
0003d0 91 93 97 be 70 f8 1c 3d 9c a2 1f 3e 0a 18 4c be
       -0.29604772 0.038322866 0.15589374 -0.19931045
0003e0 a8 4c 9d bd f2 1b ec 3d 5a 77 bc 3d 1c fa 13 be
       -0.07680637 0.11528768 0.09202452 -0.14450878
0003f0 4c bb 2f bd 76 bf 8b 3d 94 72 23 be 00 0f 74 bc
       -0.04290323 0.06823628 -0.15961677 -0.014896154

net2.0.bias f4 [64]
000000 7e f0 35 bd 34 a2 28 3e d2 8b b3 3d e2 d2 21 be
       -0.044418804 0.16468126 0.08766903 -0.15803102
000010 83 e2 a3 3d 1e f1 5c bd dd e3 59 bd 01 8c b0 3d
       0.08002188 -0.053940885 -0.053195823 0.086204536
000020 5f a7 67 3e 90 17 63 bc 42 44 f5 bd 94 d8 b8 3d
       0.22622441 -0.013860598 -0.1197591 0.09025684
000030 8c 76 c2 3d 7d 81 59 be 49 ee bc 3d 6c a5 17 bd
       0.09495267 -0.21240802 0.09225137 -0.037022993
000040 12 bf 20 be f7 ca a5 3c 02 cb 98 3c 0f 5a 1a be
       -0.15697888 0.020238383 0.01865149 -0.15073417
000050 fa 49 31 3e e9 5e 23 be b4 f1 0e bd 2e e4 ed 3d
       0.17313376 -0.15954174 -0.034898475 0.116157874
000060 1e a6 4f bd 31 2c 57 be 95 d6 c5 3c 65 48 47 be
       -0.05069553 -0.21012951 0.024150172 -0.1946121
000070 cc eb 87 bd 6b ad 60 3e e0 ad 6e 3d 32 f7 22 be
       -0.066367716 0.21941154 0.05827129 -0.1591461
000080 b3 81 eb bd b2 04 5d bd 0b 19 13 3e 02 d4 c2 bd
       -0.114993475 -0.053959556 0.14365022 -0.095130935
000090 93 90 16 be b9 46 ab 3d 62 84 12 3e 4e 8a ba bd
       -0.14703588 0.08363099 0.14308313 -0.09108411
0000a0 d6 fb 44 bd 9e 15 6d 3e bd 77 e7 3c 2b 39 a3 bd
       -0.048091732 0.23152778 0.028255338 -0.07969888
0000b0 52 18 60 3e 47 91 2b 3d b0 8f 1e 3e 1e d4 13 be
       0.21884277 0.041886594 0.154845 -0.14436385
0000c0 6d 38 0d be 04 95 46 bd 50 0d 3a bd dd 5f 2f 3e
       -0.13791056 -0.048481956 -0.045422852 0.17126413
0000d0 b3 c1 04 be dc ca 18 be 00 29 e8 3d 5d de 4f bd
       -0.12964515 -0.14921135 0.11335945 -0.05074917
0000e0 a9 53 3b 3e 61 96 93 bd 69 60 bf bd c8 59 50 3e
       0.18293633 -0.07206417 -0.09344561 0.20346749
0000f0 0f 35 16 3e db bc 62 3d ff 03 4d 3e 6e 91 28 3e
       0.14668678 0.055355888 0.20021056 0.16461727

net2.2.weight f4 [64, 64]
000000 fa 85 94 3b c4 82 ea 3d 8b f5 2a 3d a3 0c 23 3e
       0.004532573 0.11450723 0.041738074 0.1592279
000010 70 a1 75 3c d2 fc b1 3d 4e 87 59 3e d5 13 c1 3d
       0.014992103 0.086908 0.21243021 0.09427611
000020 35 88 ab 3d 02 39 69 3e ce 6e c7 bd f4 9a fd 3d
       0.08375589 0.22775653 -0.09737931 0.123830706
000030 38 10 21 3e c6 5d 99 bd df e5 3d 3e 36 8d 02 3d
       0.15728843 -0.07488589 0.1854472 0.03187295
000040 99 96 0d be 40 c5 f2 3d 90 db 92 3e a1 8b f1 3d
       -0.1382698 0.11854029 0.28683138 0.1179421
000050 65 f8 cb bd 08 28 58 3e 72 28 83 bd 5c a8 92 bd
       -0.09959487 0.2110902 -0.06404199 -0.07161018
000060 fc c0 0a 3e 41 db 0e 3d 43 2d 04 3e 40 2d 55 be
       0.1355018 0.034877066 0.12907891 -0.20818043
000070 07 16 1f 3d a1 77 99 3e 44 25 8d 3c ff fa e2 bd
       0.038839366 0.29974082 0.017229684 -0.1108303
000080 ae 3a 55 3e fc 69 cf bc ed 51 d0 bd e0 bc 1b bd
       0.20823166 -0.025319092 -0.10171876 -0.038021922
000090 4c b5 a7 3b 0e a3 8f bd 5e c9 90 bd 10 ad af bd
       0.005118048 -0.07013522 -0.07069658 -0.08577931
0000a0 6a 05 48 3e e3 ca 34 3e fb 24 ee bc 17 42 13 3e
       0.19533315 0.1765552 -0.029070368 0.1438068
0000b0 b4 86 da 3d af 29 1e 3d af ae 5e 3d 59 3d 5a bd
       0.10670224 0.03861397 0.05436581 -0.053281162
0000c0 97 b6 36 3e 05 ff 3c be 68 ea 58 bc 9b d8 17 bd
       0.1784309 -0.18456657 -0.013239481 -0.037071805
0000d0 e0 f7 da 3d 27 5d 02 be 2c 8d 90 bc 69 fe 55 3d
       0.1069181 -0.12730847 -0.017645441 0.052244578
0000e0 6b c0 fa 3d 18 6e 61 3e 32 97 51 3e 17 34 c1 bc
       0.12243732 0.22014654 0.20467833 -0.023584409
0000f0 e5 3c dc 3d 5e 4d 83 bd c4 0b 7d 3d 8d d9 de 3d
       0.10753802 -0.06411241 0.0617788 0.10881338
000100 52 0f fd 3c 09 ce 53 3e 53 1e a2 3d 8d cf c7 3d
       0.030891094 0.20684065 0.0791594 0.09756384
000110 8e eb 5f b9 d0 ae f0 3c 30 10 46 3d f7 11 ba 3d
       -0.00021354688 0.029380232 0.04835528 0.09085458
000120 b3 4c a5 bc 7d 6f 59 3e c6 8e 23 be fd 97 7d 3d
       -0.020178175 0.21233936 -0.15972432 0.061912525
000130 8c f5 1f 3e 71 2c 9a bd 9f 29 3c 3e 2e b2 a7 3d
       0.15621012 -0.07528008 0.18375252 0.08188282
000140 20 99 f6 bd 69 7b a1 3d 3e 49 30 3e 9b 6a 07 3e
       -0.12040925 0.07884867 0.1721544 0.1322426
000150 a7 b7 0a be b9 af 0a 3e 1f 34 0f bd 1a 0c 83 bd
       -0.1354662 0.13543595 -0.034961816 -0.063987926
000160 b7 aa 15 3d 50 e3 61 3d aa 95 2b 3d ee ca 7f be
       0.03653976 0.055148423 0.041890778 -0.24979755
000170 22 e2 76 3d 54 74 a6 3e 39 8d d5 3b 34 e9 bd bd
       0.06027425 0.32510626 0.006517079 -0.092729956
000180 c2 39 49 3e fe 4d dc bd 11 f9 46 be 1f 86 e2 3d
       0.19650939 -0.10757063 -0.19430949 0.11060738
000190 47 03 1a 3e 0e 58 0c 3e d1 bc c4 3d 48 01 2b be
       0.15040313 0.13705465 0.09606326 -0.16699708
0001a0 30 35 37 3e df 47 f6 3d a3 11 15 be 07 33 b3 3d
       0.17891383 0.12025427 -0.14557509 0.08749967
0001b0 44 b7 97 3d b9 1a 43 3d 63 3f fb 3c fc c6 38 bd
       0.07408002 0.047632907 0.030669874 -0.04511164
0001c0 3c c5 0f 3e 72 1a 42 bb da 11 3e bd aa c3 73 bd
       0.14040083 -0.0029617813 -0.046403743 -0.05951277
0001d0 ab 0f 0e bd 51 4f 94 bd c2 59 26 3c 97 f7 c0 3d
       -0.03468291 -0.07241691 0.010153236 0.09422224
0001e0 f6 15 02 3e e0 8a e5 3d ad ff bb 3e fc 51 1f bc
       0.1270369 0.11208129 0.36718503 -0.009724136
0001f0 2c 6d de 3d 4d 1a 0a 3e 53 88 8e 3c 64 2e 03 3e
       0.10860667 0.13486595 0.017398989 0.12810665
000200 4c 2b 51 3e fc 10 3d 3e 4d 2c 59 3e 99 52 e1 3c
       0.20426673 0.1846351 0.21208306 0.027505206
000210 65 1e 89 3c 60 2c a8 bf 42 c3 43 bd 49 88 d5 3e
       0.016738126 -1.3138542 -0.047793634 0.4170554
000220 69 df 58 3c 4e b3 83 3e 5a a7 f6 bd 0c 45 f9 3d
       0.013236859 0.25722736 -0.120436385 0.12171373
000230 97 09 6f bd 14 16 31 3e 7f 77 af be 93 3c 17 3e
       -0.058358755 0.17293578 -0.34270856 0.14769201
000240 7c 6b 28 3e e7 5f a7 bd 63 59 c9 3c 9e 61 91 3e
       0.16447252 -0.08172589 0.024578756 0.28394789
000250 5f 4b e9 be 23 45 1e 3e a8 77 2f 3e 6d 0d a8 bc
       -0.45565316 0.15456061 0.17135489 -0.020514214
000260 01 34 8e be 88 75 f3 3d e2 60 ae 3d 26 63 85 be
       -0.2777405 0.11887652 0.08514573 -0.26052207
000270 c5 53 00 be c3 6a 90 3e 03 02 0c be 80 77 b1 bd
       -0.12531956 0.28206453 -0.13672642 -0.08665371
000280 cb 44 eb 3d 60 13 4d 3e e5 13 67 be fd 63 0f be
       0.114877306 0.20026922 -0.22566183 -0.14002986
000290 79 64 0d bd 54 ae 01 3e 80 d4 81 bb cd 76 9c 3e
       -0.034519646 0.12664157 -0.0039620996 0.30559388
0002a0 48 3a bd 3e c6 25 9f bd b6 32 f9 bd b7 39 37 3e
       0.36958528 -0.077708766 -0.121678755 0.1789311
0002b0 68 8d c6 3d 71 83 fe be 4a 76 17 be b3 15 ed 3d
       0.0969494 -0.49709657 -0.14791217 0.115764044
0002c0 a9 fe 95 3e 5a eb 27 bd 9d 68 7a 3e 39 19 cc bf
       0.29295853 -0.040995933 0.2445397 -1.5945197
0002d0 00 bc b0 be b1 cd a4 3d 75 5b 23 bd 39 7e 32 bd
       -0.34518433 0.08047045 -0.039882142 -0.043577407
0002e0 2d 10 eb be 5e 8b 22 3e fa 06 b2 3d 49 2d 85 3c
       -0.4591078 0.15873477 0.08692737 0.016256945
0002f0 79 c9 8e 3e ee 11 12 3e 9f 77 d5 3d 6f 44 92 3c
       0.27888086 0.14264652 0.104232065 0.017854897
000300 3c d5 5f bd 80 13 b2 be 38 cf d3 be 4b f5 3a be
       -0.054646716 -0.34780502 -0.41369033 -0.18257634
000310 6c 69 d0 3d 42 65 75 3c 05 db 71 bc da 3c 01 bf
       0.101763576 0.014977755 -0.014761691 -0.5048348
000320 60 f9 24 3e d1 a6 03 bd 06 12 13 be c2 54 9f 3e
       0.16110754 -0.03214151 -0.14362344 0.31119353
000330 17 08 5a 3e 83 ce 11 bc 92 2b 24 3e 9c 59 8e bd
       0.21292149 -0.008899334 0.16032246 -0.069506854
000340 55 ca 85 bd 88 89 82 bd dd 09 5c 3d 47 85 15 bf
       -0.065327324 -0.06373888 0.053720344 -0.5840649
000350 24 ad 15 3e 83 00 01 bf 9e bb 52 be 45 40 10 bc
       0.14616829 -0.50391406 -0.20579383 -0.008804386
000360 35 e5 44 3e b7 f1 dd bd 13 89 a2 3c c0 0d a9 3e
       0.1922806 -0.10837119 0.019840753 0.33018303
000370 5d bf 4d bd bf 81 ba bf eb fd 42 bd d9 95 03 3e
       -0.050231326 -1.4570845 -0.047605436 0.12850131
000380 5a 1a 50 be 4e de f0 bd 02 a6 a2 3e a2 28 35 bd
       -0.20322552 -0.11761151 0.3176728 -0.044228204
000390 85 36 41 bd 0e 97 02 3e 29 59 9e bd 04 a9 22 bd
       -0.047171135 0.12752935 -0.0773185 -0.039711967
0003a0 ec 0f 13 bf 42 02 85 bd fc 34 42 3e a4 29 d0 3d
       -0.5744617 -0.06494571 0.18965524 0.10164192
0003b0 1d fd 46 3e 05 8f c8 bc 9a 3f a3 be 73 7c 2d 3e
       0.19432493 -0.02448226 -0.31884462 0.16942005
0003c0 89 f7 f3 bd 68 2f ba 3d 3a 1f c6 bd 06 53 23 3e
       -0.11912448 0.09091073 -0.09673925 0.1594964
0003d0 6b 39 fc bd 12 cd ad 3d e4 8f c6 bd 02 10 07 bd
       -0.12315639 0.0848638 -0.09695414 -0.03297425
0003e0 46 00 a1 3d ea 23 19 bf be d6 53 bc 4c a4 e5 3c
       0.0786138 -0.59820426 -0.0129296165 0.028032444
0003f0 40 6b 74 bc 8b 20 7d be 8e b5 e6 3d a6 41 eb ba
       -0.0149181485 -0.24719445 0.112650976 -0.0017948642

net2.2.bias f4 [64]
000000 a9 5a ea 3d 93 c3 ff 3c 22 dd 70 3d ec 40 b3 3c
       0.11443073 0.031221187 0.05880464 0.021881543
000010 e2 f6 21 3e 2b 0b 95 3d 5f 3e 15 3e 12 ef fc bd
       0.15816835 0.07277521 0.14574574 -0.123502865
000020 67 82 0c 3e 3c f0 18 3e 01 94 8e 3b 87 fd 86 bd
       0.1372162 0.14935392 0.0043511395 -0.06591325
000030 3a ac bb 3d 63 1b d3 3d 44 d8 fd 3d 9e 43 c9 bc
       0.09163709 0.10307958 0.12394765 -0.024568375
000040 15 f7 39 be 18 a6 e1 3d 97 5e cc 3c d1 80 e3 3d
       -0.1816066 0.11018008 0.024947448 0.11108554
000050 59 02 11 3e f7 08 77 3d 51 40 ca 3c b2 0d 2a be
       0.14161052 0.060311284 0.024688872 -0.16606787
000060 86 15 1e 3e 0f 2c db 3d 6c 6a 99 bd c5 68 e4 3d
       0.15437898 0.10701763 -0.074910015 0.11152796
000070 03 d7 d9 bd f1 1e 7c bc f6 c9 b1 3d b6 43 1c 3e
       -0.10636713 -0.015388236 0.08681099 0.15260205
000080 34 64 b0 3b 8f ee 88 3d 9e 96 a0 3d a1 6f df 3d
       0.005383039 0.066861264 0.07841228 0.109099634
000090 6a b6 ef bc 70 4a 15 3d b4 46 55 3d 00 c1 c9 bd
       -0.029261786 0.036447942 0.05206938 -0.09851265
0000a0 7f a6 91 3d 0f d7 fe 3c 0a eb 85 bd 40 83 25 be
       0.07111835 0.031108407 -0.06538971 -0.16163349
0000b0 9f 2a dd 3d 64 8a 10 3e a6 f5 1a bd 0f 73 18 3c
       0.10799145 0.14115292 -0.037831925 0.009304776
0000c0 be ac b3 bb b9 c8 24 3d ef 0a 18 bd 85 53 2c 3d
       -0.005483239 0.040230487 -0.037119802 0.042071838
0000d0 c4 a2 ea 3c cd 2f a2 3d 98 23 00 3d 8b d0 22 bd
       0.028642066 0.079192735 0.031283945 -0.039749663
0000e0 c4 a4 b5 3d 6d 0a 80 3d 6d 32 27 3e 96 43 48 bb
       0.08869317 0.062519886 0.1632783 -0.0030557862
0000f0 aa 75 c8 bd 8c 44 c4 3d 0e 92 0e be da 2e 31 3e
       -0.09788068 0.09583387 -0.13922903 0.17303029

net2.4.weight f4 [1, 64]
000000 20 c5 1f 3e 37 7e 42 3e 0b a9 dc 3e 27 35 04 bf
       0.15602541 0.1899346 0.4309772 -0.51643604
000010 81 57 bf 3d bf 91 bc 3d 99 59 ff 3d cf 4b 44 bf
       0.09342862 0.09207486 0.12468261 -0.76678175
000020 2a 9b e2 3d e1 27 13 3e da 63 21 bf 54 b8 88 3d
       0.110647514 0.14370681 -0.63042986 0.06675783
000030 e7 99 15 bf c3 de da 3d 7f 78 2b 3e 5d c9 16 3e
       -0.5843796 0.1068702 0.16745184 0.14725251
000040 c4 bf 48 bf 93 c5 3a bf 7d 8a 75 bf 60 f8 36 3e
       -0.7841761 -0.72957724 -0.9591444 0.17868185
000050 9a ec 98 3d c8 1d c0 be 41 d9 ba 3d 69 bf 21 bf
       0.07467003 -0.3752272 0.09123469 -0.63182694
000060 8f 49 22 bf 45 1b 82 3d d6 86 35 bf 4b cf df 3e
       -0.6339349 0.063528575 -0.7090887 0.4371284
000070 f6 d0 12 bf de 77 25 bf f8 69 5d 3d 54 45 20 bf
       -0.573501 -0.6463603 0.054056138 -0.62605786
000080 ad 0e 2e bf 03 10 ef be 62 19 34 bf ef 82 c5 3d
       -0.67991143 -0.46691903 -0.7035123 0.09644114
000090 67 42 a2 3d f1 cd e6 3d 07 61 07 bf 3c 53 1c bf
       0.079228215 0.11269749 -0.52882427 -0.61064506
0000a0 ed e5 84 3d 3f 5f 08 bf e0 31 73 3d 1f 5e 83 bf
       0.06489167 -0.53270334 0.059373736 -1.0263098
0000b0 b2 cf 3c 3e 9a c7 8a 3d 0d dd 7d 3f 12 3b e3 3d
       0.18438604 0.06776352 0.9916542 0.11095251
0000c0 b0 da 06 bf 00 66 b7 3d 7d 48 d9 be 01 be f6 3f
       -0.5267744 0.08955002 -0.42438117 1.9276735
0000d0 2c c4 1d 3e f1 c2 72 bf ad 9b 32 3e ff 2f b5 be
       0.15406865 -0.94828707 0.17442198 -0.3538818
0000e0 f7 9e ba be b0 49 2b bf b4 95 e6 3d 51 9b d6 be
       -0.36449406 -0.66909313 0.11259022 -0.41915372
0000f0 ea 48 51 bf 3e ff a4 3e e8 d6 52 bf 4d 01 a6 3d
       -0.81751883 0.32225984 -0.8235917 0.08105717
