log/GC_SAC/maze3Env/20210805-1819/GC_SAC_HER_critic.pth (torch_old, 50566 bytes, 10 tensors)

net1.0.weight f4 [64, 28]
0	0xbd8a1a7b	-0.06743332
1	0x3dfcc1d4	0.12341657
2	0x3d60c9f8	0.054880112
3	0x3e6d6d39	0.23186196
4	0x3f5fcf9d	0.8742617
5	0x3e2dcfd7	0.16973816
6	0x3e31a096	0.17346415
7	0xbcdb5d08	-0.02677776
8	0xbd9d3550	-0.07676184
9	0xbd1a49bd	-0.03766798
10	0xbd9a5070	-0.075348735
11	0xbf8d858e	-1.1056383
12	0xbf93570e	-1.1510942
13	0xbf889d10	-1.0672932
14	0xbe84bbae	-0.25924438
15	0xbd98a5eb	-0.07453521
16	0xbefbb6d6	-0.4916293
17	0xbef5a422	-0.47976786
18	0xbd634351	-0.05548412
19	0xbdc493ba	-0.09598489
20	0x3dfb19c1	0.122607715
21	0x3e4cd723	0.20003943
22	0x3db77600	0.089580536
23	0xbd7be07c	-0.06149338
24	0x3e3ec485	0.18629654
25	0x3d861b66	0.065481946
26	0x3db37d8a	0.08764179
27	0x3d59c475	0.05316587
28	0x3e801eed	0.25023594
29	0xbe2e38d5	-0.17013867
30	0x3e337725	0.17525919
31	0xbeae8c16	-0.34091252
32	0x3e7890ed	0.24274035
33	0xbe01560e	-0.12630484
34	0xbd7bd013	-0.061477732
35	0xbc7998df	-0.015234201
36	0xbd8cb8d6	-0.06871192
37	0xbd51bd77	-0.05120608
38	0xbccb3a3b	-0.02480804
39	0x3e90de75	0.2829472
40	0x3e9a1ec9	0.30101612
41	0x3dfaa50d	0.12238512
42	0xbe822b3e	-0.25423616
43	0x3ea60ee2	0.3243323
44	0x3c7a7d25	0.015288626
45	0x3af40da5	0.0018619789
46	0x3c39b881	0.011335493
47	0x3e1f0e5c	0.15532821
48	0xbe8db877	-0.27679798
49	0xbe7202cd	-0.23633881
50	0xbd540b95	-0.051768858
51	0xbdd60c64	-0.10451582
52	0x3c4c08b0	0.012453243
53	0xbe84bdaa	-0.25925952
54	0x3ed8e2b1	0.42360452
55	0x3d3684bd	0.044560183
56	0x3e0daae3	0.1383472
57	0x3d8b3233	0.06796684
58	0x3e2897bf	0.16464137
59	0x3d442e1c	0.047895536
60	0x3e03db12	0.12876537
61	0xbdb858f9	-0.09001345
62	0xbee1ad8a	-0.44077712
63	0xbd84fad2	-0.06493153
64	0xbe3c7026	-0.18402156
65	0xbd9096b4	-0.07059994
66	0xbe223967	-0.1584221
67	0xbde9000c	-0.11376962
68	0xbc74f8bd	-0.014951882
69	0x3e1a9689	0.15096487
70	0x3e195589	0.14974035
71	0x3e2984b0	0.16554523
72	0xbc85106d	-0.016243184
73	0x3e3e9a3f	0.18613528
74	0x3ca53ff7	0.020172102
75	0x3d2345ba	0.03986142
76	0x3ead0915	0.33795992
77	0x3ec0d769	0.37664345
78	0x3f1497a4	0.58043885
79	0xbf314f8a	-0.6926199
80	0xbd745c80	-0.059658527
81	0xbe043aaa	-0.12913004
82	0xbe2a9ffe	-0.16662595
83	0xbda4ab93	-0.08040538
84	0xbc970a00	-0.018437386
85	0xbce1f8eb	-0.027584514
86	0xbab16180	-0.0013533086
87	0x3e25daf5	0.16196807
88	0x3d7b7fd9	0.061401222
89	0xbcbc7108	-0.023003116
90	0x3d894159	0.06701917
91	0xbcecd58b	-0.028910419
92	0x3df317c0	0.11869764
93	0xbbdc92d6	-0.0067313714
94	0x3c300d1c	0.010745313
95	0x3dc2feb1	0.09521235
96	0xbe0f0fe2	-0.13970903
97	0xbc8c1cf1	-0.017103644
98	0xbdf60df1	-0.12014378
99	0xbddea664	-0.1087158
100	0xbcf68222	-0.030091349
101	0x3db92d7e	0.0904188
102	0x3c78a16c	0.015175205
103	0xbe1b8cca	-0.15190426
104	0xbca507d6	-0.020145338
105	0x3bb53cbf	0.005530923
106	0xbfb4599c	-1.4089847
107	0xbf156509	-0.5835729
108	0xbc3bd0c0	-0.011463344
109	0xbd079e75	-0.0331101
110	0x3d88bffc	0.06677243
111	0xbc155289	-0.009113916
112	0x3d55f67f	0.05223703
113	0xbe5db701	-0.21651842
114	0x3e004463	0.12526087
115	0x3f3e048b	0.7422568
116	0xbf4e8a6f	-0.8067998
117	0xbd4dc4b0	-0.050236404
118	0xbd420214	-0.047365263
119	0xbf79e55a	-0.9761559
120	0xbf8bb748	-1.0915308
121	0xbf1193c6	-0.5686611
122	0xbefaac0f	-0.48959395
123	0xbf3601eb	-0.71096677
124	0xbf336676	-0.7007822
125	0xbecdd17b	-0.40198883
126	0x3d902545	0.070383586
127	0x3ce4032e	0.027833547
128	0x3de3a8f8	0.111162126
129	0x3cd2538c	0.025674604
130	0x3e64a5c0	0.22328854
131	0xbdd39cd9	-0.10332651
132	0x3da02866	0.078202054
133	0xbe1a3ed0	-0.15063024
134	0xbda5306c	-0.08065876
135	0xbde28938	-0.11061329
136	0xbcc90a00	-0.024540901
137	0xbf727bf9	-0.9472042
138	0x3f17cc50	0.5929613
139	0xbf575092	-0.84107316
140	0x3c2c199f	0.010504155
141	0x3dd076dd	0.10178921
142	0x3e2f7687	0.17135058
143	0xbeb384d7	-0.35062286
144	0x3de4345f	0.111428015
145	0xbd843a61	-0.064564474
146	0x3dd96092	0.106141225
147	0xbd4987e2	-0.049201854
148	0x3e4ddff5	0.20104964
149	0x3e6100f9	0.21973027
150	0xbe1a63e9	-0.15077175
151	0xbe99b741	-0.30022624
152	0x3d8b9f4e	0.06817494
153	0x3a1af17c	0.0005910618
154	0x3e105767	0.14095841
155	0x3dfadafc	0.12248799
156	0xbe1d74b6	-0.15376553
157	0xbe8bc25c	-0.27296722
158	0x3cd938bc	0.02651631
159	0xbdd2dd43	-0.102961086
160	0xbe147774	-0.14498693
161	0x3d2244c6	0.03961637
162	0x3e4df8ab	0.2011439
163	0xbe1e9d16	-0.15489611
164	0xbdb9f944	-0.09080747
165	0xbea8e656	-0.32988232
166	0x3e052a84	0.130045
167	0xbecfa5b9	-0.40556124
168	0xbdc70f1c	-0.09719679
169	0xbd75d450	-0.06001693
170	0x3d26037c	0.040530667
171	0xbd479ac2	-0.048731573
172	0x3dff7d2e	0.12475048
173	0xbe0d3515	-0.1378978
174	0xbcb398c6	-0.021923434
175	0xbe733a72	-0.23752764
176	0x3e07913e	0.13238999
177	0x3d156b0e	0.03647905
178	0x3e592d1b	0.21208613
179	0xbf232682	-0.63730633
180	0xbf0a8389	-0.54106957
181	0xbf466329	-0.77495056
182	0xbd826bdb	-0.06368228
183	0xbca2f719	-0.019893216
184	0xbbbf43a8	-0.0058369227
185	0xbe96ed59	-0.29477957
186	0x3d832eb2	0.06405391
187	0x3e0d7126	0.13812694
188	0xbce62a3c	-0.02809631
189	0xbd73433f	-0.059390303
190	0xbcb342db	-0.021882465
191	0xbe6f316b	-0.23358695
192	0x3e3d28cd	0.18472596
193	0xbf84783a	-1.034919
194	0xbf886f19	-1.0658904
195	0xbda5f147	-0.081026606
196	0xbe1675a5	-0.14693315
197	0x3dd0be92	0.101925984
198	0x3d68d7d0	0.05684644
199	0x3f317baf	0.6932935
200	0x3f438cd4	0.7638676
201	0x3e335251	0.1751187
202	0x3d9b8f51	0.07595695
203	0xbe743e90	-0.2385199
204	0xbe81ade9	-0.25327995
205	0xbeb3e867	-0.35138246
206	0xbe9b4c09	-0.30331448
207	0xbee9d2f7	-0.45668766
208	0xbf19682c	-0.5992458
209	0xbf2ae648	-0.6675763
210	0x3db09646	0.086224124
211	0x3da4cbe9	0.08046705
212	0xbde5040b	-0.11182412
213	0xbb0ca858	-0.0021462645
214	0xbd1be34d	-0.038058568
215	0xbe398084	-0.18115431
216	0x3e85ceb4	0.26134264
217	0xbd7ed9d7	-0.062219467
218	0xbd438fdd	-0.04774462
219	0x3d11a82e	0.03556078
220	0xbca6f218	-0.020379111
221	0x3f82ce8c	1.0219283
222	0xbca88510	-0.020571262
223	0x3f7be86f	0.9840154
224	0xbdafe427	-0.085884385
225	0xbe5da604	-0.21645361
226	0xbd2a1674	-0.04152532
227	0xbf165ec3	-0.58738345
228	0xbe9c6cdb	-0.305518
229	0xbe12d5fa	-0.14339438
230	0x3e2b7b11	0.16746165
231	0x3d707b22	0.05871118
232	0x3e0e3d24	0.13890511
233	0xbd52af32	-0.05143661
234	0x3e679031	0.22613598
235	0x3eb01b2e	0.34395736
236	0x3e96c247	0.29445097
237	0x3e17cd75	0.1482447
238	0x3e62eba3	0.22160201
239	0x3d762af2	0.06009955
240	0x3cce22ca	0.025163073
241	0x3e629d46	0.22130308
242	0xbd4fa206	-0.050691627
243	0xbeeb6041	-0.45971873
244	0xbf53b4a5	-0.82697517
245	0xbf9b6f5f	-1.2143363
246	0x3d85a7e7	0.065261655
247	0xbd528e9c	-0.051405534
248	0xbcaaa328	-0.020829752
249	0x3e325f70	0.17419219
250	0x3dda1b95	0.10649792
251	0xbe1513c2	-0.14558318
252	0xbde0bdcc	-0.10973701
253	0xbe3fa960	-0.18716955
254	0xbe22b996	-0.15891108
255	0xbea423bc	-0.32058513

net1.0.bias f4 [64]
0	0xbdbb5010	-0.0914613
1	0xbd0aeb57	-0.033915844
2	0xbe205428	-0.15657103
3	0xbe067e50	-0.13134122
4	0x3d23c8a2	0.03998626
5	0x3c55a16f	0.013038977
6	0x3dc9ae98	0.09847754
7	0xbe19387e	-0.14962956
8	0x3d9279a5	0.07152108
9	0x3d9741f0	0.073856235
10	0xbdc61d14	-0.09673515
11	0x3c453a24	0.012037788
12	0x3d894553	0.06702676
13	0xbe43a2a7	-0.19105016
14	0xbdf535c5	-0.11973146
15	0x3bbcbbc3	0.0057596876
16	0x3da6dc7c	0.08147523
17	0x3e5a6a5a	0.21329632
18	0x3e724892	0.23660496
19	0x3d828274	0.06372538
20	0xbdc48cdc	-0.09597179
21	0x3da5fe90	0.081051946
22	0x3e04670f	0.12929939
23	0xbd95594a	-0.07292421
24	0x3dd44ac9	0.10365827
25	0xbe7c5906	-0.24643335
26	0x3d5ca1b7	0.05386516
27	0x3d69038a	0.05688814
28	0x3e8c3a77	0.27388355
29	0x3d1d4236	0.03839322
30	0x3db1bbc1	0.08678389
31	0xbe07b5dc	-0.13252968
32	0x3e40b652	0.1881955
33	0xbd74036f	-0.059573587
34	0x3e0b714e	0.13617441
35	0x3d75264c	0.059850976
36	0x3dbd8f06	0.09255795
37	0xbda251a4	-0.07925728
38	0x3ded8170	0.11596954
39	0x3c028f2e	0.007968707
40	0x3be76ccb	0.0070625297
41	0xbd417c36	-0.047237597
42	0x3d8e9af0	0.06963146
43	0x3d0dec1b	0.034648996
44	0x3df023bb	0.11725565
45	0xbddd42b4	-0.10803738
46	0x3e48ff3f	0.19628619
47	0x3e061713	0.1309474
48	0x3e05e2a3	0.13074736
49	0x3de9f721	0.11424089
50	0xbd1e521e	-0.03865253
51	0xbe3deb99	-0.18546905
52	0x3d96d3d3	0.07364621
53	0x3e3b9ed1	0.18322302
54	0xbd5a0463	-0.05322684
55	0xbd9cbb1c	-0.07652876
56	0x3d86150b	0.065469824
57	0xbd52e018	-0.051483244
58	0xbd9dc16c	-0.07702908
59	0x3d0463cb	0.032321732
60	0x3e0e0edf	0.1387286
61	0xbdf1cdc2	-0.11806823
62	0xbd70ecbc	-0.058819517
63	0xbdd88df9	-0.10573954

net1.2.weight f4 [64, 64]
0	0x3f85a6e7	1.044156
1	0x3e0c8978	0.13724315
2	0xbe7c1d87	-0.24620639
3	0xbe61c71c	-0.2204861
4	0xbdaae1e9	-0.0834387
5	0x3e3f3cf8	0.18675601
6	0x3e5af546	0.21382627
7	0xbd749abc	-0.05971788
8	0x3e89029b	0.267598
9	0x3e0348a4	0.12820679
10	0xbdb518ca	-0.08842619
11	0x3e7bfa66	0.24607238
12	0x3f62f263	0.886511
13	0x3ed4f133	0.4159027
14	0x3f329398	0.6975646
15	0xbdd7f67c	-0.1054506
16	0x3eefcb0b	0.46834597
17	0x3e1acd7d	0.1511745
18	0x3e2684e6	0.16261634
19	0x3d546e62	0.05186308
20	0x3dc6592a	0.096849754
21	0x3e834be2	0.25643831
22	0xbe8c88ad	-0.27448025
23	0xbe3c9a20	-0.18418169
24	0xbec10575	-0.37699476
25	0xbe93b712	-0.2885061
26	0x3d051b5b	0.03249679
27	0x3d93c1dc	0.0721471
28	0x3e92f71e	0.2870416
29	0x3f007b0d	0.5018776
30	0x3eee046b	0.46487746
31	0x3e365869	0.17807163
32	0x3d91df06	0.071226165
33	0xbf126332	-0.5718261
34	0x3d8e0661	0.069348104
35	0xbe0e355c	-0.13887542
36	0x3e2db88f	0.16964935
37	0x3e3b9bf3	0.18321209
38	0x3fabc7f1	1.3420392
39	0x3df4bb5d	0.11949799
40	0xbeb9e089	-0.3630412
41	0x3e1fd108	0.15607083
42	0xbe5445a8	-0.20729697
43	0x3e5082e5	0.20362432
44	0x3f80cf2c	1.0063224
45	0x3f7fccfb	0.9992215
46	0x3f5a998a	0.8539053
47	0x3e8a9b3b	0.27071556
48	0xbee3c2cc	-0.44484556
49	0xbdaa5ce8	-0.08318502
50	0x3dd5e847	0.10444694
51	0x3e4327ac	0.19058102
52	0x3d41a1f7	0.047273602
53	0x3e413443	0.18867593
54	0x3e87664c	0.26445234
55	0xbe818be0	-0.2530203
56	0x3cdadc4e	0.026716378
57	0xbccd5c88	-0.025068536
58	0xbe9a285b	-0.30108914
59	0x3f1bbab1	0.60831743
60	0x3d51bb2b	0.051203888
61	0xbee97e14	-0.45604002
62	0xbe898bb0	-0.26864386
63	0x3df60af6	0.120138094
64	0xbd13621a	-0.03598223
65	0xbd624e69	-0.05525056
66	0x3d59fdbb	0.05322049
67	0xbf1e5e69	-0.6186281
68	0xbeb50ce1	-0.35361388
69	0xbcf86d35	-0.030325511
70	0x3d2f64db	0.042820793
71	0xbdc54c1b	-0.096336566
72	0xbc0e488a	-0.008684287
73	0xbe0ccd0f	-0.13750099
74	0x3e1daf1a	0.15398827
75	0x3d1ac962	0.03778971
76	0xbe1681dc	-0.14697975
77	0x3bafcd03	0.0053650155
78	0xbccbfc92	-0.024900708
79	0x3e0ef895	0.13962014
80	0xbe390362	-0.18067697
81	0x3ed5d15a	0.41761285
82	0xbf12d67c	-0.5735853
83	0xbc02fbe9	-0.00799463
84	0xbddfc2f6	-0.10925858
85	0x3da05c68	0.07830125
86	0xbe8b763d	-0.27238646
87	0xbda98a68	-0.08278352
88	0xbedd6237	-0.43238994
89	0x3d7399b8	0.05947277
90	0x3c20e7fb	0.009820933
91	0xbe73f520	-0.23823977
92	0x3df70a4f	0.12062513
93	0x3d3e7640	0.04649949
94	0x3e688623	0.22707419
95	0x3e3c20eb	0.18371932
96	0x3d848d83	0.06472304
97	0x3d806de5	0.06270961
98	0x3e3a4f2a	0.18194261
99	0xbe66d524	-0.22542244
100	0x3d581aa4	0.05275978
101	0x3c57cd26	0.01317147
102	0xbeb8d4e7	-0.36099932
103	0xbe8c8db0	-0.2745185
104	0x3e7c0142	0.24609855
105	0xbd4eacaa	-0.050457634
106	0xbe860097	-0.26172325
107	0x3e3593e5	0.17732199
108	0xbd201ea5	-0.039091725
109	0x3d9ac7c3	0.07557633
110	0x3d0d2bab	0.034465473
111	0x3d2eac6b	0.0426449
112	0xbe1460ca	-0.14490047
113	0xbe8f2271	-0.27955964
114	0xbe2ffb62	-0.17185739
115	0x3e6a7dd8	0.22899568
116	0x3d56892c	0.05237691
117	0x3b7ccaf4	0.0038573118
118	0x3db4dbd2	0.0883099
119	0x3c14eb96	0.009089371
120	0x3dbcb017	0.09213274
121	0x3e0b2f0a	0.13592163
122	0xbf5edf54	-0.8705952
123	0x3dc51a5b	0.096241675
124	0xbe16e5b5	-0.14736064
125	0x3ed476a1	0.41496757
126	0xbd886959	-0.066607185
127	0x3e3e5f6c	0.18591088
128	0x3d1db4db	0.038502555
129	0x3dec192d	0.115282394
130	0xbe93222c	-0.2873701
131	0x3c51a103	0.012794736
132	0xbe54a232	-0.20764998
133	0xbd3ec8cd	-0.046578217
134	0x3d161613	0.036642145
135	0xbdd84736	-0.105604574
136	0xbd0ecdf7	-0.034864392
137	0x3e2a7b6b	0.16648643
138	0xbcd6b745	-0.026210437
139	0x3dd98aec	0.106222
140	0x3d992449	0.07477624
141	0x3df89e42	0.1213956
142	0x3a55374e	0.0008133546
143	0x3e71d0db	0.23614828
144	0xbcd52488	-0.026018396
145	0x3e96a357	0.29421493
146	0xbed5b8c1	-0.4174252
147	0x3df67f57	0.12036007
148	0xbda93ef8	-0.082639635
149	0x3d1bd237	0.038042273
150	0x3bd9787c	0.0066366773
151	0x3d317a14	0.043329313
152	0xbf18ba10	-0.5965891
153	0xbda3cc7a	-0.07997985
154	0xbd33a64b	-0.04385976
155	0xbe224fb1	-0.15850712
156	0x3db7bfd3	0.089721344
157	0xbb0ba37f	-0.0021307168
158	0x3e87d6c1	0.26531032
159	0xbe863be5	-0.2621757
160	0x3e07caf8	0.1326102
161	0xbe21d7af	-0.15804933
162	0x3cefe91d	0.029285962
163	0xbe905a3e	-0.2819385
164	0x3c875a92	0.01652268
165	0xbe136de8	-0.14397395
166	0xbeccee64	-0.40025628
167	0x3e86aa36	0.26301736
168	0x3ba68fc8	0.005083058
169	0xbeb4bea3	-0.35301694
170	0xbe987c12	-0.29782158
171	0x3db56cf9	0.088586755
172	0xbe0a7a02	-0.13523105
173	0xbe0c15b2	-0.13680151
174	0xbc2e06fb	-0.010621781
175	0x3c9d0c8e	0.019171026
176	0xbb55c011	-0.0032615701
177	0xbdfd92f0	-0.12381542
178	0xbd818d10	-0.06325734
179	0x3e6ed30a	0.23322693
180	0x3ce5c0d7	0.028046055
181	0xbe8c728e	-0.27431148
182	0x3da9cf37	0.08291476
183	0x3df8e4af	0.12152993
184	0x3dfa97f3	0.12236013
185	0x3dc2d998	0.09514159
186	0xbec9ec79	-0.39438227
187	0x3c36c467	0.011155224
188	0x3e3f2f28	0.18670332
189	0x3e98a711	0.29814962
190	0x3d8a45c7	0.0675159
191	0x3e6a9cfd	0.22911449
192	0x3f3cb71b	0.73716897
193	0xbdf52305	-0.1196957
194	0xbe7efce6	-0.2490116
195	0xbe7d2a3f	-0.24723147
196	0x3db8cbc8	0.09023243
197	0x3e78764e	0.2426388
198	0x3d9231fe	0.071384415
199	0xbd8e6496	-0.06952779
200	0x3dc97d47	0.09838348
201	0xbe11c57a	-0.14235488
202	0x3e2c27b3	0.16812019
203	0x3e74f1a3	0.23920302
204	0x3ea7859d	0.32719126
205	0x3ed935f8	0.42423987
206	0x3ea05857	0.31317398
207	0x3bc74975	0.006081755
208	0x3e75e10c	0.2401163
209	0x3e64baa5	0.22336824
210	0xbc4061f5	-0.011742105
211	0x3ea85231	0.32875207
212	0xbdb17f7a	-0.08666892
213	0x3e5e9b8d	0.21739025
214	0xbee7625a	-0.45192224
215	0xbdb0adf3	-0.08626928
216	0xbed1e3ae	-0.40994018
217	0xbdfbbb95	-0.12291638
218	0x3e11a395	0.14222558
219	0x3e07b9ae	0.13254425
220	0x3dd41ef9	0.1035747
221	0x3eee6fc5	0.46569648
222	0xbe0a5a50	-0.13511014
223	0xbe02190a	-0.12704864
224	0xbee57f89	-0.44823864
225	0xbec2be80	-0.38035965
226	0x3e0f7e25	0.14012964
227	0x3dbc4413	0.091926716
228	0x3e9ac2c5	0.30226722
229	0x3d20dffb	0.039276104
230	0x3f86d670	1.0534191
231	0xbe34451a	-0.17604485
232	0xbf0a9069	-0.541266
233	0x3ca1352c	0.019678675
234	0xbd8c1f62	-0.06841923
235	0xbe0ad314	-0.13557082
236	0x3f6760cb	0.9038207
237	0x3f4920b3	0.7856552
238	0x3ee5b517	0.44864723
239	0x3e957e89	0.291981
240	0xbeb6e8f9	-0.3572462
241	0x3b031a3f	0.0020004658
242	0x3e86a26b	0.2629579
243	0x3e5841fc	0.21118921
244	0xbeb6f99e	-0.35737318
245	0x3eccb98a	0.39985305
246	0x3ea126d2	0.3147493
247	0xbdf65096	-0.12027089
248	0x3e01d6d0	0.126796
249	0x3e18f93f	0.1493883
250	0xbed30c7d	-0.41220465
251	0x3e1e5608	0.15462506
252	0xbd829cc0	-0.06377554
253	0xbe897e4b	-0.26854166
254	0xbded46ed	-0.11585794
255	0x3e0cf911	0.13766886

net1.2.bias f4 [64]
0	0xbcccb2b9	-0.024987565
1	0x3b9ff390	0.00488133
2	0x3d2ce533	0.04221077
3	0x3cde1670	0.027110308
4	0x3dc57615	0.09641663
5	0x3aef9f50	0.0018281732
6	0xbde4d4f6	-0.111734316
7	0xbc7d0397	-0.01544275
8	0x3df9309e	0.12167476
9	0x3d765ca3	0.06014694
10	0xbdc200d9	-0.09472818
11	0xbd2e44df	-0.04254615
12	0x3df4ee65	0.11959533
13	0xbd5b5c26	-0.053554676
14	0x3dda1271	0.10648049
15	0x3da03447	0.07822471
16	0xbd2ba359	-0.041903827
17	0x3cc64045	0.024200568
18	0xbd0ca81a	-0.03434
19	0xbded6f84	-0.115935355
20	0x3bca0473	0.006165081
21	0x3cb5edb3	0.02220807
22	0x3d305372	0.04304833
23	0xbd0aef46	-0.033919595
24	0x3d5d17c9	0.05397776
25	0x3db8bac9	0.090200014
26	0x3d284335	0.04107972
27	0xbd4f56e3	-0.05061997
28	0xbd0a850a	-0.033818282
29	0xbe170353	-0.14747362
30	0xbe1471cd	-0.14496537
31	0xbdc7fd9a	-0.097651675
32	0x3d34b093	0.044113707
33	0xbd0f2e4c	-0.03495626
34	0xbe064692	-0.13112858
35	0x3dd5e1e1	0.104434736
36	0x3e2400f3	0.16015987
37	0xbc1e77ed	-0.009672147
38	0xbc65af3c	-0.01401883
39	0x3ca82e98	0.02053003
40	0x3e098e4e	0.13433191
41	0x3dd7db52	0.10539879
42	0x3e50ef8f	0.20403884
43	0xbe3d8d21	-0.18510868
44	0x3e022b10	0.1271174
45	0x3cc5596e	0.024090495
46	0xbd37c2d7	-0.044863548
47	0xbe01b5d2	-0.12667015
48	0x3d0b5dc0	0.034024954
49	0xbdd87340	-0.10568857
50	0xbc3df90e	-0.011595024
51	0xbce55123	-0.02799279
52	0x3bbce708	0.0057648458
53	0x3dd7983c	0.10527083
54	0x3e39fbed	0.18162508
55	0xbdc0cc13	-0.09413924
56	0xbdca7a7b	-0.098866425
57	0x3dbe8d6b	0.09304317
58	0x3d836915	0.06416527
59	0x3cb1830e	0.021668937
60	0xbd85b625	-0.06528882
61	0xbe057417	-0.13032566
62	0x3cc62ce0	0.02419132
63	0xbd600dac	-0.05470054

net1.4.weight f4 [1, 64]
0	0xbf6ef2cc	-0.9333923
1	0x3ebb27bd	0.36553755
2	0x3e6cc558	0.23122156
3	0xbf370a96	-0.7150053
4	0x3ecc402a	0.39892703
5	0xbf765cfe	-0.96235645
6	0x3e670d45	0.22563656
7	0xbf32d0e7	-0.6985001
8	0x3ea6f947	0.3261206
9	0xbf58a7cf	-0.84631056
10	0x3f251b28	0.6449456
11	0x3f07c90c	0.5304115
12	0xbf4c5c01	-0.79827887
13	0x3fa91d62	1.3212092
14	0x3f6059d6	0.8763708
15	0x3f692967	0.910788
16	0xbf63970d	-0.8890236
17	0xbf50e307	-0.81596416
18	0xbef20a0e	-0.47273296
19	0x3f5fb8c4	0.87391305
20	0xbf585ad2	-0.8451358
21	0x3f47d4c6	0.7805904
22	0x3f17f247	0.5935406
23	0xbf11a880	-0.56897736
24	0xbf0d3e6a	-0.5517336
25	0x3ec3ace7	0.38217852
26	0x3f197f8f	0.59960264
27	0x3f36ee2e	0.71457183
28	0xbf6f0728	-0.93370295
29	0x3ef0f7a1	0.47063926
30	0xbf66d6a0	-0.9017124
31	0x3e8c7c04	0.27438366
32	0xbf88a6e7	-1.0675935
33	0x3edd5a4a	0.43232948
34	0xbf10c4d0	-0.5655031
35	0x3eab62d9	0.33473852
36	0xbf40f61e	-0.75375545
37	0x3f2aa13a	0.6665226
38	0xbf3f7d70	-0.7480078
39	0x3eb74eb8	0.35802245
40	0xbf6a63a6	-0.915583
41	0xbf5abd80	-0.85445404
42	0xbf26be2d	-0.65133935
43	0x3f0c8ef2	0.5490562
44	0xbf50436f	-0.81352895
45	0x3ecbcc87	0.3980448
46	0x3ebccea7	0.36876413
47	0xbf2e5db8	-0.68111753
48	0xbee81531	-0.45328668
49	0xbf64f7cd	-0.89440614
50	0xbf2d1e21	-0.676241
51	0x3f2bb447	0.67071956
52	0xbf0a73ec	-0.5408313
53	0x3f1860fc	0.59522986
54	0xbf46e681	-0.7769547
55	0x3f1fca0e	0.62417686
56	0xbf649cb5	-0.89301616
57	0xbf1b09e3	-0.6056196
58	0xbf33cd41	-0.7023507
59	0xbf08847c	-0.53327155
60	0x3f11a5f4	0.5689385
61	0x3fab9de5	1.340756
62	0x3f299c2b	0.6625392
63	0xbf8aeadc	-1.0852923

net2.0.weight f4 [64, 28]
0	0xbe574c59	-0.21025218
1	0x3e1df04a	0.15423694
2	0x3e22ea87	0.15909778
3	0x3f03c4eb	0.5147235
4	0x3f0d4868	0.5518861
5	0x3e3b013d	0.18262191
6	0xbd2ca9b3	-0.042154025
7	0xbeb1bd02	-0.34714514
8	0xbec02f62	-0.3753615
9	0xbefd65c3	-0.494917
10	0xbefe0282	-0.49611288
11	0xbf2b850b	-0.6699988
12	0xbe5f6c1d	-0.21818586
13	0xbe4c1112	-0.19928387
14	0xbe15fa44	-0.1464625
15	0x3e595280	0.21222878
16	0x3cc56a5a	0.024098564
17	0x3e3c4793	0.18386678
18	0x3e07e434	0.13270646
19	0x3ca23141	0.019798877
20	0x3e4861ba	0.1956853
21	0xbe11ee41	-0.14251043
22	0x3dda0a19	0.10646457
23	0xbd98746c	-0.07444081
24	0xbdfc1cd0	-0.12310183
25	0x3fc1b2c4	1.513268
26	0xbe211166	-0.15729293
27	0x3fb66c7a	1.4251854
28	0x3e0a085d	0.13479753
29	0x3de359ec	0.111011356
30	0xbe3331f1	-0.1749952
31	0x3e2a17b8	0.1661061
32	0x3ba89ec8	0.0051458813
33	0x3c8cf0b0	0.017204612
34	0xbe24fb56	-0.16111502
35	0xbec79872	-0.38983494
36	0xbcd8e7c0	-0.026477695
37	0xbe2922ae	-0.16517136
38	0xbe786d09	-0.24260344
39	0xbe9bad96	-0.30405873
40	0x3e211a81	0.15732767
41	0x3e62d9a7	0.2215334
42	0x3e90620d	0.28199807
43	0x3d5aa28e	0.05337768
44	0xbc9d6407	-0.019212736
45	0x3da78fe0	0.08181739
46	0x3d856a37	0.065143995
47	0x3cf75ad9	0.030194687
48	0x3e7f12af	0.24909471
49	0x3e8544ec	0.26029146
50	0x3f53fc56	0.8280691
51	0xbf1a85c9	-0.6036039
52	0xbb8de900	-0.0043307543
53	0x3c8e8191	0.017395766
54	0xbb085a14	-0.0020805644
55	0xbb83166b	-0.004000475
56	0x3d981f82	0.07427885
57	0x3d5829e0	0.05277431
58	0xbd71fc30	-0.059078395
59	0x3e7acea1	0.24492885
60	0x3cc6a122	0.024246756
61	0xbd2d337c	-0.042285427
62	0xbe08d533	-0.13362579
63	0x3e8d224f	0.27565238
64	0x3e281c59	0.16417064
65	0xbe1d25d8	-0.15346467
66	0x3c5bf332	0.0134246815
67	0xbcfd79da	-0.030941892
68	0x3c5e0701	0.013551475
69	0xbdca65f0	-0.09882724
70	0xbc983571	-0.01858017
71	0x3ee4f31f	0.44716737
72	0xbdb73c5c	-0.089470595
73	0x3d293614	0.04131134
74	0x3cc3e25d	0.02391165
75	0x3e8f83b1	0.2803016
76	0xbd04ba99	-0.032404516
77	0xbe76bf3b	-0.24096386
78	0xbe4e5e17	-0.2015308
79	0x3e3b1e95	0.18273385
80	0xbd8c72e9	-0.06857855
81	0xbd3feb97	-0.046855535
82	0x3e0bf582	0.13667873
83	0xbd8cca0e	-0.068744764
84	0x3dfd31ec	0.123630375
85	0xbe45563d	-0.19271179
86	0x3c270570	0.0101941675
87	0x3dd30d4c	0.103052706
88	0x3ce4c080	0.027923822
89	0x3c6e1410	0.01453115
90	0x3e095e4a	0.13414875
91	0x3e206d1a	0.15666619
92	0xbd3c3a57	-0.045954075
93	0xbd228ff7	-0.039688077
94	0x3e01e760	0.12685919
95	0x3e252fa4	0.16131455
96	0x3eaf6d14	0.34262908
97	0x3e747078	0.23871028
98	0x3e5ef648	0.21773636
99	0x3db64456	0.08899753
100	0x3d661f6e	0.056182317
101	0xbbddea1e	-0.0067722937
102	0xbdc0346e	-0.09385
103	0x3db07603	0.08616259
104	0xbda29c97	-0.079400234
105	0xbec697b3	-0.38787612
106	0x3decdfcf	0.115661256
107	0xbe77a549	-0.24184145
108	0xbd5a704c	-0.05332975
109	0x3d8df9d2	0.06932415
110	0x3db3bfce	0.08776818
111	0x3dfeb5a5	0.1243699
112	0xbe310ce7	-0.17290078
113	0x3dd1e774	0.10249224
114	0x3d669898	0.05629787
115	0xbf013973	-0.50478286
116	0xbf0fb641	-0.5613747
117	0x3d65399c	0.055963144
118	0x3e24be72	0.16088274
119	0x3dc6a934	0.09700242
120	0xbe09f621	-0.13472797
121	0xbda1175d	-0.07865784
122	0x3d889ac0	0.06670141
123	0x3e6757fe	0.2259216
124	0x3ec0626a	0.37575084
125	0x3e471589	0.19441809
126	0xbb7443f0	-0.003727194
127	0xbec008da	-0.37506753
128	0xbe2d4e2c	-0.16924351
129	0x3db112cd	0.08646164
130	0x3db8d71c	0.09025404
131	0xbd985ca1	-0.074395426
132	0xbc337798	-0.010953806
133	0xbec5a851	-0.38604978
134	0xbe832dd3	-0.256209
135	0x3d8e9783	0.06962492
136	0x3db15eca	0.08660658
137	0x3ddddb73	0.10832872
138	0x3f328a9b	0.69742745
139	0xbe865c60	-0.26242352
140	0xbe5be3d8	-0.21473634
141	0xbd8f12ef	-0.06986033
142	0xbe12016a	-0.14258352
143	0x3e931ae1	0.28731444
144	0xbdb7b937	-0.08970874
145	0x3d4fff24	0.05078043
146	0x3c58cd7b	0.013232584
147	0xbf452bb9	-0.7701984
148	0xbf0278d7	-0.50965637
149	0xbe704913	-0.23465376
150	0xb7fab3f5	-2.9886121e-05
151	0xbd190fc7	-0.037368562
152	0x3e641aa0	0.22275782
153	0xbe5d67f7	-0.2162169
154	0x3df32ef5	0.11874191
155	0x3dc0d35e	0.09415315
156	0x3dc74ca2	0.097314134
157	0x3eb77976	0.35834855
158	0x3c510064	0.012756441
159	0x3d051f8a	0.03250078
160	0x3e7e3634	0.24825364
161	0xbd8ea7aa	-0.06965573
162	0xbd8f50f7	-0.06997865
163	0xbe5a0407	-0.21290599
164	0x3c085d30	0.008322999
165	0xbdcf991f	-0.101366274
166	0x3dd6556f	0.10465514
167	0xbe05c76a	-0.13064352
168	0x3db89245	0.09012274
169	0xbddfe101	-0.10931588
170	0x3bc08c00	0.0058760643
171	0xbd97c5a0	-0.07410741
172	0xbcf47621	-0.029841485
173	0x3df760b2	0.1207899
174	0xbc5f2e53	-0.013621884
175	0xbd8828f9	-0.0664844
176	0x3e1d0fd3	0.15338068
177	0xbe530669	-0.20607914
178	0xbd16c725	-0.036811013
179	0xbc9986ae	-0.018740978
180	0xbdb307e1	-0.08741737
181	0xbb58ad1c	-0.0033062166
182	0x3d2ca732	0.042151637
183	0x3d81ba04	0.06334308
184	0x3c14e13b	0.009086902
185	0xbcf5c738	-0.030002221
186	0x3b93be3e	0.0045087626
187	0x3dae7c68	0.08519822
188	0xbb5fb73f	-0.0034136323
189	0x3d0e03db	0.034671646
190	0x3faac545	1.3341452
191	0x3e2cc7a9	0.1687304
192	0x3dcf2ca6	0.10115938
193	0x3d694339	0.056948874
194	0x3d5a8ecb	0.053358834
195	0x3d41f2f2	0.04735083
196	0x3dc8eb3d	0.09810493
197	0xbd51dc6c	-0.0512356
198	0x3b1f08c0	0.002426669
199	0x3e3f299b	0.18668215
200	0x3f51391f	0.81727785
201	0x3de30ebe	0.11086796
202	0x3e378890	0.17923188
203	0x3ca0e6ed	0.019641364
204	0x3e0e660e	0.13906118
205	0x3c0f83dd	0.008759466
206	0xbd0938a6	-0.03350129
207	0xbf088aee	-0.5333699
208	0xbf0da2f6	-0.55326784
209	0xbf0d024f	-0.5508165
210	0xbed63b21	-0.41841987
211	0xbf5f1a58	-0.8714957
212	0xbf29db08	-0.6634984
213	0xbf119601	-0.5686951
214	0xbd823ab9	-0.06358857
215	0xbe49e952	-0.19717911
216	0x3e132533	0.14369659
217	0x3da1991a	0.0789053
218	0xba91faef	-0.0011137406
219	0xbd8a3c23	-0.067497514
220	0x3e04d8fb	0.12973396
221	0x3f5e2fac	0.8679149
222	0x3f8ea401	1.11438
223	0xbddcebbb	-0.107871495
224	0x3e21506b	0.15753333
225	0xbe52e854	-0.20596439
226	0xbc2650b0	-0.010151073
227	0x3f5a6e8d	0.8532494
228	0xbf9ccd86	-1.2250221
229	0xbe0b77ee	-0.13619968
230	0x3d2bb882	0.041924007
231	0xbf60965c	-0.8772943
232	0xbf36a8e2	-0.71351445
233	0xbecd558a	-0.40104324
234	0xbedb7fdd	-0.4287099
235	0xbf03b1bc	-0.51443076
236	0xbee99e97	-0.45628807
237	0xbee73f22	-0.45165354
238	0x3e3f57b5	0.18685801
239	0x3e819f13	0.25316676
240	0x3d85f7ac	0.0654138
241	0x3e508462	0.20363
242	0xbbcb8406	-0.006210807
243	0xbc9063d8	-0.017625734
244	0xbd561495	-0.052265722
245	0xbdd410c5	-0.10354761
246	0xbde80154	-0.11328378
247	0xbd87d419	-0.06632251
248	0xbe3519a3	-0.17685561
249	0xbe435874	-0.19076711
250	0x3e9f51ff	0.31117246
251	0xbf25a5df	-0.64706224
252	0x3e447324	0.19184548
253	0x3e21e8b4	0.15811425
254	0x3d5a5ff0	0.05331415
255	0xbe86892c	-0.2627653

net2.0.bias f4 [64]
0	0xbca7ff3e	-0.020507451
1	0xbdeb18e0	-0.11479354
2	0xbe052d3a	-0.13005534
3	0xbdb7c51e	-0.08973144
4	0xbe66bbff	-0.22532652
5	0x3dfee61a	0.12446232
6	0xbe370f9a	-0.17877045
7	0x3da353a7	0.0797494
8	0xbd19b2cc	-0.03752403
9	0xbe58ae13	-0.21160154
10	0xbe04782b	-0.12936465
11	0x3ccfc781	0.025363686
12	0xbdc85a3c	-0.09782836
13	0xbdce9731	-0.10087431
14	0xbb6c0aeb	-0.003601725
15	0x3e2c40af	0.1682155
16	0x3c8bc1cf	0.017060189
17	0x3d0d5dc4	0.03451325
18	0x3e49e682	0.19716838
19	0x3d851baa	0.06499417
20	0xbdce97a9	-0.10087521
21	0x3e66275c	0.22475952
22	0x3e469572	0.19392946
23	0xbbde0fbb	-0.0067767776
24	0xbe2cdfe7	-0.16882287
25	0xbd770979	-0.06031177
26	0x3dc88470	0.097908854
27	0x3dc94c29	0.098289795
28	0xbc32be16	-0.010909578
29	0xbd82c81f	-0.06385826
30	0x3e466b8c	0.19376963
31	0xbe2db61f	-0.16964005
32	0x3ce2c7d4	0.027683176
33	0xbe1482da	-0.14503041
34	0xbe4b72c7	-0.19868003
35	0xbda04e3f	-0.07827424
36	0xbe05a145	-0.130498
37	0x3e26579b	0.16244356
38	0x3cab08f7	0.020878298
39	0x3db793ed	0.089637615
40	0xbe0e4e08	-0.13896954
41	0x3e3144cb	0.17311399
42	0x3de947a6	0.11390619
43	0xbd1ce8be	-0.038307898
44	0x3d6c7228	0.057726055
45	0xbdb29a91	-0.087208875
46	0xbd3aa8c4	-0.045571104
47	0x3d8864bc	0.066598386
48	0x3e4db52f	0.20088647
49	0xbdbbceb3	-0.09170284
50	0xbd6d5710	-0.057944357
51	0xbe05dbdb	-0.1307215
52	0x3e274f87	0.16338931
53	0xbdf7cb61	-0.12099338
54	0x3d89cd5a	0.06728621
55	0x3d85f274	0.06540385
56	0xbdbd5d3d	-0.092462994
57	0xbde11832	-0.10990943
58	0x3dd36497	0.1032192
59	0xbcdf47a0	-0.027255833
60	0x3d87af86	0.06625275
61	0x3e366798	0.17812955
62	0x3e35cfaa	0.17754999
63	0x3da643ae	0.081183776

net2.2.weight f4 [64, 64]
0	0xbe7794c5	-0.24177845
1	0xbe532c28	-0.20622313
2	0xbd39ec2b	-0.045391243
3	0xbd740dcb	-0.059583467
4	0xbc99fa03	-0.018795973
5	0xbea396a5	-0.3195087
6	0xbf3c77e3	-0.7362043
7	0x3c493c83	0.0122824935
8	0x3e1440bb	0.14477818
9	0x3e27ada2	0.1637483
10	0xbdcfb53a	-0.10141988
11	0x3e38337d	0.17988391
12	0x3c47d190	0.01219596
13	0xbcda6e86	-0.02666403
14	0xbe4a846a	-0.19777074
15	0x3e32e97f	0.17471884
16	0xbdd40a61	-0.10353542
17	0xbe27228b	-0.16321771
18	0xbf1135f4	-0.5672295
19	0x3e1884c0	0.1489439
20	0xbee866d9	-0.45390967
21	0xbda7e96b	-0.08198818
22	0x3d2bae92	0.04191453
23	0x3dabb15d	0.08383439
24	0x3dbaa555	0.09113566
25	0xbda32676	-0.0796632
26	0x3dad6402	0.084663406
27	0x3da482db	0.08032771
28	0x3cc209db	0.02368634
29	0x3e4381a6	0.19092426
30	0x3d426040	0.047455072
31	0x3c6031a4	0.01368371
32	0xbe88080f	-0.26568648
33	0x3e357c06	0.17723092
34	0xbe2ed647	-0.17073928
35	0xbd68a24b	-0.0567954
36	0xbd0551ef	-0.03254884
37	0xbe0f4379	-0.13990583
38	0xbddad831	-0.106857665
39	0x3e549db1	0.2076328
40	0x3df38d9e	0.11892246
41	0xbf83c5fd	-1.0294796
42	0x3ea2d546	0.3180334
43	0xbe23c65c	-0.15993637
44	0x3d5804e9	0.052739058
45	0x3c34b35e	0.011029093
46	0xbe9b98aa	-0.3038991
47	0xbb82ae99	-0.003988099
48	0xbdcbc3d3	-0.0994946
49	0x3e376f48	0.17913544
50	0x3cbb72ca	0.022881884
51	0xbd94b15e	-0.072603926
52	0xbdd7e8c6	-0.10542445
53	0x3d85a3db	0.065253936
54	0x3e623664	0.22091061
55	0x3c4d6137	0.012535385
56	0xbd4b0ea5	-0.049574513
57	0x3d925c83	0.071465515
58	0xbe7938e5	-0.2433811
59	0xbe63fd60	-0.22264624
60	0x3d14c349	0.03631905
61	0xbddd042c	-0.10791811
62	0x3d2541fa	0.040346123
63	0x3bc1f259	0.0059187827
64	0x3f1c702b	0.61108655
65	0xbd8418c2	-0.06450035
66	0xbc6528d7	-0.013986788
67	0xbe7a5b9b	-0.24449007
68	0xbea2b84f	-0.3178124
69	0x3e82210e	0.25415844
70	0xbb06a788	-0.0020546634
71	0x3f2e3971	0.680564
72	0x3ee771e6	0.45204085
73	0xbec9ca2c	-0.39412057
74	0x3f1848e1	0.59486204
75	0x3f0c5d3f	0.5482978
76	0xbed2ade0	-0.4114828
77	0x3db027da	0.08601351
78	0xbcab97c2	-0.020946387
79	0x3de8e2ca	0.113713816
80	0x3d6f6023	0.058441292
81	0x3c815b31	0.015790554
82	0x3e8221e5	0.25416484
83	0x3dfc2d38	0.12313312
84	0x3e2c879c	0.16848606
85	0x3e9832aa	0.29726154
86	0xbdb7334b	-0.0894533
87	0x3f2ad945	0.66737777
88	0xbd20c310	-0.039248526
89	0xbe802cd7	-0.2503421
90	0x3e90d22d	0.2828535
91	0x3e3f810f	0.18701576
92	0x3f3cc6f1	0.7374106
93	0x3e7dbf9a	0.24780121
94	0x3ede0ddd	0.43369952
95	0xbddd8702	-0.10816766
96	0xbea3665d	-0.31914034
97	0xbdb3808f	-0.08764755
98	0xbe8fa2bb	-0.2805384
99	0xbdf87cbc	-0.12133166
100	0x3df67450	0.120339036
101	0x3e159b2f	0.14609979
102	0x3f7cc628	0.9873986
103	0x3e66f20e	0.22553274
104	0x3e9a81fa	0.3017729
105	0xbd03bdbd	-0.03216337
106	0xbcdd8726	-0.027041983
107	0x3d1371c9	0.035997186
108	0xbdd14640	-0.10218477
109	0x3e2d2be1	0.1691127
110	0xbdecba5d	-0.115589835
111	0xbec7b7d4	-0.39007437
112	0x3caf8bda	0.021428991
113	0xbdf8cfe4	-0.12149027
114	0x3d2ce1fd	0.042207707
115	0x3d740033	0.059570502
116	0x3ef2d5fd	0.47428885
117	0x3e217d69	0.15770496
118	0x3eb50cb1	0.35361245
119	0xbf10bfd0	-0.5654268
120	0x3fc7d896	1.5612972
121	0x3f816e45	1.0111777
122	0xbdee10df	-0.11624312
123	0xbe2c80e9	-0.1684605
124	0xbdd06212	-0.101749554
125	0x3efafbef	0.49020335
126	0xbeca3bee	-0.39498848
127	0x3e93d199	0.28870848
128	0xbe25f08e	-0.16205046
129	0xbee76088	-0.45190835
130	0x3d1dcb86	0.038524173
131	0x3d723fcc	0.059142873
132	0xbd100e56	-0.03516992
133	0xbe6751e5	-0.22589834
134	0xbf0de567	-0.55428165
135	0xbe52c4cd	-0.20582886
136	0xbd21c356	-0.039492927
137	0xbe14748f	-0.14497589
138	0xbe9eabc2	-0.30990416
139	0x3d64200e	0.055694632
140	0xbca9c484	-0.020723589
141	0xbd855737	-0.065107755
142	0xbddb7a5c	-0.107166976
143	0x3dc19916	0.09453027
144	0xbd8b6da6	-0.06808023
145	0xbeadd95d	-0.33954898
146	0xbdbefece	-0.09325944
147	0xbd5eb212	-0.05436904
148	0x3ccbd58f	0.024882106
149	0xbe3f015f	-0.18652867
150	0xbeabd281	-0.3355904
151	0xbd0055e7	-0.031331923
152	0xbe29795d	-0.16550203
153	0x3e60c058	0.21948373
154	0xbd9ccc34	-0.07656136
155	0x3e59e329	0.21278061
156	0xbd44632c	-0.04794614
157	0xbdfd1610	-0.12357724
158	0xbc92330d	-0.017846609
159	0xbdcb65c5	-0.099315204
160	0xbe40b778	-0.18819988
161	0x3d848a65	0.06471709
162	0xbd4d444b	-0.050113957
163	0x3e2ce4f8	0.1688422
164	0x3d5c76a8	0.053824097
165	0xbcdfa75c	-0.027301483
166	0xbdd8f9f7	-0.10594552
167	0x3e900598	0.28129268
168	0xbe16a589	-0.14711584
169	0xbf4a4ca9	-0.79023224
170	0x3e23c381	0.15992548
171	0x3d174ee6	0.036940478
172	0xbd06d969	-0.032922182
173	0xbdff78c5	-0.12474207
174	0x3df9a21c	0.12189123
175	0xbdbfd07e	-0.093659386
176	0xbc00cf5b	-0.007861937
177	0xbdab41ca	-0.08362158
178	0x3da17f61	0.07885624
179	0xbdc6fe81	-0.097165115
180	0xbe3cacaf	-0.18425249
181	0x3c056f8a	0.008144269
182	0x3d0ab398	0.03386268
183	0x3ce435e6	0.027857732
184	0xbe4d2f71	-0.20037629
185	0xbdedf5a0	-0.11619115
186	0xbead6c2c	-0.3387159
187	0x3d0d967a	0.034567334
188	0xbe25b454	-0.16182071
189	0xbda6ab47	-0.08138137
190	0x3e151451	0.14558531
191	0x3e2d3fc6	0.16918859
192	0xbe96e04b	-0.29467997
193	0xbe8c7aa7	-0.27437326
194	0x3ddb35f5	0.10703651
195	0xbc940fc3	-0.018073922
196	0xbd02018a	-0.03173975
197	0xbdc6ae38	-0.09701198
198	0xbf47df1a	-0.780748
199	0xbbe2e054	-0.0069237147
200	0x3d6bfcce	0.05761414
201	0x3b9a45ec	0.0047080424
202	0xbe40571f	-0.18783234
203	0x3dcf202b	0.101135574
204	0x3ccbe9b5	0.024891714
205	0xbd043224	-0.03227438
206	0xbda26343	-0.07929089
207	0x3e9e2d8b	0.30894122
208	0xbd0ca7cb	-0.034339707
209	0xbea33c4a	-0.31881934
210	0xbf0e45b0	-0.55575085
211	0x3e7da794	0.24770957
212	0xbc896e0a	-0.016776104
213	0xbe8cef71	-0.2752643
214	0xbcd62b2a	-0.02614363
215	0xbd720fb3	-0.059097003
216	0xbe1d9a0e	-0.15390798
217	0x3e33e9ad	0.17569609
218	0xbe1b89b4	-0.15189248
219	0x3d6d4a0e	0.057931952
220	0x3c2dc2d0	0.010605529
221	0x3dbf206f	0.09332358
222	0xbc98f2bb	-0.01867043
223	0x3d9ab1b6	0.07553427
224	0xbe2be3b8	-0.16786087
225	0x3c81a974	0.015827872
226	0xbec8de00	-0.39231873
227	0xbdc7a17b	-0.09747597
228	0xbea09ad8	-0.31368136
229	0xbddb5b2a	-0.107107475
230	0x3b1767a9	0.0023102558
231	0x3db1a449	0.08673913
232	0xbe2625bd	-0.16225334
233	0xbfa3ea1a	-1.2805817
234	0x3e28d95f	0.1648917
235	0xbe2c9ff0	-0.16857886
236	0xbe91f91c	-0.28510368
237	0xbe77ad0a	-0.24187103
238	0xbe59d4a1	-0.21272518
239	0x3dc545fd	0.0963249
240	0xbdcb1152	-0.09915413
241	0xbe30ec61	-0.17277671
242	0xbcacb3cf	-0.021081833
243	0xbd096b21	-0.03354943
244	0xbe310fa0	-0.17291117
245	0x3e516649	0.20449175
246	0x3e8e1ad2	0.27754837
247	0x3e161d9a	0.1465973
248	0xbe86dd40	-0.26340675
249	0xbdc3039c	-0.09522173
250	0xbe66f8d6	-0.22555861
251	0x3d0cb6cc	0.034354016
252	0xbd171130	-0.036881626
253	0xbe7dec5f	-0.247972
254	0x3a8edcd8	0.0010899557
255	0xbe2084d3	-0.15675668

net2.2.bias f4 [64]
0	0xbdd7d160	-0.10537982
1	0x3e0bbeb7	0.1364697
2	0xbd8066ef	-0.06269633
3	0x3deaad1b	0.114587985
4	0x3d73eea5	0.05955376
5	0xbe31cce7	-0.1736332
6	0xbd4f6c71	-0.050640527
7	0xbcd68892	-0.026188169
8	0xbda54442	-0.0806966
9	0x3dd3e4f8	0.10346407
10	0x3c835e02	0.016036037
11	0x3dc2f021	0.09518457
12	0x3de2cc12	0.110740796
13	0xb815eadc	-3.5743098e-05
14	0xbde03516	-0.10947625
15	0x3e045ac6	0.12925252
16	0xbdf2bd14	-0.1185247
17	0xbd345962	-0.044030555
18	0x3dab6f77	0.083708696
19	0x3cf32df3	0.029684996
20	0xbdb538c5	-0.088487186
21	0xbdf4a434	-0.11945382
22	0x3cc70f5b	0.024299314
23	0x3cdbfabd	0.02685296
24	0x3b406507	0.0029357092
25	0xbdf24a37	-0.118305616
26	0x3dcd9d4f	0.1003977
27	0x3d6e9d2d	0.058255363
28	0xbdb52f50	-0.08846915
29	0xbd0f38d5	-0.03496631
30	0x3ccff1b4	0.025383808
31	0xbbdcb6c1	-0.006735653
32	0x3da4c498	0.0804531
33	0x3dbe961d	0.093059756
34	0xbc68f29e	-0.014218001
35	0x3a9d3247	0.0011993133
36	0x3e1806ec	0.1484639
37	0xbbf7f5f8	-0.0075671636
38	0x3d8f7155	0.07004038
39	0x3dab0a10	0.08351529
40	0xbde8278c	-0.11335668
41	0xbd25662e	-0.04038065
42	0xbd8400ae	-0.06445442
43	0xbdf889e2	-0.12135674
44	0xbe2b27d0	-0.16714406
45	0xbe046ef6	-0.12932953
46	0xbd781ea8	-0.06057611
47	0x3d0ec6b6	0.034857474
48	0x3d6e1e69	0.05813447
49	0x3c728b78	0.01480376
50	0x3dac9410	0.08426678
51	0xbdbafd7d	-0.0913038
52	0xbc3b4de2	-0.011432143
53	0xbd905527	-0.070474915
54	0x3cb9c3cc	0.022676371
55	0xb857a3b7	-5.1412466e-05
56	0x3d29de35	0.04147168
57	0x3d73a049	0.05947903
58	0xbdb7fa92	-0.08983339
59	0xbe2fbb0a	-0.17161193
60	0x3de239f4	0.1104621
61	0xbdcf76f3	-0.1013011
62	0x3c7ee825	0.015558277
63	0xbcf4f374	-0.029901244

net2.4.weight f4 [1, 64]
0	0x3eec65b0	0.4617133
1	0xbf25344b	-0.6453292
2	0x3ea10ee4	0.31456673
3	0x3f5d635c	0.86479735
4	0xbf55df1e	-0.83543575
5	0x3f1ca9ec	0.6119678
6	0x3f1d42e8	0.61430216
7	0xbf9d977b	-1.2311853
8	0x3eb4470e	0.3521046
9	0xbf71a4e7	-0.94392246
10	0xbf8ce6a3	-1.1007885
11	0x3e475d63	0.19469218
12	0xbf1f9d8e	-0.62349784
13	0x3f36657a	0.7124859
14	0x3f626cb8	0.8844714
15	0xbf544e91	-0.8293238
16	0x3f40a213	0.75247306
17	0x3eeedcd6	0.4665286
18	0xbf5033cf	-0.81329054
19	0x3eeade35	0.45872656
20	0xbf71dcce	-0.94477546
21	0xbf760d70	-0.96114254
22	0xbf38952a	-0.72102606
23	0x3f3d6c29	0.73993164
24	0x3ef2e25d	0.47438326
25	0xbf4ebebd	-0.80759794
26	0xbf6e1c41	-0.9301186
27	0x3f11ac05	0.56903106
28	0x3f63c418	0.8897109
29	0x3ed2b730	0.41155386
30	0x3f0adb70	0.54241085
31	0x3e4f7174	0.20258123
32	0xbf59cd37	-0.8507876
33	0x3faf7804	1.3708501
34	0xbf72a4e3	-0.9478285
35	0xbf7c195e	-0.9847621
36	0x3ece8b2c	0.40340555
37	0xbf5a1fae	-0.8520459
38	0x3edb9c6f	0.42892787
39	0x3ef2fada	0.4745701
40	0x3e7638ce	0.24045107
41	0x3e42b358	0.19013727
42	0x3e6c884e	0.23098871
43	0xbf81e1d2	-1.014704
44	0x3ec977c8	0.39349198
45	0x3fbcf9a8	1.4763689
46	0x3e4d2597	0.2003387
47	0x3e862564	0.26200402
48	0x3f137728	0.57603693
49	0xbf7632b7	-0.96171135
50	0xbf664cd9	-0.8996101
51	0x3ee9805c	0.45605743
52	0xbf5bbd79	-0.8583599
53	0x3f733201	0.94998175
54	0xbf6621a6	-0.89895093
55	0x3eb9e6b1	0.36308816
56	0xbf55bfb3	-0.83495635
57	0xbf269688	-0.6507344
58	0xbf282b6d	-0.6569126
59	0xbde3a3b8	-0.11115211
60	0xbf1fbae6	-0.6239456
61	0x3f3d969c	0.74057937
62	0xbf118ba9	-0.5685373
63	0xbf8486f7	-1.0353688
