log/GC_SAC/maze3Env/20210721-1116/GC_SAC_HER_critic.pth (torch, 46735 bytes, 10 tensors)

net1.0.weight f4 [64, 16]
000000 37 b9 0f 3e cc 0a 8f be b4 97 ae bd 14 79 23 bf
       0.14035498 -0.27937925 -0.08525029 -0.63856626
000010 e1 c2 06 3e 70 52 18 bd cf 84 f8 3e 56 6e 9b 3f
       0.13160278 -0.037187994 0.48538825 1.2143047
000020 bc c4 4e 3f 36 64 a0 bf 92 65 79 3b a2 5e 28 3e
       0.8076894 -1.2530582 0.0038054925 0.1644235
000030 e0 94 b8 bc 4c bb 1a bf 79 37 56 be 31 97 49 3e
       -0.022531927 -0.6044204 -0.20919599 0.19686581
000040 2a 49 d0 be 08 7f e7 3e 64 07 1e be 3b 07 48 3f
       -0.4068082 0.45214105 -0.15432507 0.7813603
000050 ab 7f 54 bf 6c d5 e6 3d ed 2c 1c 3f 12 a7 3f 3f
       -0.83007306 0.11271176 0.6100605 0.74864304
000060 b5 95 71 be 2a 89 39 bd 5b ab ca bd f4 6c bf 3e
       -0.23592265 -0.045296825 -0.09895965 0.37387812
000070 9c 6c f0 3d c6 8c df bc 1d f6 49 3f ca de 81 3d
       0.117394656 -0.027288806 0.78891164 0.06341322
000080 9c 05 1c be 86 ca 7b 3e 36 e1 2c 3e 1c 42 6b be
       -0.15236515 0.24588975 0.16882786 -0.22974437
000090 4b 3f f7 be 04 05 23 3e 54 1a 82 3f 17 79 b6 be
       -0.48290476 0.15919882 1.0164285 -0.3563926
0000a0 98 3d c3 bd 14 32 43 bf cb d0 9e 3e 1b c1 2f 3e
       -0.095332325 -0.7624829 0.3101867 0.17163508
0000b0 10 d4 35 3e 71 3f bc 3e 20 db 01 3e e1 b0 96 bf
       0.17756677 0.36767152 0.12681246 -1.1772729
0000c0 52 0d 2c be 82 ba b9 3d b8 98 5b be df 83 25 bf
       -0.16801956 0.09068777 -0.21444976 -0.64654344
0000d0 5f 68 a0 be c6 85 59 3e 8a 3c 30 3e a1 b1 5f be
       -0.3132963 0.21242437 0.17210594 -0.21845104
0000e0 0c c6 ba be eb 35 26 3e 3f 99 10 bf 00 f3 05 bf
       -0.36479223 0.16231506 -0.56483835 -0.52323914
0000f0 c8 3e 03 bd 9d f1 f5 be 28 b7 9e bd 02 76 3a bf
       -0.032042295 -0.480359 -0.07749778 -0.72836316
000100 67 80 1d 3f a1 d7 14 bf be 86 75 be c7 20 46 3f
       0.6152405 -0.58141524 -0.23977181 0.77393764
000110 8c 1a 3d 3e 00 f5 ac bd 4c 3c 5a 3e f0 bc d2 bf
       0.18467158 -0.084451675 0.21312064 -1.6463909
000120 d7 9f 33 3e dc 75 4a be db c0 87 be 85 1b fb bc
       0.17541443 -0.19771522 -0.26514325 -0.03065277
000130 00 5f 10 bb 2d 4b e7 bd f3 ea a9 3d 37 8d fc 3e
       -0.002202928 -0.112936355 0.08296766 0.49326488
000140 54 00 97 bf 71 73 a5 3e 80 d3 d9 bc 40 12 a6 be
       -1.1796975 0.32314637 -0.026590109 -0.324358
000150 45 a3 87 3e c0 aa 95 bc f3 f8 bb 3e ae 37 4f 3f
       0.26491752 -0.018269897 0.3671337 0.80944335
000160 2a 33 44 3f 7d 20 85 bf 51 0b 61 3e c3 ea 94 bc
       0.7664057 -1.040054 0.21976973 -0.01817835
000170 a2 c4 61 3e 92 99 71 3c ca 43 e4 bb 54 91 5b bd
       0.22047666 0.014746087 -0.006966089 -0.053605393
000180 f4 8b 91 be e5 94 5e bc c0 43 c2 3b f1 c1 84 be
       -0.28427088 -0.013585304 0.0059284866 -0.25929216
000190 13 d0 13 3f 98 85 65 3e 02 00 cc 3e dd 11 10 3f
       0.5773937 0.22414243 0.39843756 0.5627726
0001a0 ec 6d 76 3f 99 ec 3b c0 99 2a 8f 3e 9f 5b 1c 3d
       0.9626148 -2.9363158 0.27962187 0.038173314
0001b0 b4 9f 9c 3d 67 60 7e bf 23 93 8a bf 70 62 7e 3e
       0.076476485 -0.9936585 -1.0826153 0.24842238
0001c0 35 49 c5 3d 35 1e 0c bd 90 74 cf bd cb 37 2a 3f
       0.09633104 -0.034208495 -0.101296544 0.66491383
0001d0 41 8c ac bf 30 b3 38 be fb 68 51 bf 0e 28 71 3d
       -1.3480302 -0.18037105 -0.8180081 0.05887609
0001e0 bd 2c 99 bd 09 80 19 3f a4 60 aa be be ce bf be
       -0.07479236 0.5996099 -0.33276856 -0.3746242
0001f0 40 aa 96 3d 80 55 d6 3f 39 e0 1c c0 dd fa 2f 3e
       0.07356691 1.6744843 -2.4511855 0.1718554
000200 64 36 9b 3d 45 0a 0e bd 68 89 f3 bd 32 be 24 3f
       0.075787336 -0.034677763 -0.118914425 0.64352715
000210 2a 90 c2 3e e2 ae 3b 3e c7 ca d8 3d 4e 92 ce c0
       0.38000613 0.18328431 0.10585552 -6.4553595
000220 89 a2 39 be f1 b1 b7 3e 83 4f 76 3e 12 b2 24 3e
       -0.18128408 0.35877946 0.24053769 0.16083553
000230 dc 34 04 3e 8a 98 17 bf 90 54 a7 be fa e3 8c 3d
       0.12910789 -0.5921713 -0.32681704 0.068794206
000240 c0 49 96 3d f4 e7 0c be 00 70 46 3c 2d fc a7 3f
       0.073382854 -0.13760358 0.012111664 1.3123833
000250 80 1e 8e 3f 62 d7 7b be f7 17 3a 3e 7b f5 da 3e
       1.1103058 -0.24593881 0.18173204 0.42765412
000260 50 8c 0f 3e 4c 97 9f bf b0 10 a2 bc ee 99 70 3e
       0.14018369 -1.2468047 -0.019783348 0.2349622
000270 00 df a6 bb 47 d3 fd 3f f0 3b 18 40 4b bd 20 3f
       -0.0050925016 1.9830102 2.3786583 0.6278884
000280 75 be 61 3e 13 7f b0 bd 10 b8 47 3d ac 93 16 3e
       0.2204531 -0.086179875 0.04875952 0.1470477
000290 1b 78 49 be c0 03 6c bd 67 09 23 be 92 b5 95 3f
       -0.19674723 -0.057620764 -0.15921555 1.1696036
0002a0 4c 69 56 3e 55 73 dc be 95 a4 69 3e b5 ed 6d bf
       0.20938605 -0.4305674 0.2281669 -0.9294084
0002b0 34 82 3f 3e d5 bb 44 3f 7e 44 d8 3d 2e 75 c4 3d
       0.18702012 0.7684911 0.10559939 0.09592663
0002c0 27 55 52 3d 61 59 30 3e 50 e1 5a 3e b7 95 06 bf
       0.05135074 0.17221595 0.21375012 -0.52572197
0002d0 99 31 9f 3e 90 10 c0 3c c0 55 b0 be c7 69 05 be
       0.31092528 0.023445398 -0.34440422 -0.13028632
0002e0 61 0c 33 3d 3b cb 3d bf 26 8e aa 3e 27 f1 8b 3d
       0.043712977 -0.7413823 0.33311576 0.068331055
0002f0 e4 a5 2b 3e 4c 8f 2f 3f 59 51 09 bf e0 d4 6f 3f
       0.16762501 0.6857803 -0.5363975 0.93684196
000300 8b 06 b1 bf 26 1b 34 3e 10 45 05 3e d5 9a 8b be
       -1.3830122 0.17588481 0.13014627 -0.27266565
000310 6a 60 29 3f e8 fe b4 bd 11 c9 02 3d 99 d7 b9 3d
       0.6616274 -0.08837682 0.031930033 0.09074325
000320 fd 41 c0 bf 0a 94 bd bf 78 8c 77 bd 70 cd 9d be
       -1.5020138 -1.4810803 -0.060436696 -0.308208
000330 d4 85 ed 3d 68 a1 a2 3e b3 9d 09 bf c9 b0 14 3e
       0.11597791 0.31763768 -0.53756255 0.14520563
000340 ba 2b 05 bf b4 c7 a3 bd 60 02 4b 3c 92 fa f4 be
       -0.52019846 -0.07997075 0.012390703 -0.4784742
000350 a1 73 ed 3e 48 1c d3 bd c6 f5 e4 3e 45 c6 79 3f
       0.4637728 -0.103081286 0.4471876 0.9756816
000360 2f c1 39 3f 70 2c b4 bf e9 32 30 bf af 31 bf 3e
       0.725604 -1.4076061 -0.6882768 0.37342593
000370 a2 6f 72 3e 78 00 59 3f a7 b7 3e 3e db 29 56 bf
       0.23675397 0.8476634 0.18624745 -0.83657616
000380 1d 91 2d c0 9e b6 8a 3e 20 03 39 bd 36 a7 db be
       -2.711982 0.2709245 -0.045168996 -0.4290101
000390 06 69 8e be f8 9e 15 3d d1 5c 86 bd 28 a0 3a 3d
       -0.27814502 0.036528558 -0.06560672 0.045562893
0003a0 98 d1 7e bd 0b b0 2a c0 ef eb ac 3d b4 c1 e5 bd
       -0.062211603 -2.6669948 0.08443438 -0.112185866
0003b0 42 4d 5c be 80 4a 44 3e b5 9c ac 3d 41 a3 fb 3d
       -0.21513847 0.19169044 0.08428327 0.122869976
0003c0 d3 6c a7 bd ed e8 78 3e 8c e2 15 3e 00 75 48 bf
       -0.081750534 0.24307604 0.14637202 -0.7830353
0003d0 81 4b 7e be e0 33 7d 3c a6 2f 1b bc 1b 0a cb 3e
       -0.2483349 0.0154542625 -0.0094718095 0.39656147
0003e0 8f 08 b2 be 7f da e2 be 06 e2 1d bf 8d 3e e3 bd
       -0.34772155 -0.44307324 -0.6167301 -0.11095915
0003f0 40 76 eb bc a5 6b 54 3f 3f c9 c3 bf aa 96 6d be
       -0.02874291 0.8297675 -1.529579 -0.23202005

net1.0.bias f4 [64]
000000 61 33 bc 3e 19 6f 4a 3d 94 56 6c be 1d af 92 3e
       0.3675795 0.049422357 -0.23079902 0.28649226
000010 6d e9 91 be ea 54 c8 3e 7f d7 8e 3e 1e 58 76 be
       -0.28498402 0.39127284 0.27898785 -0.24057052
000020 41 9c e6 be d2 63 c8 bc b2 b2 b0 3d 16 4b 0e bd
       -0.45041087 -0.02446166 0.086278334 -0.034739576
000030 02 11 84 be 83 ae b1 3e b9 ea 9c bc f5 5b 0e bc
       -0.25794226 0.34703454 -0.019154893 -0.008688916
000040 25 a0 3a be e9 3b 35 3e c1 01 e1 3b 28 95 66 3e
       -0.18225153 0.17698635 0.006866664 0.22517836
000050 23 f9 35 be a4 1a 74 be e9 4d bd 3d d7 5a 0c 3f
       -0.1777082 -0.23838288 0.09243376 0.5482611
000060 95 ee e0 bd 78 ea 11 3f 11 ba 40 3d eb ed 4a 3e
       -0.10983006 0.56998396 0.047052447 0.19817321
000070 9d 5d cc 3e bd 08 04 3e 12 9c 36 be a2 49 57 be
       0.3991517 0.12893958 -0.17832974 -0.21024182
000080 9e 63 9e 3e 58 cf 85 3d ed 84 8a 3e 22 cf d6 be
       0.30935377 0.06533688 0.2705454 -0.41954905
000090 0f 64 6f be c5 b8 81 bd 09 a7 9b 3e 73 a9 aa be
       -0.23378013 -0.0633407 0.30400875 -0.33332404
0000a0 c8 11 3a be df 35 04 bf 24 b9 f6 3e ee 2e 35 3f
       -0.18170846 -0.516447 0.48188126 0.70774734
0000b0 2a d3 7e 3e 6e 9c d4 bd 7e 96 7b be af fd ed 3c
       0.2488524 -0.10381399 -0.24569127 0.02905163
0000c0 ca 1e 8d bd 70 66 78 3e 7c 39 a3 3d 34 54 af 3e
       -0.06890638 0.24257827 0.07969949 0.3424393
0000d0 2a 7e 4d be 51 48 f0 3c 45 11 e9 be fb bd 89 be
       -0.20067659 0.029331358 -0.45520988 -0.26902756
0000e0 81 5d 7c 3e 6c 26 ab 3e 33 e5 03 3e 36 08 2d 3f
       0.24645044 0.3342775 0.12880401 0.67590654
0000f0 42 bb 92 bd 97 33 9b 3e a6 74 03 be 12 c5 d3 bd
       -0.07164623 0.30312797 -0.12837467 -0.103403226

net1.2.weight f4 [64, 64]
000000 06 b6 88 bf 3d 51 56 3e 69 4f 3c bd 52 83 e9 be
       -1.0680549 0.20929427 -0.04597417 -0.45608002
000010 1f c7 41 3f 7b e7 52 3e 7a 5b fd 3c 35 33 87 bd
       0.7569446 0.20596115 0.030927408 -0.06601564
000020 35 6b 4b 3f 28 70 58 3e 00 97 1a be 6e ad 22 3d
       0.7946046 0.21136534 -0.15096664 0.039716177
000030 99 5b 4d 3f dc 4b 24 be 05 d2 e4 3f 82 3a 7a be
       0.8021789 -0.16044563 1.7876593 -0.24436381
000040 b2 dd 9b bc 12 1c d6 be 4c d1 a7 bc d2 96 5d 3e
       -0.019026611 -0.4181829 -0.020485543 0.21639565
000050 83 0c b6 3e 62 73 96 3f fa 04 e9 be ce 71 ab be
       0.3555642 1.1753962 -0.4551161 -0.33485264
000060 35 dc 17 3f d1 30 76 3e b1 43 ba 3f 36 2d 83 be
       0.59320384 0.2404206 1.4551908 -0.2562043
000070 0b 95 3e bd e8 f1 82 be 36 f1 08 3e 64 09 e3 bf
       -0.046528857 -0.25575185 0.13373265 -1.7737241
000080 9b 41 13 be 30 48 27 bf 32 aa 83 bf fa 69 2b 3e
       -0.14380495 -0.65344524 -1.0286314 0.16739646
000090 99 20 8d 3d 0f c6 00 3f 45 b3 01 3e bd 2a c6 bf
       0.06890983 0.50302213 0.12666042 -1.5481793
0000a0 6b f4 c7 be ce 48 80 3e 6a c4 30 bf ca 97 17 3e
       -0.39053664 0.25055546 -0.69049704 0.14803997
0000b0 da 0d 06 bf 81 c6 31 be 99 04 4a be 0d 95 e3 bf
       -0.52364886 -0.1736088 -0.19728316 -1.7779862
0000c0 4f 05 7c be e9 ac 43 bf 44 39 16 3e fb 26 1f bf
       -0.246114 -0.76435715 0.14670283 -0.62168854
0000d0 f0 7a 01 3e 5c 49 dc 3e c5 81 74 be 19 b5 84 be
       0.12644553 0.4302472 -0.23877628 -0.25919417
0000e0 70 67 8c bd a6 f2 59 bf c4 d2 00 c0 a9 88 c0 be
       -0.06855667 -0.8513588 -2.012864 -0.37604263
0000f0 c5 5c 83 3f 0e cb 66 bf f4 85 bc be 17 66 16 3f
       1.0262686 -0.90153587 -0.36820948 0.58749527
000100 9f f6 b4 bf d4 99 c4 3c c5 c5 49 be 31 6b 93 be
       -1.4137763 0.023999132 -0.1970435 -0.28792718
000110 d0 cf 27 3f ab 93 88 3e c5 f7 b3 3e b4 c0 b5 bf
       0.6555147 0.26675162 0.3514997 -1.4199433
000120 0b b1 84 3f 45 76 c3 be 3d b3 b6 be eb 70 8a 3e
       1.0366529 -0.3817617 -0.35683623 0.27039275
000130 39 f9 82 3f 25 99 98 bd 65 fd f2 3f 04 f2 12 bf
       1.0232307 -0.07451085 1.898358 -0.57400537
000140 95 6b 8f 3d e3 bc d5 bc f1 83 94 3d a4 6b 15 3f
       0.070029415 -0.026091045 0.07251728 0.5836737
000150 c9 d3 6c 3f 48 fa 78 3f e8 f9 f2 be 69 88 a5 bd
       0.9251066 0.972569 -0.47456288 -0.08082659
000160 d9 d5 44 3f ac e7 11 3e 7e 3f b2 3f 73 b2 7f be
       0.76888806 0.14248532 1.3925626 -0.24970417
000170 50 16 e2 bd 8e 63 78 bc 8c 43 0c 3e 11 19 af bf
       -0.11039412 -0.015160454 0.13697642 -1.3679525
000180 e8 2c 05 be 7c 2e 90 bf cc 58 e8 bf 19 71 53 3e
       -0.13005412 -1.1264186 -1.8152099 0.20648612
000190 45 ac 15 3e 03 10 ef 3e 62 2d dd bc a1 85 0b bf
       0.14616497 0.46691903 -0.02699918 -0.54500777
0001a0 83 16 6f be 29 d3 13 be d5 6b c6 be 93 88 0e bc
       -0.23348431 -0.1443602 -0.38754144 -0.008699554
0001b0 55 7d fc be 2f 05 06 3f f4 4e 87 3e 5a 73 87 bf
       -0.4931437 0.5235166 0.26427424 -1.0582078
0001c0 7e 2e 2e bd 6f 57 88 bd b5 65 2f 3e 5e dc 00 bf
       -0.042524807 -0.06657302 0.17128642 -0.50336254
0001d0 c8 1c 01 3d 7a 6a 24 3f 14 e0 52 bd 0b b8 8b be
       0.03152159 0.6422497 -0.05148323 -0.2728885
0001e0 90 cf ae bd 61 7e e0 bf 4c 33 35 c0 a7 bc b9 be
       -0.08535683 -1.7538568 -2.831256 -0.36276743
0001f0 5a 52 aa 3f 0b f5 47 bf 7b e5 9d be 50 74 ea 3e
       1.3306382 -0.7810828 -0.30839142 0.45791864
000200 12 d4 2e bd 2d 77 a3 bd d6 b9 af bd 72 e6 e0 3d
       -0.042682715 -0.07981715 -0.08580367 0.10981454
000210 f6 cf 0e bd 95 92 5b 3e 91 d7 ed bd 73 11 09 bd
       -0.034866296 0.21442635 -0.11613382 -0.033463906
000220 93 c1 95 3d 4a 04 6c 3d d7 44 8b bd 12 ef dc bc
       0.07312312 0.057621278 -0.068002395 -0.026969466
000230 b5 3b 6b bd 7a 1d 6f 3d a5 2e 52 be 3f b2 36 3d
       -0.057429988 0.05837772 -0.20525606 0.044603582
000240 a9 88 b7 bd ff 9b 56 3d e4 7c 10 3e 03 0f c4 bd
       -0.08961613 0.052394863 0.14110142 -0.09573176
000250 5c a8 66 bc 8b 75 0f be e3 60 9a bc 4e cd 05 bd
       -0.014078226 -0.14009683 -0.018845027 -0.032666497
000260 2e 6b fa 3d ac 7b 3d bd b5 85 96 3d 61 49 fd 3c
       0.12227474 -0.04626052 0.07349721 0.030918779
000270 cf 82 bd bd 15 a4 5f 3c 1d 85 03 be 88 78 46 bd
       -0.092534654 0.01364996 -0.12843747 -0.04845479
000280 76 ff 97 3c a4 8b 5b 3d 72 ea c1 3a 37 ac 58 be
       0.01855443 0.05359997 0.0014794602 -0.21159445
000290 42 b1 b0 ba c5 47 93 3d e0 5a 54 3d e3 c6 61 3e
       -0.0013480561 0.07191423 0.051844478 0.22048526
0002a0 0c db a9 3c d9 12 3e bd cc 4a a2 bc 03 47 8a 3d
       0.020734333 -0.046404693 -0.019811057 0.06751826
0002b0 a1 d9 4c be 24 1f 8b 3c ae 8a 55 bb f6 f1 c3 3d
       -0.20004894 0.016982622 -0.003258388 0.09567635
0002c0 ae 32 f3 3c f5 1e 7f bd 14 a5 a6 bc c1 de bc 3d
       0.029687252 -0.062285382 -0.020342387 0.092221744
0002d0 23 7c 78 bd 24 da aa bb 76 21 a0 bd 3a 61 21 bb
       -0.06066526 -0.0052139927 -0.07818882 -0.0024624602
0002e0 fe a5 80 3d df 4e 3e 3c 81 4b 0b bd 52 8f 36 3d
       0.062816605 0.011615484 -0.034007553 0.044570275
0002f0 08 26 46 bd 12 e2 9e 3c f4 8e da 3c b3 22 99 3d
       -0.048376113 0.019394908 0.026679493 0.074773215
000300 ff 45 85 be 5f e0 ca 3e 28 7d 30 3d b7 7c 3f 3e
       -0.26029965 0.39624307 0.04308811 0.18699919
000310 5e a8 b7 be 90 c5 17 3f 92 62 2f 3f af 1e 28 3e
       -0.3587064 0.5928583 0.6850978 0.16417955
000320 9e 0e b0 3d 0d fd 79 3e 2c 00 48 bd e6 01 9c be
       0.08596538 0.24412937 -0.04882829 -0.30470198
000330 79 7e 05 3e 12 eb 2e 3f 63 6e fb be 33 df 87 3d
       0.13036527 0.6832744 -0.49107656 0.06634369
000340 27 21 09 3e e4 37 60 be 48 12 59 bd ca 41 1e bf
       0.13391553 -0.2189632 -0.05299595 -0.61819136
000350 ca 5a 50 3e ff b8 9f be f9 28 2e bd d2 71 f0 3d
       0.20347133 -0.31195828 -0.042519543 0.117404595
000360 f6 af 5e 3e 3e e0 f1 be 36 83 f1 bd ef 44 2e be
       0.21746811 -0.47241396 -0.117926046 -0.17018484
000370 f8 fc 1c 3f 35 60 86 3e 9a 15 29 3d dc 24 bb 3e
       0.613235 0.26245275 0.041280366 0.3655156
000380 ba 1e f0 3d 19 7b 92 be 66 6e 82 bd 3a 86 94 3e
       0.117246106 -0.2860954 -0.06368713 0.29008657
000390 69 d0 b9 be 9d 6d d6 bd c7 c3 8f 3d 8a 75 90 be
       -0.36291817 -0.10470126 0.070197634 -0.28214675
0003a0 bd ba 99 bd 3f f3 0c 3e 27 8e 27 be e2 4f 20 3f
       -0.075063206 0.13764666 -0.1636282 0.6262189
0003b0 29 7d b6 bd a3 01 32 be a4 42 4a 3e 3c 42 ba be
       -0.08910591 -0.17383437 0.19751984 -0.36378658
0003c0 1d 3c 5b bc 51 9e b6 be 42 4d cd bd 43 21 86 3e
       -0.013381031 -0.3566766 -0.100245014 0.26197252
0003d0 f9 cf 15 be a9 e7 15 3e 30 f6 98 be 0e d3 f7 be
       -0.14630117 0.14639153 -0.29875326 -0.4840321
0003e0 ef 50 7d 3e 84 9b cd 3e a4 30 8a 3e a9 a1 15 3e
       0.24737905 0.40157712 0.26990235 0.1461245
0003f0 06 e6 91 bc 3c 9c b0 3e 4b 45 14 bf 9f d7 2f 3e
       -0.017809879 0.34494197 -0.5791823 0.17172097

net1.2.bias f4 [64]
000000 94 ab 9b be 5a f6 58 be 4b 2e 03 be 4b bd 2e 3d
       -0.3040434 -0.21187726 -0.12810628 0.042660993
000010 2c 01 89 3e 0b e1 28 be 20 07 8a bd 0d ad 4b be
       0.26758707 -0.16492097 -0.0673964 -0.19890232
000020 8a 46 23 be 6b c8 01 3e 49 78 f3 be 58 1f 6f be
       -0.15944877 0.1267411 -0.47552708 -0.233518
000030 7c 29 e5 39 b7 f2 85 bd 96 24 97 3d 72 ff 62 bd
       0.00043709192 -0.06540435 0.07380025 -0.055419393
000040 65 f5 8c be 95 a1 1f be 20 6b 27 3e c9 cb d3 be
       -0.2753097 -0.15588982 0.16349459 -0.41366413
000050 12 f7 cc 3d a5 17 51 bd 36 32 a7 3c 37 c7 ae 3d
       0.100080624 -0.05104794 0.020409685 0.08534091
000060 5c 6a 13 3e a1 f2 b9 3e 4c 9c ff bd b2 6d d0 bd
       0.14396042 0.36317924 -0.12480983 -0.10177173
000070 60 96 c7 bb 96 dd 56 be b5 f6 04 3e 0d 15 0a 3d
       -0.006090924 -0.20982966 0.12984736 0.03371148
000080 17 3e 8e be 84 f0 03 be 60 fd d3 be f8 36 41 bd
       -0.27781746 -0.12884718 -0.41404247 -0.047171563
000090 78 34 e7 be 8e 2a 9d be f1 38 3f 3d 2e a2 5a 3d
       -0.45157218 -0.3069653 0.046685163 0.053377323
0000a0 84 cd 36 bd d2 ae 2f bd a5 6a a1 3b 42 96 a1 be
       -0.04462959 -0.04289133 0.004926043 -0.3155995
0000b0 9c 40 ae 3c 51 82 40 3e ae 9d b0 be 57 d2 08 bc
       0.021271043 0.18799712 -0.344953 -0.00835093
0000c0 22 ea 81 be 03 71 15 be ec 15 15 be f4 0e fa 3c
       -0.25373942 -0.14593892 -0.14559144 0.030524708
0000d0 fc f2 07 bd 66 01 fd be 0f 95 81 bd c9 49 22 3e
       -0.033190712 -0.4941513 -0.06327259 0.1584846
0000e0 33 1e 4b bc b8 88 0e 3d 9a e4 91 bd f3 57 15 be
       -0.012397337 0.034798354 -0.071236804 -0.14584331
0000f0 93 7d 3c 3d 2c d8 56 bd 74 ce 33 3e 71 36 b3 be
       0.046018194 -0.05245225 0.17559224 -0.35002473

net1.4.weight f4 [1, 64]
000000 c6 25 1c bf ef 11 a5 bf b6 75 f7 3a 42 a0 fa 3e
       -0.6099514 -1.2896098 0.0018879685 0.48950392
000010 72 2b ab be 10 c2 ad 3e fb c0 04 3e 75 11 46 3e
       -0.33431584 0.3393712 0.12964241 0.19342597
000020 fc 05 ff be 30 5c 68 3e fa 12 d2 bf 88 c7 8a bf
       -0.49809253 0.22691417 -1.6412041 -1.0842142
000030 7d 57 9c 3a 49 5a f4 3e b9 ca 21 bf 5d 55 d9 3d
       0.0011927929 0.47725132 -0.63199955 0.10611985
000040 a8 a2 e4 bf c4 26 52 3e cc 18 24 3e 20 2c 95 bf
       -1.7862139 0.205226 0.16025084 -1.1654091
000050 21 d3 15 3e 70 00 18 bf 1d dc 63 3e 93 c3 ff 38
       0.1463132 -0.5937567 0.22251935 0.00012195776
000060 3c c1 19 3e f2 8e 53 bf 8a 81 63 3a e7 17 b2 3d
       0.1501512 -0.8263999 0.00086786656 0.08695965
000070 20 bc 8d 3e 5f 48 a2 bf c8 d2 0b 3f 1d 37 a0 3e
       0.2768259 -1.2678336 0.546185 0.31292048
000080 cc 85 cd be f4 30 2b bf ad 09 1c c0 bb 1f b8 3d
       -0.4014114 -0.6687157 -2.4380906 0.08990427
000090 81 db d1 bf e3 fb 02 c0 af bc 58 bf 3e a6 cc 3e
       -1.6395112 -2.046624 -0.8466291 0.39970583
0000a0 9e 52 c9 bf 7d 93 06 3e 31 19 a1 3e 38 0e ad bf
       -1.5728338 0.131422 0.31464532 -1.3519964
0000b0 66 73 06 3f c7 85 80 3d c4 2f 4c bf 24 74 78 3d
       0.52519834 0.06275516 -0.79760385 0.060657635
0000c0 b4 74 d8 3e 82 94 82 bf fa ea f7 be 7c a2 3e 3b
       0.42276537 -1.0201571 -0.4842146 0.0029088547
0000d0 58 b2 1e 3d c7 0e 0f bf aa 7f 13 3e c1 77 c0 3d
       0.0387443 -0.55881923 0.14404169 0.09397841
0000e0 f9 d1 25 bb a9 7d 85 3e 2c 9f d7 3d a2 77 97 bf
       -0.0025302155 0.26072434 0.105284065 -1.1833384
0000f0 70 99 dc be a5 2e 94 3b 5b 4c 84 3e 3e 45 f1 be
       -0.43085814 0.004522162 0.25839505 -0.4712314

net2.0.weight f4 [64, 16]
000000 ad a1 12 c0 79 f6 dd 3d 4c 83 c7 3d d8 92 cb be
       -2.291118 0.108380266 0.0974184 -0.3976047
000010 1c c3 d0 be 58 78 0c 3e 68 8f a7 3e c0 67 3f 3d
       -0.40773857 0.13717782 0.32726598 0.046729803
000020 34 2b 05 3e cc 57 03 c0 e1 f2 23 be 28 0d da 3c
       0.13004762 -2.0522337 -0.1601062 0.026617602
000030 06 b9 77 be ef 5a cd 3d f9 3d d9 3d dc 60 57 3e
       -0.24191675 0.1002711 0.106075235 0.21033043
000040 db ce 57 be 17 02 60 3e dc fd a4 3d 06 9b a8 bd
       -0.21075003 0.21875797 0.08056232 -0.082326934
000050 57 04 b3 3e f2 d9 34 be 0c 86 a0 bf 8e 06 19 3f
       0.3496425 -0.17661265 -1.2540908 0.59775627
000060 cb 66 4c be c0 c2 d8 3e b7 63 9b 3e 65 71 52 be
       -0.19961087 0.42336082 0.30349514 -0.20551069
000070 50 aa 47 3e 11 77 2f bf 48 b5 a4 be 08 52 56 3c
       0.19498563 -0.68541056 -0.32169557 0.013081081
000080 cd e9 5c be fa da e8 bd 1c 34 cb bd c5 f2 c0 3e
       -0.21573563 -0.113698915 -0.099220484 0.37685218
000090 82 83 5d bc c2 a9 0b 3e f3 05 45 bd 65 66 b1 3e
       -0.013520123 0.13638976 -0.048101377 0.34648433
0000a0 5d 25 6f 3e 40 9d 49 bf b4 2b 93 be cf bd c8 3e
       0.23354097 -0.7875557 -0.2874428 0.39207312
0000b0 10 05 97 3c 1d 29 8f bf ca 3b fc be 9c ad df be
       0.018435031 -1.1184422 -0.49264365 -0.4368714
0000c0 fa 2a e3 bd 1d b7 7a 3e 70 ab 45 be 8d 71 81 3f
       -0.110921815 0.24483915 -0.1930368 1.0112778
0000d0 83 d7 d9 3f e4 b6 16 be 98 76 30 3f a7 0d 46 3c
       1.7018894 -0.14718205 0.6893096 0.012088216
0000e0 89 91 19 3e 58 4e a0 bd dc 29 b0 be d7 d3 ac 3d
       0.14996924 -0.07827443 -0.34406936 0.08438843
0000f0 50 bf af 3d a6 70 5d bf 15 19 74 bf 8e 90 64 bf
       0.08581412 -0.8650001 -0.9535077 -0.8928307
000100 1e b7 a3 3e 3b e9 84 bd 18 cd af bd 80 bc b0 be
       0.31975645 -0.06489798 -0.085840404 -0.34518814
000110 cd 90 84 3e cc 6b 7e 3e 71 5d 21 3f 9c 05 00 3e
       0.25891724 0.24845809 0.63033205 0.1250214
000120 db 25 2e 3e 6c 4b e4 bd 3d 78 1e bf ca 43 e2 bd
       0.17006628 -0.11147198 -0.6190222 -0.11048086
000130 20 fe e5 bc 6d f2 a6 be 55 4d f0 be ec 26 02 3e
       -0.028075278 -0.3260683 -0.46934 0.1271016
000140 c7 a5 53 bd 84 e2 ce 3d 20 ba 30 bd 14 19 7c bf
       -0.05167177 0.10101798 -0.043146253 -0.98475766
000150 76 08 7a 3f c4 0b 28 3e 78 90 e8 be 63 1f a2 3f
       0.9766916 0.16410738 -0.4542272 1.2665828
000160 98 72 8a 3e f8 ec 81 bf 86 b9 91 be 11 b0 e9 bd
       0.27040553 -1.0150442 -0.28461856 -0.11410535
000170 d4 05 57 3e 8d 34 71 bf b3 61 b1 3f 08 17 b2 3c
       0.20998317 -0.9422081 1.385794 0.021739498
000180 e0 e3 85 be 9c 00 e2 be 80 06 e0 3d f8 7f fd 3e
       -0.26150417 -0.4414109 0.1093874 0.49511695
000190 d4 52 3e bf a8 31 c9 3d 2c dd 22 be 0e 07 69 3f
       -0.74345136 0.09823924 -0.15904683 0.9102639
0001a0 8f 22 a8 3d 4c a6 d5 be dc 01 27 bf 76 fc 18 3f
       0.082097165 -0.41728437 -0.6523721 0.59760225
0001b0 42 ad 37 3e 94 5d 46 3f 69 93 24 bf d2 a0 78 3f
       0.17937186 0.7748654 -0.6428743 0.9712039
0001c0 6b b9 0d c0 4d 94 25 3d 3c 11 b1 3d 70 9b 6d 3d
       -2.214442 0.040424634 0.08645865 0.058009565
0001d0 88 d3 c5 be 40 32 d7 bb 65 31 f0 3d 0f 30 f4 3d
       -0.38637948 -0.0065672696 0.11728171 0.11923229
0001e0 a6 5b c8 bf a8 cd f0 bf e0 8f 1c 3e 43 5a 0f be
       -1.5652969 -1.8812761 0.15289259 -0.13999276
0001f0 a8 a9 e0 3d b9 54 47 3e 62 f2 d2 be c9 c7 5c 3f
       0.10969859 0.19465913 -0.41200548 0.8624235
000200 a9 ae 52 be c9 64 c1 be e4 96 12 be 61 b0 a7 3e
       -0.2057444 -0.37772205 -0.14315373 0.32751754
000210 ee 81 9d 3e 78 a7 7b 3d 79 39 56 be 66 56 55 3f
       0.3076319 0.061439008 -0.20920362 0.8333496
000220 17 e0 99 3d 39 32 4c bf 86 4e 03 3f 87 74 53 3e
       0.07513445 -0.79764134 0.5129169 0.2064992
000230 7a 1d 02 3e 4f 69 24 be 60 02 8c bd 88 3b 63 be
       0.12706557 -0.16055797 -0.068363905 -0.22190678
000240 da e2 88 be bd 85 44 3e 3c a1 7c 3e 56 1c e2 be
       -0.26735574 0.19191642 0.24670881 -0.44162244
000250 3e 3b 48 bf 02 df 75 3e 71 e2 9f 3c 8e 8d 2e bf
       -0.78215396 0.24010852 0.019517155 -0.68184745
000260 dd c1 91 be a4 10 23 3f 91 cd 01 3f fe 6e ea 3e
       -0.28468218 0.63697267 0.50704294 0.45787805
000270 0c 2e ef 3d 0e af c3 bd ed e5 81 3c 61 f9 7c 3e
       0.116787046 -0.095548734 0.015856707 0.24704506
000280 6c c7 cc 3d 4c 34 f6 bd 14 1f 20 3e 2c aa c7 3f
       0.09998974 -0.120216936 0.15636855 1.5598807
000290 88 a2 81 3f 42 e8 03 be 5f 92 aa 3e a2 5f 42 3f
       1.0127726 -0.12881568 0.33314797 0.75927174
0002a0 50 eb 74 3d 85 a1 85 be 7b ec 15 bf 70 f0 b9 3c
       0.059794724 -0.26099792 -0.58563966 0.022697657
0002b0 c0 c1 d2 bb 28 9b 15 3f cb ba 8b be a6 03 10 3f
       -0.006431788 0.58439875 -0.2729095 0.5625557
0002c0 37 d7 8a 3e 43 ab a5 be 2e 30 47 be 7c b7 02 3e
       0.2711732 -0.32357225 -0.19451973 0.12765306
0002d0 84 bd 1c 3e c0 90 b6 3b 1d 66 2c be 5e 95 9b 3f
       0.1530667 0.0055714548 -0.16835828 1.2154958
0002e0 f0 89 55 3f 71 b0 97 bf 02 59 92 be e5 a6 dc be
       0.834136 -1.1850721 -0.28583533 -0.4309608
0002f0 78 52 22 be c9 43 6a 3e 29 cb e3 bd 8b c4 ca 3d
       -0.15851772 0.2287742 -0.11122734 0.09900769
000300 7d d0 08 3f c3 f6 c3 be 68 36 8d bd 08 90 b8 bd
       0.5344313 -0.38274202 -0.06895143 -0.09011847
000310 42 93 8f 3c e8 a8 8f bd 9f a6 a3 bf 9c 80 b9 be
       0.017526273 -0.07014638 -1.2785224 -0.36230934
000320 84 2a 52 3d d6 c0 57 3f a4 25 24 bd 03 b2 51 bd
       0.051310077 0.8427862 -0.04007496 -0.051195156
000330 1c c1 46 be e5 f4 ad be 87 5e 77 3e 3e b5 8c bd
       -0.19409603 -0.33975902 0.24157153 -0.06870507
000340 96 b8 85 3d 58 2d c8 3d a8 72 30 3e e4 fb 16 bf
       0.065293476 0.09774274 0.17231238 -0.58978105
000350 38 af 81 bf 1a ad 37 3e f9 a2 c0 bf 93 9a 42 bf
       -1.0131598 0.17937127 -1.5049735 -0.7601711
000360 d0 4d da be e5 73 6c 3f 78 66 12 be f4 fa 39 3e
       -0.4263749 0.9236434 -0.14296901 0.18162137
000370 d8 f1 b6 bd be 38 12 3f 91 0e 0c bf f0 ac a1 3e
       -0.08932847 0.5711783 -0.54709727 0.31577253
000380 e3 d6 4f 3e 6a 8d ae be d4 9a 3d 3e 2d 12 3c 3d
       0.20296817 -0.34092265 0.18516093 0.04591577
000390 52 3a 9e bf 58 13 1a bd 3d 11 af be 73 0e 64 3e
       -1.2361548 -0.037616104 -0.3419284 0.22271137
0003a0 97 92 8f 3d fb ec 2c 3f 32 4e ac 3e 89 01 35 bf
       0.07010382 0.67549103 0.33653408 -0.7070547
0003b0 c0 b0 be bd b4 c7 5d 3f d9 73 9d bf 0e a1 42 3f
       -0.09311056 0.8663285 -1.2300979 0.76027
0003c0 49 df df 3d 43 76 0b bd 1c 26 69 3e 97 7b ac 3d
       0.1093126 -0.03404833 0.22768444 0.084220104
0003d0 a0 83 a7 3f 70 7c ba bc 13 f2 4b be 64 03 03 bf
       1.3087044 -0.022764415 -0.19916563 -0.5117705
0003e0 3b b5 a9 bf f2 e7 e7 bd e8 0e e1 3d a0 60 2f be
       -1.3258432 -0.11323537 0.10989171 -0.17126703
0003f0 48 f8 5b bd 80 d3 f6 be e6 60 9f bf 4a 20 eb 3e
       -0.053703576 -0.48208237 -1.2451446 0.45923072

net2.0.bias f4 [64]
000000 24 6f da 3e a5 02 a1 be 5c 50 0a be 87 43 54 be
       0.4266292 -0.3144733 -0.13507217 -0.20728885
000010 51 1c ce 3e cc e8 9b bd fc ef 5a be 67 85 92 be
       0.4025598 -0.07612762 -0.2138061 -0.28617403
000020 58 20 bd 3e b9 56 5d be 0a 78 c9 3d 71 fe 5e 3e
       0.3693874 -0.21615113 0.09837349 0.21776749
000030 c1 67 8d bc 9a e9 ed bc 3f 7a 79 3e 8c a7 02 bf
       -0.017261388 -0.029042054 0.2436304 -0.51036906
000040 c2 4a 36 be 8e 12 b6 3d 6d 2f 39 3e 61 ae 00 3e
       -0.17801955 0.08890258 0.18084498 0.1256652
000050 e8 85 25 3d 45 20 50 3e 88 b9 f5 bd 30 d4 11 be
       0.040410906 0.2032481 -0.11998278 -0.142411
000060 d2 91 6d 3e fe 26 85 be 01 f2 cc 3e 89 21 84 be
       0.23200157 -0.2600631 0.40028384 -0.25806835
000070 13 5d 20 3e b3 5f 74 be 8a ce 13 3f 80 46 fb 3e
       0.15660505 -0.23864631 0.5773703 0.49077225
000080 f8 34 f3 3d 0e a2 da bd 3e 99 5c 3e 25 c3 92 3e
       0.11875337 -0.10675441 0.21542832 0.28664508
000090 a2 ac af bd 50 89 f9 3d 79 5c 52 be 72 d4 1f 3e
       -0.08577849 0.121843934 -0.20543088 0.15608385
0000a0 f6 7f 96 3c cd cb ad be 24 2e c3 3e fe 62 b8 3e
       0.018371563 -0.3394455 0.3812114 0.36013025
0000b0 94 53 b9 be c4 0d 84 bd 16 7c 03 be 3c d8 c4 bd
       -0.36196578 -0.06447938 -0.12840304 -0.09611556
0000c0 c3 bd 7b 3e ff 50 9b be 0e cd 5a be 95 7f 39 3f
       0.24584107 -0.30335233 -0.21367285 0.724603
0000d0 95 f5 f2 3d 90 36 8f 3e e8 2f 5d be 28 8b 07 be
       0.11863247 0.27971315 -0.21600306 -0.13236678
0000e0 0d 29 52 3f c8 d5 30 3e 1c 46 17 bd e5 35 b0 3e
       0.8209389 0.17269051 -0.036932096 0.34416118
0000f0 90 d5 bb be d7 6f 1c bd b3 7a d8 3e a7 d1 e2 be
       -0.36686373 -0.038192596 0.42281112 -0.44300577

net2.2.weight f4 [64, 64]
000000 14 ae 2a bd e4 0d 3f be 3c 4f 13 be 73 d9 08 3e
       -0.04166992 -0.18657643 -0.14385694 0.133642
000010 9f 7e c8 bd 64 0f dc 3e 76 fd 75 be 43 eb a2 bc
       -0.09789776 0.42980492 -0.24022469 -0.019887572
000020 8a 7c ac 3e 17 db f0 3d d7 99 db 3d b1 52 aa 3d
       0.33688766 0.11760538 0.10722702 0.083165534
000030 70 6c cd 3d bb 9b 17 be 02 08 99 3e 78 1b 1b be
       0.100304484 -0.148055 0.29888922 -0.15147197
000040 89 d7 16 bf d1 b0 41 3e 7e d7 02 3d 8d 82 12 bc
       -0.5892263 0.18915106 0.03194379 -0.008942259
000050 33 64 bd 3c 9b 29 70 3e e1 d2 3c 3c b6 8c 4c 3e
       0.023119068 0.23453371 0.011524887 0.19975552
000060 14 c8 05 3d b3 49 ac 3e 2e 71 0f bf 3f 87 7a bd
       0.032661512 0.33649978 -0.56032073 -0.061164137
000070 6f 69 49 3f 86 44 88 3d 74 25 cd bd c5 07 a6 bf
       0.78676504 0.06653695 -0.10016909 -1.2971121
000080 cb f1 4d bd 9a 71 6e 3e 51 b7 a7 3d d1 9d c9 ba
       -0.05027942 0.23285523 0.08189262 -0.0015382116
000090 03 6d 88 bb 76 8d 5e 3e 7f 24 31 3e 8b 7a 00 bc
       -0.004163386 0.2173365 0.17299078 -0.0078417165
0000a0 77 56 99 3e c4 be 38 3e 88 73 71 be 55 ac 29 be
       0.2994878 0.18041521 -0.23579228 -0.16569646
0000b0 02 a2 c6 bd d3 46 38 bd 2e e7 3e bd 65 a4 ec bd
       -0.09698869 -0.04498942 -0.04660719 -0.11554793
0000c0 9a e2 0c 3e a0 47 c6 3e 90 13 77 3e d2 1b 21 be
       0.13758317 0.3872652 0.24128556 -0.15733269
0000d0 7c 66 2e 3e e7 1e e4 3d 8e 9a d9 be a8 fe 5f 3d
       0.17031282 0.11138707 -0.42500728 0.05468622
0000e0 7d 21 0f 3f eb 6d dc 3d 37 54 93 3e 07 4e f9 be
       0.55910474 0.10763153 0.28775188 -0.48692343
0000f0 3c 43 3e be 2a ec 16 bf 64 d7 c4 bd 01 38 81 3e
       -0.18580335 -0.5895411 -0.09611395 0.2523804
000100 40 91 13 3f 50 78 e9 3e f2 b2 0c 3e f8 ce 84 be
       0.5764351 0.45599604 0.13740137 -0.25939155
000110 e6 70 53 bf 10 c7 6c bb b6 1a 37 3f 26 c0 81 3f
       -0.82594144 -0.0036129393 0.7152513 1.0136764
000120 a4 48 30 bf 03 bf 31 3e 05 6e 0a 3e a7 20 8f bf
       -0.6886084 0.17358021 0.13518532 -1.118184
000130 96 60 da 3e cb 23 32 3e ed f3 4c be e3 a4 dc 3f
       0.42651814 0.17396466 -0.20014925 1.723782
000140 d9 ed 72 3f 07 d4 9d bc a4 a0 cf bf 2f 4e a9 3e
       0.94894177 -0.019266142 -1.6220899 0.33067462
000150 59 c6 53 3e ca c9 f8 bf a9 6d 6a 3f e0 80 d8 be
       0.20681132 -1.9436581 0.9157358 -0.42285824
000160 13 8f 7e bf f9 a5 15 be 2b 14 79 be 04 6f 00 3f
       -0.99437064 -0.14614095 -0.243241 0.50169396
000170 df a2 b2 3d d3 7e 8d bf 64 31 39 bf 3f de 1a be
       0.087224714 -1.1054329 -0.7234099 -0.15123843
000180 91 ec 87 3e 06 86 8a bd 32 6f 02 be 1d 47 93 3f
       0.26547673 -0.06763844 -0.1273773 1.1506077
000190 86 fc 32 3e 91 f6 3a bf 0a 39 9f 3f e9 ae 9f 3e
       0.17479143 -0.7303248 1.2439282 0.31188133
0001a0 dd ef fb 3e c5 fe 05 be c6 fe 10 be dd 1a d2 be
       0.4920644 -0.13085468 -0.14159688 -0.4103612
0001b0 79 fc 36 3f 28 64 a8 bf 83 5f 8e 3e 51 c0 97 3e
       0.7147899 -1.3155565 0.27807245 0.29638913
0001c0 09 a2 87 3f 94 68 d0 bb 6a b6 5f 3f 73 26 24 bf
       1.0596324 -0.006360123 0.87387717 -0.6412117
0001d0 f2 56 75 3d dd 56 5d bc 1d 82 21 3d 20 4c 9b bf
       0.05989737 -0.013509479 0.039430726 -1.2132607
0001e0 64 53 cb bc c7 85 a8 bf 00 4f 96 3f 73 30 80 3e
       -0.024820037 -1.3165826 1.1742859 0.25036964
0001f0 ba e7 c5 3f f7 a8 9d 3e 99 8e 55 be 65 47 92 be
       1.5461342 0.30792972 -0.20855178 -0.28570095
000200 dc a0 1c bc 33 6f be 3d 01 78 c0 bd 4d e6 db bc
       -0.009559836 0.09298553 -0.09397889 -0.026843214
000210 51 36 92 3d 27 d0 f4 3d 14 a0 82 bc e6 bc 1f 3d
       0.07139266 0.119537644 -0.015945472 0.038998507
000220 95 32 b1 3d b6 e2 de 3c 64 69 01 be 82 9e 67 be
       0.08652226 0.027207714 -0.1263786 -0.2261906
000230 e7 eb 89 3e bc f8 69 3e 33 3f 8b 3c 24 f9 03 3e
       0.26937792 0.22848791 0.01699791 0.12888008
000240 71 e1 9a 39 cb 03 a6 3d c3 c0 d6 bd 89 5c 61 3d
       0.00029541136 0.08106192 -0.10485985 0.05501989
000250 93 0f a1 3b 42 4d 01 3e c4 c1 5f be 4d 76 51 38
       0.0049151867 0.12627128 -0.2185126 4.993966e-05
000260 7b e0 02 be bc 07 00 3e 8f 0a 9d 3c a9 a1 ab bb
       -0.12780945 0.1250295 0.019170074 -0.0052377773
000270 72 69 2e be fd 8c 57 3e a9 63 24 be 63 cc c5 bd
       -0.17032412 0.21049877 -0.16053642 -0.09658124
000280 82 c7 2c be 62 18 6f 3e a7 dc 51 be 25 a4 c2 bc
       -0.16872981 0.23349145 -0.20494328 -0.02375991
000290 25 40 ca 3d c4 2a 85 bd de a2 0c bf fb 36 d7 bd
       0.09875516 -0.065022975 -0.54936016 -0.105085336
0002a0 91 65 3a bb 26 0f 0d bd 36 77 ae 3d f4 c4 93 3e
       -0.0028441886 -0.034438275 0.085188314 0.288612
0002b0 58 e8 a7 be d6 14 82 3d 8f ff d2 3d 8e 58 77 3d
       -0.32794452 0.063516304 0.1030265 0.060387187
0002c0 46 b4 59 3d 47 1d 52 be 10 96 33 3e e5 b0 da bd
       0.053150438 -0.20518981 0.17537713 -0.10678271
0002d0 b3 20 7d 3d d3 98 00 bd 5c ec 74 bc ed dc a7 3d
       0.061798763 -0.031395745 -0.014948931 0.08196435
0002e0 78 65 bd 3e cd d0 0b 3e e3 ce aa 3d 58 2c db 3d
       0.36991477 0.1365387 0.08340242 0.10701817
0002f0 10 2a 15 bd 96 d5 8c 3d ad 3d 11 3c 71 4d 96 bd
       -0.036417067 0.06876676 0.008864802 -0.073389895
000300 6b a1 19 bd 6f 04 de bd 42 a3 f5 3e e2 9a 84 3e
       -0.037507456 -0.108406894 0.47976118 0.25899416
000310 52 50 4a 3e 60 28 9a 3d 38 16 17 bf 21 cc b4 3d
       0.19757202 0.07527232 -0.5901828 0.08827997
000320 d4 26 63 3e 62 2b ab be 8a 78 49 3e a8 fd 38 3d
       0.2218278 -0.33431536 0.19674888 0.04516378
000330 9f 13 c2 3e 80 07 79 bd fe 86 b8 bd b5 68 11 3e
       0.37905595 -0.06079817 -0.09010123 0.14200099
000340 32 10 14 be ce 6c d1 3d 43 a1 b5 3e 9e 28 95 3e
       -0.14459303 0.10225831 0.35474595 0.2913255
000350 94 74 4a 3e cd a8 ca 3e a0 41 85 3e c9 f5 aa bd
       0.19771034 0.3958191 0.2602663 -0.08347661
000360 e2 bb 84 3b f2 8d a2 3e b5 97 eb be df 77 a2 bd
       0.0040507177 0.3174892 -0.4601418 -0.0793302
000370 d0 fd 04 be c4 1a 90 ba dc 54 17 be 50 80 c8 3c
       -0.12987447 -0.0010994305 -0.14778465 0.024475247
000380 d8 e8 e8 be d7 57 b0 bc bf 36 2d bd 1c 10 52 3e
       -0.45490146 -0.02152626 -0.042288538 0.20513958
000390 30 8f ea 3d 5c 89 61 3e 88 57 cb be 1b 4f 74 3e
       0.11453092 0.22025055 -0.3971522 0.23858301
0003a0 b1 e0 19 3e fa 14 d6 bc 2e 0a 4f bd b6 40 16 be
       0.15027119 -0.02613305 -0.050546817 -0.14673123
0003b0 ad c4 79 be 29 58 f7 3d 0c 50 5a 3e a1 b5 15 bf
       -0.24391432 0.12077362 0.21319598 -0.5848027
0003c0 b0 57 98 3e 37 0c 11 3f 97 81 5f 3e 94 e3 82 3e
       0.297544 0.56659263 0.21826778 0.25564253
0003d0 92 0f 2d bd 39 03 19 bd 45 39 40 3c 51 11 dd 3c
       -0.042251177 -0.03735659 0.011732404 0.026985796
0003e0 81 4b d1 3e ef b9 03 be 86 b3 9a 3e b9 85 2b bf
       0.40877917 -0.12863897 0.3021509 -0.6700092
0003f0 f2 79 5f be ca a3 00 3f bd 62 b8 3e c1 dd 82 3e
       -0.21823862 0.5024992 0.3601283 0.2555981

net2.2.bias f4 [64]
000000 c7 71 0f 3e 6a 5b cc be 25 de ed bd a5 81 9f be
       0.14008246 -0.39913493 -0.11614636 -0.31153598
000010 23 da f0 3c 62 c8 4f be 0b b2 bb bc ed 1e 15 be
       0.02940089 -0.20291284 -0.022912046 -0.14562578
000020 85 15 31 bd 34 1e 31 bd e1 a6 84 bd 22 2e ef 3d
       -0.043233413 -0.043241695 -0.06477142 0.11678721
000030 7b 89 a5 be 40 24 5e bd ad 6c 6b 3d e0 88 b7 be
       -0.32331452 -0.05423379 0.05747669 -0.35846615
000040 1d 21 51 3e 91 2d 93 bd 03 21 d2 bd 13 02 fc bd
       0.20422788 -0.071864255 -0.10260203 -0.12305083
000050 7d 1c 16 be 87 1b 98 be bf 7e cc be 9e 57 96 be
       -0.14659305 -0.29708502 -0.3994045 -0.29363722
000060 2d c5 38 bd 16 63 85 bb da 61 36 be 09 b1 4b bd
       -0.045109916 -0.00407065 -0.17810765 -0.04972938
000070 5a 9c 2b bd 29 59 08 3d 7a 13 b7 be e8 aa f3 be
       -0.041897155 0.033288155 -0.35757047 -0.4759133
000080 40 06 1f 3d 26 ca 81 bc b6 c3 51 3d c6 d7 6e be
       0.03882432 -0.015843462 0.051212035 -0.23324499
000090 dd 0f ab bc b0 2a 10 be 94 cc af 3a 5d 7d 2d bd
       -0.020881588 -0.14078784 0.001341241 -0.042355884
0000a0 62 57 e3 be d0 fb dc 3b 34 dc ba be 09 60 0d 3e
       -0.44402605 0.0067438856 -0.36496127 0.13806166
0000b0 97 91 e2 3b 84 c4 97 3d f5 d6 48 3c 4b 64 dc be
       0.0069143283 0.07410529 0.012258281 -0.43045267
0000c0 65 78 2c 3e 01 dc 61 3d 4c 28 a0 be 8f fe b5 3c
       0.16842802 0.055141453 -0.31280744 0.02221611
0000d0 17 81 d5 3d 63 61 6f bd 67 cf d1 be e5 3f 2a 3e
       0.104250126 -0.058442485 -0.40978548 0.16625936
0000e0 81 3d 26 be 48 c3 fd be 68 b5 f5 3c 08 83 8c 3c
       -0.162344 -0.4956305 0.029993728 0.017152324
0000f0 85 c2 fa bd 96 38 c9 bd 7c 5b 5b be f3 48 8d be
       -0.12244133 -0.09825246 -0.21421617 -0.27594718

net2.4.weight f4 [1, 64]
000000 e2 cc cd 3e c4 e6 af bf 2a 04 e8 3a 04 5f 59 3e
       0.40195376 -1.3742299 0.0017701436 0.21227652
000010 3c 2b 25 3e d1 65 a6 bf 18 93 f7 3e 49 4d 85 3e
       0.16129774 -1.2999822 0.4835441 0.26035526
000020 54 d7 81 3d 4f f6 91 3e 0b 4d 3c 3e f2 00 ba 3e
       0.06339899 0.2850823 0.18388765 0.36328846
000030 26 f6 1d bf b7 96 e8 3d 0a d4 d5 3d 15 1d ab bf
       -0.6170372 0.113568716 0.10440834 -1.336825
000040 e0 47 29 3e 1e 8c db 39 24 55 22 bf e3 23 85 bf
       0.16531324 0.0004187533 -0.63411164 -1.0401577
000050 d0 ab ad 3d 95 4b 2b bf b6 6a 25 bf d6 93 8b bf
       0.08480036 -0.66912204 -0.6461595 -1.0904491
000060 e4 3e 8c bf fd 9b e1 3e 82 f0 10 bf 6c f3 5b 3e
       -1.0956693 0.44064322 -0.56616986 0.21479577
000070 22 c6 47 bf 27 18 66 3e d0 60 0a bf 57 49 a4 bf
       -0.780367 0.22470151 -0.54053974 -1.2834882
000080 f4 04 b1 3d 47 8b 67 3e f2 58 53 be 5e 18 50 bf
       0.08643523 0.22611724 -0.20639399 -0.8128718
000090 57 0f 04 3e 90 fa 27 bf f9 b8 c6 3e 7a 1b 82 3e
       0.12896477 -0.65616703 0.38812998 0.25411588
0000a0 7d 8f 9e bf 6b 0e 77 3e fb 79 d7 bf 68 f7 c3 3e
       -1.2387539 0.24126594 -1.68341 0.38274693
0000b0 7a e6 2f bb 2b ce 3e 3e 44 ec 76 bf 14 59 96 bf
       -0.0026840256 0.18633334 -0.9645426 -1.1745934
0000c0 6b 7f e6 be 26 38 19 bf a2 7a cb bf 91 72 dc ba
       -0.45019087 -0.598513 -1.58968 -0.0016818811
0000d0 52 b0 12 3f 2d 14 5a 3e 62 b1 ae bf 8a a0 9d 3e
       0.57300293 0.21296759 -1.3647883 0.30786544
0000e0 cf ef 05 bf 39 37 54 bf f8 0b a0 3e 69 1b 81 3e
       -0.52319044 -0.82896763 0.3125913 0.25216225
0000f0 3b 54 d1 3e 63 0a ec 3e 3b 55 49 3e bc 67 51 bf
       0.40884575 0.46101674 0.19661419 -0.8179891
