log/GC_SAC/maze3Env/20210721-1116/GC_SAC_HER_actor.pth (torch, 24159 bytes, 6 tensors)

net.0.weight f4 [64, 13]
-0.049054664 -0.21142784 -0.15312701 -0.6644314 -0.3481995 0.19137004 -0.3865861 -0.5547163
0.31876615 1.0160285 0.3479508 -0.14519943 -0.27677795 0.26325342 -0.2943888 -0.10836662
-0.01960801 -0.14462605 0.0031621754 0.31076527 -0.30382895 0.20041792 -1.0109804 -0.11595649
-0.46913835 -0.17126581 -0.1454901 -0.012419895 -0.14129795 -0.8388099 -0.19975165 0.20551452
-0.13227251 -0.31316715 0.07265022 -0.29806346 0.41097555 0.31220055 -0.1978045 0.12964419
0.055031236 -0.101955235 0.09002045 -0.039136164 0.10654524 -0.60337865 -0.35064074 -0.47457218
0.9030953 -0.2652745 -0.18496542 0.054874808 -0.19119284 -0.051438153 0.090024024 -0.11854436
-0.12819895 0.27618042 0.14237279 -0.1696253 -0.008064662 0.15544964 -0.11276808 -0.0163828
0.037181765 -0.5260214 -0.3720747 -0.052732706 -0.34696 -0.43910202 -0.13797522 -0.39653265
0.11683816 0.32225582 -0.111196555 0.4881418 0.31131455 0.1451217 -0.12970358 -0.23753801
-0.05185859 -0.10150044 -0.097677 -0.07955426 0.11982248 -0.106630325 -0.1903381 -0.039410558
-0.11297122 -0.25873107 -0.1525389 0.33146963 -0.32627758 0.19064817 -0.033019673 0.25877452
0.27227095 -0.15536548 -0.7793974 0.12629898 -0.28922373 0.11635536 0.23178008 -0.02083069
-0.23613155 0.14533322 -0.15143538 -0.06933271 0.2274974 0.044609964 -0.7928057 0.16755229
0.09125016 0.65121514 -0.47205538 0.42603743 -0.120648265 -0.102512024 -0.0758641 0.09978235
0.12169048 -0.52938515 -0.19814587 -0.012653023 -1.1183685 -0.29052624 0.58707637 0.5154677
0.5429512 0.09664762 -0.0044998433 -0.020812752 -0.062990576 0.026111512 0.017849728 0.13293707
0.029770106 -1.1526513 0.49395597 0.5943313 -0.15257911 0.62827575 0.08607942 -0.38023478
0.2902361 0.038033336 -0.27646384 -0.25018653 -0.23670122 -0.1641145 0.47201565 -0.98475045
0.65027595 -0.6092153 0.11954761 0.18055415 -0.29445696 0.009538246 0.06975213 -0.79909664
-0.4746335 -0.26946616 -0.18572295 0.81233793 0.8172871 -2.0039742 -0.38213187 -0.19010492
0.051610112 -0.6244771 -0.03150122 -0.027636126 -0.186572 -0.16243766 -0.101732954 -0.002984472
0.25940755 0.2711846 -0.09311817 0.5056512 -0.5290618 0.06872484 -0.016538188 -0.20192356
0.01500392 0.58691317 -0.34433752 0.22640392 -0.62204444 0.029195946 0.8739511 0.24823822
-0.13848017 -0.295537 -0.03619474 0.20074928 -0.03845078 0.23437485 -0.042412788 -0.22439054
-0.04816155 -1.4576515 -0.7804128 -0.42234108 1.1128083 0.24059306 0.17781462 -0.0986577
0.1239389 -0.09908491 0.069470406 -0.088926755 -0.31963128 0.19636902 0.2722776 0.09713522
-0.7926187 -0.6626998 0.43960652 0.3281389 0.039230227 -0.52545816 0.01430645 -0.2729754
0.68252414 -0.0562595 0.2666447 0.17228143 0.66115576 -0.5727148 0.07348665 0.06688838
0.47820625 0.0995543 0.04588076 0.06949201 0.27696684 0.19859888 -0.08531978 0.21372527
0.15313219 -0.40210494 -0.12526914 0.488609 0.42139873 0.11893955 -0.19006151 0.06652037
-0.1220899 0.17287749 -0.11839151 -0.0813407 0.14409456 -0.20944008 0.79246897 0.1616161
00000000: 8bed 48bd 8a80 58be 54cd 1cbe 2d18 2abf
00000010: 3447 b2be 82f6 433e 9dee c5be e301 0ebf
00000020: 5135 a33e 390d 823f 9b26 b23e 29af 14be
00000030: d7b5 8dbe 27c9 863e 21ba 96be 52ef ddbd
00000040: faa0 a0bc da18 14be 803c 4f3b a01c 9f3e
00000050: 788f 9bbe 5b3a 4d3e ce67 81bf 997a edbd
00000060: e732 f0be 4e60 2fbe 5bfb 14be d17c 4bbc
00000070: 69b0 10be 3fbc 56bf b28b 4cbe 6672 523e
00000080: 7272 07be 7257 a0be a3c9 943d c69b 98be
00000090: 636b d23e c0d8 9f3e 438d 4abe 72c1 043e
000000a0: 6f68 613d e8cd d0bd a45c b83d 3e4d 20bd
000000b0: 6434 da3d 0677 1abf 2f87 b3be 20fb f2be
000000c0: 4131 673f 0fd2 87be 9367 3dbe 68c4 603d
000000d0: 0ec8 43be d0b0 52bd 845e b83d 63c7 f2bd
000000e0: 9646 03be 8567 8d3e 2cca 113e 41b2 2dbe
000000f0: a521 04bc 312e 1f3e f3f2 e6bd 3935 86bc
00000100: e84b 183d 57a9 06bf 9380 bebe 40fe 57bd
00000110: bea4 b1be fbd1 e0be 6049 0dbe 5406 cbbe
00000120: d848 ef3d b7fe a43e 05bb e3bd b9ed f93e
00000130: 9f64 9f3e c89a 143e 04d1 04be 2a3d 73be
00000140: ac69 54bd 76df cfbd e10a c8bd 58ed a2bd
00000150: 7d65 f53d 0061 dabd fee7 42be f76c 21bd
00000160: 745d e7bd 6678 84be 2833 1cbe 63b6 a93e
00000170: db0d a7be 4639 433e a33f 07bd 187e 843e
00000180: 1967 8b3e 2118 1fbe 9786 47bf 8554 013e
00000190: 2215 94be b84b ee3d c257 6d3e 20a5 aabc
000001a0: 78cc 71be 3bd2 143e e011 1bbe 4ffe 8dbd
000001b0: 14f5 683e f0b8 363d 50f5 4abf d492 2b3e
000001c0: 5de1 ba3d 09b6 263f 3eb1 f1be 9421 da3e
000001d0: 7016 f7bd d3f1 d1bd a35e 9bbd b05a cc3d
000001e0: dc38 f93d c985 07bf c0e6 4abe a04e 4fbc
000001f0: b326 8fbf dbbf 94be a34a 163f b1f5 033f
00000200: dafe 0a3f 30ef c53d 6c73 93bb 817f aabc
00000210: 3401 81bd cfe7 d53c 9839 923c a820 083e
00000220: 70e0 f33c 148a 93bf cce7 fc3e 1926 183f
00000230: b33d 1cbe aed6 203f 684a b03d 22ae c2be
00000240: d399 943e d8c8 1b3d ab8c 8dbe 7318 80be
00000250: ce61 72be a20d 28be 09ac f13e 9b18 7cbf
00000260: 7c78 263f 89f5 1bbf 61d5 f43d 30e3 383e
00000270: 10c3 96be 4e46 1c3c 34da 8e3d 9991 4cbf
00000280: 2a03 f3be 78f7 89be 282e 3ebe 61f5 4f3f
00000290: ba39 513f 1d41 00c0 caa6 c3be ddaa 42be
000002a0: 2065 533d bbdd 1fbf 6c07 01bd 2865 e2bc
000002b0: bb0c 3fbe 0f56 26be 5e59 d0bd 2297 43bb
000002c0: 11d1 843e b5d8 8a3e bdb4 bebd 5b72 013f
000002d0: 9870 07bf 9cbf 8c3d 187b 87bc 0dc5 4ebe
000002e0: 00d3 753c f13f 163f 024d b0be 6ed6 673e
000002f0: 4e3e 1fbf 562c ef3c 42bb 5f3f 2932 7e3e
00000300: bfcd 0dbe a050 97be f040 14bd 3891 4d3e
00000310: 917e 1dbd f6ff 6f3e 08b9 2dbd a2c6 65be
00000320: 0c45 45bd 5394 babf 22c9 47bf 173d d8be
00000330: 8170 8e3f 075e 763e 0915 363e 0c0d cabd
00000340: aed3 fd3d 07ed cabd 8046 8e3d 3b1f b6bd
00000350: b6a6 a3be f614 493e f867 8b3e d5ee c63d
00000360: 0fe9 4abf b2a6 29bf 1b14 e13e d201 a83e
00000370: e0af 203d 6d84 06bf 9a65 6a3c 6ec3 8bbe
00000380: e7b9 2e3f 5d70 66bd a785 883e 8b6a 303e
00000390: 8141 293f 709d 12bf 2b80 963d c6fc 883d
000003a0: 73d7 f43e 20e3 cb3d 77ed 3b3d d451 8e3d
000003b0: 99ce 8d3e 815d 4b3e 23bc aebd ccda 5a3e
000003c0: afce 1c3e b3e0 cdbe 8e46 00be f52a fa3e
000003d0: 93c1 d73e 9496 f33d 7c9f 42be d53b 883d
000003e0: 450a fabd cc06 313e 3f77 f2bd f495 a6bd
000003f0: 868d 133e 7677 56be 3fdf 4a3f b17e 253e

net.0.bias f4 [64]
0.42359287 0.19860348 -0.32869804 -0.27132484 -0.056216236 -0.30320537 0.050552614 0.212602
-0.18973331 -0.20644127 0.24773341 -0.35583138 0.20483705 0.34397635 0.42329192 -0.14459473
-0.37408146 -0.026466407 -0.18772137 0.21014428 0.29215226 -0.5365901 -0.04666474 -0.3182148
-0.2982825 0.2789825 0.6138343 0.43840495 -0.15303487 -0.45323974 0.10026795 0.16443925
-0.1263711 0.6105171 0.23537235 -0.13196567 -0.42154956 0.4137501 -0.2774774 -0.34497085
-0.30871657 -0.114486225 -0.07682633 -0.1906372 -0.02762026 -0.21299313 -0.056545448 0.045891672
-0.12115 0.34727812 0.17330635 -0.18216573 -0.20118946 0.26589048 -0.31964707 -0.27372068
-0.23925005 -0.3476101 -0.25651258 0.29425612 0.3520351 -0.3973881 0.0013446357 -0.47248983
00000000: 2ae1 d83e b65e 4b3e 1c4b a8be 17eb 8abe
00000010: ff42 66bd bc3d 9bbe 4210 4f3d 57b4 593e
00000020: 7349 42be 5765 53be d4ad 7d3e 882f b6be
00000030: cec0 513e ab1d b03e b8b9 d83e a410 14be
00000040: 9b87 bfbe 14d0 d8bc 083a 40be 1030 573e
00000050: fb94 953e f85d 09bf 8723 3fbd 0ded a2be
00000060: 7cb8 98be cbd6 8e3e 3f24 1d3f 9d76 e03e
00000070: 2cb5 1cbe 0a0f e8be 4859 cd3d c362 283e
00000080: 6d67 01be d94a 1c3f 7305 713e 0222 07be
00000090: 58d5 d7be 0ed7 d33e 8511 8ebe 05a0 b0be
000000a0: 1910 9ebe c177 eabd 1f57 9dbd 6636 43be
000000b0: e243 e2bc df1a 5abe 339c 67bd e8f8 3b3d
000000c0: 7e1d f8bd 70ce b13e 3877 313e a789 3abe
000000d0: 9c04 4ebe cc22 883e c8a8 a3be 1e25 8cbe
000000e0: f7fd 74be f3f9 b1be 9e55 83be bda8 963e
000000f0: f23d b43e 7476 cbbe 7d3e b03a 30ea f1be

net.2.weight f4 [64, 64]
-0.094893366 -0.11870616 0.03509677 -0.14086457 -0.08219415 0.063200094 0.0009340048 -0.016387118
0.08444925 0.06100207 -0.18817808 -0.009069326 -0.13418584 0.03281389 -0.0070186355 0.0991608
-0.07974547 0.046521146 -0.20820099 -0.09250595 -0.11534654 -0.072206706 0.07589572 -0.07862676
0.03638305 -0.021164741 0.05087654 0.052335966 -0.0031984034 -0.06365873 0.0505477 0.07478948
0.11364058 -0.100237355 -0.07639276 -0.0198704 0.005382037 0.0888521 -0.07351017 0.01723279
0.06226939 -0.13003682 -0.023704013 -0.081439316 0.07784901 -0.042387415 -0.009686799 -0.050464656
-0.15367614 -0.15872091 -0.13362764 -0.15877658 0.05311261 -0.122155175 -0.0588209 0.12623517
0.0953569 -0.18883951 -0.20175585 -0.17273632 0.07032446 -0.020787653 0.03089029 0.06547862
-0.10734921 0.05374929 -0.017732507 -0.052369967 0.015425339 -0.001544123 -0.043789268 0.041006763
0.033518817 -0.06381719 0.0077091036 0.052826222 -0.027748333 -0.022655824 -0.011560097 -0.15225413
-0.06930763 -0.16811107 -0.15967177 -0.17122212 -0.12411959 0.06460357 0.024799664 -0.10704009
0.032486346 -0.16857941 0.07534896 -0.027059348 -0.06112812 -0.14993006 0.017477315 0.014348932
0.04733561 0.01916474 -0.011340838 0.036268007 -0.15252012 0.018151766 0.11166297 -0.09224039
0.10006136 -0.050187252 -0.05053706 -0.14748253 -0.12237606 -0.13848741 -0.050867446 0.027814798
-0.13604492 -0.02700415 0.050774403 -0.051795613 -0.04180906 -0.114429936 -0.036094718 -0.045026984
0.024318278 -0.110729896 -0.15494607 -0.16996306 -0.053602867 -0.041542806 -0.084119946 -0.19393201
-0.08784976 -0.41320816 -0.15233333 -0.16931131 -0.035843328 -0.5185836 0.11860143 -0.004581079
0.17285417 -0.26435342 -0.45995688 0.13247758 -0.51454675 -0.12499671 0.4448948 -0.23850591
0.015699614 0.1230739 0.13447125 0.10242391 -0.17681906 -0.80320174 0.16313374 -0.19094981
0.07763346 -0.24800877 0.20013241 0.14820088 -0.065149434 -0.13480997 0.18483585 -0.048812874
-0.09129627 0.2944428 0.05541116 -0.008929395 -0.09729815 0.3519941 0.024820894 -0.4558421
-0.023602858 0.056465574 0.06453578 -0.0067719202 0.31800294 -0.13839096 -0.0076214583 -0.17407534
-0.8019698 -0.029872883 -0.6358777 0.32012346 -0.40096533 -0.22161178 -0.06785263 -0.22390313
-0.035986602 -0.25542942 -0.3414875 0.23396274 0.16563752 -0.057111625 0.17653976 0.0073532076
-0.14864962 -0.12461623 0.5021795 0.008880586 0.08364756 0.23612171 -0.027981743 -0.14082056
0.35976315 -0.21731658 -0.026640575 0.4399015 0.2420342 -0.061024446 0.030145625 0.3823863
0.18468761 -0.55293447 -0.18393782 -1.2234997 -0.43615377 0.41942376 0.06969341 -0.61796325
0.3267867 0.39966378 -0.44433928 -0.22656463 0.16579355 0.1371764 0.23249784 -0.42225528
-0.13318565 -0.32884377 -0.46245012 0.23699914 -0.56814176 -2.474756 -0.098276146 -0.73438746
0.1330959 0.08140998 -0.6670194 0.29322383 0.37123945 -0.22154179 -0.23729345 0.051949836
0.104229465 -0.09264763 0.647118 0.107768886 0.1067964 0.21703629 0.017832493 -0.022704013
0.08788769 -0.09660901 -0.13088778 0.036595237 -0.34853992 -0.59307504 -0.1611813 -0.36245647
00000000: 7457 c2bd 371c f3bd a1c1 0f3d cd3e 10be
00000010: 6855 a8bd 0d6f 813d 00d8 743a 473e 86bc
00000020: baf3 ac3d 4edd 793d c1b1 40be 8397 14bc
00000030: 0368 09be dc67 063d 95fc e5bb d114 cb3d
00000040: 9851 a3bd f58c 3e3d a432 55be c273 bdbd
00000050: cf3a ecbd 1ce1 93bd 376f 9b3d 1107 a1bd
00000060: 6506 153d ae61 adbc eb63 503d 3d5e 563d
00000070: 4e9c 51bb 825f 82bd 1b0b 4f3d 3a2b 993d
00000080: 64bc e83d 3e49 cdbd cf73 9cbd 40c7 a2bc
00000090: cc5b b03b 17f8 b53d 808c 96bd c82b 8d3c
000000a0: 300e 7f3d 5f28 05be eb2e c2bc a8c9 a6bd
000000b0: 4d6f 9f3d 6d9e 2dbd 61b5 1ebc 07b4 4ebd
000000c0: 475d 1dbe bc87 22be afd5 08be 5496 22be
000000d0: 9c8c 593d 7e2c fabd 2fee 70bd cb43 013e
000000e0: 7a4a c33d 255f 41be 1699 4ebe cae1 30be
000000f0: 4506 903d de4a aabc a20d fd3c a819 863d
00000100: e7d9 dbbd 3728 5c3d c343 91bc e481 56bd
00000110: 90ba 7c3c 2c64 caba 605c 33bd b5f6 273d
00000120: 074b 093d 96b2 82bd a69c fc3b 4f60 583d
00000130: 7950 e3bc b598 b9bc 9066 3dbc 82e8 1bbe
00000140: 29f1 8dbd 4f25 2cbe ff80 23be da54 2fbe
00000150: 6932 febd e04e 843d aa28 cb3c d637 dbbd
00000160: 6710 053d 15a0 2cbe 8e50 9a3d 91ab ddbc
00000170: 7b61 7abd 4487 19be 962c 8f3c c817 6b3c
00000180: fce2 413d 5fff 9c3c ecce 39bc c38d 143d
00000190: 3c2e 1cbe 03b3 943c 8eaf e43d 88e8 bcbd
000001a0: f8ec cc3d 2691 4dbd f3ff 4ebd a905 17be
000001b0: 4da0 fabd a5cf 0dbe 625a 50bd dcdb e33c
000001c0: 5c4f 0bbe cf37 ddbc d2f8 4f3d a327 54bd
000001d0: fa3f 2bbd 3e5a eabd 0ed8 13bd 376e 38bd
000001e0: 2037 c73c 5bc6 e2bd 2faa 1ebe cc0a 2ebe
000001f0: ae8e 5bbd ca28 2abd 1447 acbd 1d96 46be
00000200: 93ea b3bd 0590 d3be 45fd 1bbe f25f 2dbe
00000210: 74d0 12bd e5c1 04bf 4ee5 f23d e01c 96bb
00000220: af00 313e 5559 87be 787f ebbe 34a8 073e
00000230: 56b9 03bf 46fe ffbd 40c9 e33e e53a 74be
00000240: 7a9c 803c 2b0e fc3d d5b2 093e a0c3 d13d
00000250: 0e10 35be a19e 4dbf 880c 273e 5988 43be
00000260: 4bfe 9e3d 03f6 7dbe 83ef 4c3e f9c1 173e
00000270: 116d 85bd a00b 0abe 9c45 3d3e 02f0 47bd
00000280: 8af9 babd 35c1 963e d0f6 623d 994c 12bc
00000290: 4144 c7bd 9238 b43e 3055 cb3c 2364 e9be
000002a0: c85a c1bc 7248 673d 562b 843d fce6 ddbb
000002b0: 48d1 a23e 5cb6 0dbe 6dbd f9bb ce40 32be
000002c0: e54d 4dbf fab7 f4bc e2c8 22bf 39e7 a33e
000002d0: 544b cdbe 33ee 62be 52f6 8abd dd46 65be
000002e0: b066 13bd a5c7 82be 73d7 aebe ee93 6f3e
000002f0: e29c 293e e1ed 69bd d7c6 343e 2df3 f03b
00000300: 9b37 18be cb36 ffbd d68e 003f e17f 113c
00000310: 694f ab3d e4c9 713e f839 e5bc 4433 10be
00000320: e032 b83e 3d88 5ebe 563d dabc c53a e13e
00000330: d0d7 773e c5f4 79bd f5f3 f63c 23c8 c33e
00000340: c01e 3d3e 1d8d 0dbf 325a 3cbe a39b 9cbf
00000350: 8c4f dfbe b6be d63e 6bbb 8e3d d732 1ebf
00000360: 9650 a73e bba0 cc3e 7080 e3be 8f00 68be
00000370: c9c5 293e f877 0c3e ea13 6e3e d831 d8be
00000380: d261 08be 365e a8be 43c6 ecbe e7af 723e
00000390: bd71 11bf 6762 1ec0 0145 c9bd d100 3cbf
000003a0: 4b4a 083e 47ba a63d c9c1 2abf 6f21 963e
000003b0: 1913 be3e dadb 62be 0efd 72be 5ac9 543d
000003c0: 4276 d53d 0abe bdbd 86a9 253f efb5 dc3d
000003d0: 12b8 da3d c33e 5e3e 7315 923c c4fd b9bc
000003e0: 76fe b33d f2da c5bd 7207 06be e3e4 153d
000003f0: d373 b2be c4d3 17bf b60c 25be e593 b9be

net.2.bias f4 [64]
-0.014997257 -0.052287474 0.26169795 -0.2582818 0.18413018 -0.06567927 0.13924134 0.04283162
-0.07217676 0.35170326 -0.2418825 -0.15595372 0.32883254 -0.048259526 0.04970911 -0.07353889
-0.30966675 -0.038158398 -0.061597794 -0.07126859 -0.17984894 0.08551858 0.18429208 -0.10468904
0.015133502 0.71638954 0.31736436 -0.15153462 0.0040581697 0.016046235 -0.0044435174 -0.04206413
-0.14237027 -0.061130475 0.025592104 -0.1376556 0.27548316 0.004615167 0.10088601 0.1271254
-0.529588 0.30836454 -0.011451736 -0.15446694 0.3508932 -0.15648137 0.026777958 0.21882485
0.2248412 -0.26150075 0.25857967 0.6048789 -0.31360355 0.08378858 -0.045296803 -0.068255045
-0.078120105 0.2950248 -0.15623178 -0.11302014 -0.27291435 -0.61182386 -0.094272986 0.0043011485
00000000: 0eb7 75bc 642b 56bd 46fd 853e 833d 84be
00000010: 9f8c 3c3e da82 86bd 4895 0e3e 3570 2f3d
00000020: 69d1 93bd 7312 b43e 0cb0 77be 55b2 1fbe
00000030: bd5c a83e c8ab 45bd c89b 4b3d 8f9b 96bd
00000040: a48c 9ebe fb4b 1cbd f84d 7cbd 44f5 91bd
00000050: 522a 38be 5e24 af3d 10b7 3c3e 3567 d6bd
00000060: 82f2 773c 4e65 373f 957d a23e e42b 1bbe
00000070: 65fa 843b 6573 833c ed9a 91bb 704b 2cbd
00000080: 83c9 11be f363 7abd 88a6 d13c 97f5 0cbe
00000090: 210c 8d3e d43a 973b 539d ce3d 292d 023e
000000a0: 1493 07bf f5e1 9d3e 10a0 3bbc 952c 1ebe
000000b0: 46a8 b33e a73c 20be 735d db3c 9f13 603e
000000c0: c63c 663e 6de3 85be 8e64 843e 58d9 1a3f
000000d0: a590 a0be 5999 ab3d 2489 39bd 4dc9 8bbd
000000e0: 6ffd 9fbd 7e0d 973e 39fb 1fbe 1a77 e7bd
000000f0: 6ebb 8bbe 7da0 1cbf 3212 c1bd a6f0 8c3b

net.4.weight f4 [6, 64]
-0.043397903 -0.027245335 0.18200967 0.41724303 0.4441636 -0.16285774 -0.4163527 -0.04179716
0.018965973 -0.17026213 -0.22272643 0.09994493 0.12451235 -0.0013999853 0.20429839 -0.04606714
0.5070985 0.03378137 -0.04540837 -0.018697232 -0.060643483 -0.009933056 -0.0857765 0.096063256
0.032125056 -0.35083473 0.37818566 -0.08042233 5.9137277e-05 0.15708919 0.032307032 0.08023554
-0.06359617 0.06527384 -0.39936987 -0.017269416 -0.34446862 -0.5604076 -0.02414298 0.57371867
-0.25907478 0.58970803 -0.202556 -0.054851327 -0.128205 -0.046167232 -0.42334205 0.057172384
0.44629613 0.95089716 0.23966898 -0.33756006 -0.19593771 -0.045329243 0.0037826141 -0.095386155
-0.2738919 -0.44990236 0.0074890004 0.023730658 0.57580423 0.1469486 0.28405377 -0.09834461
-0.02131739 -0.09214215 -0.29796898 0.46590513 0.6741392 -0.2888075 -0.5087297 -0.55909866
0.06398031 -0.123502165 -0.21114255 0.03278719 0.24252573 -0.011585562 -0.5523612 -0.022845218
0.09851037 0.03990817 0.023302075 -0.0023212163 -0.015912639 -0.1255787 0.10245805 0.0036985592
-0.071723856 0.2688204 -0.067189254 -0.060207486 -0.030639598 0.035516895 -0.06079456 0.10310477
-0.057217203 -0.025185648 -0.075651504 0.0709277 -0.14636089 -0.23072922 0.10121071 -0.13694085
-0.3971211 0.13343222 -0.18607809 0.04916412 0.81541646 0.08044695 0.22025698 -0.22596163
-0.47131553 0.28170756 0.2807783 0.32790583 -0.24991955 0.17296948 -0.0068257432 0.035411786
-0.0052940175 0.43858993 -0.19792846 0.026865516 -0.65131485 -0.54784954 0.4842916 -0.051523115
-0.09569778 0.07013028 -0.0829063 -0.32673317 0.21430852 -0.59409094 -0.21478327 0.14484689
-0.004804599 0.123885185 0.30853432 0.032068923 -0.18847951 -0.017597688 0.5290906 0.03610428
-0.5265361 0.08212836 0.08363489 -0.0254674 0.028430056 -0.5183297 -0.3566811 0.08743167
-0.003259892 0.34488896 0.3634078 0.12375685 0.0038866485 -0.45264867 -0.019097207 -0.03582858
-0.057034064 -0.0027689212 -0.30322438 0.105119094 -0.60684204 0.50381875 -0.40083617 -0.11857804
-0.12944038 0.5639806 0.16461895 -0.009077157 -0.24417767 -0.07623448 -0.36784267 0.2940715
0.24817383 -0.92194605 0.35996792 -0.12614383 -0.098883756 -0.17568403 -0.0064271535 -0.056031868
-0.6152989 0.23682693 -0.146236 -0.11133879 0.2895461 -0.111786105 -0.28900248 0.2426452
0.12132069 0.14145048 -0.09777656 0.029797925 -0.12509425 -0.03549872 -0.03177646 0.19399872
-0.07743668 -0.14713262 -0.093981 -0.061235815 -0.21134807 -0.010061224 -0.24731623 -0.05339122
-0.12782598 0.053349994 0.038870815 0.0361511 0.008462246 0.030827513 0.03640022 0.02163345
0.15098186 0.017291177 0.0414925 -0.06998535 -0.057409804 0.060555574 -0.022578161 -0.013229828
-0.089172915 0.033514995 0.0023859155 0.04187051 -0.52929705 -0.044152312 -0.062150218 0.15205695
-0.023067828 -0.065963246 0.050308075 0.038920127 -0.39199162 0.038155235 -0.042495202 -0.13771054
-0.05779115 0.13038404 0.02804301 -0.022953548 0.02952055 -0.16290887 -0.05293166 -0.055591542
0.032052375 -0.028191203 -0.16899744 0.060610924 -0.036443513 -0.017043075 0.021894522 -0.23730095
00000000: 00c2 31bd 9c31 dfbc be60 3a3e e1a0 d53e
00000010: 6969 e33e 2ec4 26be 2e2c d5be 8033 2bbd
00000020: 875e 9b3c 3259 2ebe 6612 64be edaf cc3d
00000030: 5500 ff3d b67f b7ba 9933 513e e6b0 3cbd
00000040: 35d1 013f 555e 0a3d 21fe 39bd f02a 99bc
00000050: 4d65 78bd 42be 22bc 97ab afbd d0bc c43d
00000060: 9095 033d 9ca0 b3be 8da1 c13e 76b4 a4bd
00000070: 2b0a 7838 fddb 203e 6154 043d 8852 a43d
00000080: b53e 82bd 4bae 853d 357a ccbe 9778 8dbc
00000090: 315e b0be df76 0fbf 80c7 c5bc 3adf 123f
000000a0: 73a5 84be 1bf7 163f d76a 4fbe c9ab 60bd
000000b0: 2c48 03be da19 3dbd 4ac0 d8be 972d 6a3d
000000c0: ed80 e43e ff6d 733f c96b 753e acd4 acbe
000000d0: e5a3 48be 28ab 39bd bce5 773b d159 c3bd
000000e0: 8f3b 8cbe 9a59 e6be 4a66 f53b cc66 c23c
000000f0: e867 133f b279 163e 7f6f 913e e668 c9bd
00000100: cfa1 aebc 06b5 bcbd 648f 98be 1e8b ee3e
00000110: 6394 2c3f 94de 93be 1c3c 02bf 1721 0fbf
00000120: 1c08 833d b4ee fcbd c135 58be dc4b 063d
00000130: aa58 783e 5ed1 3dbc 8b67 0dbf e525 bbbc
00000140: cebf c93d c076 233d fee3 be3c 8c1f 18bb
00000150: 395b 82bc b497 00be 87d5 d13d 8763 723b
00000160: f5e3 92bd d4a2 893e 859a 89bd 209c 76bd
00000170: e5ff fabc 2a7a 113d b703 79bd 9828 d33d
00000180: 965c 6abd 2252 cebc 2def 9abd 8b42 913d
00000190: a1df 15be 4844 6cbe 9047 cf3d 393a 0cbe
000001a0: 7553 cbbe 75a2 083e 418b 3ebe 5160 493d
000001b0: 22bf 503f 5fc1 a43d 0c8b 613e 7c62 67be
000001c0: 4550 f1be f93b 903e 2cc2 8f3e 46e3 a73e
000001d0: e9ea 7fbe e91e 313e 7caa dfbb f30b 113d
000001e0: 7079 adbb dc8e e03e c2ad 4abe 1215 dc3c
000001f0: 92bc 26bf de3f 0cbf 12f5 f73e e709 53bd
00000200: 33fd c3bd 77a0 8f3d c7ca a9bd 9249 a7be
00000210: b173 5b3e 5816 18bf 25f0 5bbe be52 143e
00000220: e66f 9dbb 84b7 fd3d 36f8 9d3e b45a 033d
00000230: c600 41be 0729 90bc 7b72 073f 15e2 133d
00000240: 12cb 06bf ea32 a83d c548 ab3d 02a1 d0bc
00000250: 26e6 e83c 41b1 04bf e89e b6be 600f b33d
00000260: eaa3 55bb 4995 b03e 9610 ba3e 3b74 fd3d
00000270: 24b7 7e3b 91c1 e7be bf71 9cbc fdc0 12bd
00000280: 8d9c 69bd ca76 35bb 3a40 9bbe ae48 d73d
00000290: 005a 1bbf 44fa 003f 663a cdbe 0bd9 f2bd
000002a0: 058c 04be 0861 103f df91 283e 5bb8 14bc
000002b0: b609 7abe d320 9cbd e055 bcbe 8a90 963e
000002c0: 4821 7e3e a804 6cbf b74d b83e d92b 01be
000002d0: 9183 cabd 84e6 33be df9a d2bb ac81 65bd
000002e0: 3b84 1dbf c282 723e e4be 15be 9705 e4bd
000002f0: 633f 943e 1df0 e4bd 22f8 93be fc77 783e
00000300: fb76 f83d 65d8 103e 143f c8bd c71a f43c
00000310: b518 00be 1b67 11bd 0928 02bd 9aa7 463e
00000320: 1f97 9ebd efa9 16be 1c79 c0bd 68d2 7abd
00000330: a16b 58be d5d7 24bc 7740 7dbe c0b0 5abd
00000340: d0e4 02be 8685 5a3d 0137 1f3d 2d13 143d
00000350: 3ba5 0a3c fb89 fc3c 6618 153d a238 b13c
00000360: fd9a 1a3e 3aa6 8d3c 0af4 293d 7b54 8fbd
00000370: 8b26 6bbd 1f09 783d d6f5 b8bc ecc1 58bc
00000380: 4aa0 b6bd 0547 093d 055d 1c3b 6980 2b3d
00000390: 0380 07bf 0ed9 34bd 3a91 7ebd d1b4 1b3e
000003a0: bef8 bcbc bd17 87bd d70f 4e3d b66a 1f3d
000003b0: 20b3 c8be aa48 1c3d 730f 2ebd fe03 0dbe
000003c0: 6ab6 6cbd 6583 053e 74ba e53c 1409 bcbc
000003d0: 15d5 f13c 95d1 26be dece 58bd f5b3 63bd
000003e0: 5a49 033d 3df1 e6bc aa0d 2dbe 2943 783d
000003f0: cb45 15bd eb9d 8bbc 245c b33c 05ff 72be

net.4.bias f4 [6]
0.054263588 0.053684786 0.07932154 -0.3284023 -0.10737723 -0.108405456
00000000: 7f43 5e3d 94e4 5b3d 5573 a23d 5924 a8be
00000010: 98e8 dbbd ae03 debd
