log/GC_SAC/maze3Env/20210804-0852/GC_SAC_HER_actor.pth (torch, 26207 bytes, 6 tensors)

net.0.weight f4 [64, 21]
0	0xbf2349f2	-0.63784707
1	0xbdfb7cf0	-0.12279689
2	0xbe0c752e	-0.13716576
3	0xbede3dfb	-0.43406662
4	0x3e04f797	0.12985073
5	0x3dec8896	0.11549489
6	0x3e0d6f79	0.13812055
7	0x3d808ff0	0.06277454
8	0xba33f7e7	-0.00068652484
9	0x3d982078	0.07428068
10	0xbdc9fa97	-0.09862249
11	0x3e49df1e	0.19714019
12	0x3d9be508	0.076120436
13	0xbe1045a5	-0.14089067
14	0x3ddd04d9	0.1079194
15	0x3ddba9dd	0.10725758
16	0xbdd60118	-0.10449427
17	0x3d8bb7ae	0.068221435
18	0x3db9d8c1	0.09074546
19	0x3e9272a6	0.28603095
20	0x3e45878b	0.19289987
21	0x3cfafab4	0.030637123
22	0xbe5e3569	-0.21700062
23	0x3ce657a8	0.02811797
24	0x3e333bae	0.17503235
25	0xbcc89c22	-0.024488512
26	0xbdeebfb6	-0.1165766
27	0x3e42d704	0.19027334
28	0x3e30bf5e	0.17260501
29	0xbe261065	-0.16217192
30	0xbe5d46bc	-0.21609014
31	0xbc8bd601	-0.017069818
32	0xbdf6059b	-0.12012788
33	0x3dfe86ae	0.12428032
34	0xbdc71386	-0.09720521
35	0x3e13d098	0.14435041
36	0xbe42de22	-0.1903005
37	0x3c2c9c5c	0.010535326
38	0xbc44dfd8	-0.012016259
39	0xbcf684b4	-0.030092575
40	0x3d9fbf9e	0.0780022
41	0xbdc36bbc	-0.09542033
42	0x3d1fad4d	0.038983632
43	0xbd569e37	-0.05239698
44	0x3e45d66d	0.19320078
45	0xbdc39276	-0.095494196
46	0xbca493fc	-0.020090096
47	0xbcc89e80	-0.024489641
48	0xbe416cbb	-0.18889134
49	0xbddc5c0e	-0.107597455
50	0xbdcdb542	-0.10044338
51	0xbcb0c193	-0.021576678
52	0x3e2107b4	0.15725595
53	0x3dec389c	0.11534235
54	0xbdcbab06	-0.099447295
55	0xbe5911a0	-0.2119813
56	0x3e34033c	0.17579359
57	0x3dda51b0	0.10660112
58	0xba08134b	-0.0005190863
59	0xbd2bc15c	-0.04193245
60	0xbe02a567	-0.12758408
61	0xbe24f676	-0.16109642
62	0xbd975696	-0.07389562
63	0xbd8d17ea	-0.06889327
64	0xbdec1527	-0.11527472
65	0xbbcd6980	-0.00626868
66	0x3de217fe	0.110397324
67	0x3d53768c	0.051626727
68	0x3e198dbf	0.14995478
69	0xbe3b92a8	-0.18317664
70	0xbd719404	-0.05897905
71	0xbe1dd486	-0.15413103
72	0xbe3f8d7b	-0.18706314
73	0x3cac9c18	0.021070525
74	0xbe15375e	-0.14571902
75	0xbc7e81a0	-0.015533835
76	0x3e3dd407	0.18537913
77	0xbe207ee9	-0.15673412
78	0xbb485c80	-0.0030572712
79	0xbd8f7540	-0.070047855
80	0x3e598907	0.21243678
81	0xbda37ada	-0.079824165
82	0x3e23a1ab	0.1597964
83	0xbde27700	-0.11057854
84	0x3dbb7a6a	0.09154208
85	0xbdfabe41	-0.12243319
86	0xbd8d6d18	-0.069055736
87	0x3d4494c4	0.047993436
88	0x3e41ce07	0.1892625
89	0x3e03f49d	0.12886281
90	0x3d54b6ec	0.05193226
91	0x3d5b6934	0.053567126
92	0x3e172d21	0.14763309
93	0xbd5334f0	-0.051564157
94	0xbe549503	-0.20759968
95	0x3cb7d450	0.022440106
96	0xbe5bfa0c	-0.21482104
97	0x3dd50ef6	0.10403244
98	0xbdd9c46d	-0.10633168
99	0x3d003bb8	0.031306952
100	0xbdc866cf	-0.09785234
101	0x3daaf5ca	0.08347662
102	0x3b28bb00	0.0025746226
103	0xbe4b13f5	-0.19831832
104	0x3d6fe8a4	0.058571473
105	0xbe35c6c1	-0.177516
106	0xbd750c60	-0.059826255
107	0x3c1e4400	0.009659767
108	0xbd9b9886	-0.07597451
109	0x3d1023e4	0.035190478
110	0x3e4bf77d	0.19918628
111	0xbdc6b5cc	-0.09702644
112	0xbd2f242c	-0.042759106
113	0xbc72a880	-0.014810681
114	0x3c87cae0	0.01657623
115	0xbe3ce1c2	-0.18445495
116	0xbdc69986	-0.09697251
117	0xbe0aa108	-0.13537991
118	0x3d885ece	0.066587076
119	0x3deab8e2	0.11461045
120	0x3ddc1582	0.1074629
121	0xbe2cc462	-0.16871789
122	0xbe52687d	-0.20547672
123	0x3d153894	0.03643091
124	0x3d8e773e	0.069563374
125	0xbd7e3b58	-0.062068313
126	0x3f1c7178	0.6111064
127	0x3dd1b431	0.10239447
128	0x3d9dae96	0.07699315
129	0xbe76fa66	-0.24118957
130	0xbe92c142	-0.2866307
131	0x3e537ac9	0.20652308
132	0xbd46c9ff	-0.048532482
133	0xbb6898eb	-0.0035491537
134	0x3dd1cbd7	0.102439575
135	0x3c4cd8ee	0.012502892
136	0x3dc0b759	0.09409971
137	0xbc1c1959	-0.009527528
138	0x3d9b7fc4	0.07592729
139	0xbe3b021f	-0.18262528
140	0x39f2a1bf	0.00046278347
141	0xbdac4d27	-0.08413153
142	0xbd97e1ac	-0.0741609
143	0xbe0d540d	-0.13801594
144	0xbefef38f	-0.49795195
145	0x3f43410f	0.76271147
146	0xbe3ae526	-0.18251476
147	0x3f14dd36	0.5815004
148	0x3f11bf63	0.5693266
149	0x3e5aeb3d	0.21378799
150	0xbbb2023b	-0.005432395
151	0x3eb08ab3	0.3448082
152	0x3a58fa00	0.0008276999
153	0x3df0bc76	0.11754696
154	0xbd5e32d7	-0.054247703
155	0xbe81f661	-0.25383285
156	0xbb86c624	-0.0041129757
157	0xbd22523d	-0.03962921
158	0xbda5384e	-0.0806738
159	0x3e10ed32	0.14152983
160	0xbe4bf65d	-0.19918199
161	0xbe7f1883	-0.24911694
162	0x3e27e06a	0.16394201
163	0xbe01e10a	-0.12683502
164	0x3dcca11a	0.09991665
165	0xbe80d90f	-0.25165603
166	0xbe818b94	-0.25301802
167	0xbd81a582	-0.06330396
168	0xbd9eba41	-0.07750369
169	0xbea78dac	-0.32725275
170	0x3d847c16	0.0646898
171	0xbedd6292	-0.43239266
172	0xbedcdbf5	-0.43136564
173	0x3d2bae4c	0.04191427
174	0x3e3673cc	0.1781761
175	0x3e522632	0.20522383
176	0xbe4166ed	-0.1888692
177	0xbdd7d643	-0.10538914
178	0x3e6fe226	0.23426113
179	0xbc871169	-0.016487794
180	0x3e5e7e3a	0.21727839
181	0xbda33d6e	-0.07970701
182	0x3d6ec921	0.05829728
183	0xbd1b3def	-0.03790086
184	0xbd3a6fe7	-0.045516875
185	0x3e0166ff	0.12636946
186	0xbcc5a723	-0.024127549
187	0x3e652191	0.22376086
188	0x3d5c6a9c	0.053812608
189	0xbeb160eb	-0.34644255
190	0x3e8f0a39	0.27937487
191	0xbdc2a2ac	-0.095036834
192	0xbd4082ae	-0.046999626
193	0xbdb4c35e	-0.08826326
194	0x3df1e16a	0.118105724
195	0x3e05c1c7	0.13062201
196	0x3dde9ca9	0.10869724
197	0x3d092ce6	0.033490084
198	0xbe7fd409	-0.24983229
199	0xbdb6a4d4	-0.08918157
200	0x3daa427e	0.08313464
201	0xbd78e570	-0.060765684
202	0xbc136af2	-0.008997666
203	0x3bd19ea8	0.006397087
204	0x3cb7102b	0.022346577
205	0x3df92a88	0.12166315
206	0x3dd39e0a	0.10332878
207	0xbf69a3c4	-0.9126551
208	0x3eb58c82	0.3545876
209	0xbe1191ba	-0.14215747
210	0xbf0a96da	-0.5413643
211	0x3f0c8e8e	0.5490502
212	0xbe2e702c	-0.17034978
213	0x3ee9b92f	0.45649096
214	0x3ed012c3	0.40639314
215	0xbe1b469a	-0.15163651
216	0xbe2af990	-0.16696763
217	0x3d13d676	0.036093198
218	0x3e32a0b2	0.17444113
219	0xbd22e61e	-0.039770238
220	0xbdb26765	-0.08711127
221	0x3e246de8	0.16057551
222	0xbe4e083b	-0.20120327
223	0x3d14c9dc	0.03632532
224	0x3cc78549	0.024355548
225	0xbc18d52d	-0.009328169
226	0x3e04db1d	0.1297421
227	0xbd8ce8e6	-0.06880359
228	0xbe487271	-0.19574906
229	0xbb7a1143	-0.0038157261
230	0x3e1d276f	0.15347074
231	0x3ea74420	0.32669163
232	0x3ee57afd	0.44820395
233	0xbcc250e8	-0.02372022
234	0x3ed03c45	0.40670982
235	0x3e8286cc	0.25493467
236	0xbd336914	-0.043801382
237	0xbe4c5460	-0.19954062
238	0xbd8fd012	-0.07022108
239	0x3e26faff	0.16306685
240	0xbdc79747	-0.09745651
241	0x3d9c42d9	0.07629938
242	0xbc74ba62	-0.014937015
243	0xbdd638c9	-0.1046005
244	0x3d92882d	0.0715488
245	0xbdd17f23	-0.102293275
246	0xbe444c4a	-0.19169727
247	0x3df3f55c	0.11912033
248	0x3d93e21d	0.07220862
249	0xbee96dea	-0.4559167
250	0x3ed845a0	0.4224062
251	0xbe30d1de	-0.17267558
252	0xbc97ae20	-0.018515646
253	0x3e096a3b	0.1341943
254	0xbe0d4952	-0.137975
255	0x3caa3ac8	0.020779982

net.0.bias f4 [64]
0	0xbd05099f	-0.03247988
1	0x3e495c7e	0.19664189
2	0x3e28c2aa	0.16480508
3	0x3c30c6b0	0.010789558
4	0x3e31ef09	0.17376341
5	0xbb8ba1a0	-0.0042612106
6	0x3e36520e	0.17804739
7	0xbe02f611	-0.1278918
8	0xbdd82aff	-0.10555076
9	0xbc93c2a4	-0.018037148
10	0xbe480b67	-0.195356
11	0xbd1b5d10	-0.03793055
12	0x3db3f3e6	0.08786754
13	0x3d1a60ec	0.03769009
14	0xbd62e718	-0.05539617
15	0x3d42a546	0.0475209
16	0xbe252024	-0.16125542
17	0x3d9d1d99	0.07671661
18	0xbd12e540	-0.03586316
19	0x3dc39e6a	0.095516995
20	0x3b9354cd	0.004496193
21	0x3dd8286b	0.10554584
22	0xbe5fdbfa	-0.21861258
23	0x3da3b55d	0.07993577
24	0xbdcdbb12	-0.100454465
25	0xbda87dce	-0.0822712
26	0xbd5bd288	-0.053667575
27	0xbe140251	-0.14454009
28	0xbe1a4199	-0.15064086
29	0xbcfbc088	-0.030731454
30	0xbe39db99	-0.18150176
31	0x3c8b3b0e	0.016995933
32	0xbc033613	-0.008008498
33	0xbd790618	-0.060796827
34	0xbe122d07	-0.14274989
35	0x3d101afc	0.035181984
36	0x3df7ad13	0.12093558
37	0x3e102a66	0.14078674
38	0x3d1ca235	0.03824063
39	0x3e6e9b67	0.23301469
40	0x3e126403	0.14295964
41	0xbdd5b48d	-0.10434828
42	0xbdfb1e51	-0.12261642
43	0x3e44ce2d	0.19219275
44	0x3df88d52	0.1213633
45	0x3e438f39	0.19097604
46	0x3dd9ff99	0.106444545
47	0xbe382291	-0.17981936
48	0x3d18f2cc	0.037340924
49	0xbd226a78	-0.039652318
50	0x3d4b4304	0.049624458
51	0x3dba7c26	0.09105711
52	0xbd530a9d	-0.051523793
53	0x3e17f4c9	0.14839472
54	0x3d891886	0.066941306
55	0xbe06ce3c	-0.1316461
56	0x3de50b37	0.1118378
57	0xbd7e3938	-0.062066287
58	0xbe37b4e5	-0.179401
59	0xbe2bc024	-0.16772515
60	0x3e7a8261	0.24463798
61	0xbdf3f316	-0.11911599
62	0xbdc6780e	-0.09690867
63	0xbd1c2924	-0.038125172

net.2.weight f4 [64, 64]
0	0xbe3406cb	-0.17580716
1	0xbda770d2	-0.08175816
2	0xbbcf83c0	-0.0063328445
3	0x3d6d7b94	0.05797918
4	0x3db15616	0.08658998
5	0xbd6c3354	-0.057666138
6	0x3e1f763e	0.1557245
7	0x3e012e37	0.12615286
8	0x3e09904f	0.13433956
9	0xbe72569b	-0.2366585
10	0xbd37173c	-0.044699892
11	0xbe02eb4a	-0.12785068
12	0xbd35ea34	-0.044412807
13	0xbed87364	-0.42275536
14	0xbda7efb0	-0.08200014
15	0x3c5a1711	0.0133111635
16	0x3d49c81e	0.049263112
17	0x3d984746	0.07435469
18	0xbd9cf34b	-0.07663592
19	0x3d845f11	0.06463445
20	0xbef2ec2d	-0.47445813
21	0xbdd86e91	-0.10567964
22	0xbea19e96	-0.31566304
23	0x3e250cfe	0.16118237
24	0x3d1061c0	0.03524947
25	0x3ddac3b8	0.10681862
26	0xbe38d1a9	-0.18048729
27	0xbe3e8f0a	-0.18609253
28	0x3da0a542	0.078440204
29	0xbcc03058	-0.023460552
30	0x3c8aaf7e	0.016929384
31	0x3e0f7056	0.14007697
32	0x3bf3ca82	0.0074399123
33	0x3dcbf9ee	0.0995978
34	0x3d388d4b	0.045056622
35	0x3b156e40	0.002280131
36	0x3e28f8ec	0.16501206
37	0x3e5639f3	0.20920543
38	0xbdec69e4	-0.115436345
39	0x3bdb6f38	0.006696608
40	0xbfac618c	-1.3467269
41	0x3dff3a1c	0.12462255
42	0x3efede5c	0.49779022
43	0x3dd45bc6	0.10369067
44	0x3d61b0b8	0.055100173
45	0x3d327610	0.043569624
46	0xbc492fbb	-0.012279446
47	0x3eef2575	0.46708265
48	0x3da26874	0.07930079
49	0xbdc736f6	-0.0972728
50	0xbfaced02	-1.3509829
51	0x3d89893c	0.067156285
52	0x3e061d1a	0.13097039
53	0x3d90bdf4	0.07067481
54	0x3d51ff90	0.051269114
55	0xbd5215f0	-0.051290452
56	0x3dc86d8f	0.09786522
57	0x3da02932	0.078203574
58	0x3db27e77	0.087155275
59	0xbe2b263c	-0.16713804
60	0xbe41ff77	-0.18945108
61	0x3d6d065c	0.057867393
62	0x3bc26220	0.0059321076
63	0x3d888c50	0.066673875
64	0xbd92dd83	-0.07171156
65	0xbcbebae8	-0.023282483
66	0xbccc88d8	-0.024967596
67	0x3d751480	0.059834003
68	0xbca9a408	-0.020708099
69	0x3de9055a	0.11377974
70	0xbedafa25	-0.4276897
71	0x3f05a163	0.5219938
72	0xbddd0e12	-0.10793699
73	0xbe0ca3a3	-0.13734297
74	0x3e3bf820	0.18356371
75	0x3e4a197b	0.19736283
76	0x3d098c0c	0.033580825
77	0x3dd9260b	0.10602959
78	0xbddad460	-0.106850386
79	0xbddb6086	-0.1071177
80	0xbe303b23	-0.17210059
81	0xbd947112	-0.07248129
82	0xbd103806	-0.035209678
83	0xbebfbf6a	-0.37450725
84	0x3d8532c7	0.06503826
85	0x3e01057f	0.12599753
86	0x3e3b4ccb	0.18291013
87	0x3d13c46c	0.036075994
88	0xbc5e5ff8	-0.013572685
89	0x3db99506	0.09061627
90	0x3d6afc0a	0.05736927
91	0xbe805358	-0.25063586
92	0xbdb3da38	-0.08781856
93	0xbccb5a18	-0.024823233
94	0xbdce4130	-0.10071027
95	0xbe52ea4d	-0.20597191
96	0xbc129c5a	-0.00894841
97	0xbd70e7a8	-0.058814675
98	0xbe02cc2c	-0.12773198
99	0xbd780e20	-0.060560346
100	0xbea24434	-0.3169266
101	0xbb04e49a	-0.0020277859
102	0x3d85bb03	0.0652981
103	0x3cb06325	0.02153165
104	0x3bf3b473	0.0074372827
105	0x3dfb423e	0.12268494
106	0x3f6c415a	0.9228722
107	0xbdbb8ac6	-0.09157328
108	0xbdfbd3d4	-0.122962624
109	0xbd300dec	-0.042982027
110	0x3d2240cc	0.039612576
111	0x3f329ac7	0.6976742
112	0xbd9d9e8c	-0.07696256
113	0x3d7d84d4	0.061894253
114	0xbd2243de	-0.039615504
115	0x3c9d5228	0.019204214
116	0xbe10b550	-0.14131665
117	0xbd8ed4c5	-0.06974176
118	0xbc9f69e0	-0.019459665
119	0x3d99926c	0.07498631
120	0x3e5ec246	0.21753797
121	0xbd98df36	-0.07464449
122	0xbd9d865e	-0.07691644
123	0xbe8082c0	-0.25099754
124	0xbc961ff9	-0.018325793
125	0x3da9be08	0.08288199
126	0xba8a8300	-0.0010567605
127	0xbcc30308	-0.023805156
128	0x3da579bf	0.08079862
129	0x3c94c620	0.01816088
130	0x3dff2194	0.124575764
131	0x3dab8396	0.083747074
132	0x3d24b6cc	0.04021339
133	0x3cf99ef0	0.030471295
134	0xbdd5f3a6	-0.10446863
135	0xbd3e1eb2	-0.046415992
136	0x3c59f170	0.013302192
137	0xbdc3ca14	-0.09560028
138	0xbdf5f27f	-0.12009143
139	0xbbe0256a	-0.0068403976
140	0xbddb1d8a	-0.106989935
141	0xbdd1df06	-0.102476165
142	0xbd9f28d2	-0.07771458
143	0xbcc31595	-0.023814002
144	0xbdbb278a	-0.09138401
145	0xbdd2c21e	-0.10290931
146	0xbd96736e	-0.07346235
147	0x3b2cae5a	0.0026349039
148	0xbd68c967	-0.056832697
149	0x3d2148f3	0.03937621
150	0xbd14c024	-0.036316052
151	0x3c0d17ea	0.008611659
152	0x3d7eed9a	0.062238313
153	0xbc818e28	-0.015814856
154	0x3dc83bdb	0.097770415
155	0xbdff55a2	-0.12467505
156	0x3aa05b80	0.00122343
157	0x3dfc042e	0.12305485
158	0x3d94215f	0.072329275
159	0xbd863b8d	-0.06554327
160	0xbde45911	-0.111498006
161	0x3d038810	0.03211218
162	0x3d9ad0b7	0.075593404
163	0xbd8c65f8	-0.068553865
164	0xbd974bf6	-0.07387535
165	0xbdf10a3a	-0.11769529
166	0x3cd91772	0.026500437
167	0xbc8630d6	-0.016380709
168	0xbdfacc95	-0.12246052
169	0x3c3711f0	0.01117371
170	0xbdc0317a	-0.09384437
171	0x3de0764e	0.10960065
172	0x3da58992	0.0808288
173	0x3d87740a	0.066139296
174	0xbd3c2152	-0.045930214
175	0x3d874922	0.06605746
176	0x3b34a780	0.0027565658
177	0x3bc41be0	0.0059847683
178	0xbd3f367b	-0.046682816
179	0xbd02a078	-0.031891316
180	0xbe00e99d	-0.12589116
181	0x3cccdf02	0.025008682
182	0x3dc20b06	0.09474759
183	0x3cfacec8	0.03061618
184	0x3d8c7d1a	0.06859799
185	0xbda86f1c	-0.082243174
186	0xbdfb8100	-0.12280464
187	0x3dc0e606	0.094188735
188	0xbdf0ebbc	-0.11763713
189	0xba08c800	-0.00052177906
190	0xbd83af8a	-0.06429966
191	0xbd3d0770	-0.04614967
192	0x3da82caf	0.08211648
193	0x3dc4c722	0.09608294
194	0x3db1a438	0.086739
195	0xbd899662	-0.06718136
196	0x3ca19fa0	0.019729435
197	0xbdcc92aa	-0.099889114
198	0x3d269838	0.04067251
199	0x3f226e15	0.6344922
200	0x3d34f6ef	0.044180807
201	0x3ec8a106	0.3918535
202	0x3dc9e40f	0.09857952
203	0xbe497b21	-0.19675876
204	0xbc9c6510	-0.01909116
205	0xbe8d772b	-0.2762998
206	0x3d75c8a0	0.060005784
207	0xbd8b13f1	-0.06790913
208	0x3c6bcf51	0.01439269
209	0x3d482dc5	0.048871774
210	0x3e99ca6c	0.30037248
211	0x3dc713a4	0.09720543
212	0xbf85f20c	-1.0464492
213	0x3da10274	0.07861796
214	0xbe09c665	-0.13454588
215	0x3dc8ee0b	0.09811028
216	0xbe97fb14	-0.29683745
217	0xbd83d656	-0.06437366
218	0x3e8f4544	0.27982533
219	0x3e8a81e9	0.2705224
220	0xbd129764	-0.03578891
221	0xbdc96022	-0.09832789
222	0x3dba190f	0.09086811
223	0xbe514ea6	-0.20440158
224	0xbe9d2716	-0.30693883
225	0x3dc7b01a	0.097503856
226	0x3e12668d	0.14296933
227	0x3da7845e	0.08179544
228	0xbe52769b	-0.20553057
229	0x3e00cff8	0.12579334
230	0x3e4364ce	0.19081423
231	0xbdb4d2df	-0.08829283
232	0x3de84274	0.113408
233	0x3daa25ca	0.08307989
234	0xbcf824a1	-0.030290904
235	0xbd5730a8	-0.052536637
236	0x3d91b2fc	0.07114217
237	0xbdb9d852	-0.09074463
238	0x3e4e307d	0.20135684
239	0x3e7f357a	0.24922743
240	0x3d3e1984	0.046411052
241	0xbbeac3c0	-0.0071644485
242	0xbe18ece7	-0.14934121
243	0xbd807df8	-0.06274027
244	0x3cb878b9	0.022518503
245	0xbb6771cc	-0.003531563
246	0x3b93f0a0	0.0045147687
247	0x3d1bb730	0.038016498
248	0x3ec16316	0.3777091
249	0x3d284820	0.04108441
250	0x3e5b48cb	0.21414487
251	0xbdcfd6b1	-0.10148371
252	0xbd65abc4	-0.05607201
253	0x3d8ce2b2	0.06879176
254	0xbd525cf4	-0.05135818
255	0x3cee2d88	0.029074445

net.2.bias f4 [64]
0	0xbccee277	-0.025254471
1	0xbe0999ca	-0.13437572
2	0x3bed8456	0.0072484417
3	0xbd112d94	-0.035443857
4	0xbc6f05e1	-0.014588804
5	0xbdbf1dfc	-0.09331891
6	0x3c7afef6	0.0153195765
7	0x3d4cc512	0.04999263
8	0xbe19e9ae	-0.15030548
9	0xbcdd5146	-0.027016293
10	0xbdec77ae	-0.115462646
11	0xbd922b3f	-0.07137155
12	0xbe00975a	-0.12557736
13	0xbe374547	-0.17897521
14	0xbdbe830b	-0.09302338
15	0xbd196f69	-0.037459765
16	0xbd3319e9	-0.04372588
17	0xbde3c4d3	-0.111215256
18	0xbd52a3f4	-0.05142589
19	0xbc55dc95	-0.013053079
20	0x3ddd48bd	0.10804889
21	0x3db0b412	0.08628096
22	0xbe1c046a	-0.15236059
23	0xbc809977	-0.015698178
24	0x3d35ba99	0.044367407
25	0x3d97bdab	0.07409223
26	0xbbbf1b33	-0.0058321
27	0xbd3d9c6e	-0.04629176
28	0x3e2c371b	0.16817896
29	0xbdfefc4c	-0.124504656
30	0x3e048f4f	0.12945293
31	0x3da61dc1	0.08111144
32	0x3cd0b916	0.02547888
33	0x3e07224a	0.13196674
34	0xbe0cd12c	-0.13751668
35	0xbd65a53b	-0.05606578
36	0x3e0260f9	0.12732305
37	0x3d1121ef	0.035432752
38	0xbda9254a	-0.082590654
39	0x3d9d821e	0.076908335
40	0x3d5106d7	0.051031914
41	0xbd739642	-0.05946947
42	0x3c0e0e70	0.008670434
43	0xbb07ae6a	-0.0020703324
44	0xbda4c720	-0.080457926
45	0x3d2e41a6	0.042543076
46	0xbdfc5cd4	-0.12322393
47	0xbd6bc4cf	-0.05756074
48	0xbd86d0c3	-0.06582787
49	0xbe2a9ebc	-0.16662115
50	0x3ccb56ec	0.024821721
51	0xbd6eed09	-0.058331523
52	0xbd0bf035	-0.034164626
53	0xbdb1c7d2	-0.08680691
54	0xbe1f71e4	-0.1557079
55	0xbb97a497	-0.004627775
56	0xbdb86165	-0.090029515
57	0xbd3f0858	-0.046638817
58	0x3d870e30	0.06594503
59	0x3d859e88	0.06524378
60	0x3db86a3c	0.090046376
61	0x3c9d2c9c	0.01918631
62	0x3e75d14c	0.24005622
63	0x3d85c2bb	0.065312825

net.4.weight f4 [6, 64]
0	0xbec58b2c	-0.38582742
1	0xbfc9a7e7	-1.5754365
2	0x3d90fcac	0.07079443
3	0xbebc7a19	-0.36811903
4	0xbd83bfe6	-0.06433086
5	0xbc75e68b	-0.015008579
6	0xbd90f014	-0.07077041
7	0x3d22c77c	0.039741024
8	0x3dc3ae63	0.09554746
9	0x3e96165b	0.2931393
10	0xbdae2779	-0.085036226
11	0x3d596e3f	0.053083654
12	0xbeb41371	-0.35171083
13	0xbdc91502	-0.0981846
14	0xbef61d96	-0.48069447
15	0xbd277e53	-0.040891957
16	0x3cd4dbc7	0.025983704
17	0x3dd8057e	0.105479226
18	0x3e98484f	0.29742667
19	0xbe16f17f	-0.14740561
20	0xbe3b1951	-0.18271376
21	0x3d753ba6	0.05987134
22	0xbf87a5ac	-1.0597434
23	0xbd55e205	-0.052217502
24	0xbd65a008	-0.05606082
25	0xbed90656	-0.42387646
26	0x3dcc26f9	0.09968371
27	0xbd631e40	-0.05544877
28	0x3f0a8c97	0.54120773
29	0x3ddb5167	0.10708886
30	0x3dda189c	0.10649225
31	0x3c95da85	0.018292675
32	0xbee73eea	-0.45165187
33	0x3f337a16	0.70108163
34	0x3d0c1455	0.034199078
35	0x3e5481e6	0.20752677
36	0x3ef43b7e	0.4770164
37	0xbe52c84c	-0.2058422
38	0xbdc53b1b	-0.09630414
39	0xbd55d50a	-0.052205123
40	0x3dd0b16f	0.10190093
41	0xbcbc3c7f	-0.022978066
42	0x3eb7d947	0.35907957
43	0x3d988658	0.07447499
44	0x3d879c79	0.06621642
45	0x3e6aa66f	0.22915052
46	0xbde07620	-0.109600306
47	0xbd5a84a3	-0.05334915
48	0xbbfcb82a	-0.0077123838
49	0x3da1d4ce	0.079019174
50	0x3dc0b95b	0.09410354
51	0x3de1d9c9	0.11027867
52	0xbcd37340	-0.025811791
53	0xbc131eb1	-0.008979485
54	0xbef3006d	-0.47461262
55	0xbe3ed13f	-0.18634509
56	0xbc9e6611	-0.019335778
57	0xbdb871c0	-0.09006071
58	0x3e6e5a97	0.23276745
59	0xbed6fa9b	-0.41988072
60	0xbd761ba8	-0.06008497
61	0xbdb87dc2	-0.090083614
62	0xbefaf626	-0.4901592
63	0x3d9f8e70	0.0779084
64	0xbf0aab0c	-0.54167247
65	0x3e0e3e39	0.13890924
66	0xbddebd0d	-0.10875902
67	0x3efb8615	0.49125734
68	0xbc28573e	-0.010274706
69	0x3ccdb992	0.0251129
70	0x3f4fa8a4	0.811167
71	0x3da5d761	0.08097721
72	0x3cd049e6	0.025425863
73	0x3f26b7ba	0.65124094
74	0xbdddb396	-0.10825269
75	0x3ecda21f	0.4016275
76	0xbf11e9de	-0.5699748
77	0x3ee5786b	0.44818434
78	0x3e73a6e1	0.23794128
79	0x3c638158	0.013885818
80	0xbdda5f25	-0.10662679
81	0x3f0282c7	0.509808
82	0xbf0eb2e2	-0.55741704
83	0xbf3a5978	-0.7279277
84	0xbead24f0	-0.33817244
85	0x3cf0a2dc	0.029374532
86	0x3fd54f2d	1.6664788
87	0xbdd6fde1	-0.10497642
88	0xbc801417	-0.01563458
89	0x3e9120a2	0.2834521
90	0xbd96810c	-0.073488325
91	0xbf48a2c9	-0.7837339
92	0x3dd9085b	0.10597297
93	0xbd4429ed	-0.047891546
94	0xbe7b1936	-0.24521336
95	0x3c8774f3	0.016535258
96	0x3c9c27a7	0.019061876
97	0x3e67a825	0.22622736
98	0xbcddb7ce	-0.027065184
99	0x3da1e96e	0.07905851
100	0xbc985824	-0.018596716
101	0xbeccdfa1	-0.40014365
102	0xbc3c54a1	-0.0114947865
103	0x3daf97e0	0.0857389
104	0xbdafad17	-0.08577936
105	0xbb97aae2	-0.004628525
106	0xbf153219	-0.5827957
107	0xbd61103e	-0.05494713
108	0xbd2a5d18	-0.041592687
109	0x3f30078b	0.6876151
110	0x3dd01922	0.10161044
111	0xbd91498d	-0.07094107
112	0x3efa8bd5	0.48934808
113	0x3da3211c	0.079652995
114	0xbf20bd69	-0.62789017
115	0xbe09628d	-0.134165
116	0xbdabfae2	-0.083974615
117	0xbc60a836	-0.01371198
118	0x3e79e3f3	0.24403362
119	0x3e411041	0.18853857
120	0xbd1186b4	-0.035528854
121	0x3e95f983	0.29291925
122	0xbef6d515	-0.48209444
123	0xbe9ff9bd	-0.31245223
124	0x3db399fc	0.087696046
125	0x3a6897cc	0.0008872717
126	0xbf1cc0cc	-0.61231685
127	0xbcfa5169	-0.030556398
128	0x3b82d055	0.0039921203
129	0xbf6d15d1	-0.92611414
130	0x3d90b5a7	0.070658974
131	0x3cdb60ff	0.02677965
132	0x3f1dc30c	0.6162574
133	0x3ddca731	0.10774077
134	0x3da9da40	0.08293581
135	0xbd027be9	-0.03185645
136	0xbd87fe9c	-0.0664036
137	0xbecbaf17	-0.3978202
138	0x3d1c2d62	0.038129218
139	0xbd341d27	-0.043973114
140	0xbf581192	-0.8440181
141	0xbf4c8cb9	-0.79902226
142	0x3ed16860	0.40899944
143	0xbdd0bc6e	-0.1019219
144	0x3d28ee77	0.041243043
145	0xbd9e359d	-0.0772507
146	0xbe8ce1fa	-0.27516156
147	0xbe39f5b9	-0.18160142
148	0x3e01c3e9	0.1267239
149	0x3da2ad63	0.07943227
150	0x3f0850a3	0.5324804
151	0xbda812f8	-0.08206743
152	0xbcfccdbf	-0.030859826
153	0x3e2e2fa7	0.17010365
154	0x3dabba2e	0.0838512
155	0xbeb63114	-0.3558432
156	0xbea94612	-0.33061272
157	0x3dd22d0c	0.10262498
158	0xbee962b9	-0.45583132
159	0x3c2a953d	0.010411558
160	0x3e8e3c82	0.2778054
161	0x3ead6b77	0.33871052
162	0x3d5e8a5a	0.05433116
163	0xba8f0834	-0.0010912479
164	0x3e4ac986	0.19803438
165	0xbf19b5a8	-0.6004281
166	0x3c2dfead	0.0106198015
167	0x3c55167a	0.013005847
168	0xbdda9ecb	-0.106748186
169	0x3d15f864	0.036613837
170	0xbed922f9	-0.42409495
171	0xbd09799c	-0.03356324
172	0x3dc0bdef	0.09411227
173	0x3e8b91ae	0.27259582
174	0xbdebf194	-0.11520687
175	0xbc168fa5	-0.009189521
176	0x3e503acd	0.2033493
177	0x3db186a2	0.08668257
178	0xbe22b88e	-0.15890715
179	0x3f040404	0.5156863
180	0x3d659f2e	0.05606001
181	0xbcd73646	-0.026270997
182	0x3ea4d632	0.32194668
183	0x3eea0dc9	0.45713642
184	0x3d1612a7	0.036638882
185	0xbeb69dc8	-0.35667253
186	0x3d48c7c8	0.04901865
187	0xbe8d0a83	-0.27547082
188	0x3dc505da	0.09620257
189	0x3d81b0f9	0.06332583
190	0x3e919275	0.2843205
191	0xbdbd9c3f	-0.09258317
192	0xbd54c408	-0.051944762
193	0xbe53ab21	-0.20670749
194	0xbd05ad2f	-0.032635864
195	0x3d2d85cd	0.04236393
196	0x3caf0f43	0.021369582
197	0xbdd66c13	-0.10469832
198	0x3d45694a	0.048196115
199	0x3dba4c2f	0.09096562
200	0xbd99f376	-0.075171396
201	0x3c46d4d6	0.012135705
202	0xbdce3bc1	-0.10069991
203	0xbd683e87	-0.056700256
204	0xbd192a1b	-0.03739367
205	0x3e36e6b0	0.17861438
206	0xbdb1b625	-0.086773194
207	0xbdf14b92	-0.11781992
208	0xbdd4dd4a	-0.1039377
209	0xbd65c455	-0.05609544
210	0xbddcee91	-0.107876904
211	0xbcf6d6b4	-0.030131675
212	0x3cdcfdcc	0.026976489
213	0xbc7c4e5d	-0.015399543
214	0x3dfcae3c	0.1233792
215	0xbd856f6b	-0.06515392
216	0xbdaee3f9	-0.08539576
217	0x3dd2f223	0.1030009
218	0x37408ed0	1.1477343e-05
219	0x3e19e15f	0.15027378
220	0xbdd8eb67	-0.105917744
221	0xbde86877	-0.1134805
222	0xbc4f404a	-0.012649605
223	0x3da95fc7	0.08270221
224	0x3d3ade17	0.045621958
225	0xbc6e2920	-0.014536172
226	0x3d95dc0c	0.07317361
227	0xbe0b4aaa	-0.13602701
228	0x3c332545	0.010934179
229	0x3c73a3a3	0.014870557
230	0x3e200d48	0.15630066
231	0x3d426654	0.04746087
232	0xbd493e92	-0.049131937
233	0xbd4cec84	-0.050030246
234	0x3d52bbe5	0.05144872
235	0xbdd400f6	-0.10351746
236	0xbd1490ef	-0.036271032
237	0xbe0739c4	-0.1320563
238	0x3d809034	0.062775046
239	0xbc885b9d	-0.016645247
240	0x3d0bbb5a	0.03411422
241	0xbdaa0d1b	-0.08303281
242	0xbcf9c0ad	-0.030487383
243	0xbe1c6d17	-0.1527599
244	0x3db2dad2	0.08733143
245	0x3ddb4e22	0.10708262
246	0x3e2bfb7e	0.16795155
247	0xbd84a6ca	-0.06477125
248	0x3d7dd948	0.061974794
249	0x3d5d1466	0.05397453
250	0xbd80dcf6	-0.06292145
251	0xbbc654e4	-0.0060526
252	0x3d607eb4	0.054808334
253	0x3d1a8dab	0.03773276
254	0x3c31d73f	0.010854541
255	0x3dd599e9	0.10429747

net.4.bias f4 [6]
0	0x3d64b5ed	0.05583756
1	0x3ca7bd4c	0.020476006
2	0x3e07c8be	0.13260171
3	0xbc0fe1ff	-0.008781909
4	0x3e16d8f7	0.14731203
5	0x3d620bd4	0.05518706
