log/GC_SAC/cannot_used_lidar/square3Env/20210804-0708/GC_SAC_HER_actor.pth (torch, 24159 bytes, 6 tensors)

net.0.weight f4 [64, 13]
000000 34 bc 65 3e 5a a4 41 be 1f 28 33 be 5e 49 8f 3e
       0.22435075 -0.18910351 -0.17495774 0.27985662
000010 03 5f 66 be d0 d2 6a be f5 5e 93 be c5 a7 08 3e
       -0.22497182 -0.22931981 -0.28783384 0.13345249
000020 06 8c e6 bd f7 b6 0e 3e 78 63 0b bf 1c 33 3d bf
       -0.11257176 0.13936983 -0.5444865 -0.7390611
000030 e8 5b 08 3e 7e ca 9c be b1 47 af 3e a6 c9 29 be
       0.1331631 -0.3062324 0.34234384 -0.16580829
000040 a8 f6 a9 be ed 1b 18 bf 46 bb 3c 3e d3 5f a4 3c
       -0.33195996 -0.5941761 0.18430814 0.020065224
000050 02 89 62 be 1d 0a 7b 3e db f0 5e be d8 23 3d be
       -0.22122577 0.24515577 -0.21771567 -0.18470705
000060 fe 11 98 3e 50 d1 b2 bd 55 0a 3f bd df de 61 3e
       0.29701227 -0.087313294 -0.046640713 0.22057675
000070 68 4a 33 3e 59 6d 08 3f 58 34 a8 3e 50 f4 15 be
       0.17508852 0.5329185 0.32852435 -0.14643979
000080 15 5c 58 bd bb 3f ab be 9d 2c 0f 3e 9a 7c 1f 3e
       -0.05282219 -0.3344706 0.13981862 0.15574875
000090 2e 87 53 3b cf ea e8 3e 00 a7 25 bb a9 5e 30 be
       0.0032276618 0.45491645 -0.0025276542 -0.1722361
0000a0 66 2c f3 3e 08 d9 20 3d 86 95 37 be a4 e4 e9 3e
       0.4749481 0.039269477 -0.17928132 0.4568225
0000b0 0e 0f 31 3e d9 ca 89 be 52 45 1f be bd f0 5e bd
       0.17290899 -0.26912573 -0.15553787 -0.054428805
0000c0 eb 2b 2c 3e ce f9 b3 3e f4 88 af be d6 c1 6c 3e
       0.16813628 0.35151523 -0.34284174 0.23120818
0000d0 32 00 28 3e 8f 91 b1 3e 39 e4 7c be 12 10 19 3e
       0.16406325 0.34681365 -0.24696435 0.14947537
0000e0 ad b3 65 3e e0 ad a9 3d 48 14 94 be 8b fe 33 3e
       0.22431822 0.08285117 -0.28921723 0.17577569
0000f0 8c 39 84 bb da b0 f8 bd 52 50 0c 3e be f1 d3 3d
       -0.0040351804 -0.12143107 0.13702515 0.10348843
000100 8c 9b 0f 3e 80 30 ed 3e 7b b0 9e be 2c d6 23 bd
       0.1402418 0.46326065 -0.3099402 -0.039999172
000110 c5 4d 30 3f 27 fc 0c 3f 03 2a 3d be 5a e5 97 bd
       0.68868667 0.55072254 -0.18473057 -0.07416792
000120 d9 de 4b be e2 cf fd bd 1f a5 90 be d5 6a da be
       -0.19909228 -0.12393166 -0.28250977 -0.4265963
000130 fa c4 72 be e8 ad e2 bc 64 a8 b7 bd 62 e8 41 be
       -0.23707953 -0.027670816 -0.08967665 -0.18936303
000140 b2 5d 09 3e 9e e9 6d 3e ca a2 99 bd 78 31 79 3d
       0.13414648 0.23233649 -0.07501753 0.060838193
000150 58 b0 1d be 46 98 35 be 14 c3 ab 3d de a2 32 3e
       -0.15399301 -0.17733869 0.083868176 0.17444941
000160 96 f0 c6 bd 68 f7 47 bd 02 d0 69 3e ec 21 ad be
       -0.09713857 -0.04881993 0.22833255 -0.33814943
000170 a0 b3 93 be 8f bc 19 be c7 1e 5d 3b b1 f4 d4 3d
       -0.2884798 -0.15013336 0.0033740269 0.10398234
000180 38 2e 76 be 8b 0c 87 3e 3a 92 25 3e 47 14 a9 3e
       -0.24041069 0.26376757 0.16169062 0.33023283
000190 e1 4d 3b 3c 73 ed 07 bf a4 cb 89 3d f0 05 a2 bc
       0.011432142 -0.53096694 0.067282945 -0.019778222
0001a0 81 90 e2 be 12 91 fe bd 22 4c 2d 3e 66 a7 03 be
       -0.44250873 -0.12430014 0.16923574 -0.12856826
0001b0 c6 70 8c bd ec f7 09 3e 50 19 4f 3d 4d b9 90 3e
       -0.06857447 0.13473481 0.05056125 0.28266373
0001c0 6b 50 3f be de cd 17 3d 3f 26 c6 3e 56 c5 8e 3e
       -0.18683021 0.037061565 0.38701054 0.2788493
0001d0 a0 8a 62 bc 1c 5c 5c be 20 f1 c5 3d e0 91 78 3d
       -0.013826996 -0.21519512 0.096651316 0.060685992
0001e0 f8 0f bd bd 7c 29 65 be fc 72 6f be 18 40 69 bd
       -0.092315614 -0.22379106 -0.23383707 -0.05694589
0001f0 a0 70 4d bc 86 1d d4 bd 43 a4 8b be c0 fe 4a 3d
       -0.012539059 -0.10357194 -0.2727376 0.049559355
000200 0d 06 86 3e 02 15 6c 3e cd 3e 2a bd b3 df fd bd
       0.2617649 0.23054889 -0.041563798 -0.12396183
000210 94 37 90 bd 7a cc 62 3e 7e 2f 34 3e 44 99 0e bd
       -0.07041851 0.22148314 0.17596242 -0.034814134
000220 54 0f c8 bd d7 0c 6f be 83 00 87 bd 2a 51 2e be
       -0.097685486 -0.23344742 -0.065918945 -0.17023149
000230 c9 96 87 3e 48 ac 34 3e 50 e3 18 3d 89 69 bb be
       0.26482227 0.17643845 0.037326157 -0.36603954
000240 5d 8d 17 bd 64 df db bd 23 54 ff 3e 38 23 cb 3c
       -0.03700005 -0.10735968 0.4986888 0.024797067
000250 20 55 11 bd a0 59 41 3e d3 35 a1 bc 21 cb 02 bd
       -0.035481572 0.18881845 -0.019678986 -0.031932
000260 88 91 25 3e 2c 10 a9 bd 55 56 80 be 8c 73 3e be
       0.16168797 -0.08255038 -0.25065866 -0.18598765
000270 86 cc 11 3e fb 86 81 be be 7d 46 3e 71 ce 26 3e
       0.14238176 -0.25298294 0.19383904 0.16289689
000280 9a dc ab 3e 20 d1 be 3c cd aa a0 3d f1 a8 f3 bd
       0.33566743 0.023293078 0.07845078 -0.118974574
000290 47 42 36 3d aa 03 24 3d 88 41 94 3e 2d 2f 81 bf
       0.0444968 0.040042557 0.28956246 -1.0092522
0002a0 61 f0 53 be bd c1 e8 3e 7d 01 72 3e 04 43 84 3d
       -0.20697166 0.4546031 0.2363338 0.06458095
0002b0 0a 74 40 3e 5b 0e c6 bd 80 3b d0 3d 5f 2c 2f bd
       0.18794265 -0.09670707 0.10167599 -0.042766925
0002c0 15 5a 81 bd f5 92 f7 bd bc 13 f1 be 06 50 20 bd
       -0.0631601 -0.12088577 -0.4708537 -0.039138816
0002d0 b1 cc a4 3d 44 dd 31 be c3 a6 7d bf a0 a7 b9 3d
       0.08046854 -0.17369562 -0.99082583 0.09065175
0002e0 9e 05 7d 3e c8 8c 6e be 0d 9a d3 3d 50 03 88 bc
       0.24709174 -0.23295891 0.10332117 -0.016603142
0002f0 0f 6e c1 3d 34 17 0b 3e f8 ce da bd 4c 0b 55 3e
       0.0944482 0.1358307 -0.106840074 0.2080509
000300 38 e7 b4 bd 16 a5 3a 3d 10 02 9f bc c2 c4 27 be
       -0.08833164 0.045567594 -0.019410163 -0.16383651
000310 0e 69 85 3d 88 36 f0 3d a6 a7 f1 bd 05 64 b0 be
       0.06514178 0.11729151 -0.117995545 -0.3445131
000320 f4 11 bb 3d 14 ad 5e 3d f9 ce d1 3c 02 4d 0a 3d
       0.09134284 0.05436428 0.025611388 0.033764847
000330 3c 2a b7 3d c9 bf 28 be 50 fc 1b 3f 1e 61 6c 3e
       0.089436024 -0.1647941 0.60931873 0.23083922
000340 e0 58 75 be 54 f8 ae 3d 74 d5 a3 3d a2 78 ce bd
       -0.23959684 0.085434586 0.07999697 -0.10081603
000350 89 2a 8d 3e 74 a6 48 3e 4a 0a 36 3e 1e bf 76 be
       0.27571514 0.19594747 0.17777362 -0.24096343
000360 5b 05 87 be b0 a7 7e bd 58 55 50 bd 62 d6 84 bd
       -0.26371273 -0.062171638 -0.05086264 -0.06486203
000370 04 48 f7 bd 2e c0 8b 3d 1f ba 9f 3e aa 3f 1b be
       -0.12074283 0.06823765 0.31196687 -0.15161005
000380 e7 e9 16 be 96 e0 b7 be 40 3c e1 3c 3c 1b 65 be
       -0.14737664 -0.35913533 0.02749455 -0.2237367
000390 1a f7 48 be dc 04 16 3e 5c 30 ac bd 9a 94 76 3e
       -0.19625512 0.14650291 -0.08407661 0.24080124
0003a0 23 37 00 3f 36 8a 63 3e cd 49 1e 3e 87 d2 0b 3c
       0.5008413 0.22220692 0.1545784 0.00853408
0003b0 49 ec 88 3e e0 9e 4c 3f ca a2 12 3f 80 c8 22 3c
       0.2674277 0.79929924 0.57279646 0.009935498
0003c0 49 47 97 be db 09 5c 3e 8d ef 8a 3d 61 89 e8 3c
       -0.29546574 0.21488135 0.06783972 0.02838582
0003d0 d6 97 ce 3e 1a eb 02 3e 38 1b 35 3e 7e 8f 30 3d
       0.40350217 0.12784997 0.17686164 0.043105595
0003e0 e0 7c 19 3d 00 ae 84 3b 15 bd c1 3e bd e6 6f be
       0.037472606 0.0040490627 0.3783957 -0.23427863
0003f0 00 b8 7d 39 28 64 30 be 77 12 2c 3e 58 98 0b be
       0.00024196506 -0.17225707 0.16803919 -0.13632333

net.0.bias f4 [64]
000000 ff 00 5a 3d ce 35 84 3c cc db 3d be 65 74 27 be
       0.053223606 0.016138937 -0.18540877 -0.16352995
000010 d4 53 5b 3e 80 2a ca bd 00 9b d9 bd bc 88 c6 bd
       0.21418697 -0.098713875 -0.10625267 -0.09694049
000020 0b fd 33 3e 98 83 51 3e 30 5e f7 bc 9b 6d 84 3e
       0.17576997 0.20460355 -0.03019628 0.25864872
000030 bd 7a 17 3e fa 4d 0e be f9 fe f7 3c 61 87 ba bd
       0.14792915 -0.13896933 0.030272948 -0.09107853
000040 ee 87 54 3e 83 a4 90 be df 63 a8 be 46 4a 0c be
       0.20754978 -0.28250512 -0.32888696 -0.13700208
000050 5d 1c 8b 3e 6c c4 a3 be 13 a9 49 3e 11 54 06 3e
       0.27170077 -0.31985795 0.19693403 0.13118006
000060 ea fe 08 be 30 07 3b be 1c 0c 6c be f7 a4 3c 3e
       -0.13378492 -0.1826446 -0.23051494 0.18422304
000070 a2 39 76 bd 5c 39 76 bd 12 60 e7 bd 4e 38 53 be
       -0.060113557 -0.060113296 -0.11297621 -0.20626947
000080 0a c8 74 be 3b d7 50 3e fb c8 43 3e e8 f4 a1 be
       -0.23904434 0.20394604 0.19119637 -0.3163216
000090 d1 f0 ba be fc e4 5a 3d b7 4e be bd f5 92 f2 bb
       -0.36511853 0.053441033 -0.092923574 -0.0074027725
0000a0 1d d1 7e 3d da b0 f7 bd 1c ce df bd 2b 89 0e 3e
       0.062211145 -0.12094279 -0.10927984 0.13919513
0000b0 d8 58 1c 3d c0 55 3c 3c cc e6 58 be b5 78 b6 3d
       0.038170666 0.011495054 -0.21181792 0.08909742
0000c0 83 b1 66 be b4 08 2c 3e f6 a5 c4 bd ac 8c 31 be
       -0.22528653 0.16800195 -0.09601967 -0.17338818
0000d0 05 dc 84 3e 52 8c 75 3e 12 1f 9c 3e dc d3 df 3d
       0.25949112 0.23979309 0.30492455 0.10929081
0000e0 60 b9 76 be 08 76 11 3d a0 54 7b 3d ee d8 f1 bd
       -0.24094152 0.035512954 0.06136 -0.11808954
0000f0 06 fe 38 3e d8 db 18 be 2a 9e ef 3d ae 00 ed 3d
       0.18065652 -0.14927614 0.11700089 0.11572395

net.2.weight f4 [64, 64]
000000 fc 21 40 3e c5 f3 51 bc 22 94 9e be 51 40 a5 3b
       0.18762964 -0.012814467 -0.3097239 0.0050430675
000010 e8 ec 1a bd c3 74 cd 3e b0 b1 20 bc c8 b3 13 3e
       -0.037823588 0.40128145 -0.009807989 0.1442405
000020 a8 4d 3f 3f 40 db 8f 3d a0 5c c2 bb f8 71 f3 bd
       0.7472787 0.070242405 -0.005931452 -0.11886972
000030 64 74 b8 3e 01 3c 80 3e 93 ff 30 3e 0c 53 5d be
       0.360263 0.2504578 0.17284994 -0.21613711
000040 74 82 35 bd 60 4c 14 3e 94 7c bd bd d7 5a 2b be
       -0.044313863 0.1448226 -0.09252277 -0.16733871
000050 a0 e6 39 be 94 3c 5c 3d 0d d3 57 bd 8c 52 93 3d
       -0.18154383 0.05376871 -0.052691508 0.07193479
000060 04 91 26 3d 79 a5 46 be cc 98 59 be 9b 29 bc 3d
       0.04066564 -0.1939906 -0.21249694 0.09187623
000070 3b 0c 12 3e 2c 65 23 3d 9c 77 7c 3e 52 d4 6a 3d
       0.14262478 0.039891407 0.24655002 0.05733139
000080 1b 71 01 3e 20 87 94 bd c9 ad 78 be 7e b8 7c 3e
       0.12640803 -0.072523355 -0.24285044 0.24679753
000090 a1 9a a1 3d 1a a2 d2 3d 02 07 d6 3d b9 44 07 3f
       0.07890821 0.10284825 0.104505554 0.5283924
0000a0 33 09 17 3e 48 1c e2 bc f7 fe ad 3c 42 86 c2 3e
       0.14749603 -0.027601376 0.02123974 0.37993056
0000b0 00 3c ea 39 6c fe ee bd a2 2d ae bd 16 37 50 3e
       0.00044676661 -0.11669621 -0.085047975 0.20333514
0000c0 94 80 8f 3e b0 c1 9c bd 14 c5 19 3e d1 6e 83 be
       0.28027785 -0.076541305 0.15016586 -0.25670484
0000d0 e0 a9 37 3f 29 eb ac 3e 45 de 9d 3e 6d fc 98 3d
       0.71743584 0.33773163 0.3083364 0.074700214
0000e0 0e 2e f2 bd e8 cf 13 3d 8f 48 80 3c 71 ea d5 3c
       -0.118251905 0.036086947 0.015659599 0.026112767
0000f0 2a 5c 5c be 0b 7c fa bd 08 c7 17 3d 25 3c 34 3e
       -0.21519533 -0.122306906 0.037055045 0.17601068
000100 a0 a7 65 3e f9 07 ca 3e 29 49 03 3d 84 86 7b bd
       0.22427225 0.39459208 0.032052193 -0.06140758
000110 30 7d 5c bd 08 cb b7 3e 74 f7 83 bd e0 a5 2e be
       -0.053830326 0.35897088 -0.06443682 -0.17055464
000120 e7 c3 2e be 30 0a 90 3d 10 75 f6 bd 24 b2 27 3e
       -0.17066918 0.07033193 -0.12034047 0.16376549
000130 20 03 58 3d f0 69 40 3c 07 74 08 bf fe e6 81 3c
       0.052737355 0.0117440075 -0.53302044 0.015857216
000140 10 73 41 bc ac f5 cd 3e 62 f8 5b 3e f2 e7 90 3c
       -0.011807218 0.40226495 0.2148147 0.017688725
000150 ed 23 9b be 6a 1a 4b be b3 b3 88 bf 4f 3d 14 3e
       -0.30300847 -0.19834295 -1.067984 0.14476512
000160 48 4f 45 3d 45 8a 96 bb 64 4a 10 be 3b 51 88 3e
       0.04817131 -0.0045941197 -0.14090878 0.26624474
000170 57 99 6e bd 20 2f 39 bd 1d 71 ef bd be 27 a0 3e
       -0.058251705 -0.045210958 -0.116914965 0.3128032
000180 22 02 8d 3d 9a bd 10 bd 74 2c 24 bd 09 cc 37 3d
       0.068851724 -0.03533707 -0.040081456 0.044872317
000190 b4 14 85 3e 25 d7 04 be 8f 02 a6 bd fc 14 50 be
       0.25992358 -0.12972696 -0.08105957 -0.20320505
0001a0 99 90 72 be 80 db 82 3d 70 b6 e0 3d ce 83 28 3e
       -0.23687972 0.063895226 0.10972297 0.1645653
0001b0 b8 b9 9e 3d 9e e5 90 bd cc 29 9b 3d ad 12 52 3d
       0.07750267 -0.07075046 0.075763315 0.051287342
0001c0 40 1f 97 3d 40 ad 23 3b 7e fa bf bd 63 ad 13 be
       0.07379007 0.0024975091 -0.093739495 -0.1442161
0001d0 11 41 75 bd 42 06 83 bd e6 05 8e bc ed b0 c3 3d
       -0.059876505 -0.06397678 -0.017336797 0.0955523
0001e0 b5 77 f6 3e a0 21 c7 bb 16 83 de bd 79 7f e2 be
       0.48138204 -0.0060770065 -0.108648464 -0.4423788
0001f0 ae 38 b2 3d d9 77 72 3e d3 29 cc 3c 17 f3 a3 3d
       0.08702217 0.23678531 0.024922287 0.0800535
000200 49 33 2c 3e 1d e0 0f be 17 dc 52 bd 1b 14 6f be
       0.16816439 -0.14050336 -0.051479425 -0.23347513
000210 6a 64 65 3d 99 62 36 3d e0 1e 3c 3d 80 fb 8a be
       0.056003965 0.044527624 0.045927882 -0.27145004
000220 5d 96 b1 bc 62 fd a4 3d c5 82 3a 3d e8 a7 48 be
       -0.021678144 0.080561414 0.045534868 -0.19595301
000230 cd 6b 36 3d 3d 05 62 3c ec 58 0c 3f aa 2e cd 3d
       0.0445364 0.013795194 0.54823184 0.10018666
000240 e0 9b 82 3b 3f bd de 3c 43 6b a4 be 5b ac ba be
       0.003985867 0.027189849 -0.32113084 -0.36459622
000250 61 f6 8f bd 04 85 3d 3e f8 cf 0d 3e 51 29 71 3e
       -0.07029415 0.18507773 0.13848865 0.23550917
000260 e9 5f 8a 3d 1d f3 89 3e 4a ae 69 3e 5e 90 96 3d
       0.06756575 0.26943293 0.22820392 0.073517546
000270 cd 7c a5 3d 0a f4 94 bd 3f 5e 84 be f1 b8 91 be
       0.080804445 -0.07273109 -0.25853154 -0.28461412
000280 fb 6d c8 3d f8 96 43 3e fa 22 fd 3d 07 46 ee 3d
       0.09786602 0.19100559 0.12360187 0.116344504
000290 93 23 fa bb 9c f5 c7 bc 8d eb 2a be da 6c 9e bd
       -0.0076336353 -0.024409108 -0.16691418 -0.077356055
0002a0 1e 5a 42 3e 10 8f 92 3c f3 d3 cf 3d 13 57 67 bc
       0.1897969 0.017890483 0.10147848 -0.014119881
0002b0 50 9f 80 3c 88 44 ca bd 56 b9 8d 3d 80 7d 20 3d
       0.015700966 -0.098763525 0.06920116 0.039182186
0002c0 67 7d 11 be e8 3b ac bc 02 52 4a bd 87 0f bc bd
       -0.14207993 -0.02102466 -0.049394615 -0.09182649
0002d0 01 42 b6 be 07 68 96 be 11 09 a6 bc be b6 6b 3d
       -0.35597232 -0.29376242 -0.020267995 0.057547323
0002e0 2c 9b 05 be 48 5a c3 3d 01 8b 4a be 30 9c c2 be
       -0.13047475 0.09538704 -0.19779588 -0.38009787
0002f0 b6 70 2e 3c 36 f5 46 3c 4b 83 d0 bd e5 a2 2a 3e
       0.01064699 0.012143424 -0.10181292 0.16663702
000300 fa c0 59 3d 7e 64 a5 be 10 21 f6 be d0 39 7a 3e
       0.053162552 -0.32303232 -0.480721 0.24436116
000310 a2 fc 61 3c 6d b0 ca 3e ce 29 97 bd 12 f1 65 bb
       0.0137931425 0.39587727 -0.073810205 -0.0035086316
000320 bb ef 21 be 82 0d f6 bd 98 63 f9 3c ad 94 2e 3e
       -0.15814106 -0.12014295 0.030442998 0.17048903
000330 cb 61 90 be 49 f7 0a 3e 7d bc 91 be 27 6e 0a bf
       -0.2819961 0.13570894 -0.28464118 -0.5407433
000340 14 6a 4e 3d 46 d5 d0 3e ff 4d 8a be d5 bf 93 bc
       0.050394133 0.40787715 -0.2701263 -0.018035809
000350 60 32 30 3e 11 a3 49 be 3a 77 2c bf bf b9 f1 be
       0.17206717 -0.19691111 -0.67369425 -0.47212026
000360 54 12 07 bd 9c 7a 5d bf 25 ed 32 bf cf 99 21 bd
       -0.032976463 -0.8651521 -0.69893104 -0.039453324
000370 85 5d 3b 3d b0 04 40 bc 95 19 c5 3e 8b 94 07 bf
       0.045743484 -0.011719868 0.3849608 -0.52961034
000380 f1 a4 16 be 68 d7 d3 bc dc 0b 7c be ce 17 81 3d
       -0.14711358 -0.02585955 -0.24613899 0.063033685
000390 67 6b 13 bc 28 b9 96 bd 87 25 3e be 64 d6 98 3d
       -0.008997775 -0.073595345 -0.18569003 0.07462767
0003a0 a8 6a bc bd 30 07 a7 bd 49 fc a5 3d 19 60 7e 3d
       -0.092000306 -0.08155668 0.0810476 0.062103365
0003b0 2e 06 ec bd 26 6c fa 3d 76 e6 f6 bd 4c 56 18 3e
       -0.11524616 0.12227659 -0.12055676 0.1487667
0003c0 81 5d f6 3c 48 bd f8 3c 42 ee 4e 3e fd d5 40 be
       0.030073883 0.030363694 0.20208076 -0.1883163
0003d0 18 ff fa 3c 96 fb a2 be 31 86 c7 3e 8b fc 1a bb
       0.030639216 -0.3183257 0.38969567 -0.0023649062
0003e0 8e 93 e6 3e 34 06 3e 3d 79 db 2b bc 86 d1 56 be
       0.4503445 0.046392635 -0.010489338 -0.20978364
0003f0 37 bc 54 bf 41 65 5b 3d 0d 05 16 3e bf 8b 1e 3e
       -0.83099693 0.05356336 0.14650364 0.15482996

net.2.bias f4 [64]
000000 f1 68 da bd 5a cb 18 bd b7 12 66 bd 65 58 3b be
       -0.10664547 -0.037303306 -0.05617019 -0.18295439
000010 16 d5 b7 3d fb 5a 4c bd ee 6a f0 3d 40 87 79 bc
       0.0897619 -0.049891453 0.11739145 -0.01523
000020 ce 27 04 3e e7 9a 4f 3d f2 90 84 3c 5a 92 23 be
       0.1290581 0.050684836 0.016182397 -0.15973797
000030 a4 e6 ad bd 24 51 f3 3b 0e 32 f9 3d 1f 86 0a be
       -0.08491257 0.007425444 0.1216775 -0.13527726
000040 13 ca 96 3d 93 42 b9 3c cb 2f 8a bc fa 39 7f 3d
       0.07362761 0.022614753 -0.016868493 0.06231115
000050 a9 33 8b bd b0 aa 08 bd 57 36 8b be 80 f8 4d bd
       -0.06796963 -0.033365905 -0.27189896 -0.050285816
000060 57 b9 e6 bd 5e 55 10 3e 2f 29 87 bd ce ac f6 3d
       -0.112658195 0.14095065 -0.06599652 0.12044679
000070 9c a9 ae 3d c1 ef ab bc e3 76 8a bc 73 cd 2f be
       0.08528444 -0.020988347 -0.016902393 -0.17168216
000080 d2 b0 67 bd 0a d8 ca bb f3 15 58 3c 39 7b 84 be
       -0.056565113 -0.0061903046 0.013188827 -0.2587526
000090 48 c0 a4 bd 32 11 e3 3c bf 15 2b be 1a ef f8 3c
       -0.08044487 0.02771816 -0.16707514 0.03038745
0000a0 46 44 de 3d 4f 3a da 3d ae e0 51 bc 88 e9 a4 3d
       0.10852866 0.10655653 -0.0128099155 0.08052355
0000b0 af 91 59 3d a3 6f c7 bc 77 75 b7 bd 69 2c b2 3d
       0.05311745 -0.024345225 -0.089579515 0.08699877
0000c0 81 d1 b2 bd 8f 6d 4d be 4b 62 c9 3d 42 41 f2 bd
       -0.08731366 -0.20061325 0.09833201 -0.11828853
0000d0 ee 50 5c bd 97 9f 5a 3e 79 93 0f be 24 28 d9 bd
       -0.053788118 0.21349941 -0.140211 -0.10603359
0000e0 1f 71 19 bd 47 c6 09 be e8 d1 b0 3d f3 4a 80 be
       -0.037461396 -0.13454543 0.086337864 -0.25057182
0000f0 d5 8b a0 be 6b 39 1e be fb 38 75 bd 2f bd eb bd
       -0.31356683 -0.1545159 -0.059868794 -0.11510693

net.4.weight f4 [6, 64]
000000 18 70 b7 3d ab c6 ac 3e 73 d6 6b 3e 86 25 8d be
       0.08956927 0.33745322 0.23031025 -0.2756769
000010 58 92 2b be c1 05 7b be 1f e9 ca 3c d8 b9 61 3f
       -0.16755044 -0.24513914 0.024769364 0.881742
000020 e3 bf 14 be 86 96 24 bf 92 4b 80 3f 8a 00 84 3d
       -0.14526324 -0.6429218 1.0023062 0.06445415
000030 b8 2a fc bd 69 c0 39 3f b4 93 d8 3e cc fe ed 3c
       -0.123128355 0.7255922 0.4230019 0.02905216
000040 72 22 fe bc 56 23 ec bc 7c de 16 3f f7 5b bc be
       -0.031022284 -0.028825443 0.58933234 -0.36788914
000050 8a 70 ed bd 03 59 2e bd fd db d2 3b 23 c5 54 be
       -0.11593731 -0.042565357 0.006434916 -0.20778327
000060 1e 88 46 3e 32 2e 02 bf ac df 85 bd 43 39 9d 3e
       0.19387862 -0.5085174 -0.06536803 0.3070775
000070 ff 5e be be ab 31 d2 3e ad b2 d3 be 89 84 82 bd
       -0.3718185 0.4105352 -0.41347256 -0.06372935
000080 af af c2 3d 72 d5 c9 bd 8c c3 cd 3d 11 62 c0 3e
       0.09506165 -0.098551646 0.10047063 0.3757482
000090 09 03 d5 bd 82 f3 9b 3f c2 ed 72 3e 1b 2e 83 be
       -0.104009695 1.2183688 0.2372351 -0.25621113
0000a0 da bb c4 3b ae 83 03 bf 20 f5 56 bf 57 16 c3 bd
       0.006003839 -0.513728 -0.8396778 -0.09525745
0000b0 1d 11 83 be 14 c1 ce bc a3 4c ea bc ff 42 8a bd
       -0.25598994 -0.025238551 -0.028600996 -0.0675106
0000c0 36 2f 0d 3c d6 24 3d 3c af 4b 90 3f 11 20 00 3f
       0.008617213 0.011544427 1.1273097 0.5004893
0000d0 9b b2 8b bd 72 89 91 be 96 6a ed 3d ff a3 1a 3f
       -0.06821176 -0.28425175 0.11592595 0.6040649
0000e0 6a 7c 37 bd ad d0 d1 be 1b 49 46 3f 85 fd cc bd
       -0.044796385 -0.4097952 0.774553 -0.100092925
0000f0 c9 00 3d 3e 70 40 05 be ab db 13 bf e6 26 05 3d
       0.18457331 -0.13012862 -0.5775706 0.0325078
000100 79 75 70 be e2 d2 c1 3b a4 a9 47 3e d5 b6 fb 3e
       -0.23482312 0.005915032 0.19498307 0.49162927
000110 34 95 b2 3d 4f a6 54 be 1f c6 0e bf 24 c6 26 3e
       0.087198645 -0.20766567 -0.5577106 0.16286522
000120 19 7a ea 3d 45 bb 88 be 20 0a 80 3f d0 97 9f 3d
       0.114490695 -0.26705375 1.000309 0.07792628
000130 7a 18 fd bd 62 bd 72 be 6a d2 7d be a0 ed d4 bd
       -0.12358184 -0.23705056 -0.24787298 -0.10396886
000140 c7 ab f0 bc 50 df c2 bc b3 88 a9 be 94 e2 8b 3e
       -0.029378785 -0.023788124 -0.33112106 0.27321303
000150 67 6a b9 3d 62 a0 83 3d 6c b7 e5 be 04 3e 4c 3e
       0.09053498 0.06427075 -0.44866502 0.19945532
000160 74 cf fb 3e f6 4d fc 3d b2 72 ce 3c a7 cc fc 3d
       0.49181712 0.12319557 0.025201175 0.12343722
000170 03 7e 07 be 09 ba be bd 0a 52 80 3e 73 f9 e3 bd
       -0.13231663 -0.09312827 0.2506259 -0.11131563
000180 f2 2b 99 be 15 59 47 3d c2 71 8c 3c 25 82 fb 3e
       -0.2991634 0.04866894 0.017144088 0.4912273
000190 fb 66 92 be 70 94 88 3f 8b 0b b3 bf 7b 54 d6 be
       -0.28594193 1.06703 -1.3987898 -0.41861328
0001a0 8c 58 35 3e e4 49 d9 3e 1e ed 7c be 74 eb d5 3e
       0.17709559 0.42439187 -0.24699828 0.417812
0001b0 ab aa a4 be 48 60 8f 3b 7a 5e 9e bd 6a 38 d9 3c
       -0.3216146 0.0043754913 -0.07732864 0.026516158
0001c0 f4 9d 84 bd 47 9b 28 3d 45 fc 7f 3e 2e 4c d9 3e
       -0.0647544 0.04116371 0.24998577 0.42440933
0001d0 b8 25 57 bc 0c af 7a bc c1 67 dc 3e cb 88 fc bd
       -0.013131551 -0.0153005235 0.43047908 -0.12330779
0001e0 3e b8 2c 3f 9e e1 1f bd 99 16 07 bf c4 3e 97 bf
       0.6746863 -0.039033525 -0.52768856 -1.181603
0001f0 98 7b 64 bc 62 00 46 bf 9b 19 b5 be 3a 61 17 bd
       -0.013945483 -0.77344334 -0.35371098 -0.036957957
000200 0d 66 b7 be 15 a6 00 3e 0f 92 ed 3d 63 73 31 bf
       -0.35820046 0.12563355 0.11600124 -0.6931669
000210 dd 5b de bd e3 56 a9 3e a0 94 12 bd 35 70 ac 3d
       -0.10857365 0.33074102 -0.03578627 0.08419839
000220 5b 1c 46 3f a7 b0 17 be fc 05 fa be 35 87 cd 3d
       0.77387017 -0.14813481 -0.4883269 0.10035554
000230 39 7f 33 bf bb 05 14 3e 23 00 9b bd 4e 06 f2 3c
       -0.70116 0.14455311 -0.075683855 0.029544022
000240 c0 2a 6c 3d 0c 09 46 bd 2a ef e3 bd b3 1f 0d 3f
       0.057657957 -0.04834847 -0.11129601 0.55126494
000250 b2 5a 7f 3d 21 71 fb bc 0b 6f f2 be 93 8e 18 3f
       0.062342353 -0.030693593 -0.47350344 0.5959255
000260 de 39 c3 3e 24 ac be 3e ec aa 3a 3d df 43 ad be
       0.38130087 0.37240708 0.04557316 -0.33840844
000270 2a 05 60 bf ea 36 13 3e 91 e5 02 3e 88 8b 3d bc
       -0.8750788 0.14376417 0.12782885 -0.011568911
000280 02 09 8e 3e 71 37 6e bd 73 07 44 3e ee 8b e4 be
       0.27741247 -0.05815834 0.19143467 -0.44638008
000290 2a ef f3 bd e7 fd 84 3e 4f bf 53 3f 74 a4 e4 be
       -0.11910851 0.25974962 0.8271379 -0.44656718
0002a0 dc d0 16 bf 0a da a8 be 68 9d c5 3e bc 24 e3 bd
       -0.58912444 -0.3297885 0.38596654 -0.11090991
0002b0 86 80 89 be 79 34 a9 3c 42 0a c3 bd 29 3c ca bd
       -0.26855868 0.020654904 -0.09523441 -0.09874756
0002c0 9f 40 52 bd 7b 1f 48 3e d1 ad 04 bf fc 48 ce 3e
       -0.05133116 0.19543259 -0.5182772 0.40290058
0002d0 40 c6 32 bc aa 45 d0 3e 83 72 8a be 12 4d ed 3e
       -0.010911524 0.4067815 -0.2704049 0.46347862
0002e0 24 cd 66 bd b8 a2 a8 bd b8 57 9b be 6f 24 88 3e
       -0.05634798 -0.08234161 -0.30340362 0.26590297
0002f0 a9 38 03 3f b4 72 1d 3f e9 fb 01 3d 7a ca be 3d
       0.5125833 0.6150315 0.03173438 0.09315963
000300 2a ba 15 bd 3b c4 18 bd 49 bf d8 bd ea b0 3f be
       -0.036554493 -0.037296515 -0.1058336 -0.18719831
000310 49 2e 36 be 90 55 82 bc 20 e8 26 be 34 d8 73 3d
       -0.17791094 -0.01590994 -0.16299486 0.05953236
000320 90 d7 a0 3d a9 8b 1b bd 64 2b ed 3d 26 e5 4c bd
       0.07853615 -0.037974987 0.11580542 -0.05002322
000330 ca cb 38 3e 65 48 77 bd 97 4b 8d 3c fb 95 80 3d
       0.1804649 -0.060371775 0.017247958 0.062786065
000340 91 ac f7 bc 5a 61 a2 3a 5e 44 96 bd 0a 73 c7 3b
       -0.030233653 0.0012388632 -0.07337259 0.006086712
000350 e2 7e 00 be 09 3b ae 3d 95 b4 1f be 77 c1 be 3b
       -0.12548402 0.08507354 -0.1559623 0.0058214027
000360 f1 8d 73 be 23 03 65 3d 76 32 ad bd e4 92 b1 3d
       -0.23784615 0.055911195 -0.0845689 0.08670595
000370 83 7b f9 3b e2 44 fb 3a 6a af a9 3c 38 fa 90 3d
       0.0076136007 0.0019170309 0.020713527 0.070789754
000380 92 60 f1 3d ce fc 8e bd f9 c7 d5 bd 39 12 36 bd
       0.117859975 -0.069818124 -0.104385324 -0.044450972
000390 a8 8d 20 be bd 8d ff 3c f6 56 e0 3d 6a cd e6 bd
       -0.15679038 0.031195516 0.109540865 -0.112696484
0003a0 52 00 12 3d d5 66 b1 bd 4a 67 6a bd 89 a3 83 3d
       0.035644837 -0.08662192 -0.05722741 0.06427676
0003b0 4d e0 a8 bd 66 d8 2f 3d 6c af ae 3d f2 8e bf bd
       -0.08245907 0.042930983 0.08529553 -0.093534365
0003c0 52 6d 7d bd 26 4e 58 3f 33 32 dd bc 2a 15 05 be
       -0.061871834 0.84494245 -0.027001476 -0.12996355
0003d0 3c 67 0c bd 3d 79 86 3d 5d 95 43 bd 54 4d bc 3d
       -0.03427814 0.06566093 -0.047749866 0.09194437
0003e0 12 f4 c2 be 58 13 9b bd 85 a0 c2 3d 5a c3 82 be
       -0.38076836 -0.07572049 0.09503273 -0.25539666
0003f0 97 89 72 bd 84 bd d6 bd a7 74 08 3c a2 5d b6 bd
       -0.059213247 -0.10485366 0.008328593 -0.08904578

net.4.bias f4 [6]
000000 81 33 41 bd 17 db 13 3e fb 41 c5 bc b3 6b 01 be
       -0.04716826 0.14439045 -0.024079314 -0.1263874
000010 ca 56 d9 bc 34 02 d4 bd
       -0.026530642 -0.10351983
