log/GC_SAC/cannot_used_lidar/maze3Env/20210805-1409/GC_SAC_HER_critic.pth (torch_old, 48518 bytes, 10 tensors)

net1.0.weight f4 [64, 24]
000000 e0 b2 0a bf 06 6d 94 3d e4 bc 1d bd a1 5b b1 bf
       -0.5417919 0.07247357 -0.03851022 -1.3856088
000010 d7 68 2e 3f e8 e9 86 bd b0 9e 24 bd 27 01 18 3e
       0.6812872 -0.06587583 -0.0401904 0.1484419
000020 23 40 2a 3e d3 cf 3b be 95 3c 1f 3e 11 1c c1 bc
       0.16626029 -0.18340997 0.15550454 -0.023572953
000030 4f b2 0c be d7 3d 0c be 3d 73 d7 bc e2 dc 81 3c
       -0.13739894 -0.13695465 -0.026300067 0.015852395
000040 c1 c7 06 3e 45 f4 1a be b4 f7 46 be 70 36 36 3d
       0.13162138 -0.15132244 -0.19430429 0.04448551
000050 68 4c 33 bd 36 dc 58 bf 5a c1 e2 3e cd 76 6e 3f
       -0.04377404 -0.84711015 0.4428814 0.93150026
000060 a7 53 69 3e aa fb e3 3e 7e 8a 28 3e d4 d1 be 3e
       0.22785817 0.44527942 0.1645908 0.3726946
000070 f1 86 12 bc 2c 45 17 be 33 be 1a 3e 15 e0 4a be
       -0.008943305 -0.1477248 0.15111618 -0.19812043
000080 ae 39 3e 3d 04 99 78 bd 3e 1f 5f bd 63 a2 a0 3d
       0.046441726 -0.060692802 -0.054473154 0.07843473
000090 65 f4 ad bb a9 76 06 3e fb 26 a6 3d 87 f4 bb 3d
       -0.005308675 0.13131203 0.08112904 0.09177499
0000a0 96 69 52 be 42 36 18 be 5c a0 e0 bf 0e 23 51 be
       -0.2054809 -0.14864448 -1.7548938 -0.20423529
0000b0 80 b3 f4 3a 42 aa 27 3e f1 99 33 bd dc ca fe bd
       0.0018669218 0.16373542 -0.04384798 -0.12441036
0000c0 e5 7f f1 bf 16 a7 bd bd 34 32 01 be 6b 70 39 bf
       -1.8867155 -0.09260385 -0.12616807 -0.7243716
0000d0 8f cc 9e 3d c8 40 23 3e 8f bf f5 bd 04 66 ff 3d
       0.0775386 0.15942681 -0.119994275 0.1247063
0000e0 98 e6 36 bd 45 17 49 3e aa 7d 71 bd 5e 9a d2 3c
       -0.044653505 0.19637783 -0.058957733 0.025708374
0000f0 d7 fc da bd e9 fb b5 bd 25 05 40 bc bb 61 34 3e
       -0.106927566 -0.08885939 -0.011719977 0.17615406
000100 f9 08 aa bd 65 9d 8f 3d bf ec f5 3d ad e4 44 3d
       -0.08302493 0.070124425 0.12008046 0.048069645
000110 00 7b be ba a4 88 64 bf 4c e9 14 be 7e 61 11 3f
       -0.0014532506 -0.89271 -0.1454212 0.56789386
000120 ab 8c d4 3e 54 0d a9 3e 32 e4 2b 3e f3 79 7d bd
       0.4151357 0.3301798 0.16786268 -0.061883878
000130 8d f6 00 3e a0 82 95 3d b7 1b 14 be 07 7f ec 3b
       0.12594052 0.07300305 -0.14463697 0.0072172913
000140 15 e4 b1 bd c5 cb 46 3e 31 d9 02 3e f1 27 8d 3d
       -0.08686081 0.1941367 0.12778164 0.06892384
000150 19 90 30 3d 53 f1 3c be c1 dd e3 3d 81 23 88 bd
       0.043106172 -0.18451433 0.111262806 -0.06647397
000160 db ef 45 be 76 47 80 3c b3 fb fa 3e f1 78 c6 3e
       -0.19329779 0.015659075 0.49020156 0.38764146
000170 00 b0 bc bc c4 eb 6a 3e bf a7 35 3e bd 49 9b bc
       -0.023033142 0.229415 0.17739771 -0.01895606
000180 c5 df f9 bf 32 55 2a be 84 ea bd 3d f4 e8 e2 3e
       -1.9521414 -0.16634062 0.09273246 0.44318354
000190 6b 6c 9e be 0e a1 02 3e cf 69 fc bb 8b a4 ca bc
       -0.3094209 0.1275675 -0.007703043 -0.024736663
0001a0 9f 67 30 3e 62 fb 44 3d 15 f1 99 bc b9 6d 23 3c
       0.17227028 0.0480913 -0.018791715 0.00997489
0001b0 47 25 01 be ac 92 3b 3d d1 8b 2e 3e bb 7f de b9
       -0.12611876 0.045794174 0.17045523 -0.00042438306
0001c0 5c 30 e0 bd ad e0 0f be 4e 78 b3 bd 21 62 0a be
       -0.10946724 -0.14050551 -0.08763181 -0.13513996
0001d0 6c e3 24 be 87 9a c1 3f 6a 20 51 be b9 3f b1 bf
       -0.1610238 1.5125283 -0.20422521 -1.3847572
0001e0 72 64 c7 bc 62 4e 58 3f 42 b5 85 bd d7 00 a0 be
       -0.024339888 0.844946 -0.06528713 -0.3125064
0001f0 45 e7 2b bd 30 ab 83 bd 05 7d be 3d 59 f9 72 3d
       -0.041968603 -0.06429136 0.09301189 0.059319828
000200 2f 4b 2c bd 25 8c a7 bd 10 20 28 3e ff 40 f4 3d
       -0.04206389 -0.08181027 0.16418481 0.119264595
000210 ff 9c 60 3d b3 f1 11 3d 0f 79 46 bd 2e 90 61 be
       0.054837223 0.035630893 -0.048455294 -0.22027656
000220 cd 92 98 bd e7 48 ec bd 86 50 ac 3d b6 52 d4 3d
       -0.07449875 -0.115373425 0.08413796 0.10367338
000230 f2 2a 09 3e 46 e7 07 bc 05 a5 fc bd f4 cc 47 3e
       0.13395289 -0.008294886 -0.123361625 0.19511777
000240 d7 31 4a 3e e5 a1 47 bf 82 0a 02 3e 79 16 8e 3d
       0.19745575 -0.77981406 0.12699321 0.0693788
000250 63 34 6b be 1a 40 19 be 0b da 3e bc 9d c9 aa 3c
       -0.22969203 -0.14965859 -0.011648665 0.02084809
000260 5f 3d 50 3d 6c 2d 27 be 3e d3 24 be 83 c2 7d 3d
       0.050839778 -0.16325921 -0.16096207 0.06195308
000270 b8 d2 26 3e 38 55 4a 3e 94 97 1e 3e f1 b4 62 bd
       0.1629132 0.19759071 0.1548751 -0.05534834
000280 38 56 29 be 26 df 10 be d9 bd 09 bf 28 c4 37 3f
       -0.16536796 -0.14147624 -0.5380531 0.71783686
000290 58 3e d3 bd fe ee 2c 3e a8 60 89 bd 6c 1d 72 3e
       -0.103146255 0.16888043 -0.06707889 0.23644036
0002a0 58 f3 d8 3e cc 19 c8 3e 54 9b 27 bd 75 6a 8a 3e
       0.42373157 0.3908218 -0.040919617 0.27034345
0002b0 60 6e 8c 3d 28 2a ea 3d 92 31 10 3e 6e 2b cc ba
       0.0685699 0.11433822 0.1408141 -0.0015576908
0002c0 db 4c 16 bd 3a 39 77 3a 98 2f 1e be e8 9b b7 3d
       -0.03669439 0.00094308297 -0.15447843 0.08965284
0002d0 47 4d 3b bd 19 fc 63 3d 1c e8 00 3d 98 21 97 bd
       -0.045727994 0.05566034 0.031471357 -0.073794544
0002e0 90 8f 3c be f4 ba a7 3d 58 4d 0e bf 38 c3 1e bf
       -0.1841414 0.08189955 -0.5558677 -0.6201663
0002f0 8c 69 0b 3e e3 a6 9c bd 03 54 09 be c8 8a 96 be
       0.13614482 -0.076490186 -0.13410954 -0.29402757
000300 b1 26 e7 3e 44 51 e3 be c0 89 30 3e 11 f7 5c 3f
       0.45146707 -0.44397938 0.17240047 0.86314493
000310 df bc 93 3e 76 2b d8 bd 97 66 63 be 0d 35 2f 3e
       0.28855035 -0.105551645 -0.22207104 0.17110081
000320 3b 04 2c 3e 85 9f 5d be b7 fc cc 3d a9 e6 07 be
       0.16798489 -0.21642883 0.10009139 -0.13271584
000330 5b c4 6f be 99 88 dd 3d 1f be 2b be c1 0f bc bd
       -0.23414747 0.108170696 -0.16771744 -0.09182692
000340 5f 9f 54 be 8b 7f 3c be 9b a2 0a bf 08 25 b6 3e
       -0.2076392 -0.18408029 -0.54154366 0.35575128
000350 e0 8c b2 3d 98 24 4f be 84 84 60 be 9d 17 4c 3f
       0.08718276 -0.20228803 -0.2192555 0.7972353
000360 97 78 db 3c ed 03 3c be 10 c2 02 3d fb e8 a8 3e
       0.0267909 -0.18360873 0.031923354 0.3299025
000370 41 55 32 3c 62 29 31 3e c2 7f 09 3d 78 28 ce 3c
       0.010884584 0.17300943 0.033569105 0.025165781
000380 31 8c f5 3d 51 68 fd 3d 77 7e a5 bb 3d 64 f5 bd
       0.1198963 0.123734124 -0.005050476 -0.119820096
000390 66 62 6e bb 45 8d 0b be f3 92 14 be 7f d2 d4 3d
       -0.0036374568 -0.13628109 -0.14509182 0.103917114
0003a0 d9 7b 06 bd d6 a6 a8 3a b2 ae 81 bf 8d 05 0e bf
       -0.032832954 0.0012867104 -1.0131438 -0.5547722
0003b0 8f 48 09 be f1 e3 f2 3d fc a9 dd bd cd 53 39 be
       -0.13406585 0.118598826 -0.108234376 -0.18098374
0003c0 68 7d 0c bf 13 1f 53 bd 06 c4 15 3e 19 19 ae be
       -0.54878855 -0.051543307 0.14625558 -0.34003523
0003d0 2c 6c 0b be 05 72 f9 bd 49 5b 2c be 1e e9 11 ba
       -0.13615483 -0.121799506 -0.16831698 -0.0005566048
0003e0 87 dd 50 3e a2 20 aa 3c c3 e3 15 3b f4 c7 dd bc
       0.20397006 0.020767514 0.0022871352 -0.027072884
0003f0 82 f2 6f 3d ad aa 3b be 09 37 e4 3d 69 12 4f 3e
       0.058580883 -0.18326826 0.111433096 0.20221867

net1.0.bias f4 [64]
000000 f4 bd 79 3c c5 ef fa bd 31 f0 3e 3e ab a6 03 3e
       0.015243042 -0.12252764 0.18646313 0.12856548
000010 c4 b1 7f bd cd 39 37 be b4 42 3b bd 45 fe 9f bd
       -0.06242539 -0.17893143 -0.04571791 -0.0781217
000020 af 36 0d 3e ec 27 31 bc 8b dc 59 3e 7c ab fd 3d
       0.13790391 -0.010812741 0.21275537 0.12386224
000030 9a 77 f1 bd d6 c6 c7 bd 13 da 74 bb 6d 08 9d 3c
       -0.1179039 -0.09754722 -0.0037361428 0.019169057
000040 7f aa 28 be 2c 17 50 3e a4 26 c8 bd f6 d0 f8 bc
       -0.16471289 0.2032134 -0.09772995 -0.030373078
000050 00 5c 75 bd 22 47 95 3c 35 5e 17 be 88 0c 29 be
       -0.05990219 0.018222395 -0.14782031 -0.16508687
000060 25 dd 35 bd 2a 7e 44 bd de a5 85 bc fa 71 0c 3e
       -0.044400353 -0.047971882 -0.016314443 0.13715354
000070 a8 28 5a 3d ff b5 70 bd c6 8b 09 3e e2 b2 55 3d
       0.05326143 -0.058767315 0.13432226 0.05217255
000080 f3 f9 9d 3c fd de 9b 3e 2b b7 2b be 5a ab bf bd
       0.019284224 0.30443564 -0.16769092 -0.093588546
000090 b3 1b 14 be 69 4c f2 bd e3 e2 1a be 64 f5 12 3e
       -0.14463691 -0.1183098 -0.15125613 0.14351422
0000a0 19 6c 70 bd 75 05 dc bd c4 77 6b 3d ba 30 cc bd
       -0.05869684 -0.10743228 0.057487264 -0.09970231
0000b0 08 88 71 3e c4 b2 91 3d b1 b1 e0 3c 60 28 23 3e
       0.23587048 0.07114175 0.02742848 0.1593337
0000c0 51 df fe 3d e7 29 0e 3d e7 68 e3 bd b9 f6 3d bd
       0.12444938 0.03470793 -0.11103993 -0.04637787
0000d0 9b ca ff bd 9c 15 1c 3e 96 87 2e 3e 0f 6f 2e be
       -0.12489816 0.15242618 0.1704391 -0.17034553
0000e0 01 5a 8e bd ff 7a 43 3e 98 48 2a 3e e9 1b 36 3e
       -0.06950761 0.19089888 0.16629255 0.17784084
0000f0 35 66 3c 3e d6 c5 09 3e 06 1d 62 bd d2 6d e1 bd
       0.18398364 0.13454375 -0.05520346 -0.11007275

net1.2.weight f4 [64, 64]
000000 84 24 c5 3d 7c b9 2a bd f7 93 89 3e f6 89 52 bd
       0.096261054 -0.041680798 0.268707 -0.0514011
000010 1a 9f ca 3e 7b d2 34 bd fd 92 50 3e 96 49 c9 be
       0.3957451 -0.044146042 0.20368572 -0.39313954
000020 87 ec 91 3e fb 31 dc bd ca ae b5 3e d2 fb 93 bf
       0.2850077 -0.107517205 0.35484916 -1.1561224
000030 cb 61 b9 3d 1d 49 99 3e 89 a9 92 bf ba 49 97 3e
       0.09051856 0.29938594 -1.1457988 0.29548436
000040 00 97 81 3e 6e 5c 48 3e 2d e8 2a 3d 67 24 0c 3e
       0.25310516 0.19566509 0.041725326 0.13685761
000050 ca 91 b2 3d f9 a4 16 3e 5d a7 1e bf 87 bf 85 3d
       0.08719213 0.1471137 -0.61974126 0.065306716
000060 b6 f2 30 bf 5f b9 b3 3e 5f 43 db 3c 93 99 4f bd
       -0.6912035 0.35102364 0.026765523 -0.05068357
000070 94 0a be 3e 68 d3 04 bf f4 43 94 bf 30 21 10 be
       0.37117445 -0.5188508 -1.1583238 -0.1407516
000080 cd 3e 37 be be bf 87 3e 8a b9 c7 3e 94 27 98 3e
       -0.1789505 0.26513475 0.39008743 0.29717696
000090 f9 51 4f be 5f e7 e6 bd fd 8a fc bd f6 e4 96 3e
       -0.20246114 -0.11274599 -0.123311974 0.29471558
0000a0 98 bd 9d 3d 42 3d bb be 2f ab 9d be cf c9 80 3e
       0.07702178 -0.36570174 -0.30794665 0.25153968
0000b0 dc 46 ac 3e af fa 83 bd 6a ef 98 3e 5e c5 3d 3e
       0.3364781 -0.064442985 0.29870158 0.18532321
0000c0 d1 ac 3e 3f 1d 01 af bd 7e 33 74 be 2b 92 56 3e
       0.74482447 -0.08545134 -0.23847768 0.20954196
0000d0 34 a8 b5 be 1e 43 58 be 17 bf 67 3e 12 dd b6 bd
       -0.3547989 -0.21119353 0.22631489 -0.089288846
0000e0 0e 5b 9f be c3 0f 37 3d cf 32 c5 bd 7a 5e 52 3c
       -0.31124157 0.044692766 -0.096288316 0.012839908
0000f0 90 3e 7d bf f9 ce 6b 3e 2f 3c 6c bc 71 ca fb be
       -0.9892359 0.23028173 -0.014418646 -0.49177888
000100 26 01 9e 3d 67 ba 46 3d 7c cd 14 3d be 0a 25 bd
       0.07715063 0.04851761 0.036328778 -0.040293448
000110 72 3a 1c be 2f c6 a4 3d b5 08 01 3e 51 da 5a be
       -0.1525667 0.08045613 0.12600978 -0.21372344
000120 aa d9 06 be fe a6 88 bd f9 85 ea 3d f4 6a 4a 3d
       -0.1316897 -0.06672476 0.114513345 0.049418405
000130 f9 c2 51 3e a1 05 10 3e 40 2c 6d be b8 98 1e 3e
       0.20484532 0.14064647 -0.23161411 0.15487945
000140 1f 67 dc 3d 8f 8c e9 3d 3a bb 92 3d b7 b4 8c 3e
       0.10761856 0.114037625 0.07164617 0.27481624
000150 f1 8b c1 bc 59 57 34 ba 6f 3a f0 3c c0 7a 5e 3d
       -0.0236263 -0.0006879471 0.029324738 0.054316282
000160 55 80 57 be b1 8b 13 bc 84 49 c4 bb ca f6 0c be
       -0.21045049 -0.009005473 -0.005990209 -0.13766018
000170 ca 24 71 be b7 d3 38 bd 65 7a 34 be fb eb 2a 3d
       -0.2354919 -0.045123782 -0.17624815 0.041728955
000180 9f 1a 30 bd 67 41 2e 3e 60 98 b4 bc b4 59 88 bd
       -0.042994138 0.17017137 -0.022045314 -0.066577345
000190 ad 57 0c bd 97 ce 57 3c 45 59 a5 3d d0 3e 9a 3d
       -0.0342633 0.013171813 0.080736674 0.07531512
0001a0 44 e9 08 3e 45 29 b1 3e 22 67 34 be 56 4d 66 bd
       0.13370234 0.346018 -0.17617467 -0.056226097
0001b0 6c 59 56 be 5e ad 08 bd e3 dd 40 3e 04 99 c0 3c
       -0.20932549 -0.03336846 0.18834643 0.023510464
0001c0 71 5b 53 3e 42 10 9f 3e e7 45 04 3c ae 8f c4 bd
       0.20640351 0.3106709 0.008073307 -0.09597717
0001d0 f2 60 e6 bd 00 36 06 be 6e 09 8d 3d 40 85 88 be
       -0.112489596 -0.13106537 0.06886564 -0.26664162
0001e0 e0 df 9a 3c ed ee 52 bd 16 68 76 bd 89 5c d8 bc
       0.01890558 -0.05149739 -0.060157858 -0.026411312
0001f0 d0 3a 11 bf 5e f3 9e bc 1c d6 b4 bd d0 0c 97 be
       -0.56730366 -0.019403156 -0.088299006 -0.29501963
000200 9b fe 0c 3e ae 39 6b be 94 61 20 3e 29 4f 59 bf
       0.13769 -0.22971222 0.15662223 -0.84886414
000210 04 c0 d7 bc b7 f0 51 bf 82 27 99 3e c7 b7 89 be
       -0.026336677 -0.82007927 0.29912955 -0.26898023
000220 63 24 67 3f 28 b8 1c 3f c6 2d a8 bd cd 08 9f bb
       0.90289897 0.612185 -0.082118556 -0.004853344
000230 74 f6 3d 3c d4 bc 1d bf f2 a6 4a be e7 1f 49 3b
       0.011594404 -0.61616254 -0.19790247 0.0030689181
000240 13 c4 03 3f 40 13 f3 ba ae 3b b3 3d 05 06 54 3e
       0.5147106 -0.0018545166 0.08751617 0.20705421
000250 31 f1 ab 3d 36 37 21 3d 84 d1 59 bf 7e 57 2b bd
       0.08395613 0.039359294 -0.8508532 -0.041831486
000260 a3 b1 5e 3d 1d ab 04 3e 33 ce d8 3d 2a 99 bc 3e
       0.054368626 0.129559 0.105862044 0.36835605
000270 5d 1a 28 be 20 49 cf 3d c0 63 bd bd 23 c0 40 3e
       -0.16416307 0.10121369 -0.092475414 0.18823294
000280 bb ac 77 3e 8d 82 e3 bd 7d 17 02 3f b8 cc 0d 3e
       0.24186985 -0.11108885 0.5081709 0.13847625
000290 6b 79 0b 3f f8 ae a2 be 13 af 1e 3e 94 01 8a 3d
       0.54482144 -0.31774116 0.15496473 0.06738582
0002a0 e6 77 d1 bd 51 71 54 3e e6 d7 0c 3e a6 c9 1e 3e
       -0.10227947 0.20746352 0.13754234 0.1550661
0002b0 e3 8b 46 3f cc 57 1e bd 50 5e 7e bd 62 0c 89 be
       0.775572 -0.03865795 -0.062101662 -0.2676726
0002c0 a2 03 9b 3e 8c ad a7 bd ab d6 43 bf fd 21 fc be
       0.3027621 -0.08187398 -0.7649943 -0.4924468
0002d0 33 01 d3 3e 27 73 a4 bd fb 02 df bd ef 90 00 3f
       0.41211852 -0.08029776 -0.1088924 0.5022115
0002e0 c8 cf 35 bf 01 39 a4 3d a0 59 53 3e 5d 51 6a 3d
       -0.71020174 0.08018685 0.20639658 0.0572065
0002f0 f5 1f 9b bd 8a 33 19 3d 42 e2 5f be 1a 18 94 3e
       -0.07574455 0.037402667 -0.21863654 0.28924638
000300 0a 21 97 3e 48 9a 8c bf 92 87 e5 3d 9e 71 84 3e
       0.29517394 -1.0984583 0.112074986 0.25867933
000310 79 94 50 3f 9c 74 c1 be 1f 50 b4 3e 4a 9c 50 bf
       0.8147655 -0.37784278 0.35217378 -0.8148848
000320 83 4b d7 3e f4 30 1b 3e 19 f6 0e be 4f ba 19 bf
       0.42049798 0.15155393 -0.13961066 -0.6004991
000330 d3 c4 3b be 09 34 0d 3e e7 e7 80 3e 9c 6b 18 bd
       -0.18336801 0.13789381 0.25176927 -0.037212
000340 aa d8 e8 bc f6 26 e8 3d 47 50 64 3d ec ac 96 3e
       -0.028423626 0.11335556 0.05574062 0.29428804
000350 d6 c3 be 3d 6c ad 7b 3e 3a c0 63 3e 35 12 cf bd
       0.093146965 0.24577874 0.22241297 -0.101108946
000360 de 38 65 be 58 99 18 3e 2f 2f 98 be cb 5c 3d 3e
       -0.22384974 0.14902246 -0.29723498 0.18492429
000370 b4 5c 29 bf 88 68 17 be 5e c4 5f bf 35 23 bb 3d
       -0.6615708 -0.1478597 -0.8740901 0.091375746
000380 92 64 56 3e 80 e4 f1 3d cd ba 5e 3d d0 29 f4 3e
       0.20936802 0.11811161 0.054377366 0.4768815
000390 ad 2a 38 3e 1a dd 8a 3e 1f 69 80 3e ca 3e 39 be
       0.1798503 0.27121812 0.250802 -0.18090358
0003a0 48 84 8f 3d e5 96 68 3e a7 68 a3 be 23 ea 9b 3e
       0.070076525 0.22713812 -0.3191578 0.3045207
0003b0 cc 86 81 3f 6c b5 a8 bc b4 91 ec bd 83 d7 06 bf
       1.0119262 -0.020594321 -0.11551228 -0.52672595
0003c0 57 e1 d5 3c 6a 58 fe bd 3f 70 1b be 40 bc ba 3e
       0.026108427 -0.124192074 -0.15179537 0.36471748
0003d0 c8 6b e0 be 4f e9 d3 3c e5 32 d1 bd ae cf 1d 3e
       -0.4383223 0.025868086 -0.102147855 0.15411255
0003e0 24 19 d5 bd 28 b2 5b 3d bf 27 44 3d fc aa 71 bc
       -0.10405186 0.0536367 0.047889467 -0.0147502385
0003f0 a0 12 c3 be d9 18 d9 bd 45 99 10 3e dd 39 25 3e
       -0.38100147 -0.106004424 0.14120968 0.16135354

net1.2.bias f4 [64]
000000 26 ec b3 3d 38 95 a0 bd 0d 49 6e bd de f9 8c 3d
       0.08785276 -0.07840961 -0.058175135 0.06883596
000010 e7 58 ef bc 79 3e 86 bd 14 c5 0d be 0a 42 29 3d
       -0.029217197 -0.065548845 -0.1384471 0.041322745
000020 6d 35 b9 3d 94 d4 69 3d 24 e5 00 be c5 4d 90 bd
       0.09043393 0.057087496 -0.1258741 -0.07046083
000030 c0 8e ac bd bd d6 dc 3d 93 60 36 bd c9 d3 28 3d
       -0.08425665 0.107831456 -0.044525694 0.0412176
000040 c3 14 f5 3c 8b 9d 94 bd 8c 2b 1b bd cf 59 d5 3d
       0.029917127 -0.072566114 -0.037883326 0.1041752
000050 43 15 80 3d 38 01 23 3c 82 5f f4 bc 03 83 fd 3c
       0.06254055 0.009949021 -0.029830698 0.03094626
000060 cd d0 c8 bd ad 9c 95 3d 58 3f 1f bd 34 1f 84 be
       -0.098054506 0.07305274 -0.03887877 -0.25805056
000070 fe 5f bb 3c 79 9d 27 be f8 05 de bd 79 de 2d bd
       0.022872921 -0.16368665 -0.10840982 -0.042448495
000080 56 43 df bd de 80 b4 3d 94 57 50 be 06 0f 5d 3d
       -0.10901515 0.08813642 -0.20345908 0.053969406
000090 2e a1 bd bd df 4e b1 3d 60 3f 9c bd c4 01 74 bc
       -0.09259258 0.086576216 -0.07629275 -0.014892999
0000a0 4d fd 0c be 55 5f 53 bd 06 e2 ca bc 2c f0 a6 bd
       -0.13768502 -0.051604588 -0.02476598 -0.08151278
0000b0 13 ac 62 3b 5e 54 86 bd 64 d9 7a bc b3 db 3e be
       0.0034587428 -0.065590605 -0.015310619 -0.18638496
0000c0 7e 46 c4 bd 03 de a3 3d cd e1 23 3d f2 79 8d 3d
       -0.09583758 0.0800133 0.040010262 0.06908025
0000d0 b1 40 3b 3c 36 1a 66 be 5c 8d e8 bd 8a 90 ab bd
       0.011428998 -0.22470936 -0.11355087 -0.08377178
0000e0 51 2a a4 3d f3 f8 e8 3c 61 c4 ec bd 3e fe 0a be
       0.08015884 0.02843902 -0.11560894 -0.13573548
0000f0 4c 3a 92 bd 3c 13 0d 3b c5 14 8a bc 54 ec 11 3d
       -0.071400255 0.0021526357 -0.016855607 0.03562577

net1.4.weight f4 [1, 64]
000000 90 e7 25 bf 74 c7 61 3e 34 27 bc be 54 23 15 bf
       -0.6480646 0.22048742 -0.3674866 -0.5825703
000010 54 34 86 be 10 89 30 3f 70 26 12 bf 1b e7 0e bf
       -0.26211798 0.6895914 -0.570899 -0.5582139
000020 3f 01 d0 3e a0 9a ab be 62 c5 47 bf 98 ad 42 3e
       0.4062595 -0.33516407 -0.7803556 0.19011533
000030 79 8d 59 3f ed e2 75 bf 6e a2 0d 3e b1 b1 f6 3e
       0.84981495 -0.96049386 0.13831493 0.48182443
000040 e4 97 cb 3e bf f7 ed 3e 03 cb 86 3f 38 74 35 3f
       0.3976432 0.46478078 1.0530704 0.7088046
000050 5b 80 0b 3e 08 2f 04 3f 73 56 bc 3e ba bc 30 3f
       0.13623182 0.51634264 0.36784706 0.69037974
000060 b6 55 31 bf 52 3f 95 3e 10 fa 8e be fc 0f 94 be
       -0.6927141 0.29149872 -0.27925158 -0.28918445
000070 5c a9 ec 3e 1f f7 10 bf 1e 06 f9 be d4 76 52 be
       0.4622296 -0.56627077 -0.4863748 -0.20553142
000080 0a 46 94 bf 07 f1 a4 3e ba 88 a2 be 99 d2 79 bf
       -1.1583874 0.3221514 -0.3174494 -0.9758697
000090 e7 ce 7b be 66 90 a2 3e 08 08 94 be cc 1c e1 3e
       -0.24590646 0.31750792 -0.28912377 0.43967283
0000a0 78 12 9a be 45 4e ed 3e 2c 4f aa be 2c 1d de be
       -0.30092216 0.46348777 -0.33263528 -0.4338163
0000b0 74 01 2b 3e 15 4c de be f0 f9 51 bf 42 8f 8b be
       0.16699773 -0.4341742 -0.82022 -0.27257735
0000c0 c9 63 47 3f b0 bf 29 bf 08 d4 e8 be d2 b8 32 3e
       0.77886635 -0.66308117 -0.45474267 0.17453316
0000d0 8f ad db 3e 72 74 d1 be 92 0b cd be 15 f9 fb be
       0.42905852 -0.40909153 -0.4004789 -0.49213472
0000e0 fa 54 59 3e e5 2e f5 3e 92 b2 76 3f ef 8a 2b bf
       0.21223822 0.4788734 0.96366227 -0.6700887
0000f0 fe d4 02 3f b2 f2 ad 3e 9b 1f b5 be e6 83 df be
       0.5110625 0.33974224 -0.35375676 -0.43655318

net2.0.weight f4 [64, 24]
000000 f6 74 0e 3e 78 12 00 bf f4 39 39 be 1f 5d af 3e
       0.13911805 -0.5002818 -0.18088514 0.34250733
000010 12 2f 06 3e 1c 08 0a 3d 9f 1e 0f 3e 99 b7 10 3e
       0.13103893 0.03369914 0.13976525 0.14132537
000020 c7 72 ed bd 25 1d b0 3d e4 4a c6 bc 89 12 9c 3d
       -0.11594158 0.08599309 -0.024205633 0.07620723
000030 eb 7e 1d be 95 df 43 3e d9 8c c3 3d fd e8 1f be
       -0.15380447 0.19128259 0.09548349 -0.15616222
000040 37 b8 2d 3e d9 64 18 be 31 df 23 3c b3 74 ab be
       0.16964804 -0.1488222 0.010001943 -0.33487472
000050 4a 43 a7 bd b5 80 1c bf ed 29 19 3e f3 a4 16 3d
       -0.08167131 -0.6113389 0.149574 0.0367784
000060 8d 26 15 c0 53 3e 20 3e 6c 85 28 3e 5e 1b 86 bf
       -2.330478 0.15648775 0.16457146 -1.0477102
000070 1b b5 57 3e 00 dd ae 3d fe d0 cd bd a8 1e 8a bd
       0.2106518 0.08538246 -0.10049628 -0.067441285
000080 58 9f 43 3d 30 25 6c bd 0e a0 a2 bc 86 4f 67 3d
       0.047759384 -0.057652652 -0.01985171 0.056472324
000090 a8 bd ec 3d 50 0b e3 bd 0d 95 86 3e 6e f7 8b bd
       0.115596116 -0.11086142 0.26285592 -0.06834303
0000a0 f9 ca df bd d5 6d cf 3d 7d 5c 14 be 84 50 ab 3d
       -0.10927386 0.10128371 -0.14488406 0.083649665
0000b0 20 6a 9e bc a5 ab 83 bf 81 a5 d7 be e6 e6 99 3f
       -0.019337714 -1.0286757 -0.42118457 1.202359
0000c0 d9 ff a7 3e 2a 3f a3 be 08 a8 70 bd a2 d0 69 3d
       0.32812384 -0.31884128 -0.058753997 0.057083733
0000d0 68 f1 20 3e 70 2c 5b 3c eb fd 93 bd 55 36 8e bd
       0.15717089 0.013377294 -0.072261654 -0.06943957
0000e0 d7 b7 a0 3d 03 19 5b be 63 fe 43 be ed 30 f1 3d
       0.07847565 -0.2139626 -0.1914001 0.1177691
0000f0 97 39 27 be b5 f3 00 be 4f 48 bf 3c b1 98 40 3e
       -0.16330563 -0.12592967 0.02334991 0.18808247
000100 f6 2f 57 be a8 b5 d8 3d 66 1d 19 be 06 c9 ed be
       -0.2101439 0.10581523 -0.14952621 -0.4644243
000110 fd 16 b7 bd 2c 54 6b be 72 97 df be a6 0b 02 3f
       -0.089399315 -0.22981328 -0.4367023 0.50799024
000120 53 34 67 3e 78 d9 fe 3e 00 d3 97 3d 68 14 51 3e
       0.22578554 0.4977529 0.07413292 0.2041794
000130 15 7e d8 3c ba a8 0a 3e 90 e1 22 bc 2d 75 83 bd
       0.026427308 0.13540927 -0.009941474 -0.06418834
000140 10 41 3b 3d 2d ed b2 3d a7 96 3f be e7 50 aa bd
       0.045716345 0.08736644 -0.18709813 -0.08316212
000150 35 fa 26 be ba 37 64 bd 15 63 1a be 6d e4 b4 bd
       -0.16306384 -0.055717207 -0.1507686 -0.08832631
000160 2c 35 36 3e 28 8b 1e 3e 25 aa ca bd ed a6 45 3f
       0.17793721 0.15482771 -0.09895734 0.77207834
000170 b0 24 1b 3e 82 8a a1 3e 69 04 47 3e 50 de c3 bb
       0.15150714 0.31550986 0.19435276 -0.0059774294
000180 49 47 4e bf f9 e6 0d be 49 51 ab bd 9a 20 07 bd
       -0.8057752 -0.1385764 -0.08365113 -0.032990076
000190 85 f2 5b bd 9a 3c 3b be 3c b0 2a be d6 d9 1b 3e
       -0.05369808 -0.18284836 -0.1666879 0.15219817
0001a0 ca 4a 08 be 7b 2d 2c bc 23 12 a0 3d a2 6d 3c 3e
       -0.1330978 -0.01050889 0.07815959 0.18401197
0001b0 77 e4 87 bd 07 b4 2f 3d 70 d6 12 3e f8 e9 11 3e
       -0.06635373 0.042896297 0.14339614 0.14249408
0001c0 6d ac 5b 3d 2f ec 07 3e ab 1c 70 bc db 20 c0 3d
       0.053631235 0.1327369 -0.0146552725 0.09381267
0001d0 c4 c3 2e 3e 19 db 2f bd 62 bd 58 3e 7c 61 75 bd
       0.17066866 -0.042933557 0.21165994 -0.05990742
0001e0 94 5c f5 be 66 6f fb be 58 df ff 3d 72 b3 d4 be
       -0.47922194 -0.49108428 0.12493771 -0.41543156
0001f0 5f 56 86 be b9 16 42 be 4d f9 2a be 62 f9 29 bd
       -0.2623777 -0.1895398 -0.16696663 -0.041497596
000200 89 22 05 3e 28 92 56 3d 5b 08 85 bd 36 e9 2f 3d
       0.13001455 0.05238548 -0.06495734 0.042947017
000210 6a e9 11 3c 73 3f 08 3e 60 dc 07 3d cd 0d aa bd
       0.008905748 0.13305454 0.03316915 -0.083034135
000220 ab 05 12 3e 99 f6 1a 3e 7c 2c 36 3f 36 fb 6b 3e
       0.14259975 0.15133132 0.7116163 0.23045048
000230 40 85 f1 bc ec ae 9e 3e 88 87 84 be b8 a5 75 bc
       -0.029482484 0.3099283 -0.25884652 -0.014993124
000240 34 64 3f 3e 13 49 4d 3e 06 f0 3b be 8b 72 75 3f
       0.18690568 0.20047407 -0.1835328 0.95877904
000250 c0 af 57 3e 40 e9 56 3d 92 c0 69 be f7 c2 9f 3d
       0.21063137 0.05246854 -0.22827366 0.078008585
000260 37 ab d8 3d 44 38 fe 3d 2d 40 d8 bd 47 b7 d0 3d
       0.10579532 0.124130756 -0.105591156 0.101912074
000270 88 08 6b be 04 fe 44 be b8 65 5b be ba 96 50 be
       -0.22952473 -0.19237524 -0.21425521 -0.20369998
000280 a0 4f 63 3c 54 f5 0c be 97 5c 02 bf e9 38 03 bf
       0.013873965 -0.1376546 -0.5092253 -0.51258713
000290 88 fa f6 3d 76 25 7f 3f 60 a6 26 3f 3b 30 e8 be
       0.12059504 0.99666536 0.6509762 -0.45349297
0002a0 77 81 6b bd 49 5d 05 bf e8 1f 67 3d 9e 61 6b be
       -0.057496514 -0.52095467 0.056426913 -0.22986457
0002b0 57 c6 52 3e a0 c0 4e bd 14 3c 55 3e f6 ac 16 3e
       0.20583473 -0.05047667 0.20823699 0.14714417
0002c0 86 48 32 3e ba 23 f2 3c 3d 96 79 bd 96 c9 8a 3d
       0.17410478 0.029558051 -0.060934294 0.06776731
0002d0 96 bc 9f bd cc a5 18 3e ed 1b 0a bd a8 6d 43 be
       -0.07799642 0.14906996 -0.03371804 -0.190848
0002e0 c8 57 35 be 90 eb 2d 3e 89 9d 06 bb 58 a9 e3 be
       -0.17709267 0.16984391 -0.0020540676 -0.44465137
0002f0 78 0b 3b 3d 12 a4 a7 3e 2f bd 6d 3e 37 94 8d bd
       0.045665234 0.32742363 0.23216699 -0.06913035
000300 8a 42 7e bd c5 ed 6a be b7 71 f5 bd d7 f8 f5 bd
       -0.062075175 -0.22942264 -0.1198458 -0.12010353
000310 86 35 9a bd 88 d6 50 3d b3 12 ef bd c8 5e 1e 3e
       -0.0752974 0.050985843 -0.116734885 0.15465844
000320 c1 3c b8 3d 4a d1 5b 3e b2 b7 67 3d 65 cc c7 3d
       0.08995963 0.21466556 0.05657167 0.09755782
000330 9e 02 17 3d 62 78 dd 3b 9c e8 27 be 8e 03 6c bd
       0.03686773 0.0067587355 -0.16397327 -0.057620578
000340 86 2b 42 3c 64 9c 9f 3d 0a 07 da 3f 41 a9 b2 3d
       0.011851197 0.07793501 1.7033398 0.08723689
000350 fe 20 1b 3e 15 61 60 3d 63 a6 9c bc c0 05 70 3c
       0.15149304 0.054780085 -0.019122308 0.014649808
000360 49 83 22 3e ac 86 aa 3e 4e 4b 3a 3e 2d 50 b4 3d
       0.15870394 0.3330587 0.18192789 0.08804355
000370 78 55 be 3d 10 68 18 3e 54 ae 0c 3e e8 33 9a bd
       0.092936456 0.14883447 0.13738376 -0.075294316
000380 39 5e e1 bc 08 3c 1a be a2 11 d8 3d 36 31 df bb
       -0.02751075 -0.15061963 0.10550238 -0.0068112863
000390 d4 23 58 3e fa d1 af bd 42 1c 09 be 10 98 a1 3d
       0.21107417 -0.08584972 -0.13389686 0.07890332
0003a0 49 bc 10 3d c3 78 0f be a6 2e cf bf 99 6a 36 be
       0.035335813 -0.1401091 -1.6186111 -0.17814101
0003b0 88 67 ff 3d 8e f0 c9 bb 92 76 5c be 5c 11 df 3c
       0.12470919 -0.0061627096 -0.21529606 0.027229957
0003c0 2c fd 30 be 89 50 04 3f 96 79 83 bd 02 d4 db bd
       -0.17284077 0.51685387 -0.06419675 -0.10733797
0003d0 21 73 dc 3e 7c eb 34 3e b2 97 c6 3c 7c 41 09 be
       0.43056586 0.17667955 0.024242256 -0.13403887
0003e0 e6 f4 38 3e 32 05 13 be b2 64 91 3d 86 73 17 be
       0.18062171 -0.1435745 0.07099284 -0.14790162
0003f0 88 79 5f be e0 ae d5 bd e2 2b 24 3e d4 03 ba bd
       -0.21823704 -0.104337454 0.16032365 -0.090827614

net2.0.bias f4 [64]
000000 f5 92 72 3d 42 69 dc bc 43 9e a0 3d 74 a7 fb bb
       0.05922218 -0.02690566 0.07842686 -0.007679874
000010 da 43 25 3e 6e 4f 4e 3d 1b bd 89 be c9 63 69 3d
       0.16139165 0.05036872 -0.2690209 0.05697993
000020 0a c0 a1 bc b7 8e 8f 3d 5a 3e f8 3d 23 53 9d 3d
       -0.019744892 0.070096426 0.121212676 0.07681873
000030 4b 88 05 be e8 4f 5e bd 8d fb d9 bd 42 aa af bd
       -0.13040273 -0.054275423 -0.10643683 -0.08577396
000040 89 5f fe bc a6 4c 0c 3e 3f 93 52 3e 7e 0b 53 bc
       -0.031051414 0.13701114 0.20563982 -0.012881158
000050 b1 db 51 3e d1 62 86 bd 22 33 e4 bd 36 65 1f 3e
       0.20493962 -0.065618165 -0.11142565 0.15565953
000060 04 b3 92 bd 3d 2d 38 be 18 e2 ab bd d1 e7 7c bc
       -0.07163051 -0.17986007 -0.08392733 -0.015436129
000070 d6 23 13 be c9 a0 05 3d be 1d d5 3d 27 b4 a6 3d
       -0.14369139 0.03262404 0.104060635 0.0813983
000080 49 4b c1 3d 83 70 fa 3c 96 20 a5 3c e3 d3 91 3d
       0.09438188 0.030571228 0.02015714 0.07120492
000090 dc 49 f8 bd 9a 81 28 be 2d f3 11 3e b5 46 30 3e
       -0.121234626 -0.16455689 0.1425292 0.17214473
0000a0 e6 e4 15 be 2f 16 4f 3b 51 2f e2 3c 9c e6 45 be
       -0.14638099 0.0031598916 0.027610453 -0.19326252
0000b0 aa 14 3f 3e 69 f5 dd 3d 74 51 b5 3c 2c bc 58 3e
       0.18660226 0.10837824 0.022133566 0.21165532
0000c0 fa e0 9d bd 71 9c 46 bd 59 64 0b be 20 be 3a 3d
       -0.077089265 -0.048489038 -0.13612498 0.045591474
0000d0 5d 23 1a 3e ca e1 00 ba bc 90 4d 3e 7b 25 db 3d
       0.15052553 -0.00049164577 0.20074743 0.10700508
0000e0 f8 2a 87 3e 2c 56 1e 3e 50 29 fc 3d 20 e5 cd bc
       0.2639997 0.1546256 0.12312567 -0.02513367
0000f0 4c 3b 16 3e 75 64 02 3e 00 39 20 be d6 41 09 be
       0.14671057 0.12733634 -0.15646744 -0.1340402

net2.2.weight f4 [64, 64]
000000 6c e6 31 be e0 12 ef bd 4c 20 cb 3d 5b e5 6c bc
       -0.17373055 -0.11673522 0.099182695 -0.0144589795
000010 5c 09 83 3d 6a 49 d4 3d 41 a6 67 3d 38 08 80 bb
       0.063982695 0.10365565 0.056555036 -0.0039072298
000020 a6 dc 09 3b ac 17 58 3c cd da ff 3d a3 f7 a4 bc
       0.0021036058 0.013189238 0.12492905 -0.020137614
000030 8a 1a 66 3d 07 8d 81 3c 75 24 91 bd 44 f7 c2 3d
       0.056177653 0.015814317 -0.07087032 0.095198184
000040 c3 d4 61 3d d4 5f 91 bc 38 55 06 be a4 6d cd bd
       0.055134546 -0.01774589 -0.13118446 -0.10030678
000050 18 8b 1d bc 60 6b 65 bd de 0e 66 3d 5e 24 2a 3e
       -0.009615682 -0.056010604 0.056166522 0.16615435
000060 6c 63 98 bd 1e 62 2e 3c 21 ea 71 bd a7 99 80 3b
       -0.07440838 0.01064351 -0.059061173 0.003924567
000070 45 56 83 3c 9d 11 c9 3d 01 76 8b 3d cf fa 90 3d
       0.016032347 0.098178126 0.06809617 0.07079088
000080 3b 03 65 bd 87 dc 0f be ee 08 ac bd 08 71 0a be
       -0.055911284 -0.14048968 -0.08400141 -0.1351968
000090 cc 85 04 3d 8f bf 2a 3d 03 a7 0d be 1e e4 98 bc
       0.03235416 0.04168659 -0.13833241 -0.018663462
0000a0 cc 8a f4 bd 31 13 4b bc 4f 0e c7 bb b4 32 69 3d
       -0.11940536 -0.012394712 -0.0060747038 0.05693312
0000b0 be 90 87 bd 32 5f 02 bd 09 9e a8 bd ec 23 14 3d
       -0.06619404 -0.031829067 -0.08233268 0.03616707
0000c0 cd ec 2c 3d e7 a8 19 bd f3 7f 1c 3c 67 b1 27 3e
       0.04221802 -0.037514593 0.00955199 0.16376267
0000d0 50 a4 37 bc e0 a0 44 3c 74 21 43 3d 75 82 4c 3d
       -0.011208609 0.012001246 0.047639325 0.0499291
0000e0 14 4f 40 bc 31 3d 17 3d bc ce e5 bd 0a 40 da 3d
       -0.011737604 0.03692359 -0.11221072 0.10656746
0000f0 e1 2c 37 3d 53 17 f5 bd 81 4c a7 bc c4 fc 46 bd
       0.044720534 -0.11967339 -0.020422222 -0.0485809
000100 77 ef 35 3d cc 50 f8 3d 69 2a a3 3d ad 5d 27 be
       0.044417825 0.12124786 0.079670735 -0.16344328
000110 a4 08 ef 3e bd 38 d8 3e 38 83 1c be 2b 15 5c 3e
       0.4668628 0.42230788 -0.15284431 0.2149245
000120 a7 a2 32 3e 67 78 ef bd b7 b3 17 3e e6 7c 15 be
       0.1744486 -0.11692887 0.1481465 -0.14598426
000130 c6 da 00 bf 73 aa 12 3e c9 95 46 3d 7e 83 8f 3e
       -0.5033382 0.14322834 0.04848269 0.28030008
000140 4d 6e 39 3e 63 8e 0b be ab 52 91 3d cb 7e 30 be
       0.18108483 -0.13628535 0.07095846 -0.17235868
000150 d0 33 b3 be 95 61 67 be 07 df 1b be c5 6b b9 3e
       -0.35000467 -0.22595818 -0.15221797 0.36215034
000160 73 24 6b be 23 d4 37 bd d3 43 be bc ce 26 3f 3d
       -0.22963123 -0.044880044 -0.0232257 0.046667866
000170 02 8b 9c 3e e3 57 00 bd e6 c3 10 be b7 a4 06 be
       0.30574805 -0.031333815 -0.1413723 -0.13148771
000180 58 0f 68 be d5 37 30 be 5d 80 a2 bd c0 48 e1 3d
       -0.22662103 -0.17208798 -0.079346396 0.11000204
000190 1a fd 8e 3e 7e 35 df be 9f 2c d7 3d e0 bc 01 be
       0.27927476 -0.435955 0.10506558 -0.12669706
0001a0 e7 fc bd bc 2a b9 05 bf 74 fa c0 3d 71 9c ed 3d
       -0.023191882 -0.5223566 0.0942277 0.116021045
0001b0 fe e7 d7 3e 01 7a ad 3d f5 72 af be 33 57 06 be
       0.42169183 0.08470536 -0.34267393 -0.13119201
0001c0 f9 f6 09 3d d9 4a d1 bd db b3 9f bd df 98 9d 3e
       0.033682797 -0.10219354 -0.077979766 0.30780694
0001d0 ef dc d3 3d a9 d7 ff 3c 01 65 f6 bd b6 be ea bd
       0.10344874 0.031230764 -0.12030984 -0.114621565
0001e0 dc e7 5a bd 60 1c 0f 3e cc e0 14 3e fa 40 ae bd
       -0.053443775 0.13975668 0.14538878 -0.08508487
0001f0 d3 cd 28 3e 08 32 42 bd d0 b4 9e 3d ef 66 57 bd
       0.16484766 -0.047410995 0.07749331 -0.0525884
000200 b9 33 f4 bd 58 21 22 3d 33 28 74 bc f2 0c 5d 3e
       -0.11923928 0.03958258 -0.014902162 0.2158697
000210 85 83 3e bf 55 59 c5 be 0f 3e 27 be a7 bf 59 be
       -0.7441943 -0.38544717 -0.16332267 -0.21264516
000220 c5 77 83 3e d1 f5 4b 3d 0b 95 04 bd d7 1c 8f be
       0.25677314 0.049794976 -0.0323687 -0.2795169
000230 18 7b 91 3d 07 24 66 bd 63 35 77 bd 0f 29 9a 3e
       0.071035564 -0.056186702 -0.060353648 0.3010945
000240 be ee b7 bd 48 5f 81 bd 7c b6 d7 bd ea d6 82 bd
       -0.08981083 -0.063170016 -0.10532853 -0.06388648
000250 e4 68 57 be fd 9f 81 bc 2b 95 cd 3d d2 d8 a6 3e
       -0.21036106 -0.015823359 0.10038217 0.32587296
000260 88 d8 b7 3e fa c3 8e bd c4 ac 69 bd 28 90 06 3e
       0.35907388 -0.06970973 -0.057049528 0.13140929
000270 ef b4 33 bf 95 90 4d 3d 38 ce a6 bd 0d dc 1b be
       -0.7019796 0.050186712 -0.08144802 -0.15220661
000280 1f 9a 81 bd 16 9c 3f be ef 4b 49 bd fe 8d e5 be
       -0.063282244 -0.18711886 -0.04914468 -0.44834894
000290 40 5f 1c bf da ee 05 be db 20 61 be d3 5b 67 bc
       -0.6108284 -0.13079396 -0.2198519 -0.014121014
0002a0 30 74 34 bd 57 0e 3f 3d 91 d0 f0 3c 4b 61 01 3e
       -0.044056118 0.046644535 0.029396327 0.1263477
0002b0 61 2b 06 bf e0 c3 fd bd ca ed 77 3e 21 6c 45 3e
       -0.5240994 -0.12390876 0.24211803 0.19279529
0002c0 15 1c 8a bd b2 7c 05 bd 27 87 bf bc af 63 56 bd
       -0.067436375 -0.03258962 -0.023379875 -0.05234116
0002d0 1b e5 35 3d 03 84 8d 3c 69 11 63 be 83 3a ba be
       0.044407945 0.017274862 -0.2217461 -0.36372766
0002e0 a7 84 2d bc 55 61 34 bd c1 41 4f bd e6 b3 8a 3e
       -0.010590709 -0.044038136 -0.050599817 0.27090377
0002f0 06 d7 bd bc dc fe 0e bf f5 96 91 3d fe 4f 56 bd
       -0.02317382 -0.55857635 0.07108871 -0.05232238
000300 eb 3a d7 3d 98 70 78 3d 79 5e 1c 3f 25 e4 02 3e
       0.105092846 0.060654253 0.61081654 0.12782343
000310 00 ea b3 be d9 7d 59 3e 99 fb aa 3f 06 09 9a bd
       -0.35139465 0.21239413 1.3358032 -0.07521252
000320 af ff ca be 2c 13 5d bd 1b 37 33 3e 76 95 23 be
       -0.39648196 -0.05397336 0.1750149 -0.15974984
000330 85 7e 70 3b 01 5b 15 bf da 89 6a 3d 0b cb ca 3e
       0.0036696505 -0.58341986 0.05726037 0.39608034
000340 9c 40 e0 bd 77 5a 5e bd ec 48 04 be be f5 43 3f
       -0.10949823 -0.054285493 -0.12918442 0.7654685
000350 53 3d 8a be df 1a b7 3d bc ec 29 be 68 fd bd 3e
       -0.26999912 0.08940672 -0.16594213 0.37107396
000360 76 29 0b 3f a6 86 8f 3f 10 83 8a 3d b4 b5 c4 3d
       0.5436014 1.1212966 0.067632794 0.096049696
000370 92 7e b8 be e0 36 a9 3a d0 c7 25 be 63 c6 d0 3d
       -0.36034065 0.0012910031 -0.16189504 0.10194089
000380 b5 41 4d 3d ee 91 5a 3f 8d b5 e9 3a ac 0d e9 bd
       0.05011149 0.8537892 0.0017830596 -0.11379561
000390 c2 5b 83 bd ae 69 6e bd 50 f6 28 3e c3 7e fd 3d
       -0.06413986 -0.058206253 0.16500211 0.123776935
0003a0 37 fe 2d 3e b5 0b 8a be a7 69 fe bc a6 df 69 3e
       0.16991507 -0.26962057 -0.031056238 0.22839221
0003b0 ad 70 e6 be 64 bb af 3f c7 25 d6 3d dc ea 7a be
       -0.4500784 1.3729062 0.10456424 -0.24503654
0003c0 40 64 8e bd d1 7f 35 3d 99 a0 72 3f 32 23 a2 be
       -0.06952715 0.04431135 0.947763 -0.31667477
0003d0 b7 ee 83 3d b4 37 49 3c ba 33 c7 3e 4e 19 0b 3f
       0.064420156 0.012281347 0.38906652 0.54335487
0003e0 35 9a 7b 3c f8 c5 04 3f c6 8f fc 3e 30 15 43 3f
       0.01535659 0.51864576 0.4932844 0.76204205
0003f0 58 93 a3 be 53 e8 68 be 86 ee 1d be d8 71 84 3d
       -0.31948352 -0.22744875 -0.1542302 0.064670265

net2.2.bias f4 [64]
000000 c9 93 8f 3d 8a 95 08 3d 25 d8 ae bd b6 90 30 be
       0.0701061 0.033345737 -0.0853732 -0.17242703
000010 b3 ff d6 3d 84 2a 99 3d b0 d7 4e bd 38 8d cf 3d
       0.104979895 0.07478812 -0.050498664 0.10134357
000020 e5 16 a6 3d 6a 15 7e bd 37 3d 0c bc 5c 07 4c bc
       0.081098355 -0.06203214 -0.008559517 -0.0124529265
000030 6e 01 9e bd 56 98 5b bd 19 d9 09 3d 10 c0 17 3e
       -0.077151164 -0.053612076 0.033654306 0.1481936
000040 a9 b7 7f 3d 3f d8 01 ba 01 58 c0 3d 0f 3b 09 bd
       0.06243101 -0.00049531827 0.093917854 -0.03350359
000050 c0 98 fe bc 34 f6 35 3d d0 fc 0d be 4e 85 b9 3d
       -0.031078696 0.04442425 -0.13865972 0.09058629
000060 ed f8 9e bd 57 5c 59 bd 06 2e ad 3c 64 fa 89 3d
       -0.077623226 -0.053066578 0.02114011 0.06737211
000070 8a 83 d1 3d d1 8e 8c bd e2 43 71 3c 2b da a5 bd
       0.10230167 -0.068631776 0.014725657 -0.08098253
000080 e5 f5 1d 3d 3c 1b 16 be 95 e9 d1 bd e9 24 11 be
       0.03856458 -0.14658827 -0.1024963 -0.14174236
000090 cc c4 94 bd 7e 68 55 3d 6d 06 fb 3d 99 79 2d 3c
       -0.072640985 0.052101605 0.12257085 0.010588073
0000a0 fa 26 b7 bd e3 a8 10 3d 5c c5 bf bb 08 75 f2 3d
       -0.08942981 0.035317313 -0.0058523845 0.11838728
0000b0 86 75 63 3b 85 cd 87 3d 56 2c 82 3c cc b8 4b be
       0.00347075 0.066309966 0.015890282 -0.19894713
0000c0 c7 4b c8 3d 20 30 fd 3c 67 52 e2 3d 6f 65 77 3d
       0.097800784 0.030906737 0.11050873 0.06039947
0000d0 7f 59 f3 3c 1e e4 1d be 18 06 06 bd fa 11 bf 3d
       0.029705761 -0.15419051 -0.032720655 0.09329601
0000e0 c2 33 26 be 69 7c 92 bd c9 7b 21 3e 6e 51 f7 3d
       -0.16230682 -0.071526356 0.15769877 0.12076078
0000f0 c0 a6 06 bd 01 fd 7b bd fb d0 2f be 3c b8 30 be
       -0.03287387 -0.06152058 -0.17169563 -0.1725778

net2.4.weight f4 [1, 64]
000000 00 8e 9b 39 ea 4e c5 3e 22 e1 e2 3e e4 c2 b9 be
       0.00029669702 0.3853677 0.44312388 -0.36281502
000010 95 2c a2 3e c4 a4 64 bf 41 35 1c bf 1e bf 10 3e
       0.31674638 -0.8931391 -0.6101876 0.14135405
000020 89 7b 27 3e f2 b5 12 bf 6a 03 20 3e 78 b1 06 3e
       0.16355719 -0.57308877 0.15626302 0.13153636
000030 dc eb 1d 3e df 96 13 3f 97 20 f2 be d1 4b 6f 3e
       0.15422004 0.57652086 -0.4729049 0.23368765
000040 4d 72 8b bf da 0a 69 bf f5 bc c8 3e 85 57 88 bf
       -1.0894257 -0.91032183 0.39206663 -1.0651709
000050 f6 e5 3f 3e b8 94 7c 3f da 53 a8 be 77 43 20 3e
       0.18740067 0.98664427 -0.32876474 0.15650736
000060 cc a8 cf 3e e4 44 8e 3f 77 bc 44 3e bf 46 2d 3e
       0.4055847 1.1114774 0.19212519 0.16921519
000070 a1 73 ba 3e e9 32 2a 3f e6 39 1e 3e b2 2a cb be
       0.36416343 0.6648393 0.15451774 -0.3968101
000080 dd ac 2e 3e 12 64 39 bf 80 1f 34 bf bd 06 f2 be
       0.1705813 -0.7241832 -0.70360565 -0.47270766
000090 5a d7 ac be e6 97 64 3e cf ba 13 bf ae 39 22 3e
       -0.3375805 0.2232357 -0.5770692 0.15842316
0000a0 9f 9d fb 3e b8 4b 31 bf e6 b7 2f bf 03 23 26 bf
       0.49143693 -0.6925616 -0.6863998 -0.64897174
0000b0 a1 3e 8a 3f 07 66 ae 3e a3 45 1e 3f 2c c1 c5 be
       1.0800363 0.34062216 0.6182501 -0.3862394
0000c0 26 5c e0 be e4 a2 fb 3e 22 8f 4d 3e 70 d7 2f 3e
       -0.43820304 0.49147713 0.20074132 0.17172027
0000d0 4d 35 18 bf 78 2d 45 3e 32 c1 08 3f 24 48 36 bf
       -0.5945633 0.19255626 0.5341979 -0.7120383
0000e0 83 15 1f bf 26 04 6e 3e 96 a2 6e bf 6e 08 03 3f
       -0.621422 0.2324377 -0.93216836 0.5118474
0000f0 a8 32 03 bf ae 15 78 3e 03 4c a2 be 37 39 cd be
       -0.5124917 0.2422702 -0.31698617 -0.40082714
