log/GC_SAC/cannot_used_lidar/maze3Env/20210728-1246/GC_SAC_HER_critic.pth (torch_old, 44422 bytes, 10 tensors)

net1.0.weight f4 [64, 16]
00000000: 1650 d9be 493c 8e3d 7a1c 223e 814c 053f
00000010: c1d0 c73e 1a00 1e3e a483 23be f605 a63d
00000020: aac4 d23d bcfb af3d 5f21 c2be db81 bf3e
00000030: 9210 1c3e 86c7 e5bf 7fb1 b03f 958a 39bf
00000040: 4c15 063f ca2d 39bf f4b0 e9bd 3775 eb3d
00000050: bbf2 25bf 4a7e 0abe 388f 78bd 6903 01bd
00000060: 0717 1abe b6b1 963e 1048 5a3e b13a be3e
00000070: 20bc debd 1143 d83e 2de3 57bf 9685 df3c
00000080: 872f a2bd 5437 083d 503e 33bd 22e1 c7bc
00000090: 0cc0 d93d d6db 3d3e dabd 5fbd f16d bcbd
000000a0: e3aa 44be 2b4c 0c3e 0319 34bd d6fe 203d
000000b0: bceb 02be cea2 00c0 51fb 0c40 fd7b 0a40
000000c0: 647d 45be 546d 44bf a654 283e a383 583d
000000d0: 5071 a33d d80f 1cbd e7eb 0c3c 8802 843d
000000e0: 3350 edbc 1087 973e e6ef 68be bf0d be3e
000000f0: 221e 71be 9325 573f b244 4f3f f0aa 05bf
00000100: 74a3 5ebe dac0 87be d862 71bd 18b0 3a3e
00000110: 0635 91be 48af f3bd ff9c b1bd f377 863d
00000120: 62bf 253e dd48 8d3e 0ea8 3cbf 53d9 0bbf
00000130: 1c9a 7ebe 96c2 5f3e 3447 fb3e 08aa a5bd
00000140: d1d7 78be 2f70 d9bd a488 a43d 8d46 0b40
00000150: 6afc 1bc0 e6f7 10be ac99 553e cd8d 87bc
00000160: 3d02 81be fe2e 25be 5247 c53e 5f96 a6be
00000170: cad8 233e 61ac dcbd 97cc 7fbf 6588 8b3e
00000180: fabd 8e3f 1e82 1dbf ba2a 5abe 8850 f13d
00000190: f253 fabd 243a cf3d 6bb2 eebc 0294 72be
000001a0: 2f78 84be 01e6 82be 1650 953d b228 3c3d
000001b0: 809c 24bc d0c3 ffba 979f c73c e1af 63bc
000001c0: b28e d93e 9e8b fb3e 6e66 1c3e fcb0 7fbf
000001d0: 2060 4f3e 5cdf e9bd e003 54be 06e7 23be
000001e0: efdb 993d de0e 4bbe 9e8f 973f 0355 19be
000001f0: eed4 1fbe 096c a8be 2db3 23bc 171a 0a3f
00000200: 3fe0 abc0 be21 9f3d da92 1bbe f920 7dbf
00000210: 45ce 7bbd 58d2 453d e3b4 1e3e 2721 053e
00000220: ef76 00bd d7e7 aa3c 7731 8cbb 5ee5 4a3d
00000230: 64fb c4bd b96a d1bc 5c91 b73e 5919 613e
00000240: 7558 dd3d d6d8 2a3f 0479 5e3e 272c b4bb
00000250: 4397 60be 9c89 56be 252c da3c c029 89be
00000260: a01e abbe 7334 813c e38a ebbe 209b 243f
00000270: c003 dabc d2e7 0ebe f922 f23d ebdf b3bd
00000280: 8bfe 0bc0 ac1c 0dbf 82e8 0ebe cf05 e8be
00000290: 831a 4bbc 469b 003e 027d d23e 7c94 cd3e
000002a0: 1e6d aa3e 7223 f83e 816a a0be edcd 323e
000002b0: 2eaf 4a3e b745 95bd f9dd 413d 1034 babd
000002c0: 6170 86bf 0dfd 83bf 204b 86bd 36f7 e1bd
000002d0: e3f2 3dbe 9a62 5e3e cfc7 d73e 5ff9 c73e
000002e0: 1f24 f53e cb47 6d3e 7ca0 423f defb 62be
000002f0: 2068 58bd 3049 693b 8e96 3f39 2ba9 a23e
00000300: ead9 e13e e646 5cbf a087 3fbe 555d 4a3e
00000310: 9093 ddbe b013 6dbe b50a b13d 3b85 0c3e
00000320: db89 30be 83bf 0cbe 2b6e cdbe 5c94 7cbf
00000330: fe43 2d3e d29e 22be 0eba 18bf 5c39 bfbe
00000340: a3ce 5fbe 867a 9a3d d413 dbbd 853a e0be
00000350: ccbc 75be a4bd 723e 680f 533e 3831 303e
00000360: 0620 dcbd 0b6d 3abd 5d76 693c 2e81 9fbe
00000370: 58c1 303d 54fd afbf 8382 dc3e 590e 6fbf
00000380: 2dd2 3bbe f1df 2a3f 00f1 abbb ccc7 293e
00000390: 22a1 713e 78bd aebd cad8 09bc 2629 aabb
000003a0: 5f25 98be a9ff 56be ff37 82be d24a 073f
000003b0: f602 3bbe 6935 19bf f6e9 aa3d 0781 623f
000003c0: ad08 a8bf 51a4 573f 8e9f 733e a548 30bd
000003d0: 2852 003e 4c49 e63d 1e44 5f3e dac7 55be
000003e0: 841a 303e a211 2c3e 9541 94be edb6 673e
000003f0: ea2f 323e c78e 803d 96ed 56bd b026 6fbd
-0.42443913 0.06945092 0.15831175 0.5206986 0.39026454 0.15429726 -0.15968186 0.08106606
0.10291417 0.085929364 -0.37916085 0.3740376 0.15240696 -1.7951515 1.3804168 -0.72477084
0.52376246 -0.72335494 -0.11410704 0.11496966 -0.648235 -0.13524738 -0.06068346 -0.031497393
-0.15047847 0.29432458 0.21316552 0.37154153 -0.10875726 0.42238668 -0.8433102 0.027285378
-0.07919221 0.03325589 -0.043760598 -0.024399344 0.10632333 0.18540892 -0.054624416 -0.09200657
-0.19205813 0.13700931 -0.043969166 0.03930553 -0.12785238 -2.0099368 2.2028391 2.1638176
-0.19286114 -0.7672932 0.16438541 0.052859914 0.07980597 -0.038101047 0.008601165 0.06445795
-0.028968906 0.29595232 -0.22747764 0.37119862 -0.23546651 0.8404171 0.80964196 -0.52213955
-0.2174204 -0.26514322 -0.058932155 0.18231237 -0.28360766 -0.118986666 -0.08672523 0.06565847
0.16186288 0.27594653 -0.7369393 -0.54628485 -0.24863476 0.21851572 0.4907776 -0.080890715
-0.24301077 -0.106171004 0.08033875 2.176181 -2.4372811 -0.14157066 0.20859402 -0.016547108
-0.2519702 -0.16131207 0.38530976 -0.325366 0.16000667 -0.10775066 -0.99921554 0.27252498
1.1151726 -0.6152667 -0.21305361 0.11782938 -0.122230425 0.10118511 -0.02913781 -0.23689273
-0.25872943 -0.25566104 0.07290666 0.045937248 -0.010047078 -0.0019513313 0.02436809 -0.013896913
0.4249168 0.49129957 0.15273449 -0.9987943 0.20251513 -0.114195555 -0.20704603 -0.16006097
0.07512652 -0.1982989 1.1840703 -0.14973836 -0.1560857 -0.32894924 -0.009991449 0.5394606
-5.371124 0.07770108 -0.15192738 -0.9887844 -0.06147601 0.048296303 0.1549869 0.13000928
-0.031363424 0.020862503 -0.0042783576 0.049535148 -0.096182615 -0.025563585 0.35853088 0.21982326
0.108078875 0.66737115 0.21725851 -0.0054984274 -0.21932702 -0.20950931 0.026632378 -0.26789665
-0.33421803 0.01577208 -0.460044 0.642992 -0.026613116 -0.1395562 0.11823077 -0.08782943
-2.187411 -0.55121875 -0.13955882 -0.45316932 -0.012396458 0.12559232 0.41110998 0.40152347
0.33286375 0.48464543 -0.31331256 0.17461367 0.19793388 -0.07288688 0.04733083 -0.090919614
-1.0503045 -1.03116 -0.06557298 -0.1103348 -0.18549685 0.21717301 0.4214463 0.39057443
0.4787912 0.23171918 0.7602613 -0.22166392 -0.052833676 0.0035596602 0.00018271265 0.3176969
0.44111568 -0.8604568 -0.1870408 0.19762166 -0.43276644 -0.23152041 0.0864462 0.13722698
-0.17240088 -0.13744931 -0.40123114 -0.9866388 0.16920468 -0.15880898 -0.59658897 -0.3734845
-0.2185617 0.07542901 -0.10697141 -0.43794647 -0.23997802 0.23705155 0.20611346 0.17206275
-0.107482955 -0.045514148 0.014249411 -0.31153244 0.043153137 -1.3749185 0.43068323 -0.9338127
-0.18341894 0.6674796 -0.0052472353 0.16580123 0.23596624 -0.08532232 -0.008413503 -0.0051928936
-0.29716012 -0.20995964 -0.25433347 0.5284854 -0.18262848 -0.5984712 0.08345406 0.8847813
-1.3127648 0.842351 0.23791334 -0.04303803 0.1253134 0.11244449 0.21803328 -0.20877019
0.17197615 0.16803601 -0.28956285 0.22628374 0.1740109 0.062772326 -0.052472673 -0.058386505

net1.0.bias f4 [64]
00000000: 6420 0abe 3592 acbd 3ddd d8bd d0f1 0bbe
00000010: 3098 9a3e fe2e 3bbe f80a eb3d 869a b4be
00000020: ed3c e0bc bd5f 8a3d 0b45 e63e ce81 033f
00000030: d7e5 eebd b526 1c3e d8af babe b0fb d8bd
00000040: f84d 2bbd 15fb 6fbd 646f 503e 1e14 c03e
00000050: 71f7 623c 0194 71be 0167 86be 9854 27be
00000060: 5e8f 0c3d 96af 7b3d cccf 74bc 70bd 953c
00000070: 2143 63be b0a7 dcbe 51f5 be3e 79f4 04bf
00000080: d967 bcbd 5fb6 1e3d d333 b8be ea46 b5be
00000090: bded 0bbd 8021 f5bc 4ad4 c93c 3c0f 95bd
000000a0: ab90 92bc cc91 26bd b335 7a3c 58ac b2bd
000000b0: a816 99be b551 b13d 36ae dbbd f054 fdbd
000000c0: 384f 0bbe 44ee c1bc 9c6a e2be c797 37bb
000000d0: 4cc6 a4be b529 9d3e 97b8 603e 67ca ea3d
000000e0: 3363 84be f4a4 a13c 85ed 1cbd a670 383e
000000f0: 5fcc 16be 8286 e4bd fd88 83be ec8f 8cbe
-0.13488919 -0.08426324 -0.10589073 -0.13666463 0.30194235 -0.18279645 0.114767015 -0.35274142
-0.027372802 0.06756542 0.4497455 0.5136994 -0.11664932 0.1524914 -0.36462283 -0.105948806
-0.041822404 -0.05858906 0.20354992 0.37515348 0.01385294 -0.23591615 -0.2625046 -0.16340864
0.034316413 0.06144675 -0.014942121 0.018278807 -0.22193576 -0.43096685 0.37296537 -0.51935536
-0.09199495 0.03874814 -0.3597704 -0.35405666 -0.03416227 -0.0299232 0.02463736 -0.07278296
-0.017891249 -0.040666386 0.015271592 -0.08724278 -0.29900098 0.086581625 -0.107265875 -0.12369716
-0.13604438 -0.023673184 -0.44221961 -0.002801405 -0.32182539 0.30695882 0.21945415 0.114643864
-0.25856933 0.019731976 -0.038312454 0.18011722 -0.14726399 -0.11158468 -0.2569045 -0.27453554

net1.2.weight f4 [64, 64]
00000000: 5be6 bb3c 751f 70be aa1d 8e3c 212e 143e
00000010: 0e3e a33d 29c3 ce3c 9274 ffbf af51 dabb
00000020: 6b9e 22be a94d cabe 534a f1bf 5575 d8be
00000030: ae8d 12be 6950 d4bd 6452 e5bd a17e 95bf
00000040: a0ea 823d 7bb8 00be 98f3 5f3d b46e 013f
00000050: a5f6 23be 425b bdbb 19c8 e33d 5fc8 173d
00000060: daac a63d afae a0bf 6054 ad3c 0030 5d3d
00000070: 14d2 193e 598c 77bf 19cf 0cbe daa4 e0bd
00000080: b297 4dbf 344c 953b 551a 91be 7336 27be
00000090: ccf1 3d3e 3e2e 703e c7d1 103e 4d20 76bf
000000a0: ae44 1dbe da59 3b3d 9b1b e13c 28e5 8dbb
000000b0: 6f44 59be 1cfe f43e f72c 583c 0eec 21be
000000c0: 6221 18bf 56c0 85be 4824 b0be 4289 a4be
000000d0: aa7a fcbd 673c 58bf 0c01 0f3e d9f7 89bd
000000e0: d5bd 72bd 676b 0b3f a42a ff3c ad4d e73b
000000f0: 1368 a83d 4f90 9cbe d271 153c 135e 05bf
00000100: 88fd 5a3c 72cd b4bd f5d9 0abc dee8 513e
00000110: e978 95be 8e03 473d 47d4 febf 68d0 86bd
00000120: fb52 07bd 9e5c 4dbf d808 c8bf 54bb babd
00000130: 0493 74bf 5eb6 c53b 2373 62be 1df7 98bf
00000140: ff09 c83c ec75 bbbe 97fc 353e 65c2 993d
00000150: e410 78be 39d6 593e 9a2d f4bd 9b11 85be
00000160: 48fe fe3c 17ec e8be ac50 2a3e 0645 103e
00000170: 2b95 c33e 3636 adbf 3a38 64bb 28c6 3fbd
00000180: 70db 96bf 9058 f5be 4fa8 f3be 0f14 7dbf
00000190: e77a 563e 79d8 8b3d 4c8a af3d a49d 57bf
000001a0: d3bc 40bf 1f6c 97bd 2796 9cbd 9665 193e
000001b0: 4910 f5bd df4d 293d 09c1 8a3e 289d a3be
000001c0: 30a9 74bf 53eb 0dbf 0ac3 23bd f5b5 08bf
000001d0: b073 e93d b031 3cbf 2115 313e 7719 873e
000001e0: 8f03 a8be e7f6 eb3e 773f 2b3d 73f7 683c
000001f0: 8718 583e b074 fbbd fd26 f2bd e084 fa3e
00000200: 2f44 d63e d186 663d 57f7 1bbf 0ec5 d6bd
00000210: e4be 263d 63e1 d0be fa8d 22be 6a05 cfbd
00000220: 055f 9dbe c4db 3fbe 3d5f c9be 7ab5 7c3d
00000230: 80e5 aa3d 4eac 36be d326 37be b56b 2f3e
00000240: 3408 803e 5a1d df3e 584d 953e 3f88 e8bd
00000250: 464e 96be 3393 763d 9224 a23d 4d30 8a3e
00000260: 95ed 053d 1adf bebd 9524 033d df5d 7bbe
00000270: e630 a3be 0c8f a5be 34be a73e 93b0 3c3e
00000280: 9b56 293d 6fc6 823e 04e7 afbe 7455 f6be
00000290: bc3a b6bd 2590 47be 80f6 27bc 81a5 84be
000002a0: edcb 44bf 77b1 07bc 03a4 a13c ade0 5c3e
000002b0: 96fa 843c 3984 42be 24e0 3f3f 5216 c63d
000002c0: 76be dfbe 928e 953c fb35 06bc 701a 273e
000002d0: eff8 2ebe 85b7 6dbe 5931 613e ee12 8abe
000002e0: daeb a5be 7407 5ebd b1dd abbe 11fd 503c
000002f0: cd17 c9be ecd3 e2be 812a 4ebe ce77 5fbe
00000300: 23e6 183d d441 f33e 5c00 013e 0f12 dcbd
00000310: 7116 a7be 34ca f5bd d334 963f 135b 0f3e
00000320: dd7a fd3e d32c d43d e00f 0c3f cafb 03be
00000330: 077f 9dbe 5c31 81bd c72c 8d3e 005f 903e
00000340: 79e7 09bf 4401 73bd 97b0 25bf b211 6e3d
00000350: 6165 073d 1164 2fbd d77c 2abf b4ad bf3d
00000360: 1f7f 943d d909 f33e 30f9 23be ad8e 9f3e
00000370: d90e 9e3e fc33 e23e 8210 03be 0be3 643e
00000380: c32d b73e 10d6 06be 79d1 34bd f6bb 693e
00000390: d535 fabc a0ab 023e 56a3 583d 490c a13e
000003a0: 6dc4 5e3f 3f16 8fbd 008c 4dbe bcef 0c3e
000003b0: 7cd3 c73d b6c1 2e3e f7fb 2dbc 6959 b7bd
000003c0: 69e5 003e f555 8b3e c713 eb3e cd68 b03e
000003d0: 3170 3d3e bbcc 6d3f b0eb 85be 0d0d 81bd
000003e0: 3ec1 c53d 1683 0dbf ee99 683e c0ba a73e
000003f0: 9cc8 363f 10a1 a33e 2f3b 0c3e d896 87be
0.02293699 -0.234495 0.01734813 0.14470722 0.0797082 0.025239544 -1.995745 -0.0066625695
-0.15880744 -0.39512375 -1.8850807 -0.42277017 -0.14311859 -0.103668995 -0.111973554 -1.1679269
0.063924074 -0.12570374 0.05467567 0.50559545 -0.16012056 -0.005778701 0.1112215 0.037056323
0.081384376 -1.2553309 0.021158397 0.054000854 0.15021545 -0.9669853 -0.13750876 -0.10968943
-0.80309594 0.0045562033 -0.28340402 -0.16329364 0.1854927 0.2345514 0.14142524 -0.9614304
-0.1535823 0.045739986 0.027478984 -0.004330296 -0.21217512 0.4785012 0.013194314 -0.15812704
-0.5942594 -0.26123303 -0.3440268 -0.3213597 -0.12328084 -0.84467167 0.13965243 -0.06736726
-0.05926307 0.5446076 0.031148262 0.00705882 0.082229756 -0.3057885 0.009121375 -0.5209667
0.013366111 -0.08828248 -0.008474817 0.20498988 -0.2919381 0.048587374 -1.9908532 -0.06582719
-0.03303812 -0.8021945 -1.5627699 -0.09117761 -0.9553683 0.0060337028 -0.22114234 -1.1950413
0.024418829 -0.36613405 0.17772137 0.07507781 -0.24225193 0.21273126 -0.1192276 -0.25989994
0.03112711 -0.45492622 0.16632336 0.1408883 0.38199744 -1.3532169 -0.0034823553 -0.046819836
-1.1785717 -0.4791913 -0.47589347 -0.9885873 0.20945321 0.06828398 0.085713 -0.84224916
-0.7528812 -0.07393669 -0.07645827 0.14980158 -0.11965997 0.04133403 0.271004 -0.31955838
-0.9557066 -0.554372 -0.039980926 -0.53402644 0.11399019 -0.7351332 0.17293216 0.26386616
-0.32815215 0.4608681 0.04180857 0.014219153 0.21103106 -0.12278116 -0.11823843 0.489295
0.41848895 0.056280915 -0.60924286 -0.10486804 0.04070939 -0.40796956 -0.15874472 -0.101084545
-0.30736557 -0.18736178 -0.39330474 0.061696507 0.08344555 -0.17839167 -0.17885904 0.1713093
0.25006258 0.4357708 0.2916057 -0.11354112 -0.29356593 0.060198974 0.079171315 0.26989976
0.03269728 -0.09319897 0.03201731 -0.24547528 -0.31873244 -0.323357 0.327623 0.18426733
0.04134236 0.25542018 -0.34355938 -0.4811207 -0.088979214 -0.1948858 -0.010251641 -0.2590752
-0.76873666 -0.008282057 0.019731527 0.21570082 0.01623277 -0.18995751 0.74951386 0.09672226
-0.43699998 0.01825646 -0.008191581 0.16318679 -0.17087148 -0.23214538 0.21991481 -0.26967567
-0.32406503 -0.054206327 -0.33567575 0.012755648 -0.3927597 -0.4430231 -0.20133401 -0.21823046
0.03732885 0.4751116 0.12597793 -0.10745632 -0.3263431 -0.12001458 1.1734871 0.13999586
0.495078 0.10360112 0.54711723 -0.12889019 -0.30760977 -0.06308243 0.27573225 0.2819748
-0.53868824 -0.05932738 -0.6472258 0.058122344 0.033055667 -0.04282004 -0.6659674 0.09359303
0.07250809 0.4746845 -0.16013026 0.3116354 0.30870703 0.44180286 -0.12799266 0.22352235
0.357771 -0.13167596 -0.04414508 0.22825608 -0.030543247 0.12760782 0.052890144 0.31454685
0.8701847 -0.06986665 -0.20072937 0.13763326 0.09757134 0.17066082 -0.010619155 -0.089526005
0.12587513 0.27214018 0.45913526 0.34454957 0.18499829 0.9289052 -0.26156378 -0.06301317
0.09655999 -0.55278146 0.2271497 0.32759666 0.71399856 0.31958818 0.13694452 -0.26482272

net1.2.bias f4 [64]
00000000: 61a7 9f3d 54b4 82be 21cd 863e fbf0 383d
00000010: badf b03e c419 1d3e d842 323e b19c c1bc
00000020: aa88 13bd 5c59 bd3c 7e19 0dbf e841 3e3d
00000030: 5afb d83b cefb 353e 0b3c 573e f3c6 6ebd
00000040: 1876 03bd c12a 283c 00f3 5cbd aa3b 0e3c
00000050: e826 24be ba81 803d 94a9 92be a3f5 7dbd
00000060: 303d b5bc e466 42bc b11b 99bd 01f5 4dbe
00000070: 4d43 353d 4ec3 f1bc ddfc f8be 13a3 ca3c
00000080: 5521 d1be 2b1d c8be 6a2a 01be 274b acbd
00000090: d8d8 d93d 83d9 523d 2d2e e1ba 2197 74bd
000000a0: 7237 98be 02e6 8c3c 6b4f 8ebd 8ae6 c4be
000000b0: 2d70 8dbe 98da 943d 6660 92bd 4052 5bbe
000000c0: eec4 6b3e a458 08be 7ba7 ecbe 78a1 403e
000000d0: 9464 03be 6acb 303c 0934 17bd 786f b3be
000000e0: 4712 c8bd 5a8a 853d e2d6 37be 51f8 a7be
000000f0: d973 d13d ec88 5fbe 7f97 a93e b87d f1bd
0.07795597 -0.25528204 0.26328376 0.045151692 0.3454569 0.1534186 0.17408311 -0.023634287
-0.036019005 0.023113899 -0.55117023 0.04644957 0.0066217603 0.17771837 0.21018998 -0.0582952
-0.032095045 0.0102641 -0.05394268 0.008681217 -0.16030467 0.062747434 -0.28645003 -0.062001836
-0.022123903 -0.011865351 -0.07475985 -0.20112993 0.044253636 -0.029512074 -0.4863042 0.024735963
-0.40845743 -0.39084753 -0.12613836 -0.08412772 0.10637063 0.051476967 -0.0017179899 -0.05971444
-0.297298 0.01719952 -0.069487415 -0.38457137 -0.27624646 0.07268256 -0.07147293 -0.21418095
0.23024341 -0.13315064 -0.46221527 0.18811595 -0.12831336 0.010790685 -0.03691486 -0.3504598
-0.09769111 0.06520529 -0.17953065 -0.32806638 0.10227174 -0.21829575 0.33123395 -0.11791557

net1.4.weight f4 [1, 64]
00000000: 52c4 01c0 0ba1 a4bf 214f fc3d c048 3abf
00000010: a9eb 1ebf 14e8 843e 73fa b1be 33d0 f1be
00000020: 3605 06bb f790 27be 1162 20c0 0817 1b3f
00000030: 3a3c 38ba 3690 09bf 31af 9dbe 6b44 70bb
00000040: 027e a73d 929c bd3e 7545 ed3d 30fb 283f
00000050: 837b 823e ed30 bfbe 9954 ec3e fe61 993e
00000060: 1b6a 5a3e 095f bcbf 12fe cbbe d301 a8be
00000070: 47ce 3cbb 5d9f 08be c453 93bf 7a7c 383e
00000080: 1ef9 afbf 81ed 4dbf 40c7 e5ba dcf7 423a
00000090: 6a53 9dbf a878 48bb 6d76 e93d b081 153f
000000a0: 66a3 a2bf e771 bf3e 525c 87bf ff81 ffbe
000000b0: cd21 6e3e 316b 81be 8f5e c1be 3436 9fbe
000000c0: 9e76 dabe e944 c6ba 89a4 d8bf 5ef5 88bf
000000d0: 5ce6 673e 5e4b 5ab9 f150 523b 3ab7 b8bf
000000e0: e9f7 3ebf 9c9a 0fbf 96e9 81be 69db a6be
000000f0: df98 88be eb1e 90bf bade 04bf 9261 7d3a
-2.0276074 -1.2861646 0.1231978 -0.7276726 -0.6207834 0.25958312 -0.3476139 -0.47229156
-0.0020449883 -0.16363893 -2.5059855 0.6058202 -0.00070280174 -0.53735673 -0.30797723 -0.0036661874
0.08178331 0.37033516 0.115855135 0.6600828 0.25484857 -0.37342015 0.46158293 0.29957575
0.21329539 -1.4716502 -0.39842278 -0.32813892 -0.0028809474 -0.13342042 -1.1509938 0.18016234
-1.37479 -0.8044053 -0.0017530695 0.00074374466 -1.2291081 -0.0030589495 0.11399541 0.5840101
-1.2706115 0.37391588 -1.0575049 -0.49903867 0.23255081 -0.25277093 -0.37767455 -0.3109604
-0.42668623 -0.0015126738 -1.6925212 -1.069988 0.22646469 -0.00020818177 0.0032091702 -1.4430916
-0.7459703 -0.5609529 -0.25373524 -0.32589272 -0.2667913 -1.1259435 -0.51902354 0.0009665723

net2.0.weight f4 [64, 16]
00000000: 13a7 033f 2abb 28bf ca51 023e fe60 18be
00000010: d535 7bbc 3abd 613e 7fa8 2bbe ab67 dbbe
00000020: 0f3c 01be 4cac d73b 2750 55bf feb9 a43d
00000030: e0ba 4a3e b2cc 9439 878d 363d 1b2f 43bd
00000040: f9ea ef3d 76d8 023f 70f7 28bd 791f 0ebf
00000050: dcf4 c7be b844 c8bd 4d5b c63b ea25 1cbe
00000060: 9bef 9cbe 45c3 aebd c101 ec3e a1b1 04bf
00000070: 483e 80bd 931f 24bf 48cb 26bf 13bc 4e3f
00000080: 203e 81bd 6fbc 67be e0d8 9e3d 1d7f a7be
00000090: 3a3f 90bf 0828 7d3e 7a13 70be e5bd a1bd
000000a0: bf15 773e be48 6f3c 59b4 b13e 9d51 703f
000000b0: 703a 3bbe b1f1 c63e c576 92bd 5367 8cbe
000000c0: b18c 09bd 1f16 583c 78fd 85bd cd3d cabe
000000d0: 68a1 50bf b01d bebc 2250 e6bd c058 d4bd
000000e0: e768 22be 0bd6 993e 1d29 13bf 7c6e 75bf
000000f0: 280e f2bd a815 8f3e b578 59be 5b9a 47bf
00000100: 334f fbbe 93a6 883e 989e 76bd 56f6 82be
00000110: 7640 db3b 6643 25be a3f7 95bd 80fe ecbc
00000120: 3985 003e 6509 9c3e f551 ac3f 9bf4 ecbe
00000130: b016 073e 7102 04be d44c fd3d 73da f03d
00000140: 92aa 0b3f f513 dbbf 9469 ec3d 0e13 a73e
00000150: 4c24 46bf 186c 06be a8a8 4ebe afdc e1bd
00000160: f364 cbbd f279 64be 5261 e0be 18ff 863e
00000170: c6b1 4b3e d94f a1bf 9ae5 a33e a758 cbbb
00000180: 2582 3bbc 905d 443d e03e 1abd 7b2d 463e
00000190: 23da 46be 0003 cb3c 36c7 84bd 3705 28bc
000001a0: 33c6 923d d31f f13c 6d91 f0bf 1ef7 133d
000001b0: 9093 b53c 4e1f 86bd b8a6 bc3d 1396 59bd
000001c0: 9a80 98bf 143a 363f a0e8 233e f0f1 4dbd
000001d0: 48ac 8c3a 80ee 9b3c 360e 863c eaf8 7e3e
000001e0: d1ff debd 72c7 203e 01dc 99be 2da6 843e
000001f0: 3c99 cd3d d399 3c3e 7864 6b3b 5710 50bd
00000200: 4b13 d03e e2d7 82be 38f5 363d e268 063f
00000210: 449b de3e e8cf 813d 0b04 f8be fc70 81bd
00000220: c3ab b2be 6308 9abe 88b6 08bf 3e63 be3e
00000230: c44a 783e edfe 9a3f 6570 58bf 0700 c23f
00000240: d8f5 c23f 3746 21be c01f d23b f8d6 413e
00000250: 13f4 0cbd fa5f 2dbe 9f6b a8be 1222 cabc
00000260: 0099 d6bd 5b61 5bbe 3020 793e fd40 e9bd
00000270: a897 db3d d289 18bd a10a 9a3c dce4 9cbc
00000280: 1ebc de3e 5e99 08bf c0af 23be cfdc 9abe
00000290: 5d36 77be aca2 9fbd c7ea 79bc a38a 2e3e
000002a0: 0916 6fbe 19a9 203e 7089 293f fe90 9f3e
000002b0: 68c3 2abd cca5 8bbe 8c2c 3c3d b48e 643d
000002c0: a762 4f3f 9972 3f3f 80f7 843c f4df 6a3e
000002d0: c6a1 f03c 66db 163e 616c 4cbe e575 90be
000002e0: f230 18bf 8b7d 90be de88 313c 3bad 243e
000002f0: 5459 9dbd 2ec2 b0bd cc70 843d 95da 973d
00000300: 5fb3 c53d 6f08 8ebe 3092 063d 68e2 903f
00000310: 6ad7 a23d 40ba 25bd 33b5 92be 3eae 12be
00000320: 3757 b0be 24af 2dbe a18a 30bf 17a0 cb3e
00000330: f86c bbbd 45df c3bf f353 23c0 2e78 e53f
00000340: f40c f3be 16e0 f0bd 7a6e 023e a6dc 3e3d
00000350: 5871 59bd 7492 bebd 5b6f 913e e292 493e
00000360: 54ee 913d e71d 9f3e 7c97 893e 2dcd 193d
00000370: 20ed 7ebd 0909 6a3e c156 81be 4f14 7fbe
00000380: 67f3 fabe 00eb 8abd 84ec 08be 2a87 26bf
00000390: 9718 8a3e 388c 333e ff1b 993e 73a1 853e
000003a0: 313c 88bd 511d aa3e 440a 6f3f a324 ccbc
000003b0: f0bc 93bd 6d1c b5be 2189 58bd 1470 4cbd
000003c0: 2ee3 82bd d02b 71bb 3819 64be fa87 533e
000003d0: d98f 44be 7a4d 49be 7144 9ebd 273e 24bc
000003e0: 7b10 28be 0f56 973d 0f92 9cbe 03bb 33be
000003f0: 608f 3e3e 4eba d1bf 5573 973f 9300 583f
0.5142681 -0.6591059 0.12726513 -0.1488075 -0.015332659 0.2204484 -0.16763495 -0.4285253
-0.12620567 0.0065818187 -0.8332543 0.08043288 0.1979785 0.0002838127 0.044568565 -0.047652345
0.11714739 0.51111543 -0.0412516 -0.55516773 -0.39054 -0.09778732 0.0060533644 -0.15248838
-0.30651554 -0.085333385 0.46095088 -0.5183354 -0.06261879 -0.6411068 -0.6515393 0.8075573
-0.063106775 -0.22630475 0.077562094 -0.32714167 -1.1269295 0.24722302 -0.2344493 -0.07897548
0.24129389 0.014604745 0.34707907 0.9387453 -0.18284011 0.3885627 -0.0715156 -0.2742258
-0.03358144 0.013188868 -0.06542486 -0.39500275 -0.81496286 -0.023207515 -0.11245753 -0.1036849
-0.1586033 0.30046114 -0.5748461 -0.9587171 -0.11819106 0.2794621 -0.21237452 -0.779699
-0.49083862 0.26689586 -0.06020984 -0.25578564 0.006691034 -0.16138992 -0.073226236 -0.028929949
0.1255082 0.30475917 1.3462511 -0.4628037 0.13192248 -0.12891556 0.123681694 0.11760416
0.54557145 -1.7115465 0.11543575 0.32631725 -0.77399135 -0.13127172 -0.20181525 -0.1102842
-0.09931364 -0.22312143 -0.4382425 0.26366496 0.19892034 -1.2602493 0.3201111 -0.0062056365
-0.011444603 0.04794079 -0.03765762 0.19353287 -0.1941915 0.024781704 -0.06483309 -0.01025515
0.0716671 0.02943412 -1.879438 0.03612434 0.02216509 -0.0654894 0.092114866 -0.053121638
-1.1914246 0.7118237 0.16006708 -0.050279558 0.0010732496 0.019034624 0.016364198 0.2489964
-0.10888637 0.15701082 -0.30050662 0.25908032 0.10038993 0.18418054 0.0035918038 -0.050796833
0.4063972 -0.2555533 0.044667453 0.5250379 0.43477833 0.06338483 -0.48440585 -0.06320378
-0.3489667 -0.30084524 -0.5340352 0.3718509 0.24247271 1.2109047 -0.845465 1.5156258
1.5231276 -0.15749441 0.0064124763 0.1892966 -0.034412455 -0.16931143 -0.32894608 -0.02467445
-0.10478401 -0.21423857 0.24328685 -0.11389349 0.107222855 -0.03724081 0.018803896 -0.019152097
0.43502897 -0.5335902 -0.15985012 -0.3024659 -0.24141832 -0.07794699 -0.015253729 0.17045073
-0.2334825 0.15689506 0.6622534 0.31165308 -0.04169026 -0.2727493 0.04594092 0.055800155
0.81009907 0.7478424 0.016231298 0.22936994 0.029374015 0.14732131 -0.19963218 -0.28214946
-0.59449685 -0.28220782 0.010835854 0.16081707 -0.076830536 -0.08630787 0.06466827 0.07414738
0.09653353 -0.2774081 0.03285426 1.1319094 0.07951243 -0.040460825 -0.2865387 -0.1432428
-0.3444154 -0.16961342 -0.6896153 0.39770576 -0.091516435 -1.5302511 -2.5519989 1.7927301
-0.4747082 -0.11761491 0.12737456 0.046597145 -0.05308661 -0.093052775 0.2840527 0.19684938
0.071255356 0.310775 0.26873386 0.037549186 -0.06223786 0.22855009 -0.252615 -0.24910091
-0.49013826 -0.06783104 -0.13371474 -0.65049994 0.26971886 0.17533958 0.29904172 0.26099738
-0.066521056 0.33225492 0.9337504 -0.024919813 -0.07213771 -0.3537325 -0.05286515 -0.049911574
-0.06390987 -0.0036799796 -0.22275245 0.2065734 -0.19195499 -0.19658461 -0.07727898 -0.010024584
-0.16412537 0.07389461 -0.30580184 -0.17551808 0.1860938 -1.6384981 1.1832072 0.84375876

net2.0.bias f4 [64]
00000000: d670 9cbe 07b3 2cbe e397 68be c7e7 1c3e
00000010: a1bc 1f3e 6715 82bd 8151 043d 52cc 96bd
00000020: b84d adbe e580 1bbe 1e79 e73d b695 8fbe
00000030: 4f89 85bb 5c14 633e d98d bfbd d2c8 69be
00000040: 7c66 9fbc 5e72 ac3c 710a b7bd 17db 0ebe
00000050: 7616 053f 1829 10bc 623b 3dbe e6bc c7be
00000060: ea3d 4b3e ff78 a73d a97b e4bd a6af 813e
00000070: 2484 803e 90a3 a8bd cdff e0bc 14b1 81be
00000080: 33c6 e2bd 42e7 a73d 1fac bdbd 1147 4abd
00000090: 49ca 7abe 97a6 82be 88a0 fe3d c63c c23c
000000a0: 175f 903e 570b d13c abd9 7f3e 3583 c83c
000000b0: 805c c1bc ae12 37be 82df 943d 45c3 8ebd
000000c0: 5622 93bd c776 123e e41b 383e 9f74 723e
000000d0: 7f50 42be 96f3 4d3e 1fdd 823e afda 243e
000000e0: 519f 9fbe 23c5 813d bbaf d3bd 6765 7fbe
000000f0: 7163 31be 21d0 8bbe 030a a3be 969c 63bd
-0.30554837 -0.16865169 -0.2271419 0.15322791 0.155993 -0.063517384 0.03230429 -0.0736319
-0.33848357 -0.15185888 0.11302398 -0.28043908 -0.0040752064 0.22175735 -0.09353227 -0.22830513
-0.019458048 0.021050628 -0.089375384 -0.13950764 0.519874 -0.00879886 -0.18479684 -0.39011306
0.19847837 0.08177375 -0.11156399 0.25329322 0.25100815 -0.08234322 -0.027465725 -0.25330412
-0.1107296 0.08198406 -0.09261345 -0.04938418 -0.24491228 -0.25517723 0.12432963 0.02371062
0.28197548 0.025518103 0.24985377 0.024476627 -0.023603678 -0.1787822 0.07269193 -0.069708385
-0.071842834 0.14303122 0.1797939 0.236773 -0.1897602 0.20112452 0.25559327 0.16099046
-0.31176236 0.06336429 -0.10336252 -0.24941026 -0.1732309 -0.27307227 -0.31843576 -0.055569254

net2.2.weight f4 [64, 64]
00000000: b118 ca3d 71f6 87bd 31f8 76bd 3de5 b7bd
00000010: 5c63 d1bd 4663 6abd 6405 083c 73c0 34be
00000020: 52ca 14bd d5e6 6d3b 9426 313d aea7 b93d
00000030: 8705 f33d 830d 4bbc 995c a23d d7fd f73d
00000040: 2b62 74be f1a9 913c caac 0abe e7c2 fbbd
00000050: 8f9b 473e ef69 d7bd b27d 903d 86ee f8bd
00000060: 0cb7 893d 84ba b43c 8ebc cd3d 67fa 1a3e
00000070: a889 233d 9415 04bb 86c1 413c a8cd 013b
00000080: a98c eebd 5f96 fc3c 66bb 26bd 3c40 9e3c
00000090: d42a 8abd cb3c 36bd 7c6d 653d ee91 e2bd
000000a0: 7ecc c2bd 7d44 8ebd e7e2 a4bd 9ff2 06bd
000000b0: 23de 06be 02f8 ec3d e1b2 0fbe 5ac2 63bd
000000c0: 3936 79bd aa18 2a3e a22e 293c b75a aabd
000000d0: 8473 0abe 6894 f13d 4f49 e5bd 5347 5fbe
000000e0: d261 c63d 789f 253d ede3 07be f010 ae3c
000000f0: 5dbc 743e f54b 56be c19c 573d 11dd 343e
00000100: 9343 1ebe 3e69 09bf 6b6f a3be 3dfd c0be
00000110: f730 2b3e 3da8 8bbe 2910 06be 85e6 e8bf
00000120: bd80 6abd 0694 e0be 2b15 7fbe decd b3bf
00000130: 1ce4 933f ddcb 1fbc c105 41bd 434b a03e
00000140: bf76 d93d 4ea4 913e 1679 443e 17a2 6e3f
00000150: 5fc2 0abf e9cc ee3e 4cf1 7dbf c25e 2c3e
00000160: 22aa c73e 9df7 53bf ab26 40bd 57f4 55c0
00000170: 2d42 43bf 50d2 cb3e 4860 26be 502c 23bc
00000180: 9622 763f 89f8 84bf c04a d0be 8732 683c
00000190: 19c1 923e 4014 813d 07f9 b2be e65d 4ebf
000001a0: 601b f93e 8552 d53d 47b0 ecbc c7cb 81bf
000001b0: d034 fbbe 6fa0 4cbf 99fa a0bf 030e 1fbf
000001c0: 3243 6dbe 12dd acbf 5639 1dc0 8997 ef3e
000001d0: 97c4 52bd d36e 1f3c 96a9 ddbe e3a0 823e
000001e0: 83bf d3be a0ba f53e b982 a1bd 436d abbd
000001f0: 8ee7 d6bd 46f0 d9bf 2519 7ebd 8501 b3bd
00000200: 1493 3e3f d516 24bf 9184 2e3f 5041 d5be
00000210: 3919 a0be 06fd 663f 35b8 60be 3070 0bbf
00000220: 7bad aebf bfca 933d b8bf 233e fb16 2bbe
00000230: a9d0 70bf 2fbc 33bf d9e1 e7be 7962 fdbd
00000240: b88d 6fbf 2bcc fcbd b22d eb3f f42e bebe
00000250: 9000 dcbf cfda 7c3e 3e6a 203f 882e 80c0
00000260: 9338 c4bf 0f99 58be 2ff3 33c0 9f34 1bbf
00000270: 926d 783e 24a4 a03c 59dc 483e 1540 853d
00000280: 7e33 9d3d fd59 1bbf 4351 1dbf a42f 35bf
00000290: 60fa 55bf a4a2 003f 1280 6fbf 48f4 a9bf
000002a0: 6ae2 b5be 5b71 babf 104c b3be 0eee 08bf
000002b0: 02ac a13e 9808 b1bf 16a0 0bbe d82c 14c0
000002c0: a2e1 783d 381d 88bf 8193 53bf 429f 143f
000002d0: 2bee 16c0 745d bbbe 0857 bbbd 6f3c c2bd
000002e0: efa6 8cbf da8d f1bf 2df3 04bd 70ff abbf
000002f0: 3ea6 68bf 0d92 e3bd d2b9 06be 4df9 c0be
00000300: 8de9 4dbf 9968 96bf 899a 043d 613a 873e
00000310: faee e63a 9e3d e53d 6fde b93d d798 9f3d
00000320: 0426 84be 4e67 d13e 6311 573d dc57 a5bf
00000330: c71a 2a3e 887b 893d 8b51 aabe 6e71 103f
00000340: 3fca 103f 429b 5ebe 4f96 053f 1bb1 af3e
00000350: 0271 da3e a95c 81be e855 10be 508d 6dbe
00000360: d327 96be 14e4 2dbe 60c9 67bf 1450 893e
00000370: 94bb a23f e000 f8bd 1faf 80be 7994 c23d
00000380: 3d43 cd3e 9557 cb3e 9928 3dbe 8fcf d4be
00000390: 17a1 c3be 7d91 89bf 867d 9f3e 3e63 01be
000003a0: f5d9 5ebe 9e9b 80bd 634c 0abf ed18 3f3f
000003b0: 95bc 493e cd67 e8bd fd8c a3be 5c9c a13d
000003c0: 8bb6 8fbe ec1f 563e e535 ab3d ef57 fcbd
000003d0: 838d 80be e215 a1bc 9d72 c7be 508b 9e3d
000003e0: 2862 79bd 9be2 803e c012 b8bd 5a06 7abe
000003f0: 0b28 493f 5895 8a3c c9fc f8bc 081b 29be
0.09867991 -0.06638802 -0.060295288 -0.089792706 -0.102240294 -0.05722358 0.0083020665 -0.17651539
-0.03632576 0.0036300917 0.04324968 0.090651855 0.11866289 -0.012393358 0.07927818 0.12108963
-0.23865573 0.01778123 -0.13542476 -0.12293034 0.19492935 -0.10518252 0.070552245 -0.1215487
0.067243665 0.022061594 0.100457296 0.15134583 0.0399262 -0.0020154463 0.011825925 0.0019806419
-0.116479225 0.030833421 -0.04070606 0.019317739 -0.0674645 -0.04449157 0.056012616 -0.1106299
-0.0951166 -0.06946657 -0.08051091 -0.032946225 -0.13170676 0.11570741 -0.1403308 -0.05560527
-0.060842726 0.16610971 0.01032606 -0.08318084 -0.13520628 0.11795884 -0.11195623 -0.21804552
0.096866265 0.040435284 -0.1327054 0.02124831 0.2389998 -0.20927413 0.052639727 0.17662455
-0.15455465 -0.5367621 -0.31920943 -0.37693205 0.16717897 -0.27276793 -0.13092102 -1.8195349
-0.05725168 -0.43862933 -0.24910419 -1.4047201 1.1553988 -0.009753195 -0.047124628 0.3130742
0.10618352 0.28445667 0.19186816 0.9321608 -0.54202837 0.4664071 -0.99196315 0.16833022
0.3899699 -0.827997 -0.046911877 -3.3430383 -0.7627285 0.39808893 -0.16247666 -0.009959295
0.96146524 -1.0388347 -0.4068203 0.014172203 0.28662947 0.063026905 -0.34955618 -0.8061203
0.48653698 0.1041613 -0.02889265 -1.0140313 -0.4906373 -0.799323 -1.2576476 -0.62130755
-0.23170164 -1.3504965 -2.4566245 0.467953 -0.051457014 0.009731012 -0.43293446 0.25513372
-0.4135705 0.47993946 -0.078862615 -0.083704494 -0.10493384 -1.7026451 -0.0620357 -0.08740524
0.74443173 -0.6409734 0.6817103 -0.41651392 -0.31269243 0.90229833 -0.2194527 -0.5446806
-1.3646692 0.07216405 0.15991104 -0.16707985 -0.9406839 -0.7020902 -0.45289496 -0.12372298
-0.9357562 -0.123436294 1.837332 -0.37145197 -1.7187672 0.24692844 0.6266211 -4.00568
-1.5329765 -0.21152137 -2.8117177 -0.6062717 0.24260548 0.019609518 0.19615306 0.06506363
0.07675837 -0.60684186 -0.6145212 -0.7077582 -0.83585167 0.5024817 -0.93554795 -1.3277674
-0.35524303 -1.4565843 -0.3501897 -0.5348824 0.31576544 -1.3830748 -0.13635287 -2.315237
0.060762055 -1.0633917 -0.8264695 0.5805551 -2.3582866 -0.36594737 -0.09147459 -0.09484183
-1.0988444 -1.8871415 -0.032458473 -1.3437328 -0.90878665 -0.11111841 -0.13156822 -0.376902
-0.80434495 -1.1750671 0.03237394 0.26411727 0.0017618828 0.11193393 0.09075629 0.07792824
-0.25810254 0.40899128 0.052506816 -1.2917438 0.16611777 0.06713015 -0.33265337 0.5642308
0.56558603 -0.21738914 0.5218248 0.34314808 0.42664343 -0.25266007 -0.1409527 -0.23198438
-0.29327258 -0.16981536 -0.9054165 0.26818907 1.2713494 -0.12109542 -0.25133607 0.09500975
0.4009036 0.39715257 -0.18472518 -0.41564605 -0.3820884 -1.0747524 0.31150454 -0.12635514
-0.21762832 -0.062796816 -0.54022807 0.7464741 0.19700845 -0.113479234 -0.31943503 0.07891151
-0.28068957 0.20910615 0.08359889 -0.123214595 -0.25107965 -0.019663755 -0.3895463 0.077414155
-0.060884625 0.25172886 -0.08987951 -0.24416485 0.78576726 0.016916916 -0.030393975 -0.16514218

net2.2.bias f4 [64]
00000000: 0a73 14bd df98 02be 25fc b8be 9b3a 71be
00000010: 3ce9 dfbe 12ac 8cbd 2f69 09be feac 06be
00000020: fe5d 8cbd c408 70bd 748d 8dbe a91f 7bbc
00000030: 4d20 a13e 2868 16be 9c73 233d 0a57 dfbb
00000040: fc50 b1bd fd3c 68be f593 ecba 20f7 b7be
00000050: b241 383d a116 663d ca38 50be 816c c3be
00000060: 0bf5 a23d 6748 523d cf3a f5be 400b 183e
00000070: 30e2 fb3d a66f a5bd 559e bbbd c522 0cbe
00000080: bc68 b13d be80 55bd 04ac 2cbd 06b5 b53d
00000090: 50ed c1bd a14c 8fbd a52e 973d 2b84 80be
000000a0: 9436 0cbe d01d 3c3c be2f 99bd 2382 16be
000000b0: 07f3 a83e 08d4 5bbc 9fe6 87bd cf82 62be
000000c0: 42e4 bdbe ae91 bcbe eae4 96bd c068 b7bc
000000d0: 2769 4c3c 0925 2f3d c1f2 3b3d 3153 e4bd
000000e0: 6453 57bd 2a1d cebe 6136 ba3b 4323 c5be
000000f0: e98a 8a3d 36f0 763d 9662 4dbd f2be f6bd
-0.036242522 -0.12753628 -0.3612987 -0.23557512 -0.4373263 -0.06868757 -0.1341903 -0.13151929
-0.06853865 -0.05860211 -0.27646983 -0.015327373 0.31469956 -0.1468817 0.039905176 -0.006815796
-0.08658025 -0.22679515 -0.0018049466 -0.3593073 0.044984527 0.056173924 -0.20334163 -0.3816872
0.079568945 0.05133858 -0.4789643 0.14848042 0.12299001 -0.08077936 -0.09161059 -0.13685139
0.086625546 -0.05212473 -0.042156234 0.08872418 -0.09469092 -0.06997038 0.073819436 -0.25100836
-0.13692695 0.011481717 -0.07479809 -0.1469808 0.32997915 -0.013417251 -0.06635784 -0.22120212
-0.3708821 -0.36829895 -0.07367881 -0.022388816 0.012476242 0.04275993 0.045885805 -0.1114868
-0.052569762 -0.40256625 0.005682752 -0.38503465 0.06764776 0.060287677 -0.050142847 -0.12048139

net2.4.weight f4 [1, 64]
00000000: 081f 65b8 8fa0 f3bf dbb9 21bf 79d8 b9be
00000010: adec fcbe d24b 053a 4d05 193e 539a 583e
00000020: bb81 03bf a98a 213f a679 12bf b7e8 08c0
00000030: c3f4 2ebf d83a 653f 54cb adbb 39c0 c43d
00000040: 6cf6 e23e f681 eb3e 4161 463f 613a 493e
00000050: 6907 e63d c781 d8be 360a ac3e 854b 92bf
00000060: e429 6b3e 373c 21bb a43d 24c0 a431 37bf
00000070: 8140 bcbe 190d 563e d44a 743e 6ed7 343e
00000080: f97c 5b3e e4af 50bf 7180 d33e 6dba 813e
00000090: 6da7 f53d b8b1 51ba 57e9 d2be 57a2 26bf
000000a0: a07d 363f 85b8 dbba 4b11 073e c2f6 1f3f
000000b0: be8e 6bbf 68d8 c93d 2e45 343f b3aa 69bf
000000c0: 4ca1 21bf 9b6b 7b3e f6c3 63bf d3ee 36be
000000d0: 9d75 143e a46a a03e 01dd 423e 398d c43d
000000e0: a599 81be bc73 c73e dc0e 013f e83a d7bf
000000f0: 1d69 9d3a 12e4 123e f761 48bf ed8e 223e
-5.4626755e-05 -1.9033374 -0.6317422 -0.36297968 -0.4939932 0.00050848455 0.14943428 0.2115262
-0.5136983 0.63102204 -0.5721687 -2.1392038 -0.68342227 0.89542913 -0.0053037796 0.09606976
0.4432863 0.4599759 0.7749215 0.19651176 0.11231882 -0.42286512 0.3360154 -1.1429297
0.22965199 -0.0024602541 -2.5662622 -0.7156012 -0.36767963 0.20903434 0.2385667 0.17660305
0.21434392 -0.8151839 0.4130893 0.25337544 0.119948246 -0.00079991994 -0.4119365 -0.6509146
0.7128544 -0.0016763365 0.1319019 0.624859 -0.9201468 0.09855729 0.7041806 -0.9127609
-0.63136744 0.24552767 -0.8897089 -0.17864542 0.14497991 0.3133136 0.19029619 0.095972486
-0.25312534 0.38955486 0.504133 -1.6814852 0.0012009476 0.14344814 -0.7827448 0.15874834
