log/GC_SAC_HER/maze3Env/20210803-1626/GC_SAC_HER_actor.pth (torch_old, 24935 bytes, 6 tensors)

net.0.weight f4 [64, 21]
0	0xbee8be2c	-0.4545759
1	0xbe489d51	-0.19591261
2	0xbc4cf080	-0.012508512
3	0x3e892867	0.26788637
4	0x3e0604dc	0.13087791
5	0xbe2b8ec8	-0.16753685
6	0xbe73dd3c	-0.23814863
7	0x3d9aa1b4	0.07550374
8	0xbd187aba	-0.037226416
9	0x3e354b22	0.17704442
10	0xbe170526	-0.14748058
11	0x3d726923	0.059182297
12	0xbe23e6ce	-0.16006014
13	0x3e142ac0	0.14469433
14	0x3e1616a0	0.14657068
15	0x3e343ef0	0.17602134
16	0xbd0ac993	-0.033883642
17	0x3e1ca48e	0.15297148
18	0xbfa7e5b9	-1.3116981
19	0x3e02c9ba	0.12772265
20	0xbdab9a40	-0.0837903
21	0x3e31b33a	0.17353526
22	0xbe7f45f1	-0.24929024
23	0xbbd66ce0	-0.0065437406
24	0xbebb586d	-0.365909
25	0xbdf2f7ca	-0.11863668
26	0xbe042a10	-0.1290667
27	0xbb8d97e1	-0.004321084
28	0x3cddbdf8	0.027068123
29	0xbdfd91c9	-0.12381322
30	0x3e257d8e	0.16161177
31	0x3e1ef316	0.15522417
32	0x3df0e5fc	0.11762616
33	0x3e006efa	0.12542334
34	0xbdbb5504	-0.09147075
35	0xbb97cd3f	-0.0046326215
36	0xbe5e3eb2	-0.21703604
37	0xbdf30160	-0.11865497
38	0x3df011e2	0.11722161
39	0xbe0d6d74	-0.13811284
40	0x402c8311	2.6954997
41	0x3dac71ea	0.08420165
42	0x3f0fc970	0.56166744
43	0xbe8205ce	-0.25395054
44	0x3d9a70b2	0.07541026
45	0x3e9303fb	0.28713974
46	0x3e56d8f6	0.20981202
47	0xbe1ade50	-0.15123868
48	0xbe0ac3b6	-0.1355122
49	0x3a871d86	0.0010308481
50	0x3d420b8f	0.047374304
51	0xbdc44e28	-0.095852196
52	0xbe0e43d8	-0.13893068
53	0x3e0da494	0.13832313
54	0xbe2787bc	-0.16360372
55	0x3e12b8c8	0.14328301
56	0xbd9276fc	-0.07151601
57	0xbe25f14a	-0.16205326
58	0x3e256007	0.16149913
59	0x3e22e9e5	0.15909536
60	0x3c3fdfdb	0.011711086
61	0xbf2197c0	-0.6312218
62	0x3e11f169	0.14252247
63	0x3e470e5d	0.19439073
64	0xbe07d64e	-0.13265345
65	0xbd835802	-0.064132705
66	0xbe3846d8	-0.17995775
67	0x3e3d3f33	0.1848114
68	0x3e274461	0.16334678
69	0xbdfa5ec5	-0.12225107
70	0xbd552d0c	-0.052044913
71	0x3e0cbb4f	0.13743328
72	0x3d729fb4	0.059234336
73	0xbe01af7b	-0.12664597
74	0xbda3575c	-0.07975647
75	0xbe5f35f7	-0.2179793
76	0x3da71732	0.08158721
77	0xbe136a56	-0.14396033
78	0x3e59d859	0.21273936
79	0xbe5c8f00	-0.21538925
80	0xbcd56120	-0.02604729
81	0x3dca7502	0.09885599
82	0x3e0cbb97	0.13743435
83	0xbd6aa864	-0.057289496
84	0xbdf14389	-0.117804594
85	0x3f27a3ad	0.65484124
86	0xbe1b3502	-0.1515694
87	0x3f015bad	0.5053051
88	0x3f830f87	1.0239114
89	0xbd05c098	-0.032654375
90	0x3db9d802	0.09074403
91	0xbe61d537	-0.22053991
92	0x3e0f7553	0.140096
93	0xbdff8422	-0.12476374
94	0x3d9b8d8a	0.07595356
95	0xbe83ca71	-0.25740388
96	0x3dff2e5c	0.12460014
97	0xbd29090f	-0.041268405
98	0x3d12afd5	0.035812218
99	0xbc3ca24c	-0.011513304
100	0xbe2268ab	-0.1586024
101	0xbe0f0099	-0.13965072
102	0xbe220d87	-0.15825473
103	0xbf55f073	-0.8357002
104	0xbdd5c256	-0.10437457
105	0xbdd62ede	-0.10458158
106	0xbe5b69a8	-0.21427023
107	0x3d143d9c	0.036191568
108	0xbc2ee0b1	-0.010673688
109	0x3dadca11	0.08485807
110	0xbc7518a0	-0.014959484
111	0x3d467b31	0.04845733
112	0x3d4e5a04	0.050378814
113	0x3dea2a55	0.114338554
114	0xbdeebab5	-0.11656705
115	0xbde83bab	-0.11339506
116	0xbc8ed080	-0.017433405
117	0x3e2d2631	0.169091
118	0x3e302aab	0.17203777
119	0xbe40eb17	-0.1883968
120	0xbe4b15e7	-0.19832574
121	0xbd37045a	-0.044681884
122	0xbdb8da79	-0.09026045
123	0x3e09ca4a	0.13456073
124	0x3e03a551	0.12856032
125	0x3e0fa1a1	0.140265
126	0x3c9060e4	0.017624326
127	0x3df5aa28	0.11995345
128	0xbe0d2f17	-0.13787495
129	0xbe2dddad	-0.16979094
130	0xbdaaee14	-0.08346191
131	0xbd7612ac	-0.0600764
132	0x3d0da15a	0.034577705
133	0x3de3c850	0.11122191
134	0xbdffadd8	-0.1248433
135	0xbe192512	-0.14955547
136	0x3bc6bdba	0.0060650976
137	0xbe2bf564	-0.16792828
138	0xbbe71c86	-0.007052961
139	0xbcffa906	-0.031208526
140	0x3e1946a3	0.14968352
141	0xbe5cf117	-0.21576343
142	0x3d897e34	0.067135245
143	0x3e07490f	0.13211463
144	0x3c9ad279	0.01889919
145	0xbdbb29f9	-0.09138865
146	0xbcf30e10	-0.029669791
147	0xbdb807ae	-0.0898584
148	0xbe02a363	-0.1275764
149	0xbd305a74	-0.043055013
150	0x3df69f81	0.12042142
151	0x3e115c47	0.14195357
152	0x3df44ebe	0.119290814
153	0xbdd8cf34	-0.10586396
154	0x3df5c7f6	0.1200103
155	0x3dadfc70	0.08495414
156	0x3c618de5	0.01376674
157	0xbd2ebdf4	-0.042661622
158	0xbe65a26c	-0.2242524
159	0x3ca0cca9	0.01962884
160	0x3d6c8818	0.057746977
161	0xbe2e76c0	-0.17037487
162	0x3dae4618	0.08509463
163	0xbde6838c	-0.11255559
164	0xbe8292f1	-0.25502732
165	0xbf497c14	-0.78704953
166	0xbf60eda7	-0.8786263
167	0x3dbd3876	0.09239285
168	0x3e26d5e5	0.16292532
169	0xbe2c3246	-0.16816053
170	0x3da471a6	0.08029489
171	0x3cd51df2	0.026015256
172	0x3d99aa12	0.075031415
173	0xbe302cf4	-0.17204648
174	0x3cbe66b2	0.023242328
175	0x3d2f8807	0.042854335
176	0x3d403897	0.04692897
177	0xbe176c49	-0.14787401
178	0x3da20b3b	0.07912298
179	0xbcd4d6be	-0.025981303
180	0xbe276e2f	-0.16350625
181	0xbd8c7476	-0.06858151
182	0x3be15d4d	0.0068775774
183	0xbc820c0b	-0.015874883
184	0x3db720a7	0.08941775
185	0xbda93c21	-0.08263422
186	0x3dd33fb3	0.10314884
187	0xbe53b6e4	-0.20675236
188	0x3e2488a5	0.16067751
189	0xbe18c5f4	-0.14919263
190	0xbb621880	-0.0034499466
191	0x3d9b327e	0.0757799
192	0x3dda8b66	0.106711194
193	0x3e5ac151	0.21362807
194	0x3e0c5729	0.13705124
195	0x3d55a1fc	0.052156433
196	0x3ca9af28	0.020713404
197	0xbe41bbe7	-0.18919335
198	0xbe5cf414	-0.21577483
199	0xbe00b3fe	-0.12568662
200	0xbd9a5aec	-0.07536873
201	0x3de4ad7a	0.111659005
202	0x3df6a11a	0.120424464
203	0xbdb3709a	-0.087617114
204	0x3e5185ad	0.2046115
205	0x3d590694	0.05298479
206	0xbdf59f9c	-0.11993334
207	0x3e327ec1	0.17431165
208	0xbd4b135c	-0.04957901
209	0xbd5917c4	-0.05300118
210	0x3c4112ce	0.011784269
211	0x3e513c87	0.20433246
212	0x3de8e59a	0.11371918
213	0xbd9e53e5	-0.07730845
214	0xbef10023	-0.47070417
215	0xbe34be19	-0.17650642
216	0x3c55d732	0.013051795
217	0xbe2b3650	-0.16719937
218	0x3e051d62	0.1299949
219	0x3c756590	0.014977828
220	0xbd2628ff	-0.04056644
221	0x3e20101c	0.15631145
222	0x3dce8f59	0.10085935
223	0xbdad54a1	-0.08463407
224	0xbe4f02b4	-0.20215875
225	0x3daee249	0.08539254
226	0xbdac63d5	-0.08417479
227	0xbb84cd0a	-0.004052763
228	0xbf8d87c9	-1.1057063
229	0x40237ea6	2.554605
230	0x3e0b285b	0.13589613
231	0x3dfb7d4a	0.12279756
232	0xbd158503	-0.036503803
233	0x3d9183fe	0.07105254
234	0x3ed4ee35	0.41587988
235	0xbe536676	-0.20644554
236	0xbdc5b1d8	-0.09653062
237	0x3e4a74d5	0.1977113
238	0xbcb7b5af	-0.0224255
239	0xbe47cb15	-0.19511063
240	0xbe5b2449	-0.2140056
241	0x3c86abdd	0.016439373
242	0x3cd31c69	0.025770383
243	0x3d0671f2	0.03282351
244	0x3e29d3cf	0.16584705
245	0x3e2f8e17	0.17144047
246	0x3d4b0581	0.049565796
247	0xbe59324b	-0.21210591
248	0xbc01650d	-0.007897628
249	0xc0644f96	-3.5673575
250	0x3f549ad5	0.83048755
251	0x3dfec2d2	0.12439503
252	0x3cef8040	0.029235959
253	0x3e28e4e3	0.16493563
254	0x3de0071a	0.109388545
255	0xbe2134a0	-0.15742731

net.0.bias f4 [64]
0	0xbe106ce9	-0.14104046
1	0xbe2d47c6	-0.1692191
2	0xbd8daa22	-0.06917216
3	0x3e411ab7	0.18857847
4	0x3da3f5a6	0.08005838
5	0xbe62524e	-0.22101709
6	0xbe2d5917	-0.16928516
7	0xbd09b23a	-0.033617236
8	0x3d6f18ee	0.058373384
9	0x3e559db7	0.20860945
10	0x3dba2210	0.09088528
11	0xbe1711ea	-0.14752927
12	0xbe34f9cd	-0.17673416
13	0x3e3dfc03	0.18553166
14	0xbe0a5547	-0.13509093
15	0xbe084fcb	-0.13311689
16	0xbdf1f314	-0.118139416
17	0xbe51720d	-0.20453663
18	0xbd406fbe	-0.046981566
19	0xbe4aad87	-0.19792758
20	0x3e4f111f	0.20221375
21	0xbd930394	-0.07178417
22	0x3e125a01	0.14292146
23	0x3dee15b8	0.11625236
24	0xbc2a1ef0	-0.010383353
25	0x3d94f5a2	0.07273413
26	0x3d79e00c	0.061004683
27	0xbd0517f8	-0.03249356
28	0xbe42c80b	-0.19021623
29	0xbb86d6fe	-0.0041149845
30	0xbe12a1a4	-0.14319474
31	0x3db697fa	0.08915706
32	0x3e17515a	0.14777127
33	0x3e1d1309	0.15339293
34	0xbd0816d8	-0.03322491
35	0x3d9456bd	0.072431065
36	0xbd315bdf	-0.043300506
37	0x3d0dd709	0.0346289
38	0xbe1245bf	-0.14284419
39	0xbdcc5f0c	-0.09979066
40	0xbd60d850	-0.05489379
41	0x3d2ad504	0.041707054
42	0x3d4f34d4	0.05058749
43	0x3df81e37	0.12115138
44	0x3e2eb245	0.17060192
45	0x3de1c366	0.110235974
46	0xbe495450	-0.19661069
47	0x3d58ae07	0.05290034
48	0xbd1e33f0	-0.03862375
49	0xbdac48ee	-0.08412348
50	0x3e18de03	0.14928441
51	0xbcbb7a47	-0.022885455
52	0x3d9a7b3a	0.07543035
53	0xbd493600	-0.049123764
54	0xbe02d050	-0.12774777
55	0xbe560a1a	-0.20902291
56	0xbde6dc47	-0.11272483
57	0x3e190064	0.14941555
58	0xbe51373a	-0.20431224
59	0xbdcb9c52	-0.09941925
60	0xbe326646	-0.17421827
61	0xbe3089ba	-0.17240039
62	0x3bf2bb40	0.007407576
63	0x3e4274b5	0.18989833

net.2.weight f4 [64, 64]
0	0x3dbd2982	0.092364326
1	0x3d9e5477	0.07730954
2	0xbce04a7c	-0.027379267
3	0x3d098fd0	0.033584416
4	0xbcfec96a	-0.031101901
5	0x3d93ee6e	0.07223211
6	0xbb33b255	-0.0027419527
7	0xbdd8c7f6	-0.105850145
8	0x3c0db990	0.008650199
9	0x3d9d8586	0.07691483
10	0x3dd6c870	0.10487449
11	0xbd87429c	-0.066045016
12	0x3d4dde40	0.050260782
13	0xbde0cda4	-0.10976723
14	0x3d04ff70	0.032470167
15	0x3d310e20	0.04322636
16	0xbdd33110	-0.10312092
17	0xbd82aaf0	-0.0638026
18	0xbddd279a	-0.10798569
19	0xbd76e1b4	-0.06027384
20	0xbd542584	-0.05179359
21	0x3c02e330	0.007988736
22	0xbd71de48	-0.059049875
23	0x3d444c66	0.04792442
24	0x3da89ba0	0.08232808
25	0x3dc6d8c6	0.09709315
26	0x3d54da7c	0.051966175
27	0xbc59d1e0	-0.013294667
28	0x3dd664fa	0.104684785
29	0xbd6e0084	-0.05810596
30	0xbe0c0cd6	-0.13676772
31	0xbdfdced4	-0.12392965
32	0xbd7ec649	-0.06220082
33	0xbd1bc9b8	-0.03803417
34	0xbd76d1f0	-0.060258806
35	0xbcdbe325	-0.02684171
36	0xbdfdc8df	-0.12391829
37	0x3db49ca6	0.08818941
38	0xbd8a00e5	-0.06738452
39	0xbca9fa59	-0.020749258
40	0x3dd1b8f8	0.10240358
41	0xbd711d58	-0.058865875
42	0x3cce2bd0	0.025167376
43	0xbc9a8580	-0.018862486
44	0xbdbf6d5c	-0.093470305
45	0xbd6a5558	-0.057210296
46	0xbd977e72	-0.073971644
47	0x3d594df3	0.053052854
48	0xbc2cdcd0	-0.010550693
49	0x3dde70dc	0.1086137
50	0x3da4b905	0.08043102
51	0xbdd72cd8	-0.105066
52	0x3db0eaa8	0.08638507
53	0x3d8ed7f4	0.069747835
54	0x3d181654	0.03713067
55	0xbdd05e98	-0.10174292
56	0xbdd6f2d0	-0.104955316
57	0xbc3cd6b0	-0.011525795
58	0x3d8f85f2	0.0700797
59	0x3ce80b4f	0.028325705
60	0xbd777508	-0.060414344
61	0xbd273f12	-0.040831633
62	0x3df94aec	0.12172493
63	0xbd95529c	-0.07291147
64	0xbd9295c4	-0.07157472
65	0xbe5b45d7	-0.2141336
66	0xbbab721d	-0.005232109
67	0xbd2cf35c	-0.042224273
68	0x3d380032	0.04492206
69	0x3d3d5c94	0.046230868
70	0x3d74eb2b	0.059794586
71	0xbde129f1	-0.10994328
72	0x3d1c190c	0.038109824
73	0x3de471e6	0.11154537
74	0xbcc612e2	-0.024178926
75	0xbdc9bff5	-0.09851066
76	0x3dc106b4	0.09425107
77	0x3d6c4a0c	0.057687804
78	0x3db69c99	0.089165874
79	0x3c4205a3	0.011842164
80	0x3e0e75ae	0.13912079
81	0x3c9d85bf	0.019228814
82	0xbdeedabb	-0.11662813
83	0xbe3e5e89	-0.1859075
84	0x3d91fde8	0.07128507
85	0x3dfecfca	0.12441976
86	0x3df9f166	0.12204246
87	0xbe679192	-0.22614124
88	0xbd878dac	-0.06618819
89	0xbdf8f3b2	-0.12155856
90	0x3d7fa92c	0.062417194
91	0x3d646b90	0.055766642
92	0x3c76efe0	0.015071839
93	0xbd6884ac	-0.05676715
94	0xbb51f915	-0.0032039334
95	0xbc609655	-0.013707717
96	0x3bfbd960	0.007685825
97	0x3d65be1c	0.056089506
98	0xbdce14ca	-0.10062559
99	0xbe81342a	-0.2523511
100	0x3d7c788d	0.061638404
101	0xbc92f981	-0.017941238
102	0xbe155637	-0.1458367
103	0x3d916f01	0.071012504
104	0x3cb4f480	0.022089243
105	0x3d942f7c	0.072356194
106	0x3caa6e00	0.020804405
107	0xbd409ee4	-0.04702653
108	0x3d931c86	0.07183175
109	0x3d51d528	0.051228672
110	0xbd8df3cd	-0.06931267
111	0xbd0e5b2e	-0.034754924
112	0x3dc90074	0.098145396
113	0x3d415bd8	0.04720673
114	0xbd1f0c7f	-0.038830277
115	0x3c3af7e5	0.011411642
116	0x3d0ad3cc	0.03389339
117	0x3d8ab11b	0.067720614
118	0xbe0dce60	-0.13848257
119	0xbde9a9d5	-0.11409346
120	0xbe41de8e	-0.18932554
121	0x3cfe9bb5	0.031080106
122	0x3c9fad07	0.019491686
123	0xbe5d0061	-0.21582176
124	0x3c38e33a	0.011284644
125	0xbd117778	-0.035514325
126	0x3d74d148	0.0597699
127	0xbd7feaa7	-0.06247964
128	0x3c79de16	0.015250703
129	0x3e3fff5a	0.18749753
130	0xbd66e135	-0.056367118
131	0xbc531800	-0.01288414
132	0x3e892b3b	0.26790795
133	0x3c8d1588	0.017222181
134	0xbdac9a24	-0.084278375
135	0xbd9007e0	-0.07032752
136	0xbd11b6cc	-0.03557472
137	0xbdcf914a	-0.101351336
138	0x3c9c5e43	0.019087916
139	0xbf25edef	-0.6481618
140	0x3de9fd22	0.114252344
141	0x3d80351a	0.06260128
142	0x3dc25514	0.094888836
143	0xbe95a9fa	-0.29231244
144	0x3df358ec	0.11882195
145	0xbc2a0605	-0.010377412
146	0x3c1d4681	0.009599329
147	0x3e0ada8b	0.1355993
148	0x3dc35f3c	0.09539649
149	0xbdf62810	-0.1201936
150	0x3de8bcaa	0.1136411
151	0xbe8adba6	-0.27120703
152	0xbcc62dd8	-0.024191782
153	0x3d0b90c8	0.03407362
154	0x3d52f014	0.051498488
155	0x3ddb61e8	0.107120335
156	0xbddc0cfe	-0.107446656
157	0x3e494f07	0.19659053
158	0xbc0b9f63	-0.0085218875
159	0x3d467e64	0.04846038
160	0x3de2aab2	0.11067714
161	0xbde29aa4	-0.110646516
162	0xbde6257c	-0.11237618
163	0x3eda7fee	0.42675728
164	0xbc1c9769	-0.009557583
165	0xbe6426e8	-0.22280467
166	0xbd7b14dd	-0.061299194
167	0x3e04188b	0.12899987
168	0x3da5a998	0.08088988
169	0x3da911cc	0.082553476
170	0xbc9b0ea8	-0.018927887
171	0xbd73c63b	-0.05951522
172	0xbde50208	-0.11182028
173	0x3dd3d24c	0.10342845
174	0x3d91a9e6	0.07112484
175	0x3e74ce20	0.23906755
176	0xbcdf0d40	-0.027227998
177	0x3b533b00	0.0032231212
178	0xbde76127	-0.11297827
179	0xbe97a020	-0.29614353
180	0x3da899fe	0.08232497
181	0xbcb59769	-0.022166925
182	0x3e1da79a	0.15395966
183	0xbe37f69f	-0.17965172
184	0x3e2c5fbf	0.16833399
185	0xbde76019	-0.11297626
186	0x3d69d019	0.057083223
187	0x3d282d1f	0.041058656
188	0x3defb86c	0.117050976
189	0xbf5ab9a2	-0.85439503
190	0x3ceb8c80	0.028753519
191	0x3d6d5490	0.057941973
192	0xbd2974f3	-0.041371297
193	0xbe05a0dc	-0.13049644
194	0x3c8c22f5	0.017106513
195	0xbdede4e4	-0.11615923
196	0xbdc383c9	-0.095466204
197	0x3db70678	0.08936781
198	0xbbc5dd40	-0.006038338
199	0xbd8e1c07	-0.069389395
200	0xbc9a8948	-0.018864289
201	0xbd7e8908	-0.062142402
202	0x3d3edc10	0.046596587
203	0xbdd2cf84	-0.10293487
204	0xbd375f50	-0.04476863
205	0x3df7b990	0.1209594
206	0xbcaca9e0	-0.021077096
207	0x3d97c5ab	0.07410749
208	0xbdd08c8d	-0.10183058
209	0x3db28d48	0.087183535
210	0x3db794f7	0.0896396
211	0xbde52708	-0.11189085
212	0xbbb779e0	-0.0055992454
213	0xbdc112e2	-0.0942743
214	0xbd75caf8	-0.06000802
215	0x3ca268b6	0.01982532
216	0xbd6dbd58	-0.0580419
217	0x3daa3794	0.08311382
218	0x3ca4d778	0.020122275
219	0x3dcf28f2	0.101152316
220	0xbd73d4b2	-0.059529014
221	0x3cc0784d	0.023494864
222	0x3d494098	0.049133867
223	0xbdec0b22	-0.11525561
224	0xbdb83412	-0.089943066
225	0x3d68b364	0.056811705
226	0x3cc060b8	0.02348362
227	0x3dd19c4f	0.102348916
228	0xbd8db184	-0.06918624
229	0x3d6345bd	0.05548643
230	0xbd1aba69	-0.03777543
231	0xbdb24d7c	-0.08706185
232	0xbbbe7500	-0.0058122873
233	0x3d5efe20	0.05444157
234	0x3c828368	0.0159318
235	0xbd43683f	-0.04770684
236	0x3c006530	0.007836625
237	0xbbb79060	-0.0056019276
238	0xbd8668c4	-0.06562951
239	0xbcf6a9c5	-0.03011025
240	0xbdba040a	-0.09082802
241	0x3d82956c	0.06376156
242	0x3d7f54de	0.062336795
243	0xbd1d36d2	-0.03838236
244	0x3da395a0	0.07987523
245	0x3d975f58	0.07391232
246	0xbd3cc9d4	-0.046090916
247	0xbdef076d	-0.11671338
248	0xbd215c84	-0.03939487
249	0xbca6b0a8	-0.020347908
250	0xbd89d5dd	-0.06730244
251	0xbdcecfc2	-0.100982204
252	0xbdd7ccc0	-0.105371
253	0xbd46d5f2	-0.048543878
254	0x3dabd006	0.08389287
255	0xbbcea640	-0.0063064396

net.2.bias f4 [64]
0	0x3d834b54	0.06410852
1	0x3c81163b	0.01575767
2	0x3d9a2456	0.07526462
3	0xbc9c332f	-0.019067375
4	0x3d129b27	0.035792496
5	0xb8a45258	-7.835467e-05
6	0xbeb6a45c	-0.3567227
7	0x3d07c07e	0.03314256
8	0x3d65013d	0.055909384
9	0xbb94c5b8	-0.0045401715
10	0x3d084b69	0.03327504
11	0x3d2d5c90	0.042324603
12	0xbd28a835	-0.04117604
13	0x3e14a0f6	0.14514527
14	0x3cf8dc31	0.030378433
15	0x3dbc5f69	0.091978855
16	0xbe261874	-0.16220266
17	0x3e815ab3	0.2526451
18	0x3b03f95b	0.002013764
19	0xbc4fc120	-0.012680322
20	0x3daa41b8	0.08313316
21	0x3dfe2cf1	0.12410916
22	0xbc71eb88	-0.014765628
23	0xbd48edca	-0.0490549
24	0x3ca688c1	0.020328881
25	0xbb0b8423	-0.0021288476
26	0x3d114a16	0.035471044
27	0x3d233e14	0.039854124
28	0xbd8f793c	-0.070055455
29	0xbe4ac132	-0.1980026
30	0x3df782ee	0.1208552
31	0x3e290d68	0.1650902
32	0xbdc982a0	-0.09839368
33	0xbd0140b4	-0.031555846
34	0xbc80f473	-0.015741562
35	0x3e2d1bab	0.16905086
36	0x3be4b31f	0.0069793607
37	0x3dd9acb6	0.10628645
38	0x3e090b5e	0.13383242
39	0x3e1e9fd4	0.15490657
40	0x3e1c518f	0.15265487
41	0xbe3bddbf	-0.18346308
42	0x3c37bee6	0.011214947
43	0xbe56c77e	-0.20974538
44	0x3d9697d2	0.07353176
45	0x3db70187	0.08935838
46	0xbe02e9a5	-0.12784441
47	0x3d890e38	0.06692165
48	0x3d383b66	0.04497852
49	0xbe8a78ce	-0.27045292
50	0x3b5927b8	0.0033135246
51	0x3da56b7e	0.08077143
52	0xbaac9bba	-0.0013168969
53	0x3e1e1fe2	0.1544185
54	0x3d800ece	0.06252824
55	0xbd99e627	-0.07514601
56	0x3e025e73	0.12731342
57	0x3de8a24e	0.11359082
58	0x3d67b089	0.05656484
59	0x3cdaf5c9	0.026728528
60	0x3d32f745	0.043692846
61	0x3d99b400	0.075050354
62	0xbe00a091	-0.12561251
63	0xbbcfb5c0	-0.006338805

net.4.weight f4 [6, 64]
0	0xbd652f11	-0.05595309
1	0x3d92efd4	0.0717465
2	0x3d049a9e	0.032374017
3	0x3dc38945	0.095476665
4	0xbe24aa94	-0.16080695
5	0xbee6d897	-0.4508712
6	0x3df0f703	0.11765864
7	0x3e1b2ebc	0.15154546
8	0xbec02627	-0.37529108
9	0x3e2fea06	0.17179117
10	0x3f24fdcb	0.6444976
11	0xbe717fcd	-0.23583908
12	0xbe4229ce	-0.1896126
13	0x3eebdcf1	0.46067002
14	0x3e0648e6	0.13113746
15	0x3c64c381	0.013962627
16	0xbeb6bcd9	-0.35690954
17	0x3d8e70ff	0.06955146
18	0x3d513605	0.051076908
19	0x3da7063e	0.081554875
20	0xbe0b78fa	-0.13620368
21	0x3eb30a96	0.34969014
22	0x3f144516	0.57917917
23	0x3d712554	0.05887349
24	0xbf2a11d1	-0.66433436
25	0xbf935544	-1.1510396
26	0x3ea7fe4d	0.32811204
27	0xbb84e8c8	-0.00405607
28	0xbc1ebf09	-0.009689101
29	0x3ec2d5eb	0.3805383
30	0xbda245f1	-0.079234965
31	0x3f8d8ec2	1.1059191
32	0x3ed7d401	0.42153934
33	0xbdc53b94	-0.09630504
34	0x3f176384	0.59136224
35	0x3e4b58c5	0.19858082
36	0x3edea92d	0.43488446
37	0x3dcb6493	0.099312924
38	0x3cc1253f	0.02357733
39	0x3f34094a	0.70326674
40	0x3d3952df	0.045245048
41	0x3de8af9d	0.113616206
42	0x3dde255e	0.10846971
43	0xbed86abb	-0.4226893
44	0xbcd1197a	-0.025524843
45	0xbd99da6a	-0.07512362
46	0xbcf605d8	-0.030032083
47	0xbdad5a0a	-0.08464439
48	0x3f42c4ec	0.7608173
49	0xbf3c0c1e	-0.7345599
50	0x3f05ca0a	0.5226141
51	0xbe09882e	-0.13430855
52	0x3e56ebc6	0.20988378
53	0x3eb5a5dc	0.35478103
54	0x3e87acd6	0.2649905
55	0xbe44be6b	-0.19213264
56	0xbcf2be8b	-0.029631874
57	0xbeee0329	-0.46486786
58	0x39851eb3	0.0002539061
59	0xbe3a4a42	-0.1819239
60	0x3e7cb81e	0.2467961
61	0xbd3183af	-0.043338474
62	0x3d868622	0.065685526
63	0xbd869216	-0.065708324
64	0xbdaccca7	-0.08437472
65	0x3dca6f82	0.0988455
66	0xbebcf91c	-0.36908805
67	0xbd76b0d0	-0.060227215
68	0x3f196d75	0.59932643
69	0x3ed226c3	0.41045198
70	0xbf6e24b1	-0.93024737
71	0x3e3d3844	0.18478495
72	0xbe093014	-0.13397247
73	0x3dafdf8f	0.08587562
74	0xbedecbae	-0.4351477
75	0xbe7f2ca4	-0.24919373
76	0xbed42669	-0.41435555
77	0x3f74f26b	0.956824
78	0xbbf06c45	-0.0073371255
79	0x3cb553b8	0.022134647
80	0x3f0b0cab	0.54316205
81	0x3f1f082a	0.6212183
82	0x3de1185b	0.109909736
83	0x3be04080	0.0068436265
84	0x3d3dc793	0.046332907
85	0xbec334a8	-0.3812611
86	0xbfb7247c	-1.4308009
87	0x3c804ec0	0.01566255
88	0x3f21f75d	0.6326807
89	0x3f027c99	0.5097137
90	0x3df5640f	0.11981975
91	0xbe4b0a0b	-0.1982805
92	0x3e198cd6	0.14995131
93	0xbdc976e6	-0.09837131
94	0x3da7f63f	0.082012646
95	0xc0018e94	-2.0243273
96	0x3f884d6e	1.064863
97	0x3d9dbf2b	0.07702478
98	0xbee60013	-0.44921932
99	0x3f079667	0.5296387
100	0xbf2a32b5	-0.6648362
101	0xbee6605f	-0.449954
102	0x3ef6b1c7	0.48182508
103	0xbf130aa2	-0.574381
104	0x3e9187cb	0.28423914
105	0x3f43f0ea	0.7653948
106	0xbce5fde8	-0.028075173
107	0xbf5ae094	-0.8549893
108	0x3e5a1b4f	0.2129948
109	0xbcc45eea	-0.02397104
110	0x3da4881f	0.080337755
111	0x3c2c6ed5	0.010524471
112	0xbf06a29f	-0.5259189
113	0x3f4a407f	0.79004663
114	0x3f72fbfe	0.9491576
115	0xbecaceaa	-0.39610797
116	0xbf04aafa	-0.5182339
117	0x3e74f79b	0.23922579
118	0xbcd20e8b	-0.0256417
119	0xbe6fbbad	-0.23411436
120	0xbee03c96	-0.43796223
121	0x3e04f1a5	0.12982805
122	0x3d6015d7	0.054708328
123	0xbdbc56da	-0.09196253
124	0xbf18011d	-0.593767
125	0xbcd71a39	-0.026257621
126	0xbd06ecdc	-0.03294073
127	0xbc949eb8	-0.01814209
128	0xbbb6c18e	-0.0055772727
129	0xbc359c78	-0.011084668
130	0x3f408a3d	0.75210935
131	0xbcc401f1	-0.023926707
132	0x3f2e331b	0.6804673
133	0x3ea78509	0.32718685
134	0xbe3e3ddd	-0.18578286
135	0xbb1b20b8	-0.0023670625
136	0x3ed797fa	0.42108136
137	0x3e0671df	0.13129376
138	0x3d90db4b	0.07073077
139	0xbd3f1fe2	-0.046661265
140	0xbead2562	-0.33817583
141	0x3d197bc5	0.03747155
142	0xbd199b4a	-0.03750161
143	0x3ded8cbc	0.115991086
144	0xbf4885ad	-0.78328973
145	0x3fd06815	1.6281763
146	0xbd372ab2	-0.04471845
147	0x3cba0948	0.022709504
148	0xbe842605	-0.25810257
149	0x3f991ba6	1.1961563
150	0x3e352cb6	0.17692837
151	0x3d20cd07	0.03925803
152	0x3fac2d4e	1.3451326
153	0x3ebe06d1	0.37114576
154	0xbd26b0c2	-0.040695913
155	0xbef91e84	-0.48656094
156	0x3f61b05a	0.88159716
157	0xbf5900f6	-0.8476709
158	0xbcee7263	-0.029107278
159	0xbdfab811	-0.12242139
160	0xbf103cbb	-0.5634267
161	0x3d0b37c9	0.033988748
162	0xbf0f576d	-0.55992776
163	0xbd00a6c3	-0.031409036
164	0x3d2018f1	0.039086286
165	0x3ef02cf8	0.46909308
166	0x3ee55e7d	0.4479865
167	0xbf365db5	-0.71236736
168	0xbf37273b	-0.71544236
169	0x3e805515	0.25064912
170	0xbdbc20b6	-0.091859266
171	0x3b1b468b	0.002369317
172	0xbf237614	-0.6385205
173	0xbade5d01	-0.0016964973
174	0xbdedac5c	-0.116051406
175	0xbce7d777	-0.028300984
176	0x3e581904	0.21103293
177	0x3f3e50c5	0.74341995
178	0x3e37cbde	0.17948863
179	0xbe53907e	-0.20660588
180	0x3f001dad	0.5004528
181	0xbdee7a96	-0.11644475
182	0xbdb27f3c	-0.08715674
183	0x3f4de350	0.80424976
184	0x3f85901e	1.0434606
185	0x3e9e2f45	0.3089544
186	0xbd67b4cf	-0.056568917
187	0xbf6ca159	-0.92433697
188	0xbeee297e	-0.4651603
189	0x3d9d9079	0.076935716
190	0x3bad1c5d	0.005282922
191	0x3d16cde4	0.036817446
192	0xbdb2f178	-0.08737463
193	0x3e2b75c5	0.16744144
194	0xbe65a779	-0.22427167
195	0x3d0738e8	0.033013254
196	0xbbb797b0	-0.0056027994
197	0xbe9e5714	-0.3092581
198	0xbd9211c0	-0.07132292
199	0xbeaeb939	-0.3412569
200	0xbe338b6c	-0.17533654
201	0xbdc257ef	-0.09489428
202	0x3cfb8cde	0.03070682
203	0xbe87e8a2	-0.26544672
204	0xbe884936	-0.26618356
205	0x3d4678ca	0.048455037
206	0x3de93a01	0.113880165
207	0x3ca13704	0.019679554
208	0xbdf67eb2	-0.12035884
209	0x3cd6adb2	0.026205871
210	0xbd8dff33	-0.06933441
211	0xbbeace60	-0.007165715
212	0xbe2be92e	-0.1678817
213	0x3da6454a	0.081186846
214	0x3e0db384	0.13838011
215	0xbdf7d06d	-0.12100301
216	0xbd88667f	-0.066601746
217	0xbd78901a	-0.0606843
218	0xbc20bc94	-0.0098105855
219	0xbe391b90	-0.1807692
220	0xbe50d899	-0.20395125
221	0x3e5487a5	0.2075487
222	0xbebe6866	-0.37189025
223	0x3c93314b	0.01796784
224	0x3d8e7d4f	0.069574945
225	0xbd871053	-0.065949105
226	0x3e2deaf5	0.1698416
227	0xb9b7fddb	-0.00035093617
228	0x3e2c6e3d	0.16838928
229	0xbcb9abd3	-0.02266494
230	0xbdb6db55	-0.08928553
231	0x3dd480ff	0.103761666
232	0xbd4757b6	-0.048667632
233	0x3db29945	0.0872064
234	0xbc09ebaf	-0.008418008
235	0xbdda98d8	-0.10673684
236	0xbe49f655	-0.19722874
237	0xbc9693d0	-0.01838103
238	0xbd841e1d	-0.06451056
239	0xbc824c92	-0.015905652
240	0x3e79b96c	0.24387139
241	0x3ce3c68c	0.027804635
242	0x3cba8bb8	0.022771701
243	0xbe762745	-0.24038418
244	0xbd16c584	-0.03680946
245	0xbdfb1855	-0.122605
246	0x3d05d554	0.03267415
247	0xbe4bbe59	-0.1989683
248	0x3e0f1485	0.13972671
249	0xbde60c8e	-0.11232863
250	0xbb799c2c	-0.003808747
251	0xbe047dee	-0.12938663
252	0xbdc8ceff	-0.09805106
253	0x3d29de89	0.04147199
254	0x3d1aee6e	0.03782504
255	0xbd340740	-0.043952227

net.4.bias f4 [6]
0	0xbd5f6a5c	-0.05454479
1	0x3d3b9685	0.045797843
2	0xbdcf85d8	-0.101329505
3	0xbebb96f9	-0.3663862
4	0xbea51db3	-0.3224922
5	0xbe9e3153	-0.30897006
