log/GC_SAC/maze3Env/20210818-1228/GC_SAC_HER_actor.pth (torch_old, 25959 bytes, 6 tensors)

net.0.weight f4 [64, 25]
0.15720601 -0.017703827 0.10500227 0.1911033 -0.023684444 -0.05843611 0.12518287 -0.089274086
-0.24881473 0.10994307 0.0731102 0.10406516 -0.10590547 0.09077123 -0.16562997 -0.29298294
-0.16267824 0.24002908 0.05150318 -0.071010694 0.1737024 0.34495226 0.012201384 0.40361336
-0.11085885 -0.1633587 -0.19832373 -0.14783385 0.051506005 -0.023668444 -0.034535334 0.12917231
-0.08636053 -0.060167573 -0.1448065 -0.021180088 0.17898467 0.14051445 -0.08807721 -0.25397834
-0.1754323 -0.10939234 0.2749412 -0.045644976 -0.027678711 -0.011382515 0.044872787 -0.3196148
-0.57156754 -0.19018553 -0.035123367 -0.11704819 0.12722315 -0.13374461 -0.014205522 -0.16199346
-0.006609654 -0.12529507 -0.1166019 0.06188996 0.13041952 -0.12342142 -0.19601017 -0.19311002
0.03395849 -0.06422927 0.007939864 -0.023810593 -0.22510533 0.063993774 -0.052896805 0.037561566
0.0926725 -0.06135607 0.010040253 0.20500046 0.13907629 0.053081647 0.05653292 0.09803824
-0.012658119 -0.17389783 0.2061417 0.3740329 0.051245816 -0.12156436 -0.061291967 -0.10228464
-0.3642332 -0.27516967 -0.10069878 -0.33425394 0.02503559 0.19503792 0.21772163 -0.041194562
-0.20868559 0.13501494 -0.2955609 0.197392 0.22319154 -0.07696611 0.12992682 -0.13192493
-0.17886625 -0.08876412 -0.051638894 0.27807966 0.002015752 -0.02632244 0.055506084 0.04257299
0.009930125 0.15093046 -0.015600294 -0.07151453 0.078926496 0.04707993 -0.017613664 0.04575944
-0.23754941 0.113371216 0.57603544 0.7411554 0.12317146 0.2711046 -0.19606435 -0.18360542
-0.0700762 0.03642737 0.06435816 0.10813961 0.17989518 0.23345907 -0.005262733 -0.16314657
0.03464733 -0.07199399 0.09012985 -0.22520337 0.13197082 0.101078115 0.17880858 -0.01991273
0.05927454 -0.087492 -0.1197133 0.5199501 -0.29848203 0.07624771 -0.14086047 -0.13561743
-0.03825052 -0.1275744 0.013030424 0.013667941 0.20091093 0.07453793 0.29286942 -0.018566957
0.031209253 0.13583924 0.46942368 -0.24144319 -0.2575093 -0.230746 -0.13240692 0.1058637
0.033977732 0.25328958 -0.06619302 0.12119266 0.51231 0.4954139 -0.1514782 0.01676338
0.20257634 -0.11689992 -0.23901199 0.07757162 0.19134422 -0.089174055 0.080349825 -0.33193573
0.11047945 0.30253115 0.1599291 0.067101315 0.14854231 -0.164775 -0.38989225 0.059697844
0.07630934 0.020321332 -0.45138836 -0.7430018 -0.3488148 0.059250265 0.38539395 -0.09107941
0.19614993 -0.21429184 -0.04198058 0.02703735 -0.0644445 -0.1134759 -0.22686331 -0.007801665
0.11378944 -0.17279634 0.038976353 0.10154431 0.12045663 0.24206702 0.23228216 -0.05088823
0.23076983 0.16653286 0.11736779 -0.4015094 -0.24278939 -0.08775933 -0.20374072 -0.34161454
0.077472106 0.13685872 -0.14039712 0.036374718 -0.07493421 -0.015702453 -0.050417393 0.030752901
0.100650266 0.3069289 0.4027713 0.16196132 0.07315941 0.122897655 -0.027391871 0.03651465
0.05192672 -0.038265534 0.11821204 -0.14374174 -0.0541613 0.13560331 -0.40555683 -0.32886186
-0.143605 0.17735662 0.16733487 -0.18812285 0.075477585 0.025704535 -0.16249718 -0.16467169
00000000: 9dfa 203e 9e07 91bc 6e0b d73d 95b0 433e
00000010: e105 c2bc b45a 6fbd f02f 003e 55d5 b6bd
00000020: 4ac9 7ebe d529 e13d cdba 953d 1d20 d53d
00000030: f8e4 d8bd 44e6 b93d e79a 29be dc01 96be
00000040: 2095 26be 2fca 753e 00f5 523d 0e6e 91bd
00000050: 0bdf 313e 959d b03e 50e8 473c 69a6 ce3e
00000060: f709 e3bd 8147 27be 6015 4bbe c261 17be
00000070: f6f7 523d 53e4 c1bc ec74 0dbd bf45 043e
00000080: cadd b0bd 4672 76bd 2848 14be dd81 adbc
00000090: c247 373e 05e3 0f3e d361 b4bd 7309 82be
000000a0: 86a4 33be 1709 e0bd 18c5 8c3e 3af6 3abd
000000b0: 77be e2bc ba7d 3abc 87cc 373d 8da4 a3be
000000c0: 4052 12bf ffbf 42be 85dd 0fbd f6b6 efbd
000000d0: c946 023e 59f4 08be 47be 68bc 9de1 25be
000000e0: cc95 d8bb 5a4d 00be facc eebd 5480 7d3d
000000f0: b28c 053e 5fc4 fcbd e4b6 48be a2be 45be
00000100: 0f18 0b3d a38a 83bd 3416 023c 6f0e c3bc
00000110: 0382 66be 2b0f 833d 52aa 58bd 28da 193d
00000120: 14cb bd3d 8150 7bbd e07f 243c a4eb 513e
00000130: 046a 0e3e 246c 593d 108f 673d 46c8 c83d
00000140: 0064 4fbc 4612 32be cf16 533e 3e81 bf3e
00000150: 22e7 513d bcf6 f8bd 490d 7bbd 9c7a d1bd
00000160: c67c babe 0ae3 8cbe 293b cebd 5523 abbe
00000170: 7017 cd3c 05b8 473e 6bf2 5e3e a1bb 28bd
00000180: adb1 55be 5b41 0a3e c253 97be 2121 4a3e
00000190: 538c 643e 68a0 9dbd 890b 053e 5417 07be
000001a0: b728 37be f7c9 b5bd 4e83 53bd 7560 8e3e
000001b0: b51a 043b 28a2 d7bc 595a 633d 0461 2e3d
000001c0: f7b1 223c 848d 1a3e 6098 7fbc 3676 92bd
000001d0: 37a4 a13d e2d6 403d 884a 90bc 406e 3b3d
000001e0: 2740 73be 2b2f e83d 0f77 133f 5cbc 3d3f
000001f0: 5241 fc3d 39ce 8a3e 18c5 48be 0f03 3cbe
00000200: 1c84 8fbd de34 153d 36ce 833d 4d78 dd3d
00000210: 7136 383e e50f 6f3e 0173 acbb e50f 27be
00000220: 5cea 0d3d 9671 93bd 0096 b83d b69b 66be
00000230: 5c23 073e 0b02 cf3d 9919 373e 0620 a3bc
00000240: dcc9 723d 012f b3bd 3f2c f5bd 731b 053f
00000250: a3d2 98be c227 9c3d ba3d 10be 4cdf 0abe
00000260: 94ac 1cbd dda2 02be 8f7d 553c 80ef 5f3c
00000270: 98bb 4d3e 58a7 983d fbf2 953e bb19 98bc
00000280: 8caa ff3c 7119 0b3e 4d58 f03e e23c 77be
00000290: 42d8 83be ae48 6cbe ae95 07be 11cf d83d
000002a0: 3c2c 0b3d 2caf 813e 3590 87bd db33 f83d
000002b0: c026 033f e4a6 fd3e 1a1d 1bbe 5b53 893c
000002c0: 2c70 4f3e 3a69 efbd 8fbf 74be dfdd 9e3d
000002d0: bdef 433e e3a0 b6bd 738e a43d 7bf3 a9be
000002e0: 0d43 e23d 5de5 9a3e 74c4 233e 6a6c 893d
000002f0: 7a1b 183e c7ba 28be f59f c7be ba85 743d
00000300: 1248 9c3d ec78 a63c 601c e7be 5e35 3ebf
00000310: da97 b2be 68b0 723d 5b52 c53e d787 babd
00000320: 87db 483e 526f 5bbe d4f3 2bbd 6f7d dd3c
00000330: 7afb 83bd 0d66 e8bd db4e 68be 1ca5 ffbb
00000340: 700a e93d 86f1 30be aba5 1f3d 77f6 cf3d
00000350: f7b1 f63d 6be0 773e 60db 6d3e 2d70 50bd
00000360: ed4e 6c3e 9787 2a3e 865e f03d a492 cdbe
00000370: c89d 78be 2abb b3bd 68a1 50be 1ae8 aebe
00000380: b2a9 9e3d b124 0c3e 43c4 0fbe a8fd 143d
00000390: 1b77 99bd 6ea2 80bc 7882 4ebd 82ed fb3c
000003a0: ba21 ce3d c925 9d3e 0a38 ce3e 30d9 253e
000003b0: 9ad4 953d c4b1 fb3d eb64 e0bc 6390 153d
000003c0: 1db1 543d 52bc 1cbd 2719 f23d 0931 13be
000003d0: 3dd8 5dbd 98db 0a3e 25a5 cfbe 9560 a8be
000003e0: 300d 13be f99c 353e d559 2b3e 47a3 40be
000003f0: fe93 9a3d 5192 d23c a965 26be b29f 28be

net.0.bias f4 [64]
-0.016388139 -0.07833493 -0.03241795 0.12772648 0.15252498 -0.089382306 0.039497767 -0.086828396
0.017021734 0.16404408 0.00019846 0.18076433 0.16587156 -0.07275018 0.099332124 0.00020726924
-0.21602115 0.15242909 0.091831915 0.053648945 -0.018731717 0.10833449 0.121535 -0.060873386
-0.030266635 -0.06658631 0.33864835 -0.055055697 0.10677858 0.16995232 -0.05546038 0.0013319217
0.085134104 -0.18749909 -0.13373803 0.22568356 -0.021242205 0.07310856 -0.11719699 0.028416872
0.046195365 -0.12295435 -0.017464422 0.025638051 0.17596254 0.11023844 -0.12654372 0.14077197
0.10310347 -0.13005535 -0.15878369 0.13412939 -0.05163222 -0.06858023 0.16441566 0.26044968
0.021969732 0.0039778617 -0.23044106 -0.114547424 -0.04115193 -0.14635924 0.067385934 0.047015198
00000000: 6b40 86bc 106e a0bd afc8 04bd bbca 023e
00000010: 822f 1c3e 120e b7bd 69c8 213d 16d3 b1bd
00000020: 2a71 8b3c 2cfb 273e b319 5039 491a 393e
00000030: 3cda 293e 0cfe 94bd a46e cb3d 6a56 5939
00000040: a634 5dbe 5f16 1c3e 5f12 bc3d ffbe 5b3d
00000050: 4273 99bc 79de dd3d 58e7 f83d 5f56 79bd
00000060: bcf1 f7bc 675e 88bd 5163 ad3e 1582 61bd
00000070: baae da3d fb07 2e3e 6c2a 63bd e093 ae3a
00000080: ca5a ae3d c3ff 3fbe 9ff2 08be 9719 673e
00000090: 2204 aebc f1b9 953d fa04 f0bd 80ca e83c
000000a0: 5a37 3d3d 7ecf fbbd 8c11 8fbc e406 d23c
000000b0: 862f 343e b1c4 e13d ad94 01be 8726 103e
000000c0: e927 d33d 3b2d 05be 3198 22be 3759 093e
000000d0: 4f7c 53bd cb73 8cbd 945c 283e a959 853e
000000e0: def9 b33c b958 823b bef8 6bbe d797 eabd
000000f0: ed8e 28bd 32df 15be a301 8a3d 0293 403d

net.2.weight f4 [64, 64]
0.03415104 -0.22424091 -0.014284372 -0.8092177 -0.10222428 -0.6042455 -0.20515203 -0.4225245
-0.08788174 0.08132733 0.094134055 0.16728795 -0.12726356 -0.35104513 -0.038760494 0.14788593
0.12523364 -0.08038894 -0.12881154 -0.11084317 0.14739548 -0.10334028 0.26495162 -0.0010553206
0.011314558 0.04081089 0.2006012 0.07622431 -0.055372156 -0.7070494 -0.16208413 -0.11411744
0.10973712 0.07082141 -0.012969728 0.19754262 -0.044660088 0.013569855 0.011086952 0.23358628
-0.20930456 0.054692063 -0.04574682 -0.18358326 -0.08656394 0.27225614 0.30030093 0.07594897
0.03512505 0.058830302 -0.41517097 0.11127869 -0.25499257 -0.10093987 -0.26984018 0.1085407
-0.18851899 -0.031892255 0.013656273 0.16242468 0.050460666 -0.02077405 -0.06816071 -0.9221715
0.10192754 -0.28845838 0.030545041 -0.058025405 0.061942436 -0.15865967 0.23846254 0.14863926
0.3259587 0.05629397 0.074541934 -0.0055334917 -0.016887555 0.055294495 -0.14885822 0.11519703
0.12153991 0.2225159 0.11751045 0.11835307 -0.018559862 -0.9340227 0.18271247 0.07658693
0.33744833 -0.07614442 0.11709169 -0.04871197 -0.18980414 -0.3261096 -0.016023818 -0.06822215
0.085745275 0.10260728 -0.12190218 -0.08428141 0.028515 0.02392158 0.1583944 -0.24501278
0.013533178 0.47991228 -0.004316118 -0.12630649 -0.554667 0.10907359 0.06385032 -0.09552035
0.029744783 0.2007995 -0.41500595 0.12874071 -0.2905764 0.099545725 -0.035851978 0.11430717
-0.019997165 -0.07389887 -0.006327784 0.2369746 -0.40587708 -0.18794462 0.09226957 -0.14011806
-0.09382188 0.14259641 0.07929309 0.06923259 -0.07183116 -0.22802237 0.030008849 -0.48744097
0.13712811 -0.056087554 -0.06918198 0.09719646 0.14441217 0.20107579 -0.026784915 0.09245066
0.17784719 0.29231647 0.1209472 0.023426428 0.10829739 -0.030045055 0.33869565 0.041586954
0.0097491965 0.21374129 0.16063026 0.0747284 -0.011081168 0.11992607 -0.016654283 0.10423759
0.06801575 0.21421525 0.26573557 0.017724102 -0.029543936 -0.094415955 -0.2869584 0.14020829
-0.03989192 -0.044115975 0.05520038 -0.14719413 0.24033432 -0.0019039605 -0.54475933 0.041008875
0.057371892 0.16922227 -0.14159442 0.08005886 -0.040277146 -0.034198962 -0.045390084 0.1839187
-0.3294681 -0.13377048 0.04403639 -0.12976144 0.12153836 -0.27889067 -0.015118327 -0.06654142
-0.1820425 0.014984415 -0.072581545 -0.1891573 0.00745538 -0.1851016 -0.637615 0.01256391
0.12097923 0.114044406 0.19465269 -0.17775829 0.16074272 0.26716504 -0.049166407 0.07737399
-0.113856554 -0.1310423 0.111989155 0.06588343 0.14415154 -0.4018299 0.07209118 0.1854879
-0.05509488 0.3351537 -0.054558784 -0.08046433 0.053813808 -0.01554042 0.17507711 -0.0471585
0.0788143 0.08505069 -0.029393481 -0.050132316 0.10614484 -0.007333787 0.30736676 0.02896118
0.20777185 -0.77986515 -0.03030764 -0.3360915 0.4723619 0.012861058 -0.121637635 -0.052822217
0.2703468 0.3601225 0.04216485 0.054038838 -0.13704845 -0.26912668 0.15664117 -0.061346065
0.00981284 -0.07085401 0.13860492 0.031107774 0.21186924 0.21975207 -0.008871575 -1.4445015
00000000: f6e1 0b3d 699f 65be 0009 6abc e428 4fbf
00000010: f75a d1bd d5af 1abf 6013 52be 2255 d8be
00000020: 57fb b3bd f18e a63d 5bc9 c03d 884d 2b3e
00000030: 6151 02be 30bc b3be 53c3 1ebd 696f 173e
00000040: 3f3d 003e f5a2 a4bd 2ce7 03be be01 e3bd
00000050: d7ee 163e 12a4 d3bd bda7 873e af52 8aba
00000060: b260 393c 5229 273d 676a 4d3e 7e1b 9c3d
00000070: eacd 62bd 3101 35bf 62f9 25be 68b6 e9bd
00000080: dbbd e03d d10a 913d fb7e 54bc 9d48 4a3e
00000090: 7fed 36bd 1954 5e3c 0ca6 353c 3e31 6f3e
000000a0: ef53 56be c904 603d 0461 3bbd 40fd 3bbe
000000b0: 6f48 b1bd 2865 8b3e 0bc1 993e 228b 9b3d
000000c0: 49df 0f3d 0bf8 703d 4a91 d4be 15e6 e33d
000000d0: 638e 82be 90b9 cebd 7e28 8abe 964a de3d
000000e0: 1f0b 41be 74a1 02bd 8fbe 5f3c a852 263e
000000f0: d8af 4e3d 572e aabc d897 8bbd 6e13 6cbf
00000100: 63bf d03d d1b0 93be 9839 fa3c 0cac 6dbd
00000110: 5ab7 7d3d ae77 22be 862f 743e e434 183e
00000120: 0fe4 a63e 8294 663d 71a9 983d 4b52 b5bb
00000130: c557 8abc 7b7c 623d 4a6e 18be 6cec eb3d
00000140: ebe9 f83d 35db 633e 52a9 f03d 1863 f23d
00000150: da0a 98bc 1d1c 6fbf fa18 3b3e 9cd9 9c3d
00000160: 07c6 ac3e 9bf1 9bbd c5cd ef3d 3486 47bd
00000170: 045c 42be d6f7 a6be 6244 83bc 0eb8 8bbd
00000180: 389b af3d c423 d23d daa7 f9bd bb9b acbd
00000190: 4a98 e93c 30f7 c33c 2432 223e a1e4 7abe
000001a0: 43ba 5d3c 10b7 f53e 396e 8dbb 7d56 01be
000001b0: a8fe 0dbf f961 df3d f5c3 823d 2ca0 c3bd
000001c0: 55ab f33c 629e 4d3e a97b d4be 9bd4 033e
000001d0: 6ec6 94be a1de cb3d 86d9 12bd e119 ea3d
000001e0: 18d1 a3bc 4a58 97bd 4d59 cfbb 78a9 723e
000001f0: 1fcf cfbe 8e74 40be d4f7 bc3d 1c7b 0fbe
00000200: b025 c0bd cb04 123e 6a64 a23d d1c9 8d3d
00000210: 371c 93bd b27e 69be 1ed5 f53c dd91 f9be
00000220: 506b 0c3e 10bc 65bd 48af 8dbd f00e c73d
00000230: c9e0 133e d0e6 4d3e 0a6c dbbc c656 bd3d
00000240: 931d 363e 81aa 953e 2ab3 f73d c8e8 bf3c
00000250: 06cb dd3d 0c21 f6bc 8469 ad3e 1557 2a3d
00000260: 18bb 1f3c ffde 5a3e 427c 243e 340b 993d
00000270: ca8d 35bc cd9b f53d 906e 88bc 857a d53d
00000280: d74b 8b3d 3e5b 5b3e 7e0e 883e 2332 913c
00000290: 2006 f2bc 275d c1bd 36ec 92be c392 0f3e
000002a0: b665 23bd f4b2 34bd cb19 623d 0fba 16be
000002b0: 331a 763e 508e f9ba 5975 0bbf ecf8 273d
000002c0: cafe 6a3d 9a48 2d3e 21fe 10be e6f5 a33d
000002d0: a6f9 24bd 3614 0cbd f4ea 39bd 2f55 3c3e
000002e0: 0bb0 a8be 21fb 08be 805f 343d 2fe0 04be
000002f0: 1be9 f83d c2ca 8ebe dcb2 77bc de46 88bd
00000300: 5969 3abe 3181 753c a2a5 94bd 74b2 41be
00000310: 434c f43b 468b 3dbe bd3a 23bf dcd8 4d3c
00000320: f5c3 f73d 1d90 e93d 0953 473e 4506 36be
00000330: bd99 243e dbc9 883e b762 49bd 4176 9e3d
00000340: a02d e9bd f42f 06be 925a e53d e4ed 863d
00000350: 769c 133e a6bc cdbe 8aa4 933d 8af0 3d3e
00000360: 2bab 61bd 4499 ab3e 0879 5fbd 7cca a4bd
00000370: de6b 5c3d 3f9d 7ebc 6a47 333e 4529 41bd
00000380: 6469 a13d 0e2f ae3d 99ca f0bc 8b57 4dbd
00000390: 7762 d93d 4450 f0bb 2d5f 9d3e ff3f ed3c
000003a0: 25c2 543e 3ea5 47bf ba47 f8bc 2f14 acbe
000003b0: 6bd9 f13e 30b7 523c 271d f9bd 1c5c 58bd
000003c0: e56a 8a3e fa61 b83e 0db5 2c3d d457 5d3d
000003d0: 6e56 0cbe f9ca 89be 8b66 203e 0346 7bbd
000003e0: 09c6 203c e81b 91bd 73ee 0d3e bbd5 fe3c
000003f0: 40f4 583e b006 613e 155a 11bc 6de5 b8bf

net.2.bias f4 [64]
0.07735487 0.17205691 0.08629269 0.072828025 0.107649684 0.061051946 0.13421807 -0.022923784
-0.08593939 0.042418994 0.033801183 -0.17468171 0.13916746 0.08461665 -0.03450714 -0.14292802
0.14242156 -0.040688995 -0.107644156 -0.106096186 0.04418117 0.105281435 0.16886103 0.040936124
-0.20545578 0.12204359 -0.090965815 0.06579571 0.07142716 0.043241534 -0.03614595 -0.051591624
0.0066848863 -0.07893589 -0.17539982 0.027663993 -0.06080025 -0.056016088 0.034665436 0.1247866
0.040972643 0.005899946 0.026032258 0.06882847 0.007120031 -0.037755717 -0.030665932 -0.016981706
0.0396053 -0.050007015 -0.028307194 0.0020240098 0.08387387 -0.09588672 -0.08698521 0.17384025
0.14547104 -0.023770966 0.23136407 0.08833543 -0.005206303 0.024026137 0.003154925 -0.0328747
00000000: 3b6c 9e3d b02f 303e 39ba b03d dc26 953d
00000010: 7077 dc3d 9b11 7a3d 7670 093e a9ca bbbc
00000020: fe00 b0bd 8abf 2d3d 1c73 0a3d c3df 32be
00000030: ea81 0e3e 7f4b ad3d 5c57 0dbd b95b 12be
00000040: f5d6 113e 81a9 26bd 8a74 dcbd f548 d9bd
00000050: 51f7 343d cb9d d73d e8e9 2c3e a3ac 273d
00000060: 0063 52be fdf1 f93d 494c babd e7bf 863d
00000070: 6748 923d 091e 313d c70d 14bd bd51 53bd
00000080: e40c db3b 24a9 a1bd 039c 33be 999f e23c
00000090: af09 79bd 2071 65bd 58fd 0d3d 1e90 ff3d
000000a0: eed2 273d 5654 c13b 9a41 d53c f1f5 8c3d
000000b0: 264f e93b bda5 1abd 1f37 fbbc 381d 8bbc
000000c0: 2b39 223d 28d4 4cbd 7de4 e7bc 40a5 043b
000000d0: 10c6 ab3d 4260 c4bd 4d25 b2bd 2e03 323e
000000e0: 5cf6 143e 54bb c2bc b4ea 6c3e 35e9 b43d
000000f0: a399 aabb 76d2 c43c dcc2 4e3b 9fa7 06bd

net.4.weight f4 [6, 64]
-0.06339488 0.4024734 0.04362373 -0.28699964 -0.33318254 -0.07805459 -0.5585594 -0.032758288
0.17827073 -0.5338759 0.25305313 0.3244782 0.3958789 0.11391976 0.48466367 -0.043830756
0.005762645 0.29235116 -0.010830871 -0.57960665 0.013770756 -0.06607494 0.01820933 -0.88249534
0.5067397 0.19420545 -1.0611297 -0.025334172 -0.18044028 0.2202216 0.43274564 0.06938784
-0.011799347 0.51891905 -0.7170899 -0.3405636 0.21368113 -0.21114618 0.62217134 -0.065967545
0.4321903 -0.36725003 0.07587575 -0.115320586 0.042246025 -0.12529868 -0.5155686 0.0629661
-0.23534198 0.06711964 -0.20414041 0.08108814 0.5655817 -0.4200123 0.35041746 -0.89486444
-0.500464 -0.49371302 0.23649946 0.51952094 0.047528375 0.033230077 -0.12498606 0.78664535
0.116745904 0.54644984 -0.19927166 0.5384083 0.008513739 -0.3018283 -0.30000293 0.03470705
0.50042766 -0.24086428 0.515296 -0.39933223 0.39419186 0.3689722 0.057611845 -0.07081026
-0.14559807 -0.53687334 -0.07854971 0.086937964 0.05018582 -0.5326634 0.46478316 -0.038507205
0.53430253 0.01652491 -0.23692574 -0.4330458 0.5935857 -0.27334884 -0.6598379 0.0689493
-0.6905846 -0.020471089 -0.34858605 -0.47732553 -1.3034294 -0.3881202 0.058785755 -0.340977
-0.54127765 0.014368738 -0.1604465 -0.6523813 -0.038445923 0.24929748 -0.4835535 -0.49973768
0.3092123 0.03464799 -0.3075505 -0.6922087 -0.19645886 -0.11546076 0.2534815 -1.0249846
0.11648043 0.62320125 0.2861472 -0.17403105 -0.118441 0.10819002 0.18703891 -0.29994583
-0.5906301 0.25376207 -0.15090954 -0.24642697 -0.055533163 -0.28518525 0.17732966 -0.03993166
-0.5923089 -0.1794434 -0.29182765 -0.45634472 0.16755155 -0.14738701 0.44626433 0.07017205
0.55426395 -0.8679846 -0.0725114 -0.5867667 -0.042589076 0.12059032 0.24637212 0.90318006
0.43954423 0.6303501 -0.7641881 0.49139097 0.078435786 -0.40390238 0.49086848 -0.07767594
-0.3446528 -0.42598292 -0.14981891 -0.48116294 -0.0897849 -0.49416712 0.2730051 0.51976156
0.5828298 -0.30955616 0.63350946 0.2051478 0.088518575 -0.60670996 -0.71276 0.01053387
0.24229148 0.14624478 -0.82499444 0.1398991 0.056308325 -0.5397948 0.21677741 -0.22991821
-0.6905565 -0.68588513 0.24235104 0.41354656 0.04018683 -0.76195216 0.30237928 0.3533909
-0.049050942 0.06323461 -0.2610818 0.024922753 0.031341042 0.025854718 -0.11198719 -0.13571595
0.0219977 -0.0026815573 -0.06902416 0.05744176 -0.06335184 0.10685604 0.15074736 0.03556731
-0.004348411 0.13369977 -0.101422526 -0.12126558 -0.058864117 0.07139389 0.020639054 -0.07700549
0.018298252 0.0011983223 0.10033397 0.015143555 0.090188496 -0.030641181 0.07032276 0.044079185
-0.040564086 -0.0023711089 -0.03041244 0.002071317 0.045057233 -0.0033857087 -0.033194322 -0.063703336
-0.06849744 0.01788342 -0.070048146 -0.12507276 -0.3323768 0.016105898 0.011414362 0.059697926
-0.036589082 0.063954234 -0.3515443 -0.022326134 -0.05415042 -0.039799694 0.009840777 -0.10293352
0.005612641 0.08545038 -0.092845656 0.099754415 -0.067678064 0.1262202 -0.021238374 0.0700125
00000000: 2dd5 81bd fe10 ce3e ccae 323d 9ef1 92be
00000010: e796 aabe 16db 9fbd c0fd 0ebf 8e2d 06bd
00000020: 9a8c 363e 17ac 08bf 2e90 813e 0222 a63e
00000030: a4b0 ca3e c34e e93d d625 f83e e187 33bd
00000040: 92d4 bc3b 0daf 953e f773 31bc 1a61 14bf
00000050: bd9e 613c 4c52 87bd bc2b 953c 37eb 61bf
00000060: b1b9 013f cbdd 463e 19d3 87bf 9c89 cfbc
00000070: 56c5 38be c581 613e d690 dd3e 361b 8e3d
00000080: 0c52 41bc e1d7 043f 3493 37bf 5a5e aebe
00000090: 3acf 5a3e b436 58be 9f46 1f3f fe19 87bd
000000a0: 0c48 dd3e 3208 bcbe bf64 9b3d 332d ecbd
000000b0: 2b0a 2d3d 4c4e 00be 4efc 03bf 5ff4 803d
000000c0: 7dfd 70be 0676 893d 2f0a 51be 8a11 a63d
000000d0: f6c9 103f da0b d7be eb69 b33e d615 65bf
000000e0: 691e 00bf f4c7 fcbe ea2c 723e 53ff 043f
000000f0: 1dad 423d 431c 083d b1f8 ffbd 9761 493f
00000100: 7a18 ef3d 23e4 0b3f df0d 4cbe 20d5 093f
00000110: 367d 0b3c 3d89 9abe fc99 99be fb28 0e3d
00000120: 071c 003f 20a5 76be 70ea 033f 4675 ccbe
00000130: 84d3 c93e ede9 bc3e 66fa 6b3d f804 91bd
00000140: a917 15be 8870 09bf acde a0bd 880c b23d
00000150: a58f 4d3d a15c 08bf 0ff8 ed3e bbb9 1dbd
00000160: 0dc8 083f 405f 873c a99c 72be 2eb8 ddbe
00000170: 3cf5 173f 61f4 8bbe 23eb 28bf 4a35 8d3d
00000180: 27ca 30bf fcb2 a7bc df79 b2be 0364 f4be
00000190: c6d6 a6bf b1b7 c6be 55c9 703d 8a94 aebe
000001a0: 2c91 0abf db6a 6b3c 164c 24be 7602 27bf
000001b0: 7979 1dbd d747 7f3e 5394 f7be 9edd ffbe
000001c0: 1351 9e3e 0deb 0d3d 4277 9dbe 9734 31bf
000001d0: 832c 49be b176 ecbd 54c8 813e b232 83bf
000001e0: 4b8d ee3d 1e8a 1f3f e381 923e 3235 32be
000001f0: 3291 f2bd bb92 dd3d 2187 3f3e 8092 99be
00000200: 8933 17bf 1aed 813e 0888 1abe 5a57 7cbe
00000210: be76 63bd cd03 92be e895 353e 618f 23bd
00000220: 8ea1 17bf 03c0 37be 6f6a 95be 04a6 e9be
00000230: a292 2b3e 9fec 16be c27c e43e 5db6 8f3d
00000240: 3ee4 0d3f 3d34 5ebf db80 94bd 5836 16bf
00000250: e271 2ebd 0ff8 f63d f948 7c3e cf36 673f
00000260: f10b e13e a05e 213f d5a1 43bf 9997 fb3e
00000270: f1a2 a03d 4bcc cebe 1d53 fb3e 9014 9fbd
00000280: 5576 b0be 6f1a dabe 216a 19be fd5a f6be
00000290: 25e1 b7bd 7903 fdbe 53c7 8b3e 180f 053f
000002a0: 5534 153f 257e 9ebe ad2d 223f 4412 523e
000002b0: 3a49 b53d 5851 1bbf 7077 36bf 4196 2c3c
000002c0: 421b 783e 31c1 153e d632 53bf b641 0f3e
000002d0: 8fa3 663d fe2f 0abf e6fa 5d3e ae6f 6bbe
000002e0: 50c8 30bf 2b96 2fbf df2a 783e 60bc d33e
000002f0: f29a 243d 4c0f 43bf 75d1 9a3e a7ef b43e
00000300: a4e9 48bd 2681 813d 84ac 85be cd2a cc3c
00000310: 775f 003d 46cd d33c 8a59 e5bd 1ff9 0abe
00000320: 8534 b43c 11bd 2fbb 8a5c 8dbd 0d48 6b3d
00000330: 9cbe 81bd 57d7 da3d 845d 1a3e 07af 113d
00000340: 1e7d 8ebb 98e8 083e 9db6 cfbd 175a f8bd
00000350: 801b 71bd f636 923d 3c13 a93c 0eb5 9dbd
00000360: 37e6 953c 0611 9d3a e57b cd3d ac1c 783c
00000370: bfb4 b83d 3703 fbbc 6105 903d 608c 343d
00000380: 8726 26bd 9b64 1bbb 8223 f9bc efbe 073b
00000390: ef8d 383d c4e2 5dbb c5f6 07bd e576 82bd
000003a0: 6348 8cbd 4080 923c 6775 8fbd 1313 00be
000003b0: 4b2d aabe 84f0 833c 4e03 3b3c d085 743d
000003c0: 6fde 15bd 70fa 823d 9dfd b3be 4ce5 b6bc
000003d0: d5cc 5dbd 0105 23bd 363b 213c cfce d2bd
000003e0: 3fea b73b 9c00 af3d dd25 bebd 0b4c cc3d
000003f0: cc9a 8abd de3f 013e 19fc adbc b762 8f3d

net.4.bias f4 [6]
0.06371092 0.07621321 -0.022151975 -0.21317033 -0.16089244 -0.093609974
00000000: df7a 823d ac15 9c3d 0f78 b5bc 5349 5abe
00000010: fdc0 24be 96b6 bfbd
