log/GC_SAC/cannot_used_lidar/maze3Env/20210728-1500/GC_SAC_HER_critic.pth (torch_old, 44422 bytes, 10 tensors)

net1.0.weight f4 [64, 16]
000000 21 52 1e bf af fd 3b 3e c8 fa ef 3d a7 1e f9 3f
       -0.6184407 0.18358491 0.117177546 1.9462479
000010 6e 07 06 bf 06 44 04 be f2 f5 51 3e aa 4a 9c 3d
       -0.52355087 -0.12916574 0.20503977 0.076314285
000020 ea c1 09 be 7a cf 9a 3d 25 6b 74 be a9 bc 01 3f
       -0.13452879 0.07559104 -0.23868997 0.506785
000030 34 46 15 3e 90 08 6e 3e 0f 64 9a 3e 13 ea 18 3f
       0.14577562 0.23245454 0.30154464 0.5973217
000040 db a2 03 be cc 49 3c bf d4 9f a7 bd 68 c2 47 be
       -0.12855093 -0.73550105 -0.08184782 -0.19507754
000050 03 ff 4d bd 18 18 9d 3d 82 d3 60 3d aa 69 0b be
       -0.050292026 0.07670611 0.05488921 -0.13614526
000060 a4 42 5f bd 73 51 90 3e c2 b0 9d 3f c2 d6 88 be
       -0.054506913 0.2818714 1.2319567 -0.26726347
000070 e8 dc 00 bd 3d 7d b1 3d db 0a 5f 3d e7 5f d7 bd
       -0.031460673 0.086664654 0.054453712 -0.10516339
000080 65 8f 74 be 2f 1f b1 3d 28 ed 8e bd 7b b6 01 3f
       -0.23882826 0.08648526 -0.06978828 0.5066907
000090 76 33 80 be f0 a1 51 3d a1 96 88 3e e7 d7 39 3e
       -0.25039262 0.051179826 0.2667742 0.18148766
0000a0 4d e4 bd 3d e5 26 d2 3d 0c 68 01 bf 19 d7 2b bf
       0.092720605 0.10261325 -0.5054939 -0.6712509
0000b0 5c ec 42 3e bf 39 7d 3e a5 07 8f be 39 94 eb 3e
       0.19035476 0.2472906 -0.2793552 0.46011522
0000c0 09 a8 0e be b1 be 54 bd 78 c8 4b 3d 71 aa 24 3d
       -0.13931288 -0.05193967 0.04975173 0.040201608
0000d0 65 1c 98 be a4 ba 3e 3e 5a fc 2e be 21 9c da bd
       -0.29709163 0.18625885 -0.17088452 -0.106743105
0000e0 60 2d 69 bd d6 40 f1 3c 16 96 0c 3f 97 02 f3 bd
       -0.05692804 0.029449861 0.5491651 -0.11865728
0000f0 5c 4a 9e 3d 38 83 c1 3f f8 33 c6 3e 82 1a a1 bf
       0.07729027 1.511817 0.38711524 -1.2586215
000100 1e 13 63 3e 89 c4 20 bf c2 1b 27 3e c9 17 0d bb
       0.22175261 -0.6279989 0.16319183 -0.002152907
000110 f5 73 33 be f4 07 a1 bd 39 a4 b1 3d a5 9e 17 be
       -0.17524703 -0.07862845 0.08673901 -0.14806612
000120 5a 27 bf bb 54 aa ff 3d b3 e8 54 bf 22 ba 3c bf
       -0.0058335485 0.124836594 -0.8316757 -0.73721516
000130 76 0e 2d 3e 5d 75 a2 3d 44 15 1c be 29 0f e3 3d
       0.16900048 0.079325415 -0.15242487 0.11086876
000140 2d 20 e2 be 48 fa 68 3e 08 58 25 bd ed 96 79 be
       -0.44165173 0.22751725 -0.040367156 -0.2437398
000150 1b 77 5f be 28 2f 66 3e d9 dc 6d 3e 96 7e a4 bc
       -0.21822779 0.22478926 0.23228778 -0.020079892
000160 fd 92 4f 3e 8f 7c 45 bd 0c 49 08 3f 65 6d a3 3f
       0.20270915 -0.04821449 0.5323646 1.276776
000170 c0 c9 2a 3e 27 19 c3 be 05 66 d2 3e a2 9e 35 bd
       0.16678524 -0.38105127 0.4109346 -0.044340737
000180 4d f5 b9 be b1 a4 fd bd 44 ed 1b 3e 30 59 08 be
       -0.36319962 -0.12384928 0.15227228 -0.13315272
000190 db f4 41 be 6c 41 24 be d6 0f 2c be de da 36 bd
       -0.18941061 -0.16040581 -0.16802916 -0.04464232
0001a0 1f 75 93 3e f8 a8 39 3e 04 86 8b 3f 24 78 81 3f
       0.28800294 0.18130863 1.0900273 1.0114789
0001b0 96 15 0b 3e 2b 76 a5 bc 70 41 7d bd 36 e0 56 3c
       0.13582453 -0.020197948 -0.061829984 0.0131149795
0001c0 02 9c ee 3c d0 0b 99 bd b4 cf c1 3d 5b 7b 82 bd
       0.029127125 -0.07472956 0.09463444 -0.063711844
0001d0 e2 b2 82 3e 80 17 d7 3b ba 67 f1 3b d4 aa 05 bc
       0.25527102 0.0065640807 0.0073671015 -0.008158404
0001e0 66 39 a5 bd 7c 31 60 bd e5 fa 69 3e 13 d5 17 3d
       -0.080675885 -0.054734692 0.22849615 0.037068438
0001f0 54 ba d7 bd 5a b3 0e 40 e5 27 15 c0 8e 13 85 bf
       -0.10533586 2.2296968 -2.33056 -1.0396593
000200 1b d2 5b be bd d2 62 c0 0c c4 47 3e 87 07 87 bf
       -0.21466868 -3.5441124 0.1950838 -1.0549172
000210 55 61 9f be 60 46 7f 3d fe 6f 8e be b4 7e 6e be
       -0.31128946 0.062322974 -0.27819818 -0.23290521
000220 fa 58 cd be 4c 81 ee be d8 ff 44 3e e8 c9 0a 3d
       -0.40106946 -0.4658302 0.19238222 0.03388396
000230 e8 09 29 3e 12 3f 22 3f 60 06 34 bf a0 25 92 bf
       0.16507685 0.6337749 -0.7032223 -1.1417732
000240 01 c8 88 bf ec ea 27 be b0 65 d6 3c 46 b3 ad bd
       -1.0686036 -0.1639821 0.026171535 -0.08481459
000250 ac e2 fa bc 54 d0 e7 3d 0a 65 64 3e 87 70 a0 3e
       -0.030625664 0.11319032 0.22304168 0.31335852
000260 7c 64 21 3e 22 f1 0e bc 89 d2 71 bf 81 f3 63 3e
       0.15760988 -0.008724483 -0.94461876 0.22260858
000270 c4 2a a5 bd 76 09 9e 3d 05 13 8b bc 27 d5 a9 bd
       -0.080647975 0.07716648 -0.016976843 -0.08292609
000280 d7 32 bf be e8 3d f9 3e 50 67 91 3c 65 3a dd bd
       -0.37343475 0.48680043 0.017749459 -0.108021535
000290 97 51 40 be 10 d3 10 be c8 2c 21 be a6 1c 3b be
       -0.18781124 -0.14143014 -0.15739739 -0.18272647
0002a0 19 0c 61 bd 32 62 89 3d fe 3d 88 bd 69 fb e5 3f
       -0.054943178 0.067081824 -0.06652449 1.7967349
0002b0 7e e8 73 3e 29 91 a6 bc cd f0 f9 bd 01 fd 6a bd
       0.23819157 -0.02033289 -0.12204132 -0.05737019
0002c0 58 b3 e1 3e c4 1a da be 32 7b 4f be 4d e6 4c 3d
       0.4408214 -0.42598546 -0.20261839 0.05002432
0002d0 38 4a 5f bd 80 2f b0 3c 34 9c be bd ea 94 5f bd
       -0.05451414 0.021507025 -0.09307137 -0.054585375
0002e0 68 17 22 3d b0 64 ca 3d c1 e6 2e 3f fb 5c 91 3e
       0.039573103 0.09882486 0.6832085 0.2839125
0002f0 b0 a2 e2 bc 3a bc 45 be b7 ad 1c 3e 7a 5c 35 3e
       -0.027665466 -0.19310084 0.15300642 0.17711058
000300 c3 dd bb 3e 37 da e7 3d 48 fe d6 3d c3 9f bc 3e
       0.36692628 0.11320918 0.10497719 0.3684064
000310 c1 b5 55 bf 10 46 e9 3c 32 c7 25 be 45 3c 5d bd
       -0.8348046 0.028475791 -0.16189268 -0.054012556
000320 0e c0 3a 3e 10 5f 65 3e 7e 9f 9c be 13 c9 92 3e
       0.18237326 0.22399545 -0.30590433 0.28669032
000330 80 f2 5e bb ec 84 a4 be e2 0a f6 be d3 2b 46 3e
       -0.0034019053 -0.3213266 -0.48055178 0.19352655
000340 99 92 0c 3f 6c 39 f9 3e 78 cd 97 bd d3 ba 47 3b
       0.5491119 0.48676622 -0.07412237 0.0030476346
000350 ee a2 ba 3e c4 19 8f bd aa c6 64 3c cb 56 10 be
       0.3645243 -0.06987336 0.013963381 -0.14095609
000360 f7 4f 64 be c7 2e 04 be 1d cc 16 3f 73 37 ec 3e
       -0.22296129 -0.12908469 0.589052 0.46136054
000370 14 ee a3 3d af 7f 74 bd 24 87 6c be 8c 75 e8 bd
       0.08004394 -0.05969208 -0.23098427 -0.11350545
000380 b8 a8 1f c0 95 f1 64 3e 5c 7b b8 3d ef 37 df bd
       -2.4946728 0.22357781 0.09007904 -0.1089934
000390 9f 2e 1d 3e 34 66 5c 3e 19 45 81 be 28 24 85 bd
       0.15349816 0.21523362 -0.2524803 -0.06501037
0003a0 33 59 cb bd 49 4f 3f 3d 0c 73 d3 3e b6 c4 08 3f
       -0.09929123 0.04670647 0.4129871 0.5342516
0003b0 00 9c 07 3c 71 06 21 bf 1b 4b 83 3e 76 ec b0 3e
       0.008276939 -0.62900454 0.25643238 0.34555405
0003c0 4f cf 98 be ea 1c ad bf f0 a9 8a 3d a9 12 23 3f
       -0.29845664 -1.3524449 0.06770694 0.6370035
0003d0 cb 53 ab 3e a0 a4 20 3e 06 a1 8a bd 5d ee 79 be
       0.33462366 0.156878 -0.06768994 -0.24407335
0003e0 67 c1 19 be f7 7c 15 bd 7a 95 1d 3f e9 47 78 3f
       -0.15015183 -0.03649613 0.6155621 0.96984726
0003f0 d0 91 45 be 55 49 83 3e ea 44 a2 3e 96 95 8c be
       -0.19293904 0.25641885 0.31693202 -0.27457875

net1.0.bias f4 [64]
000000 77 75 79 be 3c 86 80 3c e9 88 d9 3d 82 54 21 be
       -0.24361216 0.015689008 0.10621817 -0.15754893
000010 5c 7b 97 3d 07 d5 3c 3e 7e ea 61 3e f8 62 ec 3d
       0.07396576 0.18440638 0.22062108 0.11542314
000020 e0 29 3f be 2c 75 9f 3e 07 2a 1b bc 85 08 68 bb
       -0.18668318 0.31144083 -0.009470469 -0.0035405469
000030 de a3 d8 3d 39 42 a4 be 8d 66 81 be cb 01 10 3d
       0.1057813 -0.32081774 -0.25273553 0.03515796
000040 ca 6d 3b be e3 fe 55 be cf d9 f8 bc 52 eb 02 be
       -0.183036 -0.20898013 -0.030377297 -0.1278508
000050 70 d7 53 be 06 e8 2e 3e 4e 04 51 3e ac c5 df bd
       -0.20687652 0.17080697 0.20411798 -0.10926375
000060 a9 7b 23 be 1f 11 0d 3d 2e d1 58 be 81 b0 28 3e
       -0.15965141 0.034440156 -0.21173546 0.16473581
000070 51 2b 80 3e d8 d6 8d 3e c4 d7 1c be 93 75 83 be
       0.25033048 0.27702975 -0.15316683 -0.2567564
000080 49 6f 29 3e 19 6f 16 be 1f ff 48 3e fa bb 22 be
       0.16546358 -0.14690818 0.19628571 -0.1589202
000090 18 7e 05 be 7d 81 48 be 38 9d 90 be e7 8c 96 3e
       -0.13036382 -0.19580646 -0.28244948 0.29404375
0000a0 db cd 93 3e 20 a4 45 3d 9b 9a 0f 3d 56 d1 9b 3e
       0.28867993 0.048252225 0.035059553 0.30433148
0000b0 60 1c ae 3d 20 93 68 3c 59 fa 07 3d 38 af da bd
       0.08501506 0.014195234 0.033197735 -0.106779516
0000c0 2b 0a 24 be a8 d3 07 3d ca fc 66 3d 8f e3 eb bc
       -0.16019504 0.033160836 0.056393422 -0.028795032
0000d0 fd fc 69 bd c0 f2 53 3e b4 67 ea 3d e6 08 82 bd
       -0.057126034 0.2069807 0.11445561 -0.063493535
0000e0 af aa 92 3d 54 f3 d4 3d 58 c6 27 3c 22 22 4d bd
       0.071614616 0.10397974 0.01024016 -0.05008138
0000f0 74 1b 33 3e f5 10 ee 3d 04 d9 e9 3c a2 de 86 bc
       0.17490941 0.11624328 0.028545864 -0.016463581

net1.2.weight f4 [64, 64]
000000 fd b3 a4 ba 72 41 9f 3e 3a fd 77 3c 71 4e a9 bb
       -0.0012565848 0.31104618 0.0151360575 -0.0051668216
000010 3b a5 c1 bd e0 6d 83 3e 30 fe 0b 3f e1 c6 4f bd
       -0.09455343 0.25669765 0.54684734 -0.050726775
000020 7a 5f 7b be 5f 8d c4 3e 88 45 80 3e ee cb a4 3e
       -0.2454814 0.38389108 0.25053048 0.32186836
000030 67 89 7c 3e a4 77 a5 3e 89 50 c3 be 40 4b 86 be
       0.2466179 0.3231784 -0.3814738 -0.26229286
000040 18 0e b6 bd f9 72 7a 3e 88 17 32 3e 6d d6 44 3d
       -0.08889407 0.24457921 0.17391789 0.048056055
000050 ab d9 28 3e f1 07 0b 3e bb 5e e6 3d dd 11 a8 3d
       0.16489284 0.13577248 0.11248537 0.08206532
000060 a6 2f 3d 3d 66 2b c5 3d 90 a8 b4 bd 35 1c af bd
       0.04618802 0.09627418 -0.08821213 -0.08550302
000070 23 cc dc 3b 62 95 3d 3e bb da 80 3d 3b d1 f8 bd
       0.006738202 0.18514016 0.062917195 -0.121492825
000080 fd 83 1f bf 0b 41 ba 3d 14 79 b0 3d 17 93 fc bc
       -0.62310773 0.09094437 0.08616844 -0.030831857
000090 f1 d6 dd 3e 15 30 89 3e a3 f0 17 be f5 1e dc 3d
       0.4332805 0.26794496 -0.1483789 0.10748092
0000a0 bb dc f2 3e 82 ca 15 3b 6d 91 38 bd 1f c0 45 3e
       0.4743403 0.00228563 -0.045060564 0.1931157
0000b0 d5 be 09 3e 74 eb 87 3e f1 f5 32 3e c8 e7 17 bd
       0.13451703 0.26546824 0.17476632 -0.03708628
0000c0 c6 8f 48 3c 99 72 c6 3e d4 dd a1 be bc f0 9b 3e
       0.0122413095 0.38759306 -0.31614554 0.30457103
0000d0 f4 94 72 3e 5c 52 8a 3e 63 01 55 3e 93 a6 10 3e
       0.23689634 0.2701596 0.2080131 0.14126043
0000e0 78 98 ef 3d b9 10 83 3e 9c 74 94 3d f5 d5 10 3e
       0.11699003 0.25598696 0.07248804 0.14144118
0000f0 72 de 00 bd cc 0d 22 bd 7c a3 9c 3e df c3 e0 3d
       -0.03146214 -0.03956394 0.3059348 0.109748594
000100 36 43 29 bf 4e e9 0c 3f e6 35 a8 3d 77 56 9d be
       -0.6611818 0.55043495 0.08213405 -0.3073003
000110 da 5c 54 3f f0 f3 1d 3c fb 09 fb bd 8f 6b fa 3d
       0.8295418 0.009640679 -0.12257763 0.122275464
000120 63 57 ec bd 17 c0 a8 bf d1 b6 85 bf 7a 4b ee 3e
       -0.11540105 -1.3183621 -1.0446416 0.4654196
000130 6d 62 1a be c6 c4 ec 3c ca 6e b7 3e 23 f0 23 be
       -0.15076609 0.028902423 0.35826713 -0.16009574
000140 86 6c c3 3d 52 57 50 3d f2 6d 04 be 78 07 3d 3e
       0.095421836 0.050864525 -0.12932566 0.1845988
000150 c7 16 9b 3e 96 7c 87 3c 62 ed 71 3e f8 fb e0 bd
       0.30290815 0.0165389 0.2362571 -0.10985559
000160 93 00 42 3c f8 6a 32 be 19 2e 55 bd bb 34 7a bd
       0.011840957 -0.17423618 -0.052045915 -0.061085444
000170 05 48 ba 3e 29 f3 09 c0 42 20 7e be 86 87 84 be
       0.36383072 -2.1554663 -0.24816993 -0.25884646
000180 50 72 95 bf f1 af be 3e e0 21 04 bf 53 81 c9 3d
       -1.167551 0.37243608 -0.5161419 0.0983912
000190 18 5d 91 3e 22 0e 2f bf 72 d5 ae be d3 45 44 bf
       0.28391337 -0.6838094 -0.3414722 -0.76669043
0001a0 f2 69 69 be 46 ea 00 3f 15 3c 4e be 77 bb c4 bf
       -0.22794321 0.5035747 -0.20140107 -1.536971
0001b0 76 6d 1a 3e 74 49 4a bd fa 73 80 3f f2 bc b8 be
       0.15080819 -0.049386457 1.0035393 -0.36081654
0001c0 f9 fb 02 bf b0 5c a4 bf 96 57 0a 3d 3b 5c 90 3c
       -0.5116573 -1.2840786 0.033774935 0.017622104
0001d0 b3 d3 84 be d5 78 07 3b 26 3a 90 be ea 9f 35 3c
       -0.25942764 0.0020671387 -0.28169364 0.01108549
0001e0 68 3c 26 be ed 52 8c bf f1 b0 12 3f 4d 08 56 be
       -0.1623398 -1.0962807 0.5730124 -0.20901604
0001f0 af bd e2 3d 68 20 61 bf f7 ea 2c 3e c6 14 3d 3e
       0.110713355 -0.87940073 0.16886507 0.18464956
000200 92 7a 4b b8 27 79 6a bf 31 7e 31 3e 7c b5 f0 be
       -4.8513124e-05 -0.91591114 0.17333294 -0.47013462
000210 09 6a 90 3e a0 10 c2 3b 44 0a 62 bf c8 b2 0f 3e
       0.28205898 0.005922392 -0.88296914 0.14033043
000220 f8 36 f1 bd 94 e8 25 3c 62 cb 91 bf 49 71 e9 bd
       -0.117780626 0.010126252 -1.1390193 -0.113985606
000230 99 65 f7 3d 01 56 e5 be a0 a3 d9 3a de de ee bd
       0.12079925 -0.44792178 0.001660455 -0.11663602
000240 d9 da 9f 3c 7f 27 1f 3e 52 8b 93 bd 96 94 af 3e
       0.019513534 0.1554241 -0.072043076 0.3429305
000250 6f b4 e2 bb e2 e9 38 3c 23 b2 3f bd 13 49 7f 3d
       -0.006918482 0.011286231 -0.046800744 0.06232555
000260 cb 70 98 3d 0f dc 0f bf bd 4b 17 3d 1c 3f 17 3f
       0.074433886 -0.5619516 0.036937464 0.5908067
000270 ff 03 53 3f 2e 4a 03 bd 7b 4a ec bd 12 32 85 be
       0.8242797 -0.032053165 -0.115376435 -0.26014763
000280 4c 0b cd be 51 5e 9d be dd ad 14 bf 24 8d 9f 3e
       -0.4004768 -0.3073602 -0.58077794 0.3116237
000290 c7 d9 94 bf dc ac ab bf d6 5e c5 bc 8a 01 82 3e
       -1.162896 -1.3412127 -0.024093073 0.253918
0002a0 4f db 31 be 92 7d fb 3c 20 c4 85 bd ca 2f 5f be
       -0.17368816 0.030699525 -0.065315485 -0.21795574
0002b0 bc 74 f4 be 42 fc 39 3e 58 a3 09 3f 4b 04 59 3e
       -0.4774531 0.18162635 0.5376487 0.21193044
0002c0 b4 72 94 3d 30 c6 89 bd 79 c7 97 bd 3c 08 86 bf
       0.072484404 -0.067272544 -0.07411093 -1.0471263
0002d0 af 74 e7 be 68 a3 aa 3c 9b 56 6c be b9 6b ff be
       -0.4520621 0.020829871 -0.23079912 -0.49886873
0002e0 e2 f3 c5 3d 86 a9 9d be 30 6b 42 3e c1 a4 8f 3e
       0.096656576 -0.307934 0.18986201 0.28055385
0002f0 f0 e0 4e be dd f6 70 bd 91 e1 90 be 60 d1 8d be
       -0.20202994 -0.058829177 -0.28297094 -0.27698803
000300 44 2f a0 3e f7 aa b0 3e 6c df 3b c0 8b 1c 00 3f
       0.3128606 0.34505436 -2.9355116 0.50043553
000310 03 59 97 3e a8 71 03 3e 88 51 7e 3e 2c c7 31 3f
       0.29560098 0.12836325 0.24835789 0.6944454
000320 73 14 fa 3f 9f f2 3e 3f 6e 48 4d 3f d5 2c 8b 3c
       1.9537491 0.7458896 0.80188644 0.016989151
000330 c6 47 d3 be 0d a8 9f bd ea 79 87 3f 39 2f f1 3e
       -0.41265696 -0.07795725 1.058408 0.4710634
000340 2f 21 a6 3c 30 54 9c be 33 fb 19 bf 8e 00 ea bf
       0.020279495 -0.3053298 -0.60148925 -1.8281419
000350 48 ff bb bf 85 bd 01 3f 03 5f dd ba b0 e4 44 bf
       -1.4687281 0.5067981 -0.0016889278 -0.7691145
000360 65 37 92 be 1e e5 0f bf 0b ca 52 bf fc f1 9c 3f
       -0.28557888 -0.5620898 -0.82339543 1.2261348
000370 a6 e6 54 3e 0f dd 0f bf 3b 44 fd 3c 24 cc 89 3e
       0.2079111 -0.56196684 0.030916324 0.2691356
000380 a1 50 c4 3f fa e5 8a 3f 23 ab 09 3e 04 90 cb bf
       1.5337106 1.0851433 0.1344419 -1.5903325
000390 73 00 9b 3d 29 84 cb 3f 68 dd 2c 40 cb 81 d6 3e
       0.07568445 1.5899707 2.7010136 0.418959
0003a0 47 3f 61 be aa 1d 85 bf 02 58 3b 3e 7a 53 bc 3e
       -0.21996795 -1.0399678 0.18295291 0.36782438
0003b0 a5 fe c9 3e 0a e0 7d bf 01 11 35 be 1e 2a 27 3f
       0.3945209 -0.9916998 -0.17682268 0.6529864
0003c0 b6 b8 90 bf 29 cd 6e be 4d e2 9c 3f 4e 83 bf be
       -1.1306369 -0.2332045 1.2256562 -0.37404865
0003d0 bb 5f 2a bf dc 66 00 bf b0 5b e9 bf 3d f5 87 3e
       -0.66552323 -0.5015695 -1.8231106 0.2655429
0003e0 3f 0c 3d 3d e6 00 24 3f f8 f7 5f bf 49 36 cb 3b
       0.046154257 0.6406387 -0.87487745 0.0062015397
0003f0 ca 1b ef 3f 42 78 b2 3f e4 80 2e 3e 3e b5 62 be
       1.8680356 1.394295 0.17041355 -0.22139451

net1.2.bias f4 [64]
000000 7b 85 8c 3e dc b4 cd bc 29 29 2e bd 88 2e 89 be
       0.27445588 -0.025110655 -0.042519722 -0.26793313
000010 bf ad ad 3e 75 7c fd bd ba ca cc 3d d1 f9 ae 3e
       0.3392162 -0.12377254 0.099996045 0.3417497
000020 f6 9f b6 3e f2 1f 95 3e a4 af ba 3d 16 09 9b 3e
       0.35668916 0.29125935 0.09115532 0.3028037
000030 5b fa ac bd 24 79 9f be ac 61 08 be 29 58 91 3e
       -0.08446189 -0.3114711 -0.13318509 0.28387573
000040 84 90 01 3e 99 00 7d 3e 0c 92 41 be d1 8a 07 bd
       0.12652785 0.24707259 -0.18903369 -0.03309137
000050 a6 01 14 3e b0 4d a8 bd 4f 07 8f bc 27 e6 78 3e
       0.14453754 -0.08217943 -0.01745954 0.24306546
000060 47 fb 5e 3e ce 94 a0 be f2 1d 67 3e 7d 7a d9 bb
       0.21775542 -0.3136353 0.22570017 -0.006636916
000070 cd 24 bd 3d 3b d2 2b bd 0a a4 5c 3e 28 1c 0a 3e
       0.09235535 -0.04194854 0.21546951 0.13487303
000080 f8 95 4a 3e 37 6a ed 3d b4 c2 95 3e 8e 05 b9 bd
       0.19783771 0.115925245 0.2925011 -0.090342626
000090 1c d3 06 3e b5 db af 3d 72 a1 12 be 3c 00 3d 3e
       0.1316647 0.08586828 -0.14319399 0.1845712
0000a0 ee 1f a6 be 54 ce 87 bd 05 f4 99 bc 62 b0 6b be
       -0.32446235 -0.06631151 -0.018793115 -0.23016503
0000b0 bb 85 0a 3e 03 8d 9d 3e b2 11 71 3e 62 88 0b bf
       0.13527577 0.30771646 0.23541906 -0.5450498
0000c0 3c b6 41 be e4 4a c3 bd f0 dc 65 3e c8 e2 a6 3e
       -0.18917173 -0.09535769 0.22447562 0.32594895
0000d0 c2 8e 2c 3e 38 85 fe 3d cd 9f 15 bd 00 dd 4e be
       0.16851333 0.12427753 -0.03652935 -0.20201492
0000e0 f2 02 07 3e 51 67 d9 3d 3a bc f3 bd 44 96 bb bc
       0.13184717 0.10615409 -0.11901136 -0.0228988
0000f0 73 b3 bd bd 5d b6 a2 3c d7 f2 27 3e ca 52 90 bd
       -0.09262743 0.019862348 0.1640123 -0.07047041

net1.4.weight f4 [1, 64]
000000 25 7f 62 be 16 20 b0 3e dc 0c 56 3f ae 1c 88 3f
       -0.22118814 0.3439948 0.8361337 1.0633752
000010 9b af 76 be cf 79 ce 3e 26 19 86 bf 64 59 45 be
       -0.24090426 0.40327308 -1.0476425 -0.19272381
000020 e1 15 67 be c7 eb 84 be a9 52 92 3f 9b f6 4f be
       -0.2256694 -0.25961134 1.1431476 -0.20308916
000030 b9 04 c9 bf d9 0e 34 3f f3 3f 82 39 8d 58 52 be
       -1.5704566 0.70335156 0.00024843178 -0.20541592
000040 d2 e4 42 be f4 96 71 be c4 28 6a 3f d6 bf 5f 3f
       -0.190326 -0.2359274 0.91468453 0.87402093
000050 f5 36 10 be ed ec eb 3e 2c 37 1d bf aa 33 47 be
       -0.14083464 0.46079198 -0.6141231 -0.19453302
000060 f9 37 fa bd a8 87 3a 3f 6e dc 7d be af b1 fb 3f
       -0.12217707 0.72863245 -0.24791119 1.96636
000070 36 13 30 3f 2c 7b 27 3f 46 de 4a be 86 89 44 bf
       0.68779314 0.6542232 -0.19811353 -0.76772344
000080 43 50 71 bf a5 4f 33 be 17 8d 46 be 3c 16 36 bf
       -0.94263095 -0.1751085 -0.19389759 -0.71127677
000090 aa 84 81 be 9c a9 c6 3e 7b 62 fe 3e 53 f6 8e be
       -0.25296527 0.38801277 0.4968451 -0.27922305
0000a0 b2 9e 84 bf a7 7b 0a 3f 7c 5c 8a 3e 5b b6 b2 bf
       -1.036093 0.5409493 0.27023685 -1.39619
0000b0 e9 7a 6d be 03 b7 86 be c7 2e 10 bf 3a 64 a6 3f
       -0.23191418 -0.26311502 -0.56321377 1.2999337
0000c0 b9 e4 ff 3e 20 56 60 3f f1 04 1c be 74 12 81 be
       0.4997919 0.87631416 -0.1523626 -0.2520939
0000d0 bd 96 35 be 44 05 fa 3e 68 dc 3c 3f bf 19 f3 bf
       -0.17733283 0.48832142 0.73773813 -1.8992232
0000e0 24 70 f8 3e 64 6b c0 3e f4 55 72 3f 41 45 9d bf
       0.48523057 0.37581933 0.94662404 -1.228676
0000f0 08 92 d3 3e 0e c5 cf be a7 d3 62 bf cc d0 db 3e
       0.4132235 -0.40580028 -0.88604206 0.42932737

net2.0.weight f4 [64, 16]
000000 5c 6a d9 3e 34 93 b5 3d e4 08 45 be dc 72 01 3f
       0.42463958 0.088659674 -0.19241673 0.50565886
000010 c1 c5 dc be 3c 91 5f 3e 78 9b 16 be f7 8b 8b 3d
       -0.43119624 0.21832746 -0.14707744 0.068138056
000020 79 61 83 3e 77 ce 23 bd b0 b0 37 be f2 f0 a7 3e
       0.25660303 -0.039991822 -0.17938495 0.32801014
000030 60 fa 95 bd bf 81 f7 be b8 fb 67 bf 67 c7 74 bc
       -0.07323146 -0.48341176 -0.9061847 -0.014940119
000040 e9 b1 03 3e 00 cc 87 be cc 9b 3c be 96 5b be be
       0.12860836 -0.26522827 -0.18418807 -0.3717925
000050 12 fa 29 be 48 35 4c be bd 31 3c 3e 96 52 db 3a
       -0.165993 -0.199422 0.18378349 0.0016732987
000060 fe 9c cf 3c 32 6d 83 bd a3 f4 88 be 2c ef 28 bf
       0.025343414 -0.06417312 -0.26749143 -0.6598995
000070 60 36 df bd 29 df 76 be 2a 19 ca bd 02 42 38 be
       -0.10899043 -0.24108566 -0.09868081 -0.1799393
000080 22 97 2a 3e c0 20 79 bf 10 61 b3 3d 83 d8 fa bd
       0.16659215 -0.973156 0.087587476 -0.122483276
000090 b4 3a 82 3e 92 fb 5b be 18 62 a6 bd 4f 3e 7c 3d
       0.25435412 -0.21482685 -0.08124179 0.06158286
0000a0 92 34 b5 bd b0 4a 96 3e b0 ca 05 3e 49 67 30 be
       -0.088479176 0.29353857 0.130656 -0.172269
0000b0 54 be 35 be 05 08 70 3d 3b ba 50 bc 45 2e a2 3d
       -0.17748386 0.058601398 -0.012739713 0.079189815
0000c0 07 75 42 bf d0 8f eb 3e 74 e3 8b bd 5c d3 62 be
       -0.7595982 0.46008158 -0.068304926 -0.2215094
0000d0 6d af db 3e 00 7b 35 3d 24 e2 1c 3e 08 36 aa 3e
       0.42907277 0.044306755 0.15320641 0.33244348
0000e0 c7 1d 5e bd d4 3b ce 3e 4d 0b f1 be 5b 0e b3 be
       -0.054227617 0.4028002 -0.47078934 -0.3497189
0000f0 e0 24 68 3e 52 5f 55 be 05 e2 69 3e 6d 48 87 3e
       0.22670317 -0.20837143 0.22840126 0.26422444
000100 dd 22 2c bf 85 4e 15 bf 0c b6 a4 bd d7 f1 6f be
       -0.672407 -0.58322936 -0.08042535 -0.23432098
000110 64 5a 99 bd f0 7d 06 3e 16 4c 34 bc c9 57 5c 3e
       -0.07487944 0.13133979 -0.011004468 0.21517862
000120 b7 fb 6b 3d 91 54 8a 3e cf d9 4e 3f 5a 48 16 be
       0.0576131 0.27017644 0.808011 -0.14676037
000130 a0 3d b8 bc 9c 55 a5 bd 1e 6b 0c be ef fd 0a bd
       -0.022490323 -0.08072969 -0.13712737 -0.033933576
000140 4d ca f6 be b8 7b ed 3e e4 a1 45 3e 19 69 97 bd
       -0.48201218 0.46383452 0.19300038 -0.07393093
000150 b4 46 59 be 68 7f f6 bd 80 81 3c 3d bc 82 5a be
       -0.21218377 -0.120360196 0.04602194 -0.21338934
000160 f5 35 93 bb 5c 4f 1c be 00 17 31 be aa 74 04 40
       -0.004492516 -0.15264648 -0.1729393 2.0696206
000170 e0 bc 70 bc dd e0 18 3d 69 51 b0 bd 4b 38 99 bd
       -0.014693469 0.03732382 -0.08609278 -0.0748144
000180 4b e7 85 3e 25 60 66 bd 3a c0 13 3e 62 09 14 3e
       0.26153025 -0.056244034 0.14428797 0.14456704
000190 02 6d 86 be 38 54 3d bd 14 0b c6 bd 4d 65 19 be
       -0.2625504 -0.046222895 -0.09670082 -0.1498005
0001a0 75 c8 63 bd 98 5a 8b 3e 30 c7 74 bf 1f 43 22 3f
       -0.055611093 0.27217555 -0.95616436 0.6338367
0001b0 3a a4 39 3e 37 8d 9f 3f e6 a2 42 3f 48 a2 bf bf
       0.18129054 1.246497 0.76029813 -1.4971399
0001c0 62 c1 21 c0 49 6a 03 bf a2 2b 68 3e 3f 25 9f be
       -2.5274282 -0.51334053 0.22672895 -0.31083104
0001d0 ee 12 f7 bd bc 45 9e 3d b2 81 e0 bd 7b d4 3d be
       -0.120641574 0.077281445 -0.109622374 -0.18538086
0001e0 83 79 17 3e 9a db 75 3d 70 ae 06 3f 3f 23 00 3f
       0.14792447 0.06002388 0.5260992 0.5005378
0001f0 46 91 4b be d9 74 d8 3e 0a 54 8c be f1 b2 b5 be
       -0.19879636 0.42276648 -0.27407867 -0.35488084
000200 7c 41 87 3e e1 a2 0e bf 80 91 f0 bc bb f8 18 bf
       0.26417148 -0.55717283 -0.029366255 -0.5975453
000210 a4 5f 83 3c 54 ac 91 bd af af e0 3d bf 2f 3c bc
       0.016036816 -0.07112947 0.10971009 -0.011485993
000220 1f 63 c3 bd e1 98 81 3e 6b 4c c0 bd 32 a9 81 3d
       -0.0954039 0.2531195 -0.093895756 0.063310996
000230 30 2f 52 3e ac 41 04 3e dc c9 d8 be 62 0a ce 3e
       0.20525813 0.12915677 -0.42341506 0.40242296
000240 1c c4 e7 3d 5c 4e 8c 3c 84 a1 bc bd 5a e5 f8 3b
       0.11316702 0.017127208 -0.09210494 0.0075957
000250 41 f4 63 3d 38 42 b6 3d b7 55 0f be 48 f7 fb 3d
       0.05565286 0.08899349 -0.13997541 0.123030245
000260 f5 0f 1b be bd 57 2a 3e aa 03 5e bf 75 e0 69 3e
       -0.15142806 0.16635032 -0.8672434 0.2283953
000270 f0 0c d8 3c 91 55 bc bf 59 96 24 bf 0f 65 8b 3f
       0.026373357 -1.4713613 -0.6429191 1.0890216
000280 0e 27 50 be 95 95 52 bf be a5 0c be 49 25 a3 bd
       -0.20327398 -0.82259494 -0.137351 -0.07966096
000290 f9 01 2c be 58 94 2d bd b8 65 80 3e e5 1f 01 3e
       -0.16797628 -0.0423778 0.25077605 0.12609823
0002a0 17 b5 98 bd 3c 6a 6a 3e 26 eb 2f bf 90 c4 cd be
       -0.07456415 0.22892088 -0.68718183 -0.40189028
0002b0 24 03 41 3e 1c 76 d8 3d 0c 05 a7 3d b0 84 44 3c
       0.18848854 0.105694026 0.081552595 0.011994526
0002c0 f6 f5 db bc 51 4c 1f 3e 28 e6 b5 bd c2 10 56 bd
       -0.026850682 0.15556456 -0.088817894 -0.052262075
0002d0 e9 13 45 3e ee 90 46 be c0 7f a6 be a9 0a 0f bc
       0.19245876 -0.19391224 -0.3251934 -0.008730569
0002e0 a6 e6 9c 3d 2a fc b1 3d 64 ca 11 3e 19 53 d1 be
       0.0766118 0.086906746 0.14237362 -0.4088371
0002f0 d0 2d c3 bd 7a 14 e9 bf 8b f3 b3 bf 6e 0c 22 bf
       -0.095302224 -1.8209374 -1.4058698 -0.63300216
000300 4a 33 47 bf ba 5b b9 be f4 a8 e3 3d 7a 36 c8 3d
       -0.77812636 -0.36202794 0.111162096 0.097760156
000310 2e 24 0f be a4 6e 0b be 92 3d 69 3e cb ea 02 3e
       -0.13978645 -0.13616425 0.22777393 0.12784879
000320 e4 02 3c 3d f4 36 11 3e 6d 98 c9 be b7 13 04 3d
       0.045901194 0.14181119 -0.39374104 0.032245364
000330 f4 93 45 3e 81 99 45 3f c5 b4 5a be d0 c6 12 bf
       0.19294721 0.77187353 -0.2135802 -0.57334614
000340 50 95 12 be 50 18 cb bf 48 36 04 bd 10 e3 aa 3e
       -0.1431477 -1.5866795 -0.03227833 0.3337636
000350 79 9e ad be ce 38 2e be 51 b9 c2 bc ea 69 9e bd
       -0.33909968 -0.17013857 -0.023770006 -0.07735045
000360 cc b4 86 3c cb 82 93 be 6c a3 24 bf db 40 be 3f
       0.016443633 -0.28810725 -0.6431186 1.4863542
000370 d4 cb 09 3e 7e 3f 03 3e 48 6c 1f be 13 d2 e3 3c
       0.1345666 0.12817189 -0.1556865 0.027810132
000380 d9 24 bc 3c 89 96 a2 3d 70 da c4 3c 57 dd 11 bc
       0.02296679 0.079388686 0.02402994 -0.008902869
000390 f7 88 45 3e f6 b6 17 3e fb a9 fd bd 31 e9 e2 3d
       0.19290529 0.14815888 -0.12385937 0.11079634
0003a0 72 46 80 3d f4 19 0d be 6d c4 19 3e c6 4c f0 bf
       0.062634364 -0.13779432 0.15016337 -1.8773429
0003b0 d8 a2 a4 bd 42 4d 83 3d be f3 74 3d 6f 69 8c 3c
       -0.080388725 0.0641122 0.059802763 0.017140118
0003c0 83 fb 8b bf 14 c6 ab be 2e dd 34 3e 1f a1 77 be
       -1.093613 -0.3354956 0.17662498 -0.24182557
0003d0 5a 23 07 bd 58 fe f8 bd 63 06 9e 3e ae 51 79 3e
       -0.0329927 -0.12157887 0.30864248 0.24347565
0003e0 3f 5b a2 3e cc 86 99 bd d4 da 44 bf b9 1e f0 3d
       0.3171024 -0.074964136 -0.76896405 0.1172461
0003f0 94 16 94 bd c2 44 0d be 77 d9 09 3e d2 96 3b 3c
       -0.07230869 -0.1379576 0.13461863 0.011449533

net2.0.bias f4 [64]
000000 6c a9 33 3e dd 12 14 bd 34 31 a2 3d 55 c8 3e 3e
       0.17545098 -0.036150802 0.07919541 0.18631108
000010 2b 22 cd 3b 2e bc 4f 3d 69 d1 6b 3e 84 68 5e bc
       0.0062601767 0.05071657 0.23029102 -0.013574723
000020 40 ac ad bd 31 94 8c 3c 38 14 50 bc 5d 3d e7 bd
       -0.0848012 0.017160507 -0.012700133 -0.11291001
000030 1e e7 74 3d 56 f7 5e be 41 d2 38 be 1b f1 89 3e
       0.059790723 -0.21774039 -0.18048956 0.2694176
000040 c3 da 65 bd e2 83 ce 3d 5a 3b 19 3d 0a bc a0 3e
       -0.05611683 0.100837484 0.037410118 0.31393462
000050 18 b2 16 be cb 70 3a 3e 83 d1 78 3d 50 9e 56 3d
       -0.14716375 0.1820709 0.06074668 0.052397072
000060 11 0e 7d 3e 4d e9 08 3e c4 eb e0 bd d1 9b 12 3e
       0.24712397 0.13370247 -0.10982469 0.14317252
000070 25 27 aa bd 89 ec 05 be 60 c0 81 3e 6a b3 64 3e
       -0.083082475 -0.13078512 0.25342083 0.22334066
000080 48 4c 50 bd 48 02 05 be 96 c6 fa 3d c1 3f 3f 3e
       -0.050853997 -0.12989151 0.122449085 0.18676664
000090 9a 23 dc bd bd c4 42 3d af fe ba 3d b3 30 97 3d
       -0.10748978 0.047550905 0.09130608 0.073823355
0000a0 f3 e8 1a 3e 45 3b 2f be 77 a0 e7 3c e5 b7 7d 3e
       0.15127926 -0.17112453 0.028274758 0.24777181
0000b0 b1 3d 0e 3e 3c f2 9a 3c 22 ff 5a 3e a9 14 82 3c
       0.13890721 0.018914334 0.21386388 0.015878992
0000c0 7c 55 44 be c9 e3 84 3e 1f 6b 65 3e a0 4f 9e 3c
       -0.19173235 0.25955036 0.22404145 0.019325078
0000d0 72 32 38 be de ea 51 be f2 8c 24 3e c1 95 50 3d
       -0.17987993 -0.20499751 0.16069391 0.050924066
0000e0 92 ca 52 3e fd 9f bc 3c f6 8a f9 bc 4c da 01 3d
       0.20585087 0.023025507 -0.03046177 0.031702325
0000f0 e1 5c 39 3d dc d3 b9 3e 43 5b 88 bd 46 6d 47 be
       0.04525459 0.36294448 -0.06658032 -0.19475278

net2.2.weight f4 [64, 64]
000000 38 4f 95 bf c5 c9 9c bc 34 65 f6 be da 3b 64 bd
       -1.1664801 -0.01913918 -0.48124087 -0.05572114
000010 55 f3 8d 3e 6e a2 c5 3e 75 dd 95 be 30 6a 64 3f
       0.2772471 0.38600487 -0.2927052 0.8922453
000020 5d c6 23 bf 21 20 06 bf 9a 0d 8d bf 91 b9 22 bf
       -0.63974553 -0.52392775 -1.1019776 -0.635644
000030 dd 01 6d 3e d8 ad 2f bf d7 d2 5e bf f6 62 5e bd
       0.23145242 -0.6862464 -0.87040466 -0.054293595
000040 d9 8a 90 bf ba c4 a0 3d 54 2b 92 3e 55 90 bf 3e
       -1.1292373 0.078500226 0.28548682 0.37414804
000050 58 63 62 40 0f ad 2d be 40 0b 61 3e eb 46 84 3d
       3.5373135 -0.16960548 0.21976948 0.06458839
000060 d5 45 96 be f9 22 81 bf bc 89 06 bf 94 3e 2e bd
       -0.29350153 -1.0088798 -0.52553916 -0.042540148
000070 ea b1 3e 3f ff f4 c1 3e 22 3b 4e 3f de e4 c4 3e
       0.74490225 0.3788223 0.8055898 0.38455862
000080 f1 f3 81 3f f5 f8 c2 bd 78 73 f9 3d 1b cd 26 bf
       1.015257 -0.09520141 0.12180227 -0.65156716
000090 ec 5b fe 3e 78 33 61 3e 34 bf 7f bf 20 2d 7a 3f
       0.49679506 0.2199229 -0.9990113 0.97725105
0000a0 df 2a d1 be 93 5f 20 3f c0 b4 8c be c5 ce 40 bf
       -0.4085302 0.62645835 -0.2748165 -0.75315505
0000b0 0f ba ec be 0c ae fc 3e 0a b1 16 bf fb c7 c3 be
       -0.462357 0.49351537 -0.5886389 -0.3823851
0000c0 8e cc 09 be d1 5f ce bd d0 c5 4d bd 9f 98 93 bd
       -0.13456938 -0.10076869 -0.050237477 -0.072068445
0000d0 98 1b 65 bf e0 bf c0 3d 58 9b 51 be fb 56 b7 3d
       -0.8949523 0.09411597 -0.20469415 0.08952137
0000e0 f8 98 b1 be eb c8 a3 3e 2f 40 29 3f da d4 fd be
       -0.34687018 0.31989226 0.6611356 -0.49576455
0000f0 47 50 c6 bf dc ff 8c bf bb d2 18 bf ed 50 7e 3e
       -1.5493249 -1.1015582 -0.5969655 0.24835558
000100 ff 3c 13 3e f3 bc 0b 3e 4d 93 99 3d 0e f4 3a 3e
       0.14378737 0.13646297 0.074987985 0.18257162
000110 42 57 2b bd 9d 6b 2b 3e 54 22 c2 3c 68 51 bb be
       -0.041831262 0.1674027 0.02369801 -0.36585546
000120 30 1c 2d 3e 80 f2 e7 3d dd 7c 8d 3e 50 ad 29 3e
       0.16905284 0.1132555 0.27634326 0.1657002
000130 6e e9 86 3e cd da d0 3d 72 c9 0c 3f ac 3b 30 3e
       0.26349968 0.10197983 0.5499488 0.17210263
000140 d4 5b 4d be 6b b0 84 3c 50 3e 1f 3e f5 cd d2 3d
       -0.20054561 0.016197404 0.15551114 0.102931894
000150 6e 86 78 be 9b 55 10 3f a0 24 a4 be 45 72 95 3e
       -0.24270031 0.56380624 -0.32059193 0.29188743
000160 e2 03 d7 3e e2 64 3c 3e da de 41 3e f9 f4 d4 3e
       0.4199515 0.18397859 0.18932667 0.4159315
000170 72 b7 58 bd 29 9c 7d 3e 03 53 66 bd 65 e0 b3 3e
       -0.052909322 0.24766602 -0.05623151 0.35132137
000180 0c 79 53 be bb 1d 25 3d 7f 06 4c 3e 0c 74 36 3e
       -0.20651644 0.040311556 0.19924353 0.17817706
000190 f1 37 05 3e 62 66 19 3e 0a e9 2c 3e 8d 46 a8 3e
       0.13009621 0.14980462 0.16885772 0.32866326
0001a0 d2 69 e0 3b a1 15 dc bc 02 2c 10 3e c5 fb f1 3d
       0.0068485523 -0.026865782 0.14079288 0.11815599
0001b0 73 97 68 3e 20 0e a1 3e 4c 52 5e 3e c9 a3 8a 3d
       0.22714023 0.3145609 0.21711081 0.06769521
0001c0 40 fe ab be 15 c0 7d be 11 58 8e 3e 62 b8 12 3b
       -0.33592415 -0.24780305 0.27801564 0.0022387733
0001d0 0b b7 6e bb 1a 84 67 3e 1e 9e b5 3d 61 c9 15 3d
       -0.003642502 0.22608986 0.08868049 0.036569003
0001e0 4b 70 1e 3e 4b ea 39 3e 7c 6f f7 3d 00 d3 a2 3d
       0.15472524 0.18155782 0.12081811 0.07950401
0001f0 e7 55 cf 3c 66 2b 23 3e 11 f2 0f 3e 6d 5f 0b 3d
       0.025309516 0.15934524 0.14057185 0.034026552
000200 df bd ae 3c 2c db bf 3c e0 b7 6a be d2 a6 52 3e
       0.021330772 0.023419939 -0.22921705 0.2057145
000210 9b 6a 50 3f 55 03 3a bf 36 7c c0 bc 5f b2 10 bd
       0.8141267 -0.72661334 -0.023496728 -0.035326358
000220 87 bf c6 bc 24 5b 28 be fb 3b 17 bd cc cb 46 3b
       -0.02426125 -0.16441017 -0.036922436 0.0030333875
000230 43 b9 90 3d 0c 54 21 3d 85 66 2b bf 01 58 f1 3e
       0.07066586 0.039386794 -0.6695331 0.47137454
000240 ce 2c a1 bd bd 9b eb 3d c2 aa 73 3d 3f 7b 39 be
       -0.07869874 0.11504314 0.05948902 -0.18113421
000250 0f a4 60 3c 01 11 d6 be 89 d3 29 bd 98 61 1b be
       0.01371099 -0.41809848 -0.0414615 -0.15173948
000260 41 08 0e bd 50 df 61 be 62 c3 5c 3e d1 61 6f bf
       -0.03467584 -0.22057843 0.21558908 -0.9350863
000270 09 f1 4c 3b 36 9d cf be 18 a8 b3 bd 42 54 44 bf
       0.0031271598 -0.4054963 -0.08772296 -0.7669107
000280 60 cd 18 be dd 2c 2c 3e 72 81 45 be 4c e4 e9 3d
       -0.14922094 0.16813989 -0.1928766 0.11420497
000290 d8 53 76 be 3d af 99 3e 7a 3b aa 3d 28 de 7a be
       -0.24055421 0.3001651 0.083121255 -0.24498808
0002a0 86 87 9a be e3 ca e3 bd b4 73 f2 3c 64 b2 08 3e
       -0.3018152 -0.11122682 0.029596187 0.133493
0002b0 41 41 cf bd 15 8b 99 be 37 81 2d bf c1 e6 e0 bc
       -0.10119868 -0.29988924 -0.6777529 -0.027453782
0002c0 14 bf 4f 3f 19 a2 0e 3d ec 7c 4f 3d 69 07 4d 3e
       0.8115094 0.034822557 0.050656244 0.20022358
0002d0 5e 62 ad bd 34 d3 98 be 12 d7 99 3e 6d c7 5f 3d
       -0.08466028 -0.29848635 0.30046898 0.054633547
0002e0 5d e7 7f 3e e6 f1 a1 bd 9d 22 ff 3d fe f9 8d bd
       0.24990602 -0.079074666 0.12457774 -0.06932448
0002f0 79 a1 c2 bd 01 56 44 3d 96 af 6b 3d bd fa cf 3d
       -0.09503455 0.047933582 0.0575405 0.101552464
000300 3e b2 c8 bd bd 86 3b 3e 12 db 21 3f e7 6e 63 bd
       -0.09799622 0.18313117 0.632249 -0.055525687
000310 95 22 f9 be d7 f4 77 bf d2 45 8c 3d a7 a5 33 bd
       -0.48659196 -0.9685797 0.06849255 -0.04385915
000320 c4 18 4d bd 31 fd 8e bd 4c c3 9e 3e d5 12 05 3e
       -0.050072446 -0.06981886 0.31008375 0.12995465
000330 37 04 7f 3e e2 9d 69 3d 78 ca ca 3d 14 1c 6a bf
       0.24903952 0.057035334 0.09901899 -0.91449094
000340 e1 1d 75 3e 0e f5 02 bf 40 10 9d be c9 87 a6 3e
       0.23937179 -0.51155174 -0.3067646 0.3252547
000350 a5 4b 35 3f 1c d8 e3 3e 64 01 19 bc 86 f5 6b bf
       0.7081855 0.44500816 -0.00933871 -0.92171514
000360 9a 68 86 3d ae 5c e9 be d9 fb 28 bd 59 d9 6f bf
       0.0656292 -0.4557852 -0.041255806 -0.9369102
000370 98 33 11 bc 14 69 78 be 7c 78 99 3d a7 ae 7e 3e
       -0.008862399 -0.24258834 0.07493684 0.24871312
000380 ef e8 9d 3e 61 da a5 be 99 f1 86 be 6d b9 0e 3e
       0.30841777 -0.32393172 -0.263562 0.13937922
000390 01 71 56 bf 3a 77 05 be 67 5d 70 bf 01 2b 70 bf
       -0.8376618 -0.13033763 -0.9389252 -0.9381562
0003a0 6d f9 cb 3e 9e cc e7 3e 48 66 16 bf 31 09 2e bf
       0.39838734 0.45273298 -0.5874982 -0.67982775
0003b0 55 6b 36 3e 4c 71 82 3d de 2c 2d be d1 9e dd bd
       0.17814381 0.06369266 -0.16911647 -0.108213075
0003c0 f4 8d 1c bf e4 0c f5 bd f9 53 29 bc 9a 1a 7e 3c
       -0.61154103 -0.11965349 -0.010334962 0.015509272
0003d0 b6 9b 95 3e ff 75 b5 ba d3 d4 f5 be 69 09 e3 be
       0.2922036 -0.001384437 -0.48013934 -0.44343117
0003e0 70 58 75 3d 52 3b 1c 3f 1e 52 c1 be ff aa 97 3d
       0.059898794 0.61028016 -0.37757963 0.07405662
0003f0 c1 4f 97 bd 4e 3b 83 ba 57 10 bd bf bb 8c ac bf
       -0.07388259 -0.0010012181 -1.4770612 -1.3480448

net2.2.bias f4 [64]
000000 0c c1 a0 be 4d 83 86 3e dd ed df 3d aa ad 54 3b
       -0.31397283 0.2627205 0.10934041 0.0032452145
000010 e2 e7 ea 3c 38 49 7b 3e 82 0d 8c bd eb 59 9e 3b
       0.028675023 0.2453965 -0.06838514 0.0048324964
000020 a0 b7 a0 3e e5 46 3a bc 90 15 2c 3e fc 60 d6 3d
       0.31390095 -0.011369442 0.168051 0.10467717
000030 90 73 e3 bd 8a f8 52 3d 0a be 5b be 08 91 c7 bd
       -0.11106026 0.051506557 -0.21459213 -0.097444594
000040 c0 88 b1 3e 35 7b 36 3e 9f a6 07 be be 34 fd bd
       0.34674644 0.17820437 -0.13247155 -0.123635754
000050 df 4f f1 3d 61 f2 28 bd 22 c8 3b be a7 85 ae 3e
       0.11782812 -0.041246776 -0.18338063 0.34086344
000060 c2 72 93 bd fb 6e a5 3e 7b d5 22 bd 59 61 5c 3e
       -0.07199623 0.32311234 -0.039754372 0.2152151
000070 8a 37 83 3d 2a 6b 1b be 34 07 ad 3e 06 85 01 be
       0.064070776 -0.15177599 0.33794558 -0.126484
000080 7c 22 a2 3e 46 13 49 be 60 8d 08 bd c4 3a b9 be
       0.31666934 -0.19636258 -0.03333795 -0.36177647
000090 c3 cb fc bd 3a c5 18 be e3 35 a8 3e d3 9b 61 3d
       -0.12343552 -0.14918986 0.32853612 0.055080246
0000a0 a4 be 62 be b7 a3 a9 bd 21 27 89 3e 45 f7 1e bd
       -0.22143036 -0.08283179 0.26787665 -0.038810033
0000b0 a2 5e 7d bd 68 15 b5 3c 78 39 3d 3e 40 a3 57 bd
       -0.061857827 0.022104934 0.18478954 -0.05264592
0000c0 05 a1 ec 3d ff d6 45 3e 50 19 a8 3e 42 91 6c 3e
       0.115541495 0.19320296 0.32831812 0.23102286
0000d0 50 61 1d 3e 2b 62 22 3d 72 0c 11 3d eb b0 e3 3d
       0.15369153 0.0396444 0.03541226 0.11117729
0000e0 7c 87 11 3d 60 0b 9c 3d 2d aa 2a 3e ec 47 1a be
       0.0355296 0.07619357 0.1666648 -0.15066499
0000f0 cd 7f 9b be 2c 7b 86 3e 50 11 6b 3e c8 43 2e 3e
       -0.30370942 0.26265848 0.22955823 0.17018044

net2.4.weight f4 [1, 64]
000000 a4 b9 7b 3f eb 57 21 be 06 3e cb 3e d1 a1 02 3f
       0.9833014 -0.15756194 0.39695758 0.5102816
000010 a8 73 45 3f 6a d1 7b be c5 af 0a 3f 25 a7 b1 be
       0.771296 -0.24591604 0.54174453 -0.34697834
000020 29 98 7b be 2a 6a 15 3f 93 b2 7b be cb 58 4f 3f
       -0.24569763 0.5836512 -0.2457984 0.8099486
000030 37 07 eb 3e d1 b7 c9 3e 3d a3 83 bf f2 7f f4 3e
       0.45903942 0.39398053 -1.0284191 0.47753865
000040 7a da 54 be 39 ba 7f be 04 16 01 c0 1a 3c 06 3f
       -0.20786467 -0.24973382 -2.0169687 0.5243546
000050 01 17 17 39 7b 38 82 3e 83 25 f3 3e f7 79 70 be
       0.00014409052 0.25433716 0.47489557 -0.23484026
000060 ef a9 18 3f 5a 38 6e be 48 b9 cf 3e 1d 00 83 be
       0.596343 -0.23263684 0.40571046 -0.25586024
000070 ec 2b 8b bf 9a 75 c1 3d a7 ae 70 be f6 ea 93 bf
       -1.0872779 0.09446259 -0.23504125 -1.1556079
000080 c8 15 89 be 00 01 48 3f a6 55 25 3f 09 0d 05 3f
       -0.2677443 0.78126526 0.64583814 0.51973015
000090 4d 74 f5 3e 69 ed 55 3f 83 2c 81 be 69 0e e9 3e
       0.47940293 0.83565384 -0.25229272 0.45518807
0000a0 61 3a 38 3f 0c 87 9a 3e f5 91 9c be 0a dd cd 3e
       0.7196408 0.30181158 -0.30580106 0.40207702
0000b0 a1 26 4e 3f 49 05 9c 3e 36 9e 9a be 4c 17 0a 3f
       0.80527693 0.30472782 -0.3019883 0.539418
0000c0 17 b0 0f 3f 88 54 51 be 81 80 91 be 3a ae 57 be
       0.56128067 -0.20442402 -0.28418353 -0.21062556
0000d0 82 2c 7c be 37 02 04 3f 9f d9 8f 3e fc 14 5d 3f
       -0.24626353 0.5156588 0.2809572 0.86360145
0000e0 f7 59 2f bf 1a c1 56 3f 77 5d f8 3e 55 ba 82 3f
       -0.6849665 0.838884 0.48508808 1.0213114
0000f0 f1 fe fe 3e 06 c5 31 bf 9c 0a 63 be 68 fa c2 3f
       0.4980388 -0.6944126 -0.22172016 1.5232668
