log/GC_SAC/cannot_used_lidar/maze3Env/20210802-1541/GC_SAC_HER_critic.pth (torch_old, 44422 bytes, 10 tensors)

net1.0.weight f4 [64, 16]
00000000: 3991 66bf 7b03 98bf 6c5a 353e 9169 04bf
00000010: cadc 6fbf 94bf 8a3d 2493 c63d 69b7 42be
00000020: 25da 2ebe e87a b7bd 76e8 c73e 6ad5 fe3e
00000030: 381e 61be bdb8 58bd ccd6 95be 9b46 dd3d
00000040: 8a2f 28bd 54db 883d 8e5e 3c3e 351e 993e
00000050: e314 8e3e 082f 84bd 72c5 e63d 7241 ba3d
00000060: 46d8 0f3e 11c2 5ebc cc14 a23e dad6 b43e
00000070: 308f a03d 4aef 2e3d 151f 76be e110 65be
00000080: 63a9 f2bd 4cfd d53d c0ad 3ebe 1b91 88bd
00000090: edd3 25be ea19 4ebe 6310 d5bd 06ba 0b3d
000000a0: ea4c 38bd b9d8 4e3e 395f 873e 8fce e53e
000000b0: c430 5d3e 67d1 623f 4c52 18bf 8047 46be
000000c0: fbba 003d 056e 0fbe 269c 6c3e 042c 28bf
000000d0: b402 68bf 1895 c83d d1b5 c43d 3025 83be
000000e0: 81b9 debd fba3 aebd 8fa5 903e 294d 9d3e
000000f0: 9af6 2c3e cb00 a63f cf84 633f f853 1a3f
00000100: f84f 3fbf c53f e23e 5a70 13be 1dfb bebe
00000110: abc3 42be 3c0c e8bd 4715 973d f163 b03d
00000120: b87c 40be 2e73 1f3e 3e17 153f 8cf1 503f
00000130: 80ac c5bb 801e a7bd 085f 073e d463 053d
00000140: f8c3 9b3c c4a4 0dbe fc6e 063e 95c9 ddbe
00000150: 2dd1 9ebc 44b4 6abe a9d3 efbd 94b9 443e
00000160: 5239 133e 64d6 033d b75a d33e e863 013e
00000170: a49c eb3d 97aa febd 770e 13be fd2b a73e
00000180: 67a0 66be c00f 143e 803d 82bc c418 f4bc
00000190: 5d8f 6d3d e62e 44be c181 033d fa15 7cbe
000001a0: f4bd fc3d 3128 bc3b ed69 bdbe b5b4 443f
000001b0: c062 d7bd 1f5c e83c 2864 eebd f4f2 0f3f
000001c0: 30c2 4f3e 0b45 653e 1877 2a3e 3515 50be
000001d0: b809 8ebe d4ea ab3d 622e 313e 2bbd f9bd
000001e0: bff4 a93d b7be 913d 33a2 f13e 282e 003f
000001f0: 4016 ba3c 463a 813e 7b8b 063e ac07 803b
00000200: 74e8 afbe 8883 fc3c 1003 2d3e a540 a8bd
00000210: 336e 81be 001e 823a 7e0b 0239 21a1 edbc
00000220: 7bc8 153e 6120 e93d 03ad d13e 7a2a 5dbd
00000230: 00c5 fb3d a414 533e 05b8 583e 86d8 703e
00000240: dae9 663e 9daf ee3e 3e76 45be d216 1c3c
00000250: 7def ca3e 4483 a8bd 304a 79be 30c8 313e
00000260: 213f 88be d11a e63d 7502 1f3d db9a 013f
00000270: 40aa 37bc 7cd5 5e3e 0d56 a03e e1cf 2c3e
00000280: 299b a63e 3e1f 2a3e 5cdd a0bd ac18 47be
00000290: ae3b a73e ca0f 283e 019b dfbd 0daa b9bb
000002a0: 0723 cc3c 6c04 503c 86d0 b2be ef3f 0f3f
000002b0: a815 7b3d 9325 02be 14e8 82bd fa11 4c3e
000002c0: bfa9 efbc 8475 36bd 0053 f83c d699 b43e
000002d0: e3f5 dabd 0871 1cbd b8ff 73be abba aabe
000002e0: dde8 8dbe eb7e f9bd a5a8 09bd 422d c33d
000002f0: dc7b 37be 696f 023e 5e18 983c a527 ad3d
00000300: d9f2 4bbe afd5 2d3d 607b b9bd 427c 35be
00000310: f972 abbe f0b1 1d3d c354 563e fd28 6bbe
00000320: 875f 523e 1387 0fbe 75b8 8b3f 9bac 273f
00000330: 940e 02be 0ebf 653d 987a 1f3e 57c6 993d
00000340: 1de8 db3d f31d 42bc c411 87bd 7cce 1a3e
00000350: 839a aa3d 5806 93bd 6cf9 32be 6e37 3f3e
00000360: 76cf 03be 826d 013d b5ae 5fbf 17e7 b2be
00000370: d0e0 d03d 1d42 cbbc 8c99 e43c 90c8 a8bd
00000380: 80b8 923d 09fb 3dbe e8f7 b6bd 758e e03c
00000390: 57cb 973e 7cd5 173e bb16 cf3d b3f1 9e3d
000003a0: 906d 2d3e d445 04be 9652 853d de97 5fbe
000003b0: c0c6 82bd d9c7 bcbe cc7c 9c3c 57c5 243e
000003c0: 6fb6 d8bd e641 0b3e 2014 8f3c c9ab cbbd
000003d0: 6a65 293e c074 ce3d 8a95 78bd 6fe2 f1bc
000003e0: 95a3 9d3c fc36 b0bb 478f 953e 3cd5 86bf
000003f0: e0a9 66be 6643 653d 9b4b 2abd c0f7 723e
-0.9006534 -1.1876062 0.17710274 -0.5172358 -0.9369627 0.06774822 0.096960336 -0.19015278
-0.17075403 -0.089589894 0.3904454 0.49772197 -0.21984184 -0.052910555 -0.2926544 0.108044825
-0.04106096 0.066824585 0.18395445 0.2990586 0.2775031 -0.06454283 0.112681285 0.09094514
0.14047346 -0.013596074 0.31656492 0.3532017 0.07839811 0.042708673 -0.24035294 -0.2236972
-0.11848714 0.10448703 -0.18620968 -0.06668302 -0.16194125 -0.20127073 -0.10403516 0.034112953
-0.044995226 0.2019986 0.26439837 0.44884154 0.21600634 0.8860077 -0.59500575 -0.19363213
0.03142832 -0.14006813 0.23106441 -0.6569216 -0.90629125 0.097940624 0.09604991 -0.2561431
-0.10875226 -0.085273705 0.2825131 0.3072293 0.16890946 1.2968992 0.88874525 0.60284376
-0.747314 0.44189277 -0.14398327 -0.3730096 -0.19019954 -0.113304585 0.07377105 0.08612812
-0.18797576 0.15571281 0.5823859 0.8161857 -0.0060325265 -0.08160114 0.13219845 0.032565907
0.019014344 -0.13832384 0.13128275 -0.43317857 -0.019386852 -0.22920328 -0.11710293 0.19211417
0.14377335 0.03218688 0.41280147 0.12635767 0.11504486 -0.12434881 -0.14360987 0.32650748
-0.22522126 0.14459133 -0.015898466 -0.029796965 0.05799805 -0.19158515 0.032106165 -0.24617758
0.12340918 0.005742096 -0.36994877 0.7683824 -0.10516882 0.02836424 -0.11640197 0.5623009
0.2028892 0.22389619 0.16646993 -0.2032059 -0.2774179 0.08394399 0.1730285 -0.12194284
0.08298635 0.07116454 0.4719406 0.5007043 0.022715688 0.25239772 0.13139145 0.0039071646
-0.34357035 0.030824438 0.168957 -0.08215455 -0.25279388 0.0009927154 0.00012402047 -0.029007496
0.14627258 0.11383129 0.4095231 -0.053995587 0.12293434 0.20613343 0.21163948 0.23520097
0.22550145 0.46618357 -0.19283387 0.009526925 0.3963584 -0.08228162 -0.24344707 0.17361522
-0.26610664 0.112355836 0.038820703 0.50626916 -0.011210024 0.21761125 0.31315652 0.16876175
0.32540253 0.1661348 -0.07854721 -0.19443005 0.3266272 0.16412273 -0.109182365 -0.0056660236
0.024919046 0.012696367 -0.34924716 0.5595693 0.06129995 -0.12709646 -0.06391922 0.19928733
-0.029255746 -0.044545665 0.030313015 0.35273618 -0.106914304 -0.038193733 -0.23828018 -0.3334554
-0.27716723 -0.12182411 -0.033608098 0.095301166 -0.17918342 0.12737812 0.018566307 0.08454827
-0.19916858 0.042440113 -0.09056735 -0.17723182 -0.33486155 0.038499773 0.20930772 -0.22964855
0.20544253 -0.1401637 1.0915667 0.6549775 -0.12700874 0.056090407 0.1557411 0.075085334
0.107376315 -0.011847961 -0.065951854 0.1511783 0.08330252 -0.07178944 -0.1747796 0.18673488
-0.12872109 0.031598575 -0.87375957 -0.34941933 0.101991296 -0.024811799 0.027905248 -0.08241379
0.07164097 -0.18552794 -0.08934003 0.027411679 0.29647323 0.14827532 0.10111757 0.07760944
0.16936326 -0.12917262 0.06509893 -0.21835276 -0.06385565 -0.36871222 0.019102477 0.16090904
-0.105816714 0.13599357 0.017465651 -0.09944875 0.16542593 0.10080862 -0.060689487 -0.029526917
0.019243041 -0.0053776484 0.29210874 -1.0533824 -0.2252574 0.05597248 -0.04157601 0.23727322

net1.0.bias f4 [64]
00000000: f0d8 54be 6850 6abc cee9 4ebe bbf2 84bd
00000010: 965d d4bb e71b 2a3e ada1 493c 3ec2 193e
00000020: 6509 03bd 365d 353e 7b58 47be 8c42 85be
00000030: 2d4c 1d3e 0005 0d3e 66d7 593e c91b 243e
00000040: efb4 8ebd 4e1e 0c3e a956 b9bc f2a3 043b
00000050: 418b bdbd 9577 333e 9d17 18be 3767 c3bd
00000060: f27b 69be 9148 46be f204 06be 0ded 103e
00000070: 53e0 783e f697 87ba 407a 7cbe 974c 15bd
00000080: 939f 31be 477c 7ebd dced 803e 9ef9 0f3c
00000090: c51c 953d 33e2 de3c d2a6 663e 1b23 4fbe
000000a0: 5ed2 69be 2ae6 653e e487 d3bc 6ecb 81bc
000000b0: 4e1e 8d3c 73f5 1ebe 8f98 35be 805b 223e
000000c0: 2179 3d3e 592d 2d3e eb05 243e 68be 8dbd
000000d0: 0224 213e a402 a8bd b4df a53d 0d29 523d
000000e0: 9fae 313e f5ef 7d3e 34d5 01be fcae 2fbe
000000f0: af9a 633e b143 493e 0bb1 4b3e 9f17 b8bd
-0.2078588 -0.014301397 -0.20206377 -0.0649161 -0.006480883 0.16612206 0.012306613 0.15015504
-0.03199138 0.17711338 -0.19467346 -0.26027334 0.1536109 0.13771439 0.21273574 0.16026224
-0.06968104 0.13683435 -0.02262433 0.002023932 -0.09255076 0.17526086 -0.14852758 -0.09541171
-0.22801188 -0.1936362 -0.13087824 0.14152928 0.24304323 -0.001034497 -0.2465601 -0.036449995
-0.17346029 -0.06213024 0.25181472 0.008787541 0.07280878 0.02720747 0.22524574 -0.20228235
-0.22834155 0.22451082 -0.025821634 -0.015844073 0.017226364 -0.15523319 -0.17733978 0.15855217
0.18503238 0.1691183 0.16017883 -0.06921083 0.15736392 -0.08203629 0.080993086 0.05130868
0.17351769 0.24798568 -0.12678987 -0.17156595 0.22226976 0.19654728 0.19891755 -0.0898888

net1.2.weight f4 [64, 64]
00000000: b7a8 1c3d e229 25bd 82d5 953d 5758 b43d
00000010: 084c 4cbe 4f5e 203d c7e8 99be 9e49 083e
00000020: 2727 66bd 59cb cd3d b4e1 e43d f0e7 dabd
00000030: 2594 08be 6f35 12bf 8f36 c63d 2cbc 38bf
00000040: f062 0e3e d695 5a3e 4e50 133d 1ba9 edbd
00000050: e701 5d3d ec2b 9ebf 14c1 6dbe 0fd5 2ebd
00000060: b20e 17be 175e 543c 8238 843d e26d 1bbd
00000070: 4e29 183c 8fb9 2c3e 4357 9cbc 7fe8 953d
00000080: e36e a13d 68a5 9dbd 1b45 ce3d 85d5 243d
00000090: c0ff b1be da78 adbd a243 e8be 976c f2be
000000a0: 1834 703d 3897 423d edc1 fb3d 2b05 95bd
000000b0: d034 803d fddc 98bd a041 c43d c1b7 76bd
000000c0: 25ac 223e febb 63bd 8a20 ed3d eab1 f73d
000000d0: 69e0 223e 1931 f8bb e7fa fdbe a1e9 073d
000000e0: 4d3b a63d d027 02bf a3d5 b7bd adb3 913d
000000f0: cea0 1ebe 7edb 83be 9853 0dbf c303 113e
00000100: 16a8 2ebe 5b33 39bc 2444 8f3e 952d 21be
00000110: 2cb1 3e3e bf1e d23d b02a a93e 64b6 603d
00000120: 29c4 043d c5e0 4e3e f57a 6e3d f8ff e3bb
00000130: 92c2 2bbc 7855 993d fa43 9dbc 4587 bb3e
00000140: 65ad 79be 7f3a dc3d f333 a93d 5c04 cbbd
00000150: 70bf 48be f155 423f d3e8 af3d 4c14 71bc
00000160: dc87 95bd 8824 103e cba7 35bb 6c20 1ebe
00000170: f6c7 233d 29ec 13bc 6459 02be 8811 123e
00000180: eb4b c13d 24ee 373e d4de 07bd a05b 643d
00000190: 6a0c 123e 777a 113d 7fe0 d83d 42fc 8c3e
000001a0: 11c7 4cbe 296d c0bd f5a4 57be 0993 1cbe
000001b0: 3dbf 193e 80dc edb9 5e0f 1a3d 0994 bdbc
000001c0: 7ca6 babd 3971 43be 2c95 70bd d16e 4d3e
000001d0: 1bb4 08be c3ff 1e3d 1d07 103f d786 303e
000001e0: 13eb 2f3e 4f4b 973e a95e a23e 180c 023e
000001f0: 084c 91bd 0dca d93d 2d5b ca3e 115b b8bd
00000200: bd23 7c3d 35e7 c2bd 2fb5 efbd bb54 0b3e
00000210: 7edb 84be 0184 03be 6893 b8be b7bf a33a
00000220: c4f1 883d 8c97 633e 789e 023e dfdf 7ebd
00000230: 5654 60be d411 8fbe a3fa 0b3c 3113 eebe
00000240: ce5e ae3d 3efe 15bf 18ec cc3d 94ca c63d
00000250: dd18 bebc 5ce9 52bf 603d 49bf 19cb a53d
00000260: 06bb d2bd fcb3 8dbe b5ab 8b3a bfe5 7a3d
00000270: 9d52 713d 3b7b 9abd 8507 bcbd c02f 523d
00000280: 97f7 31be 3669 adbd 8fb6 acbd f9f0 6e3d
00000290: 0321 1bbf 31e5 8d3d ce6c 63bf 5786 e9be
000002a0: 7438 2e3d c08f 5b3d d1e3 f43c b65b 33bc
000002b0: 44d6 2e3e acb4 26bc 89bf 423d 2c71 aebe
000002c0: c8a0 2e3e 2427 d1bd 6614 f23d 6a21 f93d
000002d0: 8659 1b3e d9b9 02be f580 18bf 6e02 1ebd
000002e0: 53d2 db3b 5397 9cbf cc8a 02bf 1464 afbd
000002f0: ad92 1c3e c0da f7be 0b00 16bf b937 70bd
00000300: 4ece bf3d 6eb6 1c3e 8d01 acbd b2a5 58bd
00000310: 7ac5 43be fe88 c2bb 65d3 e0be 0591 b33d
00000320: 64f0 ab3d ff20 123d 4f53 12bd bd3a c4bd
00000330: 30e1 e5bd ce7a aebe 881d 5a3d c215 22bf
00000340: 1d04 ae3e 7df2 21bd 35c6 11bd 65f5 9ebd
00000350: a183 0a3d db87 8ebf bde4 0abd 4e9d aa3c
00000360: 9aea 82be ae64 07bb b4c2 953d f2a7 213d
00000370: 609e dbbd 2ed7 d63b da4e 113e d807 843d
00000380: e289 063e 9025 0a3e b8ed c4bc 8813 5f3d
00000390: b2ef d1be 894d f6bc 69cd d5be 0122 0bbf
000003a0: 41ed 9dbb c13c 153d be7b e6bd d5d7 08be
000003b0: 0643 1ebd a545 aebc 2aaf 3f3d 577f 6fbd
000003c0: 168c 6a3e 03e1 373c afae dd3d e037 fa3d
000003d0: a318 f139 76eb 88bd fb4a 2abf 946e f53d
000003e0: 121b 91bd f38e 3dbe 209f 99bd 0eb9 8b3c
000003f0: 414e 82be db60 c2bd cdfb 10bf 9793 7d3d
0.038246837 -0.040323146 0.07316114 0.08805912 -0.19950879 0.03915244 -0.30060408 0.13309333
-0.056189682 0.10048551 0.11175862 -0.1068877 -0.13337763 -0.57112783 0.09678375 -0.7216213
0.13904929 0.2134622 0.035965256 -0.1160452 0.053956892 -1.2357154 -0.23218185 -0.042683657
-0.147517 0.012961886 0.064560905 -0.03794659 0.009287192 0.1686766 -0.019084578 0.07319736
0.07882478 -0.07697564 0.100717746 0.04024269 -0.34765434 -0.08470316 -0.453641 -0.47348472
0.05864343 0.047507495 0.12292848 -0.07276376 0.06260073 -0.07464025 0.095828295 -0.060233835
0.1588598 -0.055599205 0.11578472 0.12094481 0.15905918 -0.0075742123 -0.49605486 0.03318179
0.081167795 -0.50842 -0.08976295 0.071143486 -0.1549103 -0.25753397 -0.5520568 0.14161591
-0.17056307 -0.011303748 0.27981675 -0.15740044 0.18622273 0.102597706 0.3304038 0.05486144
0.032413635 0.2020293 0.05822273 -0.006958004 -0.010483401 0.07487005 -0.019197453 0.3662664
-0.24382551 0.10753345 0.08261862 -0.09912941 -0.19604278 0.75912386 0.085893296 -0.014714312
-0.07301304 0.14076436 -0.002771842 -0.15442055 0.03998562 -0.009028473 -0.12729412 0.142645
0.09438308 0.17961937 -0.03317149 0.055751443 0.14262548 0.035517182 0.10589694 0.27536207
-0.19997813 -0.09395821 -0.2105902 -0.15290464 0.15014358 -0.00045368448 0.03761231 -0.023141878
-0.091137856 -0.1908616 -0.05873601 0.20061804 -0.13349955 0.038818132 0.56260854 0.17238937
0.17179517 0.29549643 0.31712845 0.12699926 -0.0709458 0.10634241 0.39522687 -0.090017445
0.06155752 -0.095167555 -0.1170448 0.13606541 -0.2594871 -0.12843324 -0.36049962 0.0012493049
0.06686738 0.2222578 0.12755764 -0.06222522 -0.21907172 -0.2794329 0.008543643 -0.46499017
0.08514176 -0.5859107 0.10005969 0.097066075 -0.023205215 -0.8238733 -0.78609276 0.080953784
-0.10289578 -0.2767638 0.0010656031 0.06125426 0.058916677 -0.075430356 -0.09181122 0.05131507
-0.17379604 -0.08467333 -0.08433258 0.05833528 -0.60597247 0.069284804 -0.888379 -0.45610306
0.042534307 0.053603888 0.029893788 -0.010947159 0.17073923 -0.0101749115 0.047545943 -0.34070718
0.1705352 -0.102125436 0.11820297 0.12164576 0.15170869 -0.12766208 -0.5957177 -0.038576536
0.006708422 -1.223368 -0.5099304 -0.0856401 0.15290327 -0.4840908 -0.58593816 -0.05864689
0.09365521 0.15303966 -0.08398733 -0.052892394 -0.191183 -0.005936741 -0.4391128 0.08767895
0.0839546 0.035676 -0.03572398 -0.09581516 -0.11224592 -0.34078068 0.05325082 -0.6331445
0.33987513 -0.039537895 -0.035589416 -0.07761649 0.033816937 -1.113521 -0.033909548 0.020826962
-0.25569612 -0.0020659375 0.07312527 0.039466806 -0.10723567 0.006556413 0.14190236 0.064468086
0.13138536 0.13490891 -0.024039134 0.054461986 -0.41003186 -0.030066269 -0.41758278 -0.5434876
-0.0048195426 0.036434893 -0.11254071 -0.13363583 -0.038638137 -0.021273443 0.04679791 -0.05847105
0.22905001 0.011223081 0.10824334 0.122176886 0.00045985458 -0.066855356 -0.6652066 0.11983982
-0.070852414 -0.18511562 -0.07501054 0.017056014 -0.25450328 -0.0949113 -0.5663422 0.06190833

net1.2.bias f4 [64]
00000000: 7277 593c 21bc bc3c 1ce3 1c3d c1cf 013d
00000010: aa9c 053e f97f 9e3c 5eba d9bd b4cd 4e3d
00000020: 315e ab3b be2b c8bb dc10 bd3d 0f7d cfbc
00000030: 8774 d0bd 0f96 3d3e aebe c63d 89a5 af3d
00000040: b502 073e ddec fc3d 714c 543e 082e 363d
00000050: f375 e63d 60a8 1b3d 48f9 71bd 4804 6c3d
00000060: c015 f33c cedf da3c b955 093e 2a7c d83c
00000070: a657 523e e0c3 eebc 9484 04be b11f 283e
00000080: 615d 6d3d f981 283d 2d4e f33c 7128 923c
00000090: e372 90bb 1782 bfbd e90b 4ebd 8bb0 693d
000000a0: 7d92 98bd a619 913d 0abc 163e 069e c33d
000000b0: c233 12bc 6fcb 97bd a394 373b 8050 db3d
000000c0: 21f1 56bc a33b 3e3c 51e6 873d fcbf 0fbd
000000d0: d072 473d a949 223d a4e4 e13d 9960 863b
000000e0: fd9a f03d 7971 0c3e 020b 363e 8c51 353d
000000f0: bc2d 8cbd 574d f63c cbaf 94bd cecd be3d
0.013273107 0.023038926 0.038302526 0.03169227 0.13048044 0.019348131 -0.1063125 0.050489143
0.0052297343 -0.00610873 0.09231731 -0.025328187 -0.10178476 0.18514274 0.09704338 0.08576495
0.13184626 0.123498656 0.20732285 0.044477493 0.11252966 0.03800237 -0.059075624 0.05762127
0.029673457 0.026718047 0.13411607 0.026426394 0.20541248 -0.029146135 -0.129412 0.1641834
0.05795038 0.041139577 0.029700363 0.01784155 -0.004408227 -0.093509845 -0.050304327 0.05705313
-0.074498154 0.0708497 0.14720169 0.09551625 -0.008923473 -0.07411849 0.0028012178 0.107087135
-0.013119013 0.011610898 0.06635726 -0.0350952 0.048693478 0.03962103 0.11029938 0.004100871
0.11748312 0.13715161 0.17777637 0.044267222 -0.06844661 0.030066175 -0.07260092 0.09316598

net1.4.weight f4 [1, 64]
00000000: 85d8 4b3f 2d4d 8cbe 9dad b43f b733 ee3e
00000010: 6d1d 93be 6fee a6be f90d 193f 23a5 59be
00000020: 08e4 193f e534 123f 8876 793f 5efa b53f
00000030: 33f5 453f 9bd8 61be c4e9 9abe 35b9 57be
00000040: 2113 71be 87af e23e bbfd 2abf e089 19bf
00000050: 36ac 4bbe 1c76 79be 17b0 183f 845b 51be
00000060: 3ffe 56bf c4fa 93be 65f9 55be 57d3 b43f
00000070: 00a4 1bbe 58e5 8abe e48a a53f df34 88be
00000080: 6b79 003f c5c8 2abe 7285 77be 57d3 693f
00000090: b437 3abf db3f a63f 4aeb 273f 44f3 213f
000000a0: f50e 113f b037 23be ba63 61be 85b4 fa3e
000000b0: 3e0b 3bbe c828 b13f f5a8 39be 6ec9 9f3f
000000c0: bc71 9d3f e2c4 81be f612 88be 2c97 3ebe
000000d0: 5bb9 6abe baa5 3e3f d396 aabe 3158 9f3f
000000e0: a3cf 85be 9793 63bf 467e 3bbf 77f7 463f
000000f0: 5138 0d3f 82ef 083f f8d3 2f3f 0ad3 2f3f
0.7962726 -0.2740263 1.4115483 0.4652383 -0.28733388 -0.32603785 0.59786946 -0.21254401
0.60113573 0.5711196 0.9744649 1.4217031 0.7732727 -0.22055285 -0.30256474 -0.21066745
-0.23542453 0.44274542 -0.6679341 -0.59976006 -0.19889912 -0.24361461 0.5964369 -0.20445067
-0.839817 -0.28902256 -0.20895918 1.4126996 -0.1519928 -0.271281 1.2933011 -0.26602837
0.5018527 -0.1667815 -0.24171999 0.91338104 -0.72741246 1.2988237 0.655934 0.6326182
0.5666345 -0.15939212 -0.22010699 0.4896585 -0.18266007 1.384057 -0.18130858 1.2483346
1.2300334 -0.25345522 -0.26576966 -0.18612355 -0.2292227 0.7447163 -0.33318195 1.2448789
-0.26134977 -0.8889708 -0.7323955 0.7772135 0.55164057 0.5349046 0.68682814 0.68681395

net2.0.weight f4 [64, 16]
00000000: 5ec7 463e 3272 9b3e 86eb 763e b9c8 513e
00000010: 3988 73be 4c31 0a3e c57d a33c 487d 26be
00000020: b0b1 45be ae2d 55be 7e48 f6be ac58 b13d
00000030: 1850 483e 2c59 af3f 0692 813e 0638 91bf
00000040: 1a73 693e f353 ddbe e4b2 c93d 04b0 773d
00000050: 21e1 a83d c4ab 17be b77f 06be e520 00be
00000060: 29e5 393e 1d8b 2f3e cef4 80be 59ed 2abf
00000070: a035 2abd 7b5b 39be 29d2 d5bd 00b6 7b3a
00000080: 9b18 e03d 7a8f b2be 6421 8a3d 6496 edbd
00000090: 8860 af3d 70b5 763d fd93 a73d 04fa 5f3e
000000a0: e07c 36be 7e34 7a3e 3925 033e 63b2 e2be
000000b0: e843 18bd eb7b fd3d 80f7 803e 1be3 8fbd
000000c0: 2328 2cbf 2177 81be 0ef1 6d3e 6e19 22be
000000d0: 56e1 c8bd 5a98 7fbe 153b 893e 4c19 b4bc
000000e0: d1c3 443e 29fa 833d 3c10 e93e aedf 4fbd
000000f0: 1c2f cfbd b13c 9c3c ee0a 363d 97ff 82bd
00000100: 0ad8 9cbd 4309 513e 9eeb 503e d3ee d9bd
00000110: 6c74 163e a46c e93d c27f 40be 5cf4 3ebd
00000120: bc6f 1f3e 953d 903e 8cb4 803e 6025 3a3f
00000130: 0e2f 643e 7bda c8bd 2e2e c53b 3f30 0e3e
00000140: 75a6 c63c b52b 07be 726c 7ebe 1239 a1bd
00000150: a2bf 2dbe 8cdd 65be 1dfa 4e3e 8b22 543e
00000160: c71a 1d3e 4d28 7fbc 6d88 17be fb83 d7bd
00000170: f619 5b3e 77fa 3b3d 9ad6 e63d a364 073e
00000180: fab7 44bd 8b92 bc3e 0028 e53a 4348 31bd
00000190: ec89 c43c c29d 7c3e ef0a 0c3d ad0a ebbc
000001a0: dabf 73be a99b e23c b2f8 b8be b23d 3e3f
000001b0: 289c 1b3e 661f 143e c510 39bc 39cd 06be
000001c0: 53e7 5fbd ff4c 0b3e aa93 6c3e 76c5 72be
000001d0: 9aed 9d3d c0ad 1cbe c3dc 16be 7470 fa3d
000001e0: 85be 05bd 37ad 1bbd f990 3d3f e86b b7bc
000001f0: 8030 4c3e d691 f3be 3f7e 0e3e 8dde 7e3f
00000200: ea39 453e 0310 aebe 1ca0 7d3e 74dd 81be
00000210: 77f8 29be 0053 c5bd e7ed 2f3d 8af0 363e
00000220: 58d8 89be 8ce9 ce3d a1d1 8bbe f4c8 503b
00000230: 22e4 143e 72f7 193f c8f2 c73d aaf1 823f
00000240: 660a 8e3d 4ec6 a93d 6475 82bd 9e80 973f
00000250: a594 1cbf 4063 4cbd d1b5 7ebe cf5b 22be
00000260: 9bfc 4c3e 1938 29bd 2db5 603e a085 f8bc
00000270: 2040 4c3e 3557 05bf 5a79 c33e 7a15 77be
00000280: f969 29bd c479 1a3d 98c0 3f3e 68f3 e43e
00000290: 4b42 cb3f 7053 b5bc a8f5 6337 9502 6ebe
000002a0: 273a 56be 51c5 f23d 7c3c 93bd 334f b2be
000002b0: 0898 473e 59e2 16be d143 023f b10f b43e
000002c0: 4922 dbbd a2f3 a13d e8a8 15bd ec01 f8be
000002d0: dabf 893f 1c18 f63d 8d93 fbbd a4e3 40bd
000002e0: ffe7 5dbe c11d 1d3e 7a12 e53e 654a e338
000002f0: 8045 5c3b 4c55 6dbf 4da3 2f3e add8 3abf
00000300: 560e 083e 8b50 553e e099 973c 06ba a23e
00000310: 3ecd 6e3d 00a5 c53b 71f7 4e3d 53be 2ebe
00000320: b310 64be 0af4 2fbc 5de7 d93d b4b0 71be
00000330: ca29 10be 5047 853f cbf7 ab3f 7a2b 0f3e
00000340: 1e0c 2b3d b035 73bd c852 0abd ddb9 eabd
00000350: a4a0 a3bd 64e3 35be 51c7 00bd 76ba fbbd
00000360: 61a1 15be 56bd ae3e 5214 a83f 6768 413f
00000370: 6434 db3d ac47 3bbe c76b 023e 5e44 e0bc
00000380: f84d 063c b90b 263e 72d4 7c3e dd57 75bd
00000390: 1b48 18be f23d 45be 3c14 bfbd c364 c8bc
000003a0: bf1c 36be 9861 83bd e23d b9be 9f90 373f
000003b0: 5e02 003e cc86 853f f575 f7be e8ac 583f
000003c0: 3491 31bf 9f40 863e 4ed3 593e 68b8 223e
000003d0: c7b9 14be 4cd2 67be b7f8 0c3e 5b3a 223d
000003e0: bb40 443d 5c0a d43d b88d febd 4f37 603e
000003f0: 30af 74bd 9e3c 15be efa1 77bd de9e c3bd
0.1941199 0.30360562 0.24113283 0.20486726 -0.23782434 0.13495368 0.019957433 -0.16258729
-0.19306064 -0.20818207 -0.48102182 0.08659491 0.19561803 1.3699088 0.2530672 -1.1345222
0.22797814 -0.4322811 0.09848574 0.060470596 0.08246065 -0.14811617 -0.13134657 -0.12512548
0.18153824 0.17142911 -0.2518677 -0.66768414 -0.041555047 -0.18101303 -0.104404755 0.000960201
0.10942193 -0.3487509 0.0674465 -0.1160095 0.08563334 0.060231626 0.081825234 0.21872717
-0.17821074 0.24434087 0.12807168 -0.44276723 -0.037174135 0.12377151 0.25188828 -0.07025739
-0.67248744 -0.252862 0.23236486 -0.15830013 -0.098086044 -0.24960461 0.2680289 -0.021984719
0.19215323 0.06444199 0.45520198 -0.050750427 -0.10116407 0.019071909 0.044444017 -0.06396406
-0.07658394 0.2041369 0.20402381 -0.10641255 0.14692849 0.11397675 -0.18798736 -0.046619758
0.15569967 0.28171983 0.25137746 0.7271328 0.22283575 -0.09807297 0.006017468 0.13885592
0.024249295 -0.13200267 -0.24846056 -0.078722134 -0.16967633 -0.22447795 0.20212598 0.20716302
0.15342246 -0.015573573 -0.14798136 -0.1052322 0.21396622 0.04589316 0.11271401 0.13221984
-0.048027016 0.36830553 0.0017483234 -0.043281805 0.023991548 0.24669555 0.034190115 -0.028691614
-0.23803654 0.027662115 -0.3612724 0.7431289 0.15196288 0.14465103 -0.011295502 -0.13164224
-0.054663967 0.1360359 0.23103204 -0.23708138 0.077113345 -0.15300655 -0.14732651 0.1222848
-0.032652397 -0.038006987 0.74049336 -0.02239032 0.19940376 -0.47572201 0.13915347 0.99558336
0.19260374 -0.3399659 0.24768108 -0.25364268 -0.16598688 -0.096349716 0.04295149 0.17865196
-0.2692287 0.10103139 -0.27308372 0.0031858059 0.14540151 0.60143197 0.09763104 1.023
0.06935577 0.08289777 -0.06370047 1.1836126 -0.61164314 -0.04989934 -0.24874045 -0.15855335
0.20018236 -0.041313265 0.21944113 -0.030337155 0.19946337 -0.5208619 0.3817852 -0.24129286
-0.04136083 0.03771378 0.18725812 0.44716954 1.5879606 -0.022134513 1.3587451e-05 -0.23243172
-0.20920621 0.11854041 -0.07189271 -0.3482605 0.19491589 -0.14734782 0.5088473 0.35168222
-0.10699899 0.079077974 -0.036538035 -0.48438966 1.0761673 0.12016317 -0.122840025 -0.047092095
-0.2167053 0.15343381 0.4474066 0.000108380606 0.0033610761 -0.9270828 0.17152138 -0.7298687
0.13286719 0.20831506 0.01850599 0.3178255 0.058301203 0.0060316324 0.050528947 -0.1706479
-0.22271995 -0.010739336 0.10639832 -0.23602563 -0.14078441 1.0412388 1.3434995 0.13981429
0.041759603 -0.059377372 -0.033770353 -0.11461232 -0.07989624 -0.17762524 -0.031440083 -0.12291424
-0.14612342 0.34128827 1.3131201 0.7554993 0.10703352 -0.1828906 0.12736426 -0.02737635
0.0081973 0.1621541 0.24690416 -0.059898246 -0.14871256 -0.19261912 -0.09330031 -0.02446211
-0.17784403 -0.06415099 -0.36180025 0.7170505 0.12500903 1.0431762 -0.48332182 0.84638834
-0.6936219 0.26221177 0.21272013 0.15890658 -0.14523993 -0.22638816 0.13766752 0.039606433
0.047913294 0.103535384 -0.124293745 0.21896099 -0.059737384 -0.14573905 -0.060457166 -0.09551786

net2.0.bias f4 [64]
00000000: 151b 443e d862 b13d 2322 163d c27e 683e
00000010: a8cc 36be ff34 fbbd 8286 253e cb8f 803e
00000020: 5c01 163e 4e4f 0dbe 8c12 113e accf 983b
00000030: 158f f8bd 54ef 9f3e 72b3 c7bd f1bc 8abd
00000040: a9e7 36be 4cde 813e 3c76 03bd 35ba 89bd
00000050: d559 563e c1da c8bd e441 0ebe 5d64 5ebe
00000060: 66a7 0a3e bb4b 753e c0b1 4ebe e8b1 12be
00000070: f5cf 25be f0a3 653e dbb3 1f3d 37d3 22be
00000080: 8e2e 53bd ec76 823e 930b 13bd d3ec 47be
00000090: e212 aabd 4f18 bb3d b2e9 29be e8f5 12be
000000a0: 82e2 46be 9f6f 833e 81fb 21be 0bdf 983d
000000b0: dae5 1f3e 48e9 213e ae9a 4abe 5145 273e
000000c0: 47b0 69be 93b4 56be fee7 f0bd 266d ca3c
000000d0: 10c5 d63d 5174 cebd 1ad4 11be 4e34 ffbc
000000e0: 74c1 52be 8dfb 493e c32b 8d3d 7f53 93bc
000000f0: c8dc 27be ec3d 3f3e 0b3a dc3c 5361 883e
0.19150956 0.08661431 0.03665365 0.22704604 -0.17851508 -0.122659676 0.16164592 0.25109705
0.14648956 -0.13799784 0.14167231 0.0046634283 -0.12136666 0.3123728 -0.09751023 -0.06774319
-0.17861809 0.25364912 -0.03209518 -0.06724969 0.20932706 -0.09807349 -0.13892323 -0.21717973
0.1354042 0.2395467 -0.20184994 -0.14325678 -0.1619261 0.22425818 0.038989883 -0.15900885
-0.05155807 0.25481355 -0.03589971 -0.19523935 -0.08304383 0.09135496 -0.16593054 -0.14351618
-0.19422343 0.25671098 -0.15818597 0.07464417 0.15615025 0.15811646 -0.19785568 0.16335036
-0.2282115 -0.20967321 -0.11762999 0.02471025 0.104868054 -0.10080779 -0.14241067 -0.03115287
-0.20581609 0.19724865 0.068931125 -0.01798415 -0.16392815 0.18675965 0.026883146 0.26636752

net2.2.weight f4 [64, 64]
00000000: 26dd 403e 9749 05bf 4b50 98bc c0c6 d7be
00000010: 78ba 193e 4812 31bc cb7a 17bf 7fdc c13c
00000020: 8b4c 2a3e ffe9 87bd da57 9dbc 8ba5 363d
00000030: 11a3 29bd 6ba0 a83e 15dd a2be 8906 e4bd
00000040: 2790 c03d 90cc 67bc d7c0 94bb f2e9 eb3d
00000050: da8a dcbc e84f 49be d034 ffbd 9507 06be
00000060: ba02 b1be ab8b e3bd 9add 0ebe 2130 933e
00000070: aee0 1c3e 0495 233c 10d0 e5bd 2eef c83c
00000080: 2a64 e8be ebce e53d 70d7 ce3c fea2 0d3e
00000090: a6a9 683e 6001 5e3d 92d7 d7be 7280 303e
000000a0: a68d a33d c2ca 4bbf 6913 2d3e 4b7e acbd
000000b0: c1c7 91bf e58c 22bd 3358 c8bf ca09 cbbe
000000c0: 1560 69bf b551 623d 9509 983d 4a3a 15be
000000d0: b8fb b93d ebcf 2ebd 90a9 2c3d 8dd3 88bc
000000e0: 3f0c b73c afb9 2e3e 82e8 633c 07ef f6bd
000000f0: ab86 ec3d c2cf 26bf ca45 8dbe e6b8 4ebd
00000100: 3bd1 eabc 70c9 a33d 7f9d 333d 32ae 063f
00000110: 1930 713d a58b cc3d 426f db3e f258 283c
00000120: 4807 4cbd 911f 77be 96b4 27be 0d4f 40be
00000130: e9a9 02bd ba6d 823a cbef 703e 2ac1 103e
00000140: 89f9 3ebe 8f0a 193d 278f dcbd f0f5 173e
00000150: a7f2 06be 2cbe dfbd 6231 5d3d d10e 013e
00000160: ba73 1b3e 9902 283e ccae 083e a379 f8bd
00000170: 48f1 b8bd 1b32 87bc 6de9 263e 46e5 93bd
00000180: ed27 d23e fc9c 333d 41b0 b33c 9807 efbc
00000190: af32 fe3d 2b48 113d 6d6e d53e 9880 073e
000001a0: 1b5a 443d c65f 923e ecda 3e3e 35b6 0dbd
000001b0: 847f 033f a030 0bbe 46b9 873e 7513 963e
000001c0: 0648 a33d 1df1 33be 0b8e d3bd 2903 113e
000001d0: 3c9d a3bd a255 263e a6a3 18bd 6e1f 2e3e
000001e0: 4c09 233e bee2 b63d 9d1e 243e c64f d9bc
000001f0: 0f33 b13c a8ca 963e 7934 4d3e 6ad2 c93d
00000200: be53 3a3c d092 993d d04a 0f3e 2822 b83e
00000210: a270 2b3e 0140 26bd 594a b53e 2ee3 d73d
00000220: 0bea 15bc b984 0abe b283 8bbe 1922 2ebe
00000230: b885 293d 940b 893d ba31 6e3e 1a5c a83d
00000240: ac6f c2bd e7a9 143e 43af 34be 905b 703d
00000250: b12d 2dbe 63ff f6bd d50c bb3d 7ef0 d7bd
00000260: 9cab 983d f857 763e da5d 09bd 9833 5abd
00000270: d294 01be 3654 123e a68d c53c 3d51 463d
00000280: 1b91 743e e891 073e 77ee 60bc 29cd e93d
00000290: 2905 483d 3a4c cb3d ce63 b73e f8fb 53bc
000002a0: d0a5 f4bb 5159 6d3e c06c 733e ab6b d0bc
000002b0: fc52 0a3f a05b 67be 73b9 653e c20f 983e
000002c0: 9fa1 863e 9a3c 85bd dea8 43be b45f 223e
000002d0: 91ed 75be 5e01 ffbb e159 ef3d 9315 c33d
000002e0: 3f52 bb3d ea2f e33c f5fe d43b fba6 a33d
000002f0: 08f3 77bd 592f d53e b340 6f3e 23e1 1fbd
00000300: 487e 3d3c ab57 37bf c448 c43d 8beb 18bf
00000310: 5ec4 a7bd fc71 be3d 410f 48bf 0726 3f3d
00000320: 9804 003e a70c 9a3c efc4 f53d 5057 043d
00000330: 509d 09be cbfd ccbd 854f 66be 1d05 1cbe
00000340: 822a 493d 05c5 27bd 6244 7abd 0755 af3d
00000350: 681d 0b3d a1b2 5a3c 7c27 e63d 16e1 8cbd
00000360: 2bf4 e3be db73 78be 78d4 85bd 900c e33e
00000370: 156f 0a3d 3a97 56bc 0b3e 91be c540 d73c
00000380: a6bb ddbe 47eb 7cbd 8014 3dbc af32 0e3e
00000390: 1471 033e b305 d03c 43da d8be 7460 a0bd
000003a0: 38b7 9c3d 11f4 09bf 11a4 b8be a356 cd3d
000003b0: 0cf3 f8be fc0c d1bd b19d 2ebf 59b4 98be
000003c0: 3979 81bf 636e 4c3e 7dc3 3cbd 785e 173e
000003d0: 2c6e 0dbd 32db a1bc e8a1 11bd 141c f7ba
000003e0: deaa d13d 4ff7 81be 6ccf 4abd 9f5b 99bd
000003f0: 9508 8bbe 5618 fabe dc04 19bf faf7 093e
0.18834361 -0.52065414 -0.018592974 -0.42143822 0.15012538 -0.010807581 -0.5917174 0.023664711
0.16630761 -0.06636428 -0.01920693 0.044591468 -0.041415278 0.3293489 -0.31809297 -0.11134059
0.09402495 -0.014147893 -0.00453959 0.11519231 -0.026921678 -0.19659388 -0.12461245 -0.1308883
-0.34572393 -0.11110624 -0.13951722 0.28747657 0.15320083 0.009984259 -0.112213254 0.024528112
-0.4538892 0.11221107 0.025249213 0.13831708 0.22720966 0.05420053 -0.42156655 0.17236498
0.07986002 -0.7960626 0.16901936 -0.08422526 -1.1389085 -0.03968515 -1.5651916 -0.39655906
-0.91162235 0.055253703 0.074237026 -0.14573017 0.09081215 -0.042678755 0.042153895 -0.016702438
0.022344707 0.1706302 0.013910415 -0.120573096 0.115491234 -0.65160763 -0.27592307 -0.0504693
-0.028664222 0.079974055 0.04385137 0.5260955 0.05888376 0.099875726 0.4285832 0.010275112
-0.04981163 -0.24133135 -0.16377482 -0.18780155 -0.03190032 0.0009950914 0.23528974 0.14136186
-0.18649878 0.037363585 -0.10769492 0.14839911 -0.13178502 -0.10924944 0.054002173 0.12603308
0.15180865 0.16407241 0.1334793 -0.12132575 -0.09030396 -0.016503384 0.16299982 -0.07221465
0.41046086 0.043850884 0.02193463 -0.029178426 0.12412011 0.035469215 0.4168581 0.13232648
0.047937494 0.28588694 0.186382 -0.034597594 0.5136645 -0.13592768 0.2650854 0.2931172
0.07972722 -0.17572446 -0.10329827 0.14161362 -0.079889745 0.16243604 -0.037265442 0.17004177
0.15921515 0.089299664 0.16027303 -0.026527297 0.021630792 0.2945149 0.20039548 0.098545864
0.011372505 0.074987054 0.13993382 0.3596356 0.16742185 -0.040588383 0.35408285 0.10541378
-0.0091500385 -0.13527192 -0.27248913 -0.17005195 0.04138729 0.066916615 0.23261157 0.08220692
-0.09493956 0.14517938 -0.17644982 0.05868107 -0.16911961 -0.1206043 0.09133307 -0.10543917
0.07454607 0.24056995 -0.03353677 -0.05327186 -0.12654427 0.14289936 0.024115395 0.04841732
0.23883478 0.13239253 -0.013728729 0.11416084 0.048833046 0.099266484 0.35818332 -0.012938492
-0.0074660555 0.23178603 0.23771954 -0.025441965 0.54032874 -0.22593546 0.22434025 0.29699522
0.26295182 -0.065056995 -0.19107386 0.1585682 -0.24016406 -0.0077821454 0.11687065 0.09525599
0.091465466 0.027732808 0.00650012 0.07990833 -0.060534507 0.41637686 0.23364525 -0.039033066
0.011565752 -0.71618146 0.095841914 -0.5973441 -0.08191751 0.092990845 -0.78148276 0.046667125
0.12501752 0.018804861 0.12000453 0.03230983 -0.13438916 -0.10009345 -0.22491272 -0.15236326
0.049112804 -0.040959377 -0.06110037 0.085611396 0.03396359 0.0133482525 0.11238 -0.06878869
-0.44522223 -0.24262945 -0.06534666 0.44345522 0.033797342 -0.013097579 -0.28367648 0.026276002
-0.43307227 -0.061747815 -0.011540532 0.13886522 0.12836105 0.025393343 -0.4235402 -0.07830897
0.07652134 -0.5388804 -0.36062673 0.1002629 -0.4862293 -0.10207555 -0.6820937 -0.29825094
-1.0115119 0.19963984 -0.04608487 0.1478213 -0.034528896 -0.01975784 -0.035554796 -0.0018852972
0.102376685 -0.25383994 -0.04951422 -0.074881785 -0.27154985 -0.48846692 -0.5977304 0.13473502

net2.2.bias f4 [64]
00000000: 3dfb 573d 87cb 3c3e 5fb1 78bc 3d97 a83d
00000010: 29c3 e5bc 289a aebd fbf1 883c d98b 9b3d
00000020: 7cdb b23c 3c95 b13d d6a3 7f3d 232a 043e
00000030: 79d1 483d 5944 aabd 7570 143e 8288 c33d
00000040: df15 d63d 0a2c 2a3e 32b0 87bd 4c26 093e
00000050: 84cb b93d 4c61 b23d 29fa 183d de98 0e3e
00000060: 8cd7 443e c9f0 243e 26c1 0f3e 42a9 a33d
00000070: b03e 003e 802d 113c 6d1c dc3d 1c1c 3e3e
00000080: eef3 b3bc 0de5 863d 7afe ca3d 4439 093d
00000090: 2921 973d 7bf1 023d 0ee6 84bd 0a0b 193d
000000a0: 29b7 553d ff63 25bc 9091 47bb fff1 223e
000000b0: 0c14 d03d e426 a83d 2818 85bd caad 913d
000000c0: d56a 83bd 2ac3 e73d de0a ef3d 801d b23d
000000d0: 97ed 153e c3c3 bfbd f0ee bd3d ef01 633d
000000e0: 3f50 f23b a866 34bc 641f 7d3d 8d12 e9bc
000000f0: 0c32 ddbd 4346 373e 6627 2a3d 8b5b ccbd
0.052729834 0.18437015 -0.015179007 0.082319714 -0.028047161 -0.08525497 0.016716948 0.07595033
0.021833174 0.08671042 0.062412106 0.12906699 0.049027894 -0.083138175 0.14496024 0.09547521
0.1045339 0.16618362 -0.066254035 0.13393515 0.09072021 0.08709964 0.037347946 0.13925502
0.1922285 0.16107477 0.14038524 0.07991268 0.12523913 0.008860946 0.10747609 0.1856541
-0.0219669 0.06586657 0.09911819 0.03350188 0.07379372 0.031968575 -0.06489192 0.037364043
0.05217663 -0.010094642 -0.0030451752 0.15912627 0.10160074 0.08210543 -0.06498748 0.07113226
-0.06416861 0.113165215 0.116719946 0.08697033 0.14641415 -0.093635105 0.09274089 0.055421766
0.00739482 -0.011010803 0.061797515 -0.028451229 -0.10800561 0.17897896 0.04154148 -0.09978398

net2.4.weight f4 [1, 64]
00000000: 3b8e 9e3f e965 4cbe e0f1 88be a9a2 5d3f
00000010: cf79 453f c9b7 2d3f a7ba 833f c4b1 81be
00000020: 76bf 93be 6fd4 3dbe dfd9 3cbe be4b 85be
00000030: 5fde 323f 2d96 1a3f ad1e 59be 0cb6 66be
00000040: 1595 313f 70c6 7bbe 0e18 283f 8c58 f83e
00000050: d244 9fbe 7dde e13e 3361 83be d091 7abe
00000060: 9858 24be a6cb 0fbf 4906 2b3f 388a 31be
00000070: 0a7b 4dbe 79be 1c3f e637 19be 79bf 14be
00000080: 7ead 6f3f c9a0 37be ba3f 8c3f 3a95 ae3f
00000090: 82bb 94be 7ece 123f 3cf8 183f 4550 113f
000000a0: 6f36 15bf 6eae 21be d6e9 a83f 349a 4ebe
000000b0: 5d0e c23e ce32 43be 9729 ed3e 00c3 103f
000000c0: 3112 1a3f a28c 4bbe 8c47 5fbe 91a9 083f
000000d0: 7a38 36be 4c25 c13f a9a6 44be 773d 45be
000000e0: aab3 54be 4ce2 93be 265e 983f 1ea9 52bf
000000f0: c84c 613f 4345 52bf 98a8 623f c69a 9f3f
1.2387155 -0.1996075 -0.26747036 0.86576325 0.7713899 0.6785856 1.0291337 -0.25330937
-0.2885701 -0.18538068 -0.18442486 -0.2603435 0.6987056 0.603854 -0.21203108 -0.22530383
0.69368106 -0.24587417 0.65661705 0.48505056 -0.31107193 0.44115058 -0.25660095 -0.24469686
-0.16049421 -0.5617012 0.66806465 -0.17337883 -0.20066467 0.6122814 -0.1496273 -0.14526166
0.93624103 -0.17932428 1.0956948 1.363929 -0.29049307 0.5734633 0.59753776 0.56763107
-0.58286184 -0.15789196 1.3196361 -0.20176011 0.37901583 -0.19062349 0.46320793 0.56547546
0.6018401 -0.19877866 -0.21804637 0.5338374 -0.17794982 1.5089507 -0.19204201 -0.19261728
-0.20771661 -0.28883588 1.1903732 -0.822893 0.88007784 -0.82136935 0.88538504 1.2469108
