log/GC_SAC/cannot_used_lidar/maze3Env/20210805-1502/GC_SAC_HER_critic.pth (torch_old, 50566 bytes, 10 tensors)

net1.0.weight f4 [64, 28]
000000 69 23 8f be 1b 7a aa be 80 13 c3 3b 3e cf 65 be
       -0.27956703 -0.33296284 0.0059532523 -0.22442338
000010 49 00 c4 3c e0 a6 ea bd e6 38 34 3d 9b b3 c5 3c
       0.023925917 -0.1145761 0.043999575 0.024133494
000020 fb 7a eb 3c d7 f5 93 3c c6 4e 4c 3d 09 a1 a1 3d
       0.028745165 0.018061562 0.04987981 0.07892043
000030 05 11 30 3e ef 17 dc 3d 7f 4c e8 bd e0 86 09 3c
       0.17193992 0.107467525 -0.113427155 0.008393973
000040 53 e4 cb bd 10 ef 6e bd 1c 07 37 bd 72 6b 7c 3d
       -0.09955659 -0.058333457 -0.044684514 0.061625905
000050 11 ff 8a bd 7b dd 2d 3e c8 2f 7a bf c7 ef a9 3e
       -0.06786931 0.1697902 -0.9772916 0.33190748
000060 af 9f 27 be 9b e4 59 3e de e1 1e be 53 a5 13 3e
       -0.16369508 0.21278612 -0.15515849 0.14418535
000070 d9 21 c5 3e 8a e3 14 bf ce 0b a8 3d e9 96 03 be
       0.38502386 -0.581597 0.082053766 -0.12850536
000080 ca 68 12 be 5d 45 2b 3e 95 e5 13 bd 58 5e 8a bd
       -0.14297786 0.16725679 -0.03610762 -0.06756276
000090 dc 42 f0 bd 83 86 75 3d 0a 3a 8f bd 3a dd a6 bd
       -0.117315024 0.059942733 -0.06993492 -0.08147664
0000a0 10 27 11 3e 9e eb c0 3d 64 a4 95 3c e4 ab 3c 3e
       0.14175057 0.094199404 0.018266864 0.18424946
0000b0 f2 76 46 3c 61 ba 13 3d f6 3b df bd fa 77 1b 3e
       0.01211332 0.036066417 -0.109001085 0.15182486
0000c0 e0 27 05 be a0 83 97 3d 6c f5 39 3e dd a8 82 3e
       -0.13003492 0.07398152 0.18160027 0.25519457
0000d0 ef fd 16 3e d4 e8 ed 3d e2 47 00 be 69 5c 2c bc
       0.14745305 0.11616674 -0.12527421 -0.010520079
0000e0 c5 10 f2 3d a9 b4 c5 bd d0 fb 50 bd 0f c4 45 be
       0.11819605 -0.09653599 -0.051021397 -0.19313072
0000f0 1e c9 9f 3d a0 28 8b 3b e9 fa 2f 3e dd 0a a0 bd
       0.07802032 0.0042467862 0.17185558 -0.07814572
000100 16 92 08 3c af 76 fb bd a7 6c 03 be 37 6d bd bd
       0.008335611 -0.122784965 -0.12834416 -0.09249347
000110 a7 46 90 3d e7 17 04 be c9 75 14 be 1d e6 77 bd
       0.07044726 -0.12899743 -0.14498056 -0.060522188
000120 ff 9b 87 3d 01 1d ea 3d a3 c3 49 3e a1 94 d6 3d
       0.06621551 0.11431313 0.19703536 0.104775675
000130 ca 42 f4 3c bf d2 e1 bd af 7a 60 be f6 b9 20 3e
       0.029817004 -0.11026525 -0.219218 0.15695938
000140 80 ce 4f bb a1 cd e8 3f a3 76 c1 bd 48 15 ca 3f
       -0.0031708777 1.8187753 -0.09446456 1.5787745
000150 c9 89 00 bf 75 ee d3 3e b3 31 1a 3e c5 29 f3 3d
       -0.50210243 0.41392866 0.15058021 0.11873201
000160 af 65 96 be 2b 89 18 3e 48 c9 8b bd 5c bf 3e be
       -0.29374453 0.14896075 -0.06825501 -0.18627685
000170 10 39 b2 bd d8 60 41 bc 30 7a 42 be be 3b 65 bd
       -0.0870229 -0.0118028745 -0.18991923 -0.055965178
000180 70 e5 00 3e 34 5f aa 3d 7c ba 55 3c d2 9a 27 be
       0.12587523 0.0831894 0.01304495 -0.16367653
000190 1c 01 1f 3e 9c 19 44 3d fc 60 24 3e fc 12 89 bd
       0.15527767 0.047875986 0.16052622 -0.06693074
0001a0 08 36 31 be a2 f7 28 bd 30 49 3c 3e 35 35 ec be
       -0.17305768 -0.041251786 0.18387294 -0.46134344
0001b0 1e 61 10 be 4d 91 b6 be 07 1d 31 3e 6a 0f 7e 3e
       -0.14099547 -0.3565773 0.1729623 0.24810567
0001c0 fa db 16 3f bd d7 bc be 84 c9 14 bd 83 e4 c7 3d
       0.5892941 -0.36883345 -0.036324993 0.09760382
0001d0 b4 1a 9f bd e0 03 1c bc ea 7c cb bd 77 bb 18 3e
       -0.07768765 -0.009522408 -0.09935935 0.14915262
0001e0 22 a2 4a 3d 5c c6 b2 bc ca 69 ce bd 06 79 75 bd
       0.04947103 -0.0218231 -0.100787714 -0.05992987
0001f0 68 a9 29 bd 80 6f 43 bd 9a 38 4e 3d 0d b7 1c be
       -0.041421324 -0.047713757 0.05034695 -0.15304203
000200 f7 f0 16 3e c6 e7 8e bd 60 e0 b2 bc a8 3c 8c bc
       0.14740358 -0.06977801 -0.021835506 -0.017118767
000210 d3 d0 57 3e 14 e4 3a bd ba 39 0e 3e 47 63 d1 3e
       0.21075754 -0.04562767 0.13889208 0.40896055
000220 53 d4 05 3e a1 d5 51 bd 91 bb e5 bc c2 e8 f9 bd
       0.13069277 -0.051229123 -0.02804354 -0.12202598
000230 a6 11 22 c0 8c fb 94 3c 03 32 f6 bd ab 79 e6 bd
       -2.5323272 0.018186353 -0.12021258 -0.11253675
000240 b8 23 67 bd de 46 f9 3d 04 c9 0e bd 0d 37 2e 3e
       -0.05643055 0.1217172 -0.034859672 0.17013188
000250 77 2b cb bd 3f 70 66 3e 97 10 9d bd 71 78 0b be
       -0.099204 0.22503756 -0.0766918 -0.13620164
000260 a3 df 1f 3e 89 b0 f8 bd 86 8c 10 bc fb 12 eb 3d
       0.15612654 -0.121430464 -0.008822566 0.114782296
000270 cd 2d cd bc 19 db cf bd 5d 16 c2 bd 33 1a 93 bd
       -0.025046254 -0.101492114 -0.09476922 -0.071827315
000280 e7 c7 2e 3e 47 46 04 be 52 ae 11 3c 4a 1b 16 be
       0.17068444 -0.12917434 0.008891659 -0.14658847
000290 16 9b cf 3d 33 a5 a1 bf 4b 7b c4 3d a2 62 e9 3f
       0.10137002 -1.262854 0.09593829 1.8233225
0002a0 d2 2a 18 3f 56 ca 64 3e 30 e8 bf bc ca 67 18 3e
       0.5944034 0.2234281 -0.023426145 0.14883342
0002b0 6f ef 33 3e 11 75 3b be ed 00 1f be da 96 51 3c
       0.17571805 -0.18306376 -0.15527697 0.0127923135
0002c0 7e b5 e7 3d 2c 0b 56 3c 2f 87 5f be 66 6e de bd
       0.11313914 0.013064187 -0.21828912 -0.108609006
0002d0 20 90 9d 3d 41 fa 30 be 64 3a aa 3d d2 20 d6 bd
       0.07693505 -0.17282964 0.083119184 -0.10455479
0002e0 ac a1 c9 bd 11 ff 07 3d 4c 15 d8 bd f2 98 a4 3d
       -0.098452896 0.033202235 -0.10550937 0.080369845
0002f0 40 f5 e1 3d c2 30 7a 3c 4f be 7f be 54 64 18 be
       0.11033106 0.015270414 -0.2497494 -0.14882022
000300 db 92 1e 3e 50 fe 9d 3d 73 7d 08 be ea 23 89 be
       0.15485708 0.07714522 -0.13329105 -0.26785213
000310 92 b1 8b 3e 30 40 38 be 94 81 09 bd 63 b6 ac be
       0.27283913 -0.17993236 -0.03357084 -0.337329
000320 30 f7 40 be 6a 83 8c 3d 8b 6b 93 bd 1d d5 5e bc
       -0.18844295 0.06861003 -0.071982466 -0.013600615
000330 b6 27 1b be 9f 88 55 bd bf 50 01 bd 3d 8f 61 3b
       -0.15151867 -0.052132245 -0.031571146 0.0034417652
000340 9f 15 48 bc b2 11 04 3e 50 97 86 3b 66 39 3d be
       -0.012212186 0.12897375 0.0041073933 -0.18478927
000350 bc 7e 07 be 05 33 d7 3d 53 b9 64 bb 31 6c bc 3d
       -0.13231939 0.10507778 -0.00349005 0.092003234
000360 cb f3 2c 3d 66 2f 68 3b ab ad 17 3e ce e9 00 3d
       0.042224687 0.0035428642 0.14812343 0.031472974
000370 07 b9 21 be 82 80 5f bf ab 3f 2c 3f 2f 0a ea 3e
       -0.15793239 -0.8730546 0.6728465 0.45710894
000380 bc 49 a9 3e 2a cd 62 bf f2 79 d5 3d 79 d2 d5 3e
       0.33064067 -0.88594306 0.1042365 0.4176214
000390 c0 55 0c 3e f0 4f 8f 3c 4e 18 01 bc dd 20 d5 bd
       0.13704586 0.017494172 -0.00787933 -0.10406659
0003a0 07 ea 25 3e b3 3f f5 bd 67 13 9a bd 3f f7 9a 3d
       0.16202556 -0.1197504 -0.07523232 0.0756669
0003b0 ae ad b1 bc ea 69 db 3c 69 30 1a be 10 f4 8a 3c
       -0.021689262 0.026783902 -0.1505753 0.016962081
0003c0 63 84 31 3e 31 62 03 bd 2f b7 3f 3e 55 ce 63 3e
       0.17335658 -0.032076064 0.18722223 0.22246678
0003d0 28 6e 7e 3c ef 2e 0c be 58 6f 9f 3d 52 1e 3b 3f
       0.015529193 -0.13689779 0.07784909 0.7309314
0003e0 44 bd c0 bd 42 e7 a6 be cf 0f ad 3e 57 41 25 be
       -0.094110996 -0.3259831 0.33801123 -0.16138206
0003f0 d8 75 6f 3e b6 ae fe bb 24 32 11 3d 45 c7 03 3e
       0.23384798 -0.007772292 0.03544821 0.12868984

net1.0.bias f4 [64]
000000 72 93 7d bd 75 c3 60 3e c2 de d3 3d d6 91 ee bd
       -0.061908193 0.21949561 0.10345222 -0.1164891
000010 48 7f a3 bd e9 cf 64 3e 8f 6f 98 3d 84 3e 29 be
       -0.07983261 0.22344936 0.07443153 -0.16527754
000020 37 04 f5 bd 3d d6 2b 3c c3 f0 bf bd bf c0 06 be
       -0.119636945 0.01048809 -0.093720935 -0.13159464
000030 4f 3e 25 bc dc 80 46 3e 5d 2e 0a 3e 8f 0c 28 3c
       -0.010085656 0.19385093 0.13494249 0.0102569
000040 c1 8b 84 3d e6 db fb 3d 81 b0 59 3e d2 8e 7e 3d
       0.064719684 0.12297802 0.21258737 0.062147923
000050 99 b7 cf bc 97 ac 1b 3e b7 12 6d be a3 76 17 3e
       -0.0253561 0.15202557 -0.2315167 0.1479135
000060 81 37 35 3d 2e 05 a4 3d 85 0a 16 3e dc 7c 18 be
       0.044242386 0.080088004 0.1465245 -0.1489138
000070 a2 7c 49 bd 86 5c 3c 3e 12 d9 f9 3d 32 22 15 bd
       -0.049191125 0.1839467 0.12199606 -0.036409564
000080 d2 a6 ce bd ea 2b 4a be de cf 25 3d 3a 18 13 3e
       -0.10090412 -0.19743314 0.04048144 0.1436471
000090 ec 51 34 3e 7a ab ae 3d f2 3b 26 3e c2 23 46 bd
       0.17609376 0.085288 0.16233805 -0.048373945
0000a0 b0 19 b4 bc 59 76 2d 3e 13 dd 9d bc 63 1b 73 bd
       -0.021984905 0.16939677 -0.019270455 -0.05935229
0000b0 0c a5 07 3e 36 73 0f be 16 5b e3 3c 15 47 4d 3e
       0.13246554 -0.14008793 0.027753394 0.20046647
0000c0 9f 96 00 3e d3 a1 9e bd 21 f4 44 3e 15 76 de 3d
       0.12557457 -0.07745709 0.19233753 0.10862366
0000d0 68 47 a7 3d e9 0f bc 3d bf 0c 2f 3e 8e 28 f3 bd
       0.081679165 0.09182722 0.17094706 -0.118729696
0000e0 0b d2 66 be 48 bb e9 3d d3 5a 84 bc 1c 89 2a be
       -0.22541063 0.11412674 -0.01615659 -0.16653866
0000f0 12 85 94 bd 90 5f 8d 3d 29 4f b8 bd a7 46 e9 3d
       -0.07251944 0.06902993 -0.089994736 0.11390429

net1.2.weight f4 [64, 64]
000000 21 65 9f 3d ce 06 99 bd 58 62 ac bd 12 1e 08 3e
       0.07782961 -0.07472001 -0.08417195 0.13292721
000010 48 e1 e4 bd 97 e4 4e 3f bd be f1 bd 1e 46 45 bd
       -0.111757815 0.8081755 -0.118039586 -0.048162572
000020 26 85 95 3e 3d c5 47 be c3 16 1c 3e 14 2b 88 3d
       0.29203147 -0.19508834 0.15243058 0.066488415
000030 e9 1b 0e 3e dc 9a 86 3a 06 56 e2 3f 03 70 07 3e
       0.13877834 0.001026954 1.7682502 0.13226323
000040 a1 75 a4 3c 22 15 93 be 42 e9 fb 3d fa 82 67 bd
       0.020075621 -0.2872706 0.1230035 -0.056521393
000050 5a 67 a6 bd c2 cb 9e be 9e 7b ad 3d 3a 62 53 3e
       -0.081251815 -0.3101483 0.08470844 0.20642939
000060 0b db c6 3d 0d 05 e3 be be b1 9f be 20 fd c9 3d
       0.09709748 -0.4433979 -0.31190294 0.09862733
000070 cf 91 d9 3b ef 2d 0d be dc 17 e2 3d a3 a4 86 3d
       0.006639696 -0.13787054 0.11039707 0.06574371
000080 28 fa db 3d ab 33 6a 3d 27 68 ef bd 9f cd 37 3e
       0.10741073 0.05717818 -0.11689787 0.17949532
000090 e8 72 6a 3e 61 c6 2a bc 73 10 e4 3d 1e e5 af bd
       0.22895396 -0.010423274 0.1113595 -0.085886225
0000a0 af d2 87 3b b5 2a 24 3d 68 52 b0 bd 54 dc f3 3c
       0.0041449885 0.04007979 -0.08609468 0.029768147
0000b0 5f 9e 79 bd 2a dd 96 3f 3c 35 d3 bd eb 2d 90 3e
       -0.06094205 1.1786244 -0.10312888 0.28160033
0000c0 54 38 9e 3e 65 43 40 3d 18 2b de 3c e0 b4 2d 3e
       0.3090235 0.046939272 0.027120158 0.1696353
0000d0 9f f0 08 bd c6 2b e3 3d 61 69 b2 3c 66 17 cd 3d
       -0.0334326 0.110923335 0.021778764 0.100142285
0000e0 13 f9 80 bc 8e 2b aa 3e 3a 12 30 be 73 3e 33 3e
       -0.015743768 0.33236355 -0.17194453 0.17504291
0000f0 57 cf d0 be 56 aa cf bd 1c 33 1d be ca 7c 04 3e
       -0.40783188 -0.10139911 -0.15351528 0.12938228
000100 44 e9 ab 3d 65 86 ea 3d 24 87 a9 bd cb 3e b4 bb
       0.08394101 0.11451415 -0.08277729 -0.0055006496
000110 60 ad d2 3d 28 b5 45 3b 78 43 3d 3e 1c de 6d 3d
       0.10286975 0.0030167792 0.18482769 0.058073148
000120 60 51 83 3e 45 4a ea bd 2f 82 65 be 7a 07 9c 3d
       0.25648022 -0.11439947 -0.22412942 0.076186135
000130 0d 96 43 3e 61 58 c9 3e 53 0f bf be b3 64 a0 3d
       0.19100209 0.3932524 -0.3731638 0.07831707
000140 5e 41 85 3e 1d 3f e4 bc d8 2d ce bd 61 8b 9f 3b
       0.26026434 -0.027862126 -0.10067338 0.00486891
000150 1d 6b 56 bf 56 55 93 3e a5 73 f5 3d 61 ae c8 bc
       -0.8375719 0.28776044 0.11984948 -0.024497213
000160 6a ed fc bd 67 fa ae 3b 87 04 85 bf 4b db 0e 3e
       -0.12349971 0.005339909 -1.0392007 0.13950841
000170 1c e2 90 3d f3 54 2b 3e 69 59 fd bd 66 9a ab 3c
       0.07074377 0.16731624 -0.12370569 0.020947646
000180 4b e7 21 3e 97 a4 06 be 9c 43 0a 3e 69 9f f1 3d
       0.15810888 -0.13148724 0.13502353 0.11797983
000190 99 21 ec bd 40 d7 3e 3d ad 04 87 3d e1 fc 1b 3e
       -0.11529846 0.046591997 0.06592689 0.15233184
0001a0 5d 92 5b 3e 69 c6 c5 3d f9 a4 d8 3c 75 56 23 bd
       0.21442552 0.09656984 0.026445853 -0.039877374
0001b0 5b 87 6e ba d4 6b 13 3d af 14 23 be bd c8 be 3d
       -0.0009099149 0.035991505 -0.15925859 0.093156315
0001c0 22 82 c4 3c 5a 31 0a 3d eb 41 64 3e 94 2a 1d 3e
       0.023987833 0.03373847 0.2229077 0.15348274
0001d0 36 e0 ec 3c 7c 86 0c 3e 22 d2 00 be 66 5c c2 bc
       0.028915506 0.13723177 -0.1258016 -0.0237257
0001e0 f1 91 9b bd e8 12 50 be d2 c1 db bd 29 1a 11 3d
       -0.075961955 -0.20319712 -0.10730328 0.03542534
0001f0 f9 fb a2 3c 39 18 26 3d 7a b3 89 3d 46 1c 6c bd
       0.01989554 0.040550444 0.067236856 -0.05764415
000200 24 4e 0a be a9 76 06 3f 9e e4 99 3e 9e 19 4d 3e
       -0.13506371 0.5252481 0.30057234 0.20029303
000210 aa 7e 1d 3f 62 c1 ea 3d 98 da c2 3e 4f b3 cb 3d
       0.615214 0.11462666 0.380574 0.0994631
000220 ce f5 09 3f d4 7b 19 be ac 7e 2d 3e 8e 69 be be
       0.53890693 -0.14988643 0.16942853 -0.37189907
000230 58 06 6c bf b9 b8 5d 3e e0 57 43 3e 36 f3 3f be
       -0.9219718 0.21652497 0.1907649 -0.18745121
000240 7f 3d e0 3d ec 7e ee 3e 70 3c f9 3d 8e 6e 22 bc
       0.109492294 0.4658121 0.12169731 -0.009914054
000250 99 53 83 3d 8b c0 14 3e 35 5e 28 3e df 53 36 3c
       0.06412429 0.14526574 0.16442187 0.011128395
000260 d0 ee 14 3e d0 84 2d 3f a0 30 b1 3d 19 7f b6 be
       0.14544225 0.6778078 0.086518526 -0.35643843
000270 ad 27 c2 3e 09 b1 b1 3d 43 21 24 be 61 0f e7 be
       0.37920895 0.08676345 -0.16028313 -0.4512892
000280 6c 59 77 bf 2a a8 b8 bb cc 60 4a 3f c3 be 36 bf
       -0.9662082 -0.005635281 0.7905395 -0.7138483
000290 a1 f2 62 be 69 fc 88 be 02 d0 67 3d 51 4c f4 bd
       -0.22162868 -0.26755074 0.056594856 -0.11928619
0002a0 33 3b a8 3e 9c 95 df be a3 5c 5d 3d 8c 17 37 bf
       0.32857665 -0.4366883 0.054043423 -0.71520305
0002b0 92 96 88 be 3f d4 1e bb c4 51 45 3e 08 b8 01 bf
       -0.26677376 -0.0024235395 0.19269472 -0.50671434
0002c0 95 23 de 3d bc 89 30 bf 3d e0 98 be 64 78 13 be
       0.108466305 -0.68960166 -0.2985858 -0.14401394
0002d0 a6 bb df bc c7 17 0a be 56 92 4a bd 34 97 83 3e
       -0.027311157 -0.13485633 -0.049455963 0.25701296
0002e0 d9 aa fe 3e 26 89 15 3e 25 b3 82 3e 5c 18 82 be
       0.4973972 0.14603099 0.255273 -0.2540921
0002f0 23 76 8c 3e 85 c3 ef 3e ba 29 b6 3e d1 21 12 3e
       0.2743388 0.46828857 0.3557871 0.14270712
000300 5a b5 c5 bd 67 43 fe 3e 6f 1d 23 3e 74 47 1d 3e
       -0.09653731 0.496608 0.15929197 0.15359288
000310 a2 68 12 3f 8b d1 a5 3d e5 16 cb 3e 07 0e 80 bc
       0.57190907 0.08096608 0.39665905 -0.015631689
000320 08 3a e8 3e 41 db d5 3d 54 7c ab 3e 64 d3 f7 be
       0.45356774 0.1044221 0.33493292 -0.48403466
000330 f7 26 23 bf ce aa 3e 3e a9 f9 68 3b ea d3 e2 bd
       -0.6373133 0.18619844 0.00355492 -0.11075576
000340 33 79 cb 3c ea d1 0a 3f 39 89 85 be 24 ef 02 3e
       0.024838066 0.54226553 -0.26081255 0.12786537
000350 15 d0 79 be a9 19 c3 3e fd 6b 98 3e c2 7b 9f be
       -0.24395783 0.38105515 0.2976989 -0.31149107
000360 53 57 6c 3e 46 bc 05 3f 49 88 5c 3e 01 9a a4 be
       0.23080187 0.5224041 0.21536364 -0.32148746
000370 0a 0c bc 3d cd c3 02 3e 21 2e 5e bd 3d c0 ed be
       0.09181984 0.12770005 -0.05424321 -0.4643573
000380 21 83 89 bf 9f b5 46 3e 68 b1 68 3f 31 74 19 bf
       -1.0743142 0.1940522 0.908957 -0.5994292
000390 b3 ec 58 be 1f a1 04 be 4e 00 03 3e a0 1a 31 be
       -0.21184044 -0.12952088 0.12793085 -0.17295313
0003a0 fe 1e 56 3e 27 f4 c8 be 27 86 52 3e 52 26 45 bf
       0.2091026 -0.39248773 0.20558988 -0.770116
0003b0 f3 09 9f be e1 56 99 3d eb 14 c8 3e b4 f1 b9 be
       -0.31062278 0.07487274 0.3907846 -0.36317217
0003c0 07 51 5e bd 82 f2 13 bf 59 0a b0 3c 00 fb 87 bd
       -0.054276492 -0.5779191 0.02148931 -0.06639671
0003d0 fc 1f 2e be eb 56 40 be 2e e4 a6 be 91 4e a7 3d
       -0.17004389 -0.18783157 -0.32595962 0.08169282
0003e0 40 09 75 3f 31 68 0d 3f 24 0b f9 bb d8 40 b9 be
       0.9571724 0.5523711 -0.007600205 -0.36182284
0003f0 e7 d2 9f 3e 0c fd 66 3e 79 12 90 be 0e 76 9a 3e
       0.31215593 0.22557467 -0.28139094 0.30168194

net1.2.bias f4 [64]
000000 40 c3 a1 3c 2d 02 d8 bc b5 0f 74 be ae 5a 11 be
       0.019746423 -0.026368225 -0.23834117 -0.14194748
000010 38 06 c0 bd 01 8b 30 bc 0c d7 e9 3c 13 fe bd 3c
       -0.09376186 -0.010775329 0.028544925 0.023192441
000020 7e 3f c3 bc 48 cc 35 be 84 f2 3d 3d 19 36 40 be
       -0.023833986 -0.17753708 0.04637386 -0.18770637
000030 41 67 13 3e 59 c0 60 3d 0a 04 95 3d 60 21 3a 3e
       0.14394857 0.054870937 0.07276161 0.18176794
000040 51 94 99 bd 73 a1 be 3b bb c4 dc 3c b7 36 bf bd
       -0.07498992 0.005817586 0.026949277 -0.09336608
000050 30 81 3c be b9 c9 e8 bc 17 58 a5 bc aa 8d f0 3d
       -0.18408656 -0.028416501 -0.020183606 0.1174577
000060 e1 f6 6a 3c f7 9a 80 bd 34 f7 b1 bd ce b1 05 3e
       0.014341087 -0.06279557 -0.086897284 0.13056108
000070 c1 fb 38 3d a3 7c ec bd 54 ef a6 3d b8 9f e9 3d
       0.045161966 -0.1154721 0.08151117 0.11407417
000080 68 4d 96 3d c5 81 4f be 36 d3 d3 bd 14 0a 31 be
       0.07338983 -0.20264347 -0.1034302 -0.17289001
000090 49 46 fd bc dc ab 01 bd b0 44 ad bc 21 07 c1 bd
       -0.030917304 -0.03165804 -0.021150917 -0.09425188
0000a0 6d ba 47 be ba 51 94 bc 8b 19 3e 3e dc 3f 0c bd
       -0.1950471 -0.018105377 0.18564431 -0.03424059
0000b0 ae a7 a7 3d da 9e 28 bd ff 0f ac bd d2 54 0a 3d
       0.08186279 -0.041167118 -0.084014885 0.033772297
0000c0 18 e4 f7 bb 01 09 55 3e 39 b0 9c 3d 9c 32 8e 3a
       -0.0075650327 0.20804216 0.07650799 0.0010848823
0000d0 22 97 3d 3c be 91 cb 3d 18 9c c6 3d ac 19 d6 bd
       0.011571677 0.099399075 0.09697741 -0.10454115
0000e0 40 9a e4 bd 32 b1 85 3d 40 25 89 bd 53 e1 4e 3c
       -0.11162233 0.06527938 -0.06696558 0.012626964
0000f0 3c 79 e4 3d 2c bb a4 bd 85 4d 1a be ca fc d4 bd
       0.11155936 -0.08043513 -0.15068634 -0.10399778

net1.4.weight f4 [1, 64]
000000 99 d1 cf be 54 a7 9f 3e f9 3e 34 bf ad 52 8e bf
       -0.40589598 0.3118235 -0.7040859 -1.1118981
000010 ec db 09 bf ee 16 9b be 0d d8 ae be 4d b2 11 3f
       -0.538512 -0.3029093 -0.3414921 0.5691269
000020 7c e2 47 bf 0d 11 01 3f a7 13 66 3e b4 62 2c bf
       -0.7807996 0.5041664 0.22468434 -0.6733811
000030 4a 30 0f 3f 50 2c 5a 3e c4 18 31 bf e9 2a 14 bf
       0.5593306 0.21305966 -0.69178414 -0.57877976
000040 3f d0 a1 3e 3c 4f 3d 3e 20 e0 47 3f 91 07 39 3e
       0.31604192 0.18487257 0.7807636 0.18069293
000050 c3 91 62 bf 88 46 02 bf 29 0f 17 3e 82 a0 36 3e
       -0.88503665 -0.5088887 0.14751877 0.17834666
000060 8d 55 64 3f 6b 90 ad be ea b3 d7 3d a9 3f 59 bf
       0.8919304 -0.33899245 0.10532363 -0.8486276
000070 e6 c3 2f 3f 27 38 26 3e e8 be c2 3e 1c 5d f7 3d
       0.6865829 0.16232358 0.38036275 0.12078306
000080 50 18 5e 3e dd 37 67 be c3 69 f6 be 6a 72 77 bf
       0.21688962 -0.22579904 -0.48127565 -0.96658957
000090 86 f1 16 bf ef f3 9e 3e 0c dc c9 3e 4c ff 64 be
       -0.58962286 0.31045482 0.39425695 -0.22363013
0000a0 24 97 64 bf 4f 3d fb 3e 41 ec db be 02 a2 45 3f
       -0.8929312 0.49070212 -0.42953685 0.7720033
0000b0 1c ab 0f bf 93 9c fa be f9 e6 24 3e 5c b2 02 bf
       -0.5612047 -0.48947582 0.16103734 -0.51053405
0000c0 20 86 8f 3e 0d 81 15 bf a0 e3 93 3e fb da 50 3e
       0.28032017 -0.5840004 0.28884602 0.20396034
0000d0 a4 fc 05 bf f9 54 9b 3e 76 7e 2d 3e 79 fa 84 3e
       -0.52338624 0.30338266 0.16942772 0.25972345
0000e0 21 28 5b 3e 3d 8b 13 3f 2b 1a 82 bf 25 49 8f 3e
       0.21402027 0.57634336 -1.0164236 0.27985492
0000f0 db bb 0a bf 94 58 e7 be 24 b5 f3 be ff f2 7f 3e
       -0.54192895 -0.45184767 -0.47599137 0.2499504

net2.0.weight f4 [64, 28]
000000 33 5d c1 3e 22 3d ad 3e ac 6a f3 bd a0 67 6e 3e
       0.37766418 0.33835703 -0.118855804 0.23281717
000010 fd 32 9b 3e 65 ac 2b 3e 33 bf 09 bd 57 45 11 3d
       0.30312338 0.16764982 -0.033629607 0.03546652
000020 43 85 f6 bd 56 57 e7 3b 3c 87 32 be bb b1 6d 3c
       -0.120371364 0.007059972 -0.174344 0.014507706
000030 5a 09 4c be 91 e7 ae bd c6 1e 48 be b4 5b 99 3c
       -0.19925442 -0.085402615 -0.19542989 0.018720485
000040 6f 5c 8f 3d 34 50 26 3e cf a5 77 3d bd f1 34 3d
       0.07000052 0.16241533 0.06046086 0.044175852
000050 e3 1e 02 bd 95 5d c6 bd e8 e0 0b bd e0 b8 f7 3d
       -0.031767737 -0.09685818 -0.034150034 0.12095809
000060 90 4f b8 3c a3 c9 82 bf ee de b2 3c d3 0f 48 bf
       0.022498876 -1.0217785 0.021834817 -0.78149146
000070 ef 15 35 bf dc c4 b4 3d fd 76 34 3e 70 f1 15 be
       -0.70736593 0.088266104 0.17623515 -0.14642882
000080 83 7d 77 3d 10 32 32 bc 3f 8a 05 3e 07 39 65 3d
       0.06042243 -0.010876194 0.13041018 0.05596259
000090 32 ab df bd bf 39 43 be 15 e8 35 bd b7 23 20 3e
       -0.10921325 -0.19064997 -0.044410784 0.15638624
0000a0 88 02 bb 3d 3e c8 8d bd 2c 04 8b 3d 4d 2c 12 bd
       0.09131342 -0.06922959 0.06787905 -0.03568678
0000b0 01 14 39 be fc 4f d9 bc 12 cc 4b bc c5 b7 35 be
       -0.18074037 -0.026527397 -0.012438791 -0.17745884
0000c0 38 36 ef 3d e0 70 b9 bc 4e bc b3 3e f0 a6 8e bf
       0.11680263 -0.02263683 0.35104603 -1.1144695
0000d0 4a 78 c9 3d 01 ea 18 be 8a ac 0c bc 65 0d f6 3d
       0.098373964 -0.14933015 -0.008586058 0.120142736
0000e0 f8 e3 b2 3e 00 7a 46 3e 76 e2 95 3d 5e b5 d8 3c
       0.3493955 0.19382477 0.073185846 0.02645367
0000f0 a8 ff bc 3d 02 35 b6 bd c6 72 e6 bc 8f 8f 2b be
       0.0922845 -0.08896829 -0.0281309 -0.16753982
000100 c1 58 05 be a6 09 e4 3d ee 7e ea bd 13 33 29 3e
       -0.13022138 0.11134653 -0.11449991 0.1652339
000110 1e 80 70 3c f0 fc 70 bd 6a 38 96 3d 56 d7 cd 3d
       0.014678983 -0.05883497 0.07334979 0.10050838
000120 d1 91 25 be c6 d8 d1 3c 95 53 21 3e ca c4 4d bd
       -0.16168906 0.025616061 0.1575454 -0.0502365
000130 38 be 78 bd 25 11 28 3e 80 8a b6 bf 37 00 de be
       -0.06072828 0.1641279 -1.4261017 -0.4335954
000140 3f cd dd bd 3f b7 3d 3e d6 3a db 3e 54 b3 9c 3e
       -0.10830163 0.18526934 0.42818326 0.30605567
000150 ce ef a2 bf a4 dd 68 3e bd d8 07 3e 53 df 11 bf
       -1.2729433 0.22740799 0.13266273 -0.5698139
000160 87 4c 09 bf 56 62 82 bd 30 04 f4 3b b3 17 13 3e
       -0.53632396 -0.06366412 0.0074467883 0.1436451
000170 75 cb b5 bc b1 15 07 3e 4e 4b 99 bd 81 f7 0f 3e
       -0.022191742 0.13191868 -0.07485066 0.14059259
000180 48 e8 52 3c 1b 30 71 3c 81 6a 93 3c 32 2e 48 3d
       0.012872763 0.014720942 0.017995121 0.04887218
000190 20 c3 c6 bd 28 1a a8 bd 58 74 ee bd 23 ab a3 3c
       -0.09705186 -0.08208114 -0.116432846 0.019979065
0001a0 4d 36 3f 3e b3 d0 15 be fe e4 fe 3d 66 a8 b9 be
       0.18673058 -0.14630394 0.124460205 -0.3626129
0001b0 08 95 89 bd 39 63 e0 3f 55 3f ce bc 43 ee b0 bf
       -0.067178786 1.753028 -0.025176683 -1.3822712
0001c0 4c 10 bb 3e 7d ba 67 3e 68 28 9e 3c 9e c2 83 3f
       0.3653587 0.22629733 0.019306377 1.0293767
0001d0 21 fd 41 3f 90 af e5 3c 46 0e 50 bd 34 f2 6e bd
       0.7577687 0.028037816 -0.050794862 -0.05833645
0001e0 fd 98 90 bc 2a a6 78 bd aa 9b 6f bd 89 f6 a8 3d
       -0.017651075 -0.06070534 -0.058498062 0.08250148
0001f0 1f 6b 86 bc d5 51 da bd 3f a2 20 3e c7 5a 07 be
       -0.016408501 -0.106601395 0.15686892 -0.13218223
000200 89 c4 48 be 45 c3 ce 3c d7 19 55 be 5b a7 1e be
       -0.19606222 0.025239596 -0.20810638 -0.15493529
000210 49 27 dc 3d e1 7f 37 be 9d fe af be de a0 bc 3d
       0.107496805 -0.17919876 -0.34373942 0.092103705
000220 7c a4 ba bd c6 6d 2d bf 3e 92 eb 3e aa 32 01 bf
       -0.09113404 -0.67745626 0.4601001 -0.5046793
000230 b0 2e 07 3f 5a 84 bb be ee 40 90 3d bf dc b1 3a
       0.52805614 -0.36624414 0.07043634 0.0013569816
000240 8c a2 03 3e 54 d7 19 bd ce fa 39 3e 90 ae b5 bc
       0.12854975 -0.03755887 0.1816208 -0.022177964
000250 fb 5d 45 3d ee e7 21 be 01 58 45 bd 2e 8b 03 3e
       0.04818533 -0.1581113 -0.04817963 0.12846062
000260 eb ff 4b bd e1 b5 4f bd ac 85 15 bc 21 3b f1 3d
       -0.04980461 -0.050710563 -0.009126108 0.11778856
000270 35 3d 2f 3d 0e aa 26 be c9 ef 8a bd a1 80 77 bd
       0.04278298 -0.16275808 -0.06784017 -0.060425404
000280 f6 82 1e 3e 70 89 05 be 37 76 b2 bc e1 e8 b6 3e
       0.15479645 -0.1304071 -0.021784885 0.35724548
000290 a8 16 f8 bc 84 47 6e 3e 10 ff dd bd c4 9e 0b 3d
       -0.03028424 0.23269469 -0.10839665 0.034086958
0002a0 7a 45 a5 be 6b 50 bf 3d ed 87 1e 3e 8b a9 2e bd
       -0.3227957 0.093415104 0.15481539 -0.042642158
0002b0 69 71 96 be 72 c3 83 3d 47 e1 0f 3e 3b 8f 39 3e
       -0.293834 0.064337626 0.1405078 0.18121044
0002c0 ee 49 be 3d c6 6a fb 3d 4e 88 cf 3d 78 64 9d bd
       0.09291445 0.12276225 0.1013342 -0.076851785
0002d0 e3 e1 ab bc a8 0f 8f 3d f5 a0 13 3e 78 c4 6a bd
       -0.020981735 0.06985408 0.14416869 -0.057316273
0002e0 57 b4 3d be d8 9b ed bd e9 9c 17 3e cf ae 0e 3e
       -0.18525825 -0.116019905 0.1480595 0.13933872
0002f0 b0 c1 c8 bd 09 d3 1b 3e be 17 bb 3e 17 f7 e3 3e
       -0.09802568 0.15217222 0.3654155 0.44524452
000300 db 4a 2e 3e d8 41 8f 3e 26 05 c1 3e 24 d9 5e 3d
       0.17020743 0.27979922 0.3769924 0.0544063
000310 86 f6 1b bf 94 6c 20 bf 09 de 20 be 6d 57 ee 3d
       -0.6092304 -0.6266568 -0.157097 0.11637769
000320 2c 7a 45 bd 00 0f f3 bc 3a b6 84 bd 6e a5 f1 bd
       -0.048212215 -0.029670238 -0.064800695 -0.11799131
000330 70 46 a9 3d ac 29 87 bd d4 e8 85 bd 2f 58 3c 3d
       0.08265388 -0.06599745 -0.06538549 0.045982536
000340 33 2d 65 bd 92 16 de 3c 06 72 c0 3d dd 7e 0e bd
       -0.05595131 0.027110372 0.09396748 -0.034788955
000350 45 1b 00 3d 80 7c 4a 3e 48 18 aa 3c 4c 7f 3a 3e
       0.031276006 0.19774055 0.020763531 0.18212622
000360 f8 41 b9 3d d2 dd 23 3e 52 a3 ec bd 35 27 be 3e
       0.09045786 0.16002586 -0.115545884 0.37139288
000370 e0 d7 52 3d 36 f0 ec bc d7 19 8a bb 92 ba 6a 3e
       0.051475406 -0.028923135 -0.004214506 0.22922733
000380 f1 2e 22 bc e3 27 37 bd 79 d1 be bd e1 ff 14 bd
       -0.009898887 -0.044715773 -0.093172975 -0.036376838
000390 11 f3 2f be 2d 03 23 be 19 8c e9 bd 3b 43 dd 3d
       -0.17182566 -0.1591918 -0.11403675 0.10803839
0003a0 7b aa f5 bd 05 cd fb 3d cd 4c 19 be 02 15 94 3b
       -0.11995407 0.12294964 -0.14970703 0.004519106
0003b0 d5 12 30 bd 71 f5 e2 bd 3b 9c 83 3d 99 38 f9 3d
       -0.04298671 -0.110819705 0.06426283 0.12168998
0003c0 65 9d cb bd c4 62 a2 3c 7f 81 8d 3d 83 62 25 3e
       -0.0994213 0.019822486 0.06909465 0.1615086
0003d0 2b aa 6c 3d 27 78 d3 bd 74 81 9b be 09 44 9b 3f
       0.057779472 -0.103256516 -0.30372202 1.2130138
0003e0 9b 3d 2c be b6 87 ca 3d e4 c8 ba 3c a1 56 39 3d
       -0.16820376 0.09889166 0.02280087 0.04524863
0003f0 74 f3 c6 3d 77 fc 34 3e 4e fe b3 3d cf 82 a5 3e
       0.09714404 0.17674433 0.08788739 0.32326362

net2.0.bias f4 [64]
000000 3a a0 e8 3d 1e f0 13 3e da 51 83 3d 51 0c 9d 3c
       0.11358686 0.14447066 0.06412096 0.019170912
000010 67 2f 32 3d a1 a3 0a be f5 a3 17 3e 03 d7 b9 bc
       0.043502238 -0.13538982 0.14808638 -0.022685533
000020 5b ea f6 3d 3c 8e 99 3d 49 4b f2 bb e2 e3 06 be
       0.120564185 0.07497832 -0.0073942286 -0.13172868
000030 07 2d 01 3e 0b 49 18 be 79 f4 00 be 8d 77 e3 bd
       0.12614833 -0.14871614 -0.12593259 -0.11106787
000040 b7 05 01 3d 5c 0e be bd 7e 49 e5 bd 62 e9 3c 3d
       0.03149959 -0.092800826 -0.11195658 0.04612101
000050 7d d4 53 3d 8c 17 86 3d 80 e7 14 bd c4 8d 29 bd
       0.051716316 0.0654746 -0.036353588 -0.041394964
000060 16 cf 09 be da 80 1f be f4 7f f4 bc 5e a8 c2 bd
       -0.13457903 -0.15576497 -0.029846169 -0.0950477
000070 81 71 bb bd 26 f1 3f be f9 d6 21 3d 0f 97 2c 3e
       -0.091525085 -0.18744335 0.039511655 0.168545
000080 56 6c b6 bd 70 57 0b be a4 0b ca bd f6 5a 01 be
       -0.08907382 -0.13607574 -0.098655015 -0.12632355
000090 1a d8 13 bd 14 8c d7 3d bf 98 38 bd 84 ca 70 3d
       -0.036094762 0.10524765 -0.045067545 0.058786884
0000a0 4c f3 d2 3d cc 93 13 3e a2 b0 4a be 82 d2 79 3c
       0.103003114 0.14411849 -0.19793943 0.015247943
0000b0 65 4f 39 3e 37 a3 28 be 0c ae 9e 3d 61 7b ec 3d
       0.18096693 -0.16468512 0.077480406 0.1154697
0000c0 1c 4d 0c bd 28 6b 64 3b 65 57 63 3d 19 9a 5c 3e
       -0.034253225 0.003485391 0.055503268 0.21543159
0000d0 63 10 3f 3c cd f5 29 3e f8 12 39 3e 40 4e c5 bd
       0.011661622 0.16597672 0.18073642 -0.09634066
0000e0 0a 1d d0 3c 90 0c 04 3e 86 6b c4 3c ff 97 a0 bd
       0.025404472 0.12895417 0.023977052 -0.07841491
0000f0 fa 25 bf bd 87 6e 80 3d 45 83 56 be d8 2f f8 3c
       -0.09333415 0.062710814 -0.20948513 0.030296251

net2.2.weight f4 [64, 64]
000000 c8 f6 6f 3f f1 b9 48 be 8e e0 09 3e ee a7 47 3e
       0.93735933 -0.19602181 0.13464567 0.19497654
000010 95 08 00 3f ab 05 65 3f 35 23 be bd c5 7e 04 bf
       0.50013095 0.89461774 -0.09284059 -0.51755935
000020 5c 25 6a be 7e ce e7 3e fc fc d3 3c 4f c4 d2 3d
       -0.22865814 0.4527473 0.025877468 0.10291349
000030 cd 77 a9 3e 30 27 40 3e de d1 a2 3e 23 a8 81 be
       0.33099213 0.18764949 0.3180074 -0.2532359
000040 17 92 a6 bf 6c 04 55 3f 48 48 01 3e 8f 2e d7 3d
       -1.3013333 0.8320987 0.1262523 0.10506927
000050 46 cf f2 bd 9d 80 7b be ac 02 3e be 8e 23 5e bf
       -0.118559405 -0.24560781 -0.18555707 -0.86773
000060 61 6c 15 bf 82 4b 31 bf b3 55 8b 3d 73 fe 51 bf
       -0.583685 -0.6925584 0.06803455 -0.82028884
000070 44 1b 67 3d 40 00 3b 3e 06 85 bb 3e 9e 46 15 bf
       0.056422487 0.18261814 0.36624926 -0.5831088
000080 24 12 0a 3e 53 63 9a bb fb 12 1c bf 33 0a 4a 3e
       0.13483483 -0.0047115474 -0.6096646 0.19730453
000090 60 c6 93 bf eb af 18 3e a5 fa f9 3e ec 8a 54 3e
       -1.1544914 0.14910857 0.4882404 0.2075612
0000a0 a0 1c 55 3e 1a c6 9e 3e f3 c3 cc be 4f c5 41 3d
       0.20811701 0.31010514 -0.39993247 0.04730731
0000b0 44 d3 49 bf 79 05 bc be ff 06 8a be b3 8c 17 3c
       -0.7883799 -0.36722925 -0.26958463 0.009249854
0000c0 94 3b b5 bd d1 86 f0 bd e5 15 aa 3e 42 a7 2d 3e
       -0.08849254 -0.11744464 0.3321983 0.16958335
0000d0 c9 41 ae bc 7b cd 9b 3d e6 40 c7 bd 45 15 46 3e
       -0.021271603 0.07607552 -0.09729175 0.19344051
0000e0 41 9b fb 3e f7 46 81 be e6 21 ba 3d 84 b3 68 3e
       0.49141887 -0.25249454 0.09088497 0.2272473
0000f0 7f e0 ee 3c 1c a1 27 be 39 ae c0 3e 04 10 d7 3e
       0.029159782 -0.16370052 0.3763292 0.42004406
000100 2f b1 cb bd e6 23 80 3c 40 01 ed be dd 3e 0d 3e
       -0.099459045 0.015642118 -0.46290016 0.13793512
000110 96 05 02 be 6f 7e f3 3d ba 49 3e 3e ef 09 26 bd
       -0.12697443 0.1188935 0.18582812 -0.040536817
000120 01 10 56 3e 16 e4 bd bd 06 53 49 3e d1 75 1f 3e
       0.20904543 -0.092720196 0.19660577 0.15572287
000130 4f c6 8d be ce f1 c5 3e 86 a7 3b 3e 68 46 12 3e
       -0.2769036 0.38661045 0.18325624 0.1428467
000140 d2 07 68 3d 69 35 5f bd ac df 2a 3e 95 46 e9 bf
       0.056648083 -0.054494295 0.16686887 -1.8224665
000150 b0 14 a5 3c e1 7a 81 bf 8c f0 15 bf 7d cc b4 bd
       0.020151466 -1.0115625 -0.5857017 -0.088280655
000160 fe 2e dc bd 29 c1 13 bd 2e 77 90 bd 1d 5d f4 be
       -0.107511505 -0.036072884 -0.07053982 -0.4772729
000170 76 f1 97 be 83 03 f8 be 17 ac b8 bb 65 95 3f bd
       -0.29676408 -0.4844018 -0.005635749 -0.046773333
000180 ef a9 67 3e d7 fb bb 3e 39 49 da bd 7a 24 1c bc
       0.22623418 0.36715576 -0.10658497 -0.009530181
000190 25 08 8c bd 8e 5a e4 3d f8 1b f6 3d b2 d6 bb 3b
       -0.06837491 0.111500844 0.12017053 0.005732381
0001a0 16 15 a3 3c ba e4 89 3d b4 37 00 3e 41 52 1f 3f
       0.019907515 0.06733079 0.12521249 0.62234885
0001b0 d8 56 af be 91 1a a9 be 68 a9 0d 3d 41 15 e9 be
       -0.34245944 -0.3302808 0.034585387 -0.45524028
0001c0 7f 50 b4 be 0d 7a fb bd 4e be b6 bd f4 f9 9c 3d
       -0.35217664 -0.12279139 -0.089230165 0.07664862
0001d0 20 63 bb 3e c8 c8 7c 3f ee 1c c3 bb e6 0d b4 3e
       0.36599064 0.9874387 -0.0059543764 0.35166854
0001e0 77 87 09 3e 57 93 22 3d 34 d8 3f 3d 23 73 83 bd
       0.13430582 0.039691295 0.046837047 -0.06418445
0001f0 98 de 00 be 31 19 aa 3c 44 c9 69 be a3 74 42 be
       -0.12584913 0.020763965 -0.22830683 -0.18989806
000200 27 92 5b 3d b3 4b c5 3e 53 02 6c bf 16 13 81 3d
       0.05360618 0.38534316 -0.92191046 0.063024685
000210 ba a5 0a 3e a7 27 ab 3e a9 06 f8 bd 1b 9f cf 3e
       0.13539782 0.3342869 -0.12110645 0.40551075
000220 a4 77 7d 3d c8 14 b0 3d e1 be 91 bc d9 93 ba 3e
       0.061881676 0.08597714 -0.017791213 0.36440924
000230 b0 44 15 3e b9 77 77 3e 66 f1 1d 3e 8d b2 1a 3e
       0.14576983 0.24166764 0.15424117 0.15107174
000240 ad ba d5 3c f5 da bd bd af b7 7f be c3 ac 8f bf
       0.02608999 -0.09270278 -0.24972413 -1.1224598
000250 ab 38 06 bd 64 e0 25 bf 14 42 92 bd ab 3f 95 bd
       -0.032768887 -0.6479552 -0.0714151 -0.07287534
000260 76 f0 ff 3d 56 cb bd bd a2 31 11 be c7 c2 19 be
       0.12497036 -0.09267299 -0.1417909 -0.15015708
000270 22 53 ea 3d 6a fa 7b 3e 0d f4 49 bf dd 2b 59 3e
       0.114416376 0.24607244 -0.78888017 0.21208139
000280 e7 72 86 bd 78 41 1f be af c4 8e 3d e0 21 e8 bc
       -0.06564885 -0.15552318 0.06971108 -0.028336465
000290 57 27 d7 bd 35 e4 a3 be 7a 70 da 3e 8a 40 8e 3e
       -0.1050555 -0.32010046 0.42663938 0.27783614
0002a0 8e ab 52 3e 9d f2 96 3e 12 41 05 3e aa 08 a4 3f
       0.20573255 0.29481974 0.13013104 1.2815144
0002b0 8e ee db 3a 12 da 04 3e 1d a0 77 3e 88 e8 23 bf
       0.0016779469 0.12973812 0.24182172 -0.6402669
0002c0 12 e9 67 3e dd c9 4d be a7 9b 01 3e 03 9a 37 3e
       0.22647503 -0.20096536 0.12657033 0.17929845
0002d0 4f 5e a3 be 18 1b a8 3f 39 88 60 3d b6 e9 05 3c
       -0.3190789 1.3133268 0.054817412 0.008173397
0002e0 aa 55 5d be 95 8e 39 3a 5f 5f 9b bd 39 86 4d 3d
       -0.2161471 0.00070784363 -0.0758655 0.050176833
0002f0 0a 1d 4f 3e a6 12 7c 3d 43 40 72 be 09 89 90 3e
       0.20225921 0.061541222 -0.23657326 0.2822955
000300 b3 d7 26 bd 2f e8 26 3c 6f 48 c3 3d 9c dc ee 3d
       -0.04073305 0.010187193 0.095353 0.11663172
000310 03 07 e5 bd 9e cf 2e 3d cf ab a8 bd 62 16 25 bf
       -0.11182978 0.042678468 -0.08235895 -0.6448728
000320 3c 74 00 bf 61 92 19 3a 42 93 f2 3b 3c 21 33 be
       -0.5017736 0.0005858299 0.0074028084 -0.17493147
000330 ee ff 88 be ea bb e0 3d 42 02 01 be 2a a6 94 be
       -0.2675776 0.10973342 -0.12598518 -0.29033023
000340 bb f2 81 bb 7f db 44 be bb 06 97 3d da 6d f1 bd
       -0.0039657033 -0.19224356 0.073743306 -0.11788531
000350 74 ac 78 3d 7a 45 a1 be 3a 40 15 bf e4 ee be 3d
       0.06071134 -0.3149832 -0.58301127 0.093229085
000360 f1 21 65 be 25 21 3d be 2f 73 bb 3d 04 1c 99 bd
       -0.22376229 -0.18469675 0.09152829 -0.07476047
000370 74 50 d7 3c 8a 9b 57 bf 5d a9 f7 3d bf 7f 09 be
       0.02628348 -0.8422171 0.1209285 -0.13427638
000380 29 06 11 3d 97 a4 8d 3d 5c 9f 73 be 2d e4 5b 3d
       0.035406265 0.06916159 -0.2379126 0.053684402
000390 29 93 9d bc 35 66 1c bc ef 6c 46 3c d3 ad 53 be
       -0.01923521 -0.009545852 0.012110933 -0.20671777
0003a0 bd f2 d4 3d 5c ca 07 3e 65 ae 96 bc 2d c5 73 be
       0.10397861 0.13260788 -0.018393705 -0.23805685
0003b0 83 4b 06 bd 7f 23 0f bf c2 2f 26 3d 8e c4 1d bd
       -0.032786857 -0.5591354 0.04057289 -0.038517527
0003c0 15 08 2a be 96 a1 9c 3d 02 09 6a 3c ab 96 a2 bd
       -0.16604646 0.076480076 0.014284374 -0.07938894
0003d0 c9 ac 83 be 1d fc 23 be 21 5c 7d bd 1b d7 f7 3d
       -0.25717762 -0.16014142 -0.06185544 0.12101575
0003e0 35 96 04 3e b5 b6 ff be 39 47 02 3e 2c e3 98 bd
       0.12947924 -0.49944082 0.12722482 -0.074652046
0003f0 39 ae 41 be f3 a6 43 3d ef 46 79 3e 2e da 23 be
       -0.18914117 0.047766637 0.24343465 -0.16001198

net2.2.bias f4 [64]
000000 8e 68 c3 bc d6 de 5b 3c d5 64 83 bd cb 79 2f bc
       -0.023853566 0.013419827 -0.064157166 -0.01071019
000010 e1 5f 23 3e 2a 81 96 bd 60 30 46 3d c0 88 80 bd
       0.15954544 -0.07348855 0.048385978 -0.06276083
000020 ab 92 62 be ea 35 a6 3d 6e 08 01 be e7 2c f0 bd
       -0.22126262 0.08115752 -0.12600872 -0.117273144
000030 e9 8a 2a 3e 69 4f 51 bd a9 82 2c 3c 6f 13 a8 3d
       0.16654553 -0.051101122 0.010529199 0.08206832
000040 e9 a6 9f 3d d5 af 81 3d ce 32 4a bc f3 de 91 3d
       0.077955075 0.063323654 -0.012341214 0.07122602
000050 d7 70 88 bd c3 f1 87 3c 66 52 37 3b 58 ac 56 bc
       -0.066621475 0.016594773 0.0027972697 -0.013102613
000060 7d 36 49 bd 28 a1 10 3e 88 f1 20 bd 68 2f cd bd
       -0.04912423 0.14123976 -0.039292842 -0.10018808
000070 91 01 d9 bd 4a aa 71 be dc f4 a1 bd 79 e0 8d bd
       -0.10596002 -0.23600116 -0.07908031 -0.069275804
000080 ce b7 ee 3d 47 d7 9a bd 5e 5f 97 bd 9b e9 a5 3d
       0.11656152 -0.07560592 -0.07391237 0.08101197
000090 ca 94 b1 bd f7 d5 fb 3d 1e bd aa bd df 37 4b 3d
       -0.086709574 0.1229667 -0.083368525 0.04961383
0000a0 df 97 ed 3d ee 14 a5 3d 55 2d a0 3d 28 73 41 be
       0.11601233 0.08060633 0.078211464 -0.18891585
0000b0 be 67 be 3b 55 30 31 be 09 da 18 3d 75 f9 76 3c
       0.005810707 -0.17303593 0.03731731 0.015074124
0000c0 98 3e 33 3d 01 e9 5f 3d fe 2a 15 3e 7b cb e2 bd
       0.043760866 0.05466557 0.14567181 -0.11073967
0000d0 9e 4a 18 bd bc 5a b3 bb 18 11 24 bd 3f e7 17 bd
       -0.037180535 -0.005473463 -0.040055364 -0.037085768
0000e0 b3 07 49 3d fa 65 04 3e 10 fc c7 3d c1 d6 90 bd
       0.04907961 0.12929526 0.09764874 -0.07072211
0000f0 2e 6f 1a 3e 3b d9 a6 bd 8f c6 3d 3d 74 72 05 3c
       0.15081474 -0.08146902 0.04633194 0.0081449635

net2.4.weight f4 [1, 64]
000000 f8 fd ad bf 5a 6e 1f bf 7a f3 40 bf 51 e7 e0 3e
       -1.359313 -0.6227776 -0.75371516 0.4392648
000010 51 ff ab be 19 b8 2d 3e 4c 3c d6 3e 8b 09 80 3f
       -0.33593228 0.16964759 0.41842878 1.0002912
000020 d6 f6 2c be b0 9e 82 3e fa 5d 66 3e 1c 48 64 be
       -0.16891035 0.25511694 0.22496787 -0.22293133
000030 ec 1d 2c bf 9c 4d d2 3e 21 c1 9a 3e 01 11 a7 3e
       -0.6723316 0.41074836 0.3022547 0.3263016
000040 e7 df 32 bf a7 b4 55 bf 4b e0 7a bf 8b 6f 0e bf
       -0.698729 -0.8347878 -0.97998494 -0.5563895
000050 9c 8a 20 3e 2a ef 09 bf ae 00 6b 3e 1e ea 64 3e
       0.15677875 -0.5388056 0.22949478 0.22354934
000060 24 cb 68 be f6 86 87 3e 39 8c 98 3e 9b c4 a9 3f
       -0.22733742 0.26470155 0.2979448 1.3263124
000070 00 0b 25 3e ff 9d 97 be c2 3e 84 3e 49 13 7a 3e
       0.16117477 -0.2961273 0.2582913 0.24421419
000080 af ea c6 3d 19 33 98 3e dd 25 86 be 86 b2 33 bf
       0.09712731 0.29726484 -0.26200762 -0.7019428
000090 6c 68 f3 be 24 a2 94 3e 06 e2 b3 be d9 df 83 3e
       -0.47540605 0.29029953 -0.3513338 0.2575672
0000a0 8c ac 97 3f c1 31 f4 be da 53 bb be 38 02 3c bf
       1.1849532 -0.4769421 -0.3658741 -0.73440886
0000b0 d0 f8 0a bf da 7a f4 be fd b1 74 3e 06 15 f8 be
       -0.5428591 -0.47749978 0.23896022 -0.4845354
0000c0 a6 24 8f 3e e6 fa 83 bf 03 5f bd be 98 ef 63 be
       0.27957648 -1.0310943 -0.3698655 -0.22259367
0000d0 47 21 4b 3e 16 b4 3d 3e 0c fe 96 be 0f bb d0 3e
       0.19836913 0.18525729 -0.29490697 0.40767714
0000e0 a0 bc 6b bf 8f 6c ca 3e 85 db 25 bf a0 fe e7 3e
       -0.92084694 0.3953595 -0.64788085 0.4531145
0000f0 ac 33 a0 3e 2c c4 29 bf 11 f5 cd be fe 77 9b 3e
       0.31289423 -0.6631496 -0.40226033 0.30364984
