log/GC_SAC/maze3Env/20210728-1516/GC_SAC_HER_critic.pth (torch_old, 44422 bytes, 10 tensors)

net1.0.weight f4 [64, 16]
00000000: f965 3fbe 4987 8fbf aabb 10be e6d3 0fbf
00000010: 596a d8bd 1aa8 47be db4a c93d 359a 8bbd
00000020: 36cd 92bd 9336 0f3d cbcc 9c3f 233e 2abf
00000030: 7459 463e 5739 55bf f33b 9f3e 3f0d 293f
00000040: 59fc 383e 24b1 793d 00b4 883c eddd 8e3d
00000050: 9fe4 a7be a45a 12be 358d 8f3d f668 43be
00000060: 44a7 263d e24b 663e 6dac aa3f c1a3 a1bf
00000070: 9ed1 143e 2842 ff3d 4c9e 29be 8564 65bc
00000080: d22b 9a3d b869 b13f d045 18bd e688 183d
00000090: c8a4 4b3e 5c78 143e d25e 89be f4a7 c4be
000000a0: 6a8a a2bd b508 23be dae9 a5bc 395d cbbc
000000b0: 1e5d 1bbe 81fd a23d e481 1bbd afff 85bd
000000c0: 9c65 5d3f e6e2 a6bf ac7e b8bd 70be 4dbe
000000d0: c1e2 ed3e 00db 66bc baaa fb3d d31c 993c
000000e0: 323a 093e decc bebd ed02 aebd b971 f6be
000000f0: 707f a6bc b6dc 853e 45f1 92bf aadf 00c0
00000100: 57f2 5d3e 124e 033f 8498 5abe 7ec1 b53f
00000110: f197 2a40 1284 18be 3784 c7be 4913 d5bb
00000120: 05e4 543c 219d 1b3d 694e 58bd 992a a2be
00000130: fa71 16be 1fe3 1540 9dda e73d 0abf a03f
00000140: 7137 38c0 44ab 4abe 7a90 3fbe 508d f0be
00000150: 43af fdbc 903d 643d 78a7 bbbd e05c 853e
00000160: b847 013e 169f ad3e 778a 363f 2e04 173f
00000170: 88f4 02be 0478 ff3d 5913 adbc d6fa fe3d
00000180: 4adb 04be 89f7 3ebf ecf6 653e 2341 c6be
00000190: acc9 33bf 8a33 593e 7d21 0c3e 83cc 723e
000001a0: e669 e93d aa0a a93d d196 793e ff0a 0cbf
000001b0: b08a 08be c2b5 d13f 100d 6e3f 007d 133f
000001c0: 1cfc 8dbf 5ddd 1a3f d8ec 73be 77d3 933e
000001d0: 46ca 1b3e a896 37be 35cd e83c 3c58 913e
000001e0: 6d84 633c a4f4 89ba 8023 27be b1d1 c93d
000001f0: 3859 363e 9620 89bd 30a3 ee3e 2346 97bc
00000200: daf5 adbe fb4f 293f fc9c c7bd faba f53f
00000210: cc44 c4bf 80a5 bebd eecf 6cbe 58d2 b6bd
00000220: f461 8bbd a890 eebd 1668 073f 7236 6dbe
00000230: 8014 40bc 67db cc3d 2535 7abf 258a f3bf
00000240: fe30 dbbf cb2d d93e e6fe 68be ace7 00bf
00000250: 0ad7 113e 9422 6c3e ce80 2a3e 2421 2b3e
00000260: 2834 753e d1e2 393d 5b5c 4fbe 5cb2 e0bd
00000270: 00d5 063e 56b5 333e 8f54 843e f222 703e
00000280: 4a5a 853f 3fd2 c8be 303c f3bd b7a3 a1be
00000290: c5c8 383b ea7f 34be bb9f 0bbe 8bd1 77be
000002a0: 1ce2 fc3d b590 adbd c394 ae3f 2c6c 26bf
000002b0: c0dd 6f3e e2eb 603d a60c bd3d 8b7a 93bc
000002c0: 8a75 90bf 712b e73e fc58 be3d 19e2 abbe
000002d0: 2fa1 1b3f c0a5 693c b599 8c3d 1c65 2bbe
000002e0: 73d3 89bd ec92 5e3e 287b a9be 23c1 23bf
000002f0: 1ebf 1fbe a192 0f3f aa9a bcbe 163f 0dbe
00000300: 59f2 f8bd 6552 2bbd b0e4 bd3d f0a2 bd3e
00000310: 37f9 dabc 66ef 373e fdaf 483e 5695 2cbd
00000320: 5f43 1bbe 3f0d 673b 2085 b3bd 0c73 b13d
00000330: 9207 7c3e f0d6 0bc0 7ef0 1840 a86b c3bf
00000340: ae51 ff3d e66e 1d3f a86e 0d3d 5859 763d
00000350: 32ab 453d c27c 2dbe 9d06 983d 6373 63bb
00000360: 4fb9 633e 2236 f7bc 2053 7a3f c5be e4be
00000370: 20a8 5b3c 61ef 98be 8a6a 703e 9e91 c1bd
00000380: cf1f 8a3f 2553 d3bd 5498 e83d 4259 c1bb
00000390: 37fc 4e3f e49f 503e 3b9e 80bd 22af 34be
000003a0: ecd0 363d 4c1e 16be d752 8f3e 158d be3c
000003b0: f892 83bd 09af 1040 4fb4 833e 0fc3 b3bf
000003c0: ae03 c03b a871 193f 00ad ed3c e370 593f
000003d0: ce2c 8d3f 008d cd3d e65c cbbd 83a5 a7be
000003e0: 5dbd fe3c c6e2 a4bd 1723 203f dd46 60bf
000003f0: 7c0e 4b3e f31b 02c0 1d93 b73f 6669 9dbd
-0.18691243 -1.1213161 -0.14134088 -0.56182706 -0.10567159 -0.1949772 0.09828731 -0.06816522
-0.07168047 0.034964155 1.2249998 -0.66501063 0.19370061 -0.8329062 0.31100425 0.66035837
0.18065013 0.06095995 0.016687393 0.06975923 -0.32791612 -0.14292389 0.07009355 -0.19083008
0.04068686 0.22489884 1.333387 -1.2628099 0.14533088 0.1246379 -0.16564292 -0.0140010165
0.07527889 1.3860388 -0.037175953 0.03723993 0.19887078 0.14499038 -0.26830155 -0.38409388
-0.07936557 -0.1592129 -0.02025311 -0.024824725 -0.1517224 0.07958508 -0.03796567 -0.065429084
0.8648317 -1.3037994 -0.09008536 -0.20092177 0.46462062 -0.0140903 0.12288423 0.018690502
0.13401106 -0.09316419 -0.08496652 -0.48133639 -0.020324439 0.26144952 -1.147988 -2.0136514
0.21674477 0.51291 -0.21347243 1.4199674 2.6655238 -0.14894131 -0.3896806 -0.006502543
0.012993817 0.037991647 -0.052809153 -0.31673124 -0.14691916 2.3419874 0.11320994 1.25583
-2.8783839 -0.19791895 -0.18707457 -0.46982813 -0.03096736 0.055722773 -0.091628015 0.2604742
0.12625015 0.33910435 0.7130503 0.5899075 -0.12788594 0.12474063 -0.02112739 0.12450187
-0.12974277 -0.7459646 0.22457474 -0.3872157 -0.702296 0.21211067 0.1368465 0.23710828
0.11397152 0.08253987 0.24373938 -0.5470428 -0.13334155 1.6383593 0.9298868 0.5761261
-1.1092563 0.60494024 -0.23820817 0.28872272 0.1521388 -0.17928565 0.028418163 0.2838763
0.013886553 -0.0010525179 -0.16322136 0.098544486 0.17807472 -0.066956684 0.46608877 -0.018466061
-0.33976632 0.66137666 -0.09746739 1.9197686 -1.5333495 -0.0930891 -0.23126194 -0.08926839
-0.068057925 -0.11648685 0.528932 -0.231653 -0.011723638 0.10002785 -0.9773734 -1.9026533
-1.7124326 0.4241775 -0.22753486 -0.50353503 0.14242187 0.23060066 0.16650698 0.16711861
0.23945677 0.045382325 -0.20250075 -0.10971519 0.1316719 0.17549643 0.25845763 0.2345083
1.0418179 -0.39222905 -0.11876714 -0.31570217 0.002819584 -0.1762692 -0.13635151 -0.24201028
0.123478144 -0.08474866 1.3639148 -0.6500881 0.23424435 0.054912455 0.09230928 -0.018002769
-1.128587 0.4515033 0.09294316 -0.33570936 0.6079282 0.014260709 0.06865255 -0.16737789
-0.06729784 0.21735734 -0.33101773 -0.6396658 -0.15600249 0.5608311 -0.3683675 -0.13793597
-0.12155599 -0.041826624 0.09272134 0.37038374 -0.026730163 0.17962417 0.19598384 -0.042134605
-0.15162419 0.0035255698 -0.08765626 0.086645216 0.24612263 -2.1849937 2.3896785 -1.5267229
0.12466751 0.6149734 0.03452936 0.0601438 0.048258968 -0.16942123 0.074231364 -0.0034706227
0.22238658 -0.03017718 0.9778309 -0.44676796 0.013406783 -0.29870132 0.23478141 -0.094516024
1.0790957 -0.10318593 0.11357179 -0.005900533 0.808536 0.20373493 -0.0628018 -0.17644933
0.044632837 -0.14659995 0.2799289 0.023260633 -0.064245164 2.2606833 0.25723502 -1.4043902
0.0058598137 0.5993905 0.029013157 0.84937876 1.1029298 0.10036659 -0.09929828 -0.32743463
0.031096155 -0.08051066 0.6255354 -0.8760813 0.19829744 -2.032956 1.434177 -0.07686119

net1.0.bias f4 [64]
00000000: eea3 9b3e 257c 9cbd 1d2e 7ebe 2888 acbd
00000010: 088a b73c 711a 193e 918a 9939 ed67 aabd
00000020: ae0f d23d 8bbb 28be d2da cdbd 7b85 c13d
00000030: 83ac c4bd e501 823e 0465 b3be 46c8 6abb
00000040: 95da 05bd 9e4c dd3d 05dc 4bbd 79e6 2f3d
00000050: 02cf b83d 9798 3abe 97b0 bebe ba2d 893e
00000060: 6385 f93d ad46 5fbe 8c52 c83e 6e63 523e
00000070: 963b d6bd c990 4fbe 70c1 a13e 56a3 79bd
00000080: 249c 2c3e f12b 89bb 7c82 62be a449 49bd
00000090: 5a0d aabe 0a12 773e d63a b3bd 10df 2cbe
000000a0: 203b 94be 687b 8cbe 27d1 13bd 0670 8e3e
000000b0: 52ff 3ebe 793d b7bd 578d 40be 1cb3 4bbe
000000c0: 8129 9c3e 3249 0dbe 1b83 ab3d 21a0 8d3e
000000d0: f762 9b3b 2247 36be 2bdd 063e ab7c 333e
000000e0: a931 8cbd 2afa 1cbe a913 29be 54fc 24be
000000f0: 8521 d5bd a734 3abe e64d 063f 659a 86be
0.30398506 -0.07640866 -0.24822278 -0.08424407 0.022404686 0.14951493 0.00029285674 -0.083206035
0.10256897 -0.16477792 -0.10051502 0.094492875 -0.096032165 0.2539207 -0.35038006 -0.0035824939
-0.03267916 0.10805629 -0.049770374 0.042944405 0.090238586 -0.18222271 -0.37244102 0.267927
0.121836446 -0.21804304 0.39125478 0.20545742 -0.10460584 -0.20270075 0.31592894 -0.060946785
0.16856438 -0.0041861464 -0.22120088 -0.049142495 -0.3321331 0.24127975 -0.087514564 -0.16881967
-0.2895136 -0.27437901 -0.036088135 0.27819842 -0.18652084 -0.08947272 -0.18803917 -0.19892544
0.30500415 -0.13797453 0.08374616 0.2766123 0.004742022 -0.17800573 0.13170306 0.17528026
-0.068454094 -0.15329805 -0.16511406 -0.1611188 -0.10406784 -0.18184148 0.52462614 -0.2628967

net1.2.weight f4 [64, 64]
00000000: 231e 023d 0e16 0b3c abcd 233c 3dcc 383d
00000010: 86b0 863c f828 c7b7 5821 063e 9d30 f83d
00000020: 6ea9 213d fa37 7bbd 9759 c7bb 68a2 bb3d
00000030: c95a d93c 6584 5abc 393d e83c edac 7b3d
00000040: 5113 dabd 4774 af3d 6b1d 0c3e 90f4 013d
00000050: 342b e43b b54b b9bd 1f2a 6f3c 24d2 b3bd
00000060: ade6 e93d 6ad1 ef3d d079 ec3c deee f8bb
00000070: 0582 a5bd 6a89 30bc c0f0 7eba 8d50 243d
00000080: e3d6 12be 396c 9f3c 8d33 51bd 512e 57bd
00000090: e732 c3bb 99f9 823c 16d5 b43d 2173 99bc
000000a0: ebd8 0fbd 63eb b13d d6e2 01be f0a9 b23d
000000b0: 51ef 7fbd f424 ab3d 913c d9bd 4192 a83d
000000c0: 16f8 313c fe30 67bd 740e 1dbd afe5 0d3e
000000d0: 4e44 e3bc baca f2bc 10bb f9bc 13a2 a53d
000000e0: 3ed1 a2bc 2019 b63c ecfb a33d f49a 4f3d
000000f0: 29bf 863d 1ab2 2dbd af81 aabc 403c d9bb
00000100: c27f 853e 7637 03be 23c9 3bbe d73b 0c3e
00000110: 8eb6 a4bd 77b9 b3be bedd 1fbf d34b 243d
00000120: 1454 0ebe af3f 4c3e d9df 33bf 659b 303e
00000130: 1260 e03d dcd3 92be 9fef 083e 7ee6 0cbf
00000140: c925 1bbe 53d4 fc3d c8e4 aebb 7b12 d2bd
00000150: 7332 0fbf b720 463c 2fdf 493e 96f7 34bf
00000160: 0297 7b3d 959f 06be db81 8fbe daba a9bd
00000170: cbd5 80be e8df 403f 2994 1abe 1877 94bd
00000180: bdfd 06bf 1a27 d9bf da06 f33e 6eca 2bbd
00000190: e9b4 323f 5672 073d 1ba3 cebc 9bcc c2be
000001a0: 0e98 29bd 0ace 8bbd 6539 f5bc e796 79be
000001b0: e759 febd 8b97 d9be 2048 bcbd 2fc4 17be
000001c0: 435c 0fbf 2cd0 13bf 7dd2 32bf 21be 8bbd
000001d0: 00e4 943d 2745 8e3b 6074 163e 32b7 a7bc
000001e0: 84d5 633d 8aa3 e2be 6771 003d d405 07be
000001f0: cca9 093d 5871 beb8 4084 3bbe 93c9 f7bd
00000200: ce98 a83c 7f90 0dbe ea47 763e d72b d2bd
00000210: 75e1 a4bd a533 8d3d 3e96 71be b6aa e83e
00000220: 91e7 013f d718 0c3e 7ed1 4abe e69d c83e
00000230: c688 053e d4bb aeba 45c6 02be 82fe c3bd
00000240: 0c85 0a3e a4a7 b43c 4cf5 d4bd eb5d c1bd
00000250: a7e0 15be afcd c2be 5c2d ed3e 197b 44bf
00000260: 4b37 713d 5814 293e 04db c1be 7e34 313f
00000270: 6e20 d4be 11e0 073f a578 98bd 1b0b 023e
00000280: 2792 233f 4bef d13e af14 8d3e a178 293e
00000290: 1206 07be 0509 f13e f6e6 ad3e 9978 cabd
000002a0: 986e 43be 95b7 0bbf 9a3a 663f 2c56 6c3e
000002b0: 7cae d7bd 935c 063e 385d 15be 594c b23e
000002c0: 9478 7ebd 37bb 01be d2ba 16be 0bdf 123f
000002d0: 98c8 663b 7d90 7d3d 49f2 203e 3bf3 61bd
000002e0: 1eea a2bd ca5d 93be d2db da3d 8b57 863e
000002f0: 05a0 943e 62dd 043e cfd1 c9be 8934 1d3e
00000300: 545c 293f 6b52 d2be 5dfb 33bf c7fc 0e3e
00000310: bd08 68bf 7941 9a3f 2a69 a83e 5169 7cbe
00000320: ab8c b73c c25f a0be 50df 62bf 5f4b c5be
00000330: 4fc1 713f 50de 9dbd 98b2 27bf 139f 60bd
00000340: 7961 52bf 7e1e ccbd f28e 603e 50eb ba3d
00000350: 5a5a 1abd 49de d1bb 13d4 613f 5443 a9bc
00000360: bc73 2d3f 3bc8 24bf 5542 96be 6e9c 873e
00000370: a448 d7be f435 00be c779 14bd c4e6 40bf
00000380: 5eee 6d3e db98 113e 7faf 133f ca8e e7be
00000390: 10ea 57bf 4077 78be 9b64 29be b9aa ed3e
000003a0: b801 c1be eec7 86be d4a4 68bf 7413 423b
000003b0: 19e4 7c3d 2669 543e 7c6b ec3e f5e0 9b3e
000003c0: c972 83be a64e cdbd cd55 8b3c ae1a 183f
000003d0: d51a 603d 0445 33bf 7968 89bf 219b a6be
000003e0: e2ce 01be ccd4 0bbf 5d15 2cbf b3aa 35bf
000003f0: 2db6 75bc adfb 513e e5a0 43bd 1227 a2be
0.031767022 0.008489145 0.0099977655 0.04511665 0.016441595 -2.3741726e-05 0.13098657 0.12118647
0.03946822 -0.06133268 -0.006083678 0.09161836 0.026532548 -0.013337229 0.028349506 0.06144421
-0.106482156 0.085671 0.13683097 0.031727374 0.006963158 -0.09047643 0.014597445 -0.087803155
0.11420951 0.117098644 0.028866678 -0.0075968346 -0.0808144 -0.01077495 -0.00097252056 0.04011588
-0.14339785 0.019460784 -0.051074553 -0.052534405 -0.0059569958 0.015988158 0.088297054 -0.018731656
-0.03511898 0.086874746 -0.12684187 0.08723819 -0.06248409 0.083566576 -0.10607255 0.08231021
0.010862371 -0.056443207 -0.03834386 0.13857149 -0.027742531 -0.029637683 -0.030484706 0.08087554
-0.019875165 0.022228777 0.08007035 0.050684884 0.0657943 -0.04240618 -0.020813791 -0.006629497
0.26074034 -0.12814125 -0.18338446 0.13694702 -0.08042632 -0.35102436 -0.62447727 0.040111374
-0.13899261 0.19946168 -0.7026344 0.17246778 0.10955824 -0.2867726 0.13372658 -0.55039203
-0.15151133 0.12345185 -0.0053373314 -0.10257431 -0.55936354 0.012092761 0.19714044 -0.70690286
0.06142331 -0.13146813 -0.2802876 -0.08287592 -0.2516311 0.75341654 -0.15095581 -0.07249278
-0.52730924 -1.6965058 0.47466165 -0.0419411 0.69807297 0.033068024 -0.02522426 -0.38046727
-0.041404776 -0.06826408 -0.029934594 -0.24373971 -0.12419491 -0.4249843 -0.09193444 -0.14820932
-0.56000155 -0.5773952 -0.6985243 -0.068233736 0.0727005 0.0043417397 0.14692831 -0.020473097
0.055623546 -0.44265395 0.03135815 -0.13185817 0.033609197 -9.081018e-05 -0.18312168 -0.12098994
0.020580675 -0.13824652 0.2405087 -0.10262268 -0.08050815 0.06894616 -0.23592469 0.45442742
0.5074397 0.1368135 -0.19806477 0.39182967 0.13040456 -0.0013331124 -0.12770946 -0.09570028
0.13527316 0.022052594 -0.10398349 -0.094417416 -0.1463648 -0.3804755 0.4632367 -0.7675033
0.058890622 0.16511667 -0.37862408 0.6922072 -0.41430992 0.53076273 -0.07444886 0.12699549
0.63894886 0.4100288 0.27554843 0.16549923 -0.1318591 0.47077194 0.33965272 -0.098862834
-0.19085157 -0.54577 0.8993317 0.23079747 -0.10531327 0.13121252 -0.14586341 0.34823874
-0.06212671 -0.12669073 -0.14719704 0.57371587 0.0035214778 0.061905373 0.15717424 -0.055163603
-0.079548106 -0.28782493 0.10686459 0.26238665 0.29028335 0.12975076 -0.39417884 0.15352072
0.66156507 -0.41078505 -0.70305425 0.13963614 -0.90638334 1.2051231 0.32892734 -0.2464955
0.022405943 -0.31323057 -0.88622 -0.38534066 0.9443559 -0.07708418 -0.6550689 -0.054839205
-0.8217998 -0.099667534 0.2192953 0.091269135 -0.037683822 -0.0064046723 0.88214225 -0.020661987
0.6775472 -0.6436803 -0.29347482 0.26486534 -0.42047608 -0.12520581 -0.03624895 -0.7535212
0.23235461 0.14218466 0.5768966 -0.45226127 -0.84341526 -0.2426424 -0.16542284 0.46419314
-0.37696624 -0.2632441 -0.9087651 0.0029613646 0.06174097 0.20743236 0.46175754 0.30445066
-0.25673512 -0.100247666 0.017008686 0.5941571 0.05471309 -0.70027184 -1.0735008 -0.3254023
-0.12676576 -0.5462158 -0.672201 -0.7096359 -0.014997047 0.20506163 -0.047760863 -0.31670433

net1.2.bias f4 [64]
00000000: 0600 fcbc 8c78 07be 067b a83b 45f5 c8be
00000010: d154 f7bd 2705 4fbe 3796 3fbd 4af1 46be
00000020: 2e4f a4be 4cb4 cd3d 7a71 99be 6c0c 7abe
00000030: 18a8 5ebe f3dc 5bbd 976c cebe d502 9cbd
00000040: d853 95bd b4d7 69be 88ef aabe cf07 aebe
00000050: 4b51 dabe 6d34 08bf f64e 3fbe 1fe6 bb3c
00000060: 16b5 a6be 88b6 573d 00c7 84bd 55b4 18bf
00000070: 192e 07be d4e8 ccbe 2f7b f0bd 5b22 57be
00000080: f289 963d 60b5 8f3d fa26 863c b668 04bf
00000090: 5d92 14be 073b 0cbd 424d a1be d17f 163e
000000a0: 438d d1bd f00d 8dbd c775 e4bd e4a7 a3bd
000000b0: 5a01 073e 9414 33bd 96e4 153c f29e ffbe
000000c0: 8ef8 3dbd 63da 26be 8e13 823c 4ceb 183e
000000d0: 690a 08bd af3d 903d 146b 133e 1405 b3be
000000e0: 5d79 e2bd aaf3 1ebe dcbb 33be 613e e6bd
000000f0: 093b 81be 8a2b 953e 53a8 e8be 0e6a d3bd
-0.03076173 -0.13229579 0.0051416187 -0.39249626 -0.12076724 -0.20216809 -0.046774115 -0.19427982
-0.3209166 0.100441545 -0.29969388 -0.24418801 -0.2174381 -0.05367751 -0.40317222 -0.07617728
-0.072913826 -0.2283619 -0.33385873 -0.33990332 -0.42640147 -0.53204995 -0.18682465 0.022936879
-0.32560033 0.05266431 -0.06483269 -0.59650165 -0.13201179 -0.40021384 -0.117422454 -0.210092
0.0735053 0.070170164 0.016376007 -0.51722276 -0.14508958 -0.03423598 -0.31504256 0.14697196
-0.10232022 -0.06887424 -0.11155277 -0.07991007 0.1318411 -0.043720797 0.009148737 -0.49925953
-0.04637962 -0.16294245 0.015878465 0.14933509 -0.033213053 0.07043015 0.14396316 -0.34964812
-0.110583045 -0.15522638 -0.17552131 -0.112423666 -0.25240353 0.2913478 -0.4544092 -0.10322963

net1.4.weight f4 [1, 64]
00000000: 1470 273a fbe1 033f 3626 5abe 2cea cebe
00000010: 1fb7 d2ba 518b 48bf ed6e dc3e f557 9b3e
00000020: d3e6 d2be 65d5 1ec0 cd47 ccbe 99e9 c2bf
00000030: b5e9 e8bf 90b7 9e3a 4048 43bf 347c 463e
00000040: 2939 0d3e 16ff c03d 7c80 cabf 764f 2d3f
00000050: 1bae 87be a1d4 a2bf a0a4 b13e c47f a9be
00000060: 2d56 cbbe 34fb 063f 3694 143e 8d01 1abf
00000070: 5d38 093e 70c5 37bf d01a d43d 7648 f33d
00000080: 7409 9538 1165 273e 30c4 dcbf 96ec ffbf
00000090: 9231 cc3e 8159 833e 52c2 6abf f124 63be
000000a0: a593 3b3e 6a75 9cba ac0e 273e 54c7 3d3e
000000b0: db2a c4bf b70e 873e 3707 7f3e ffd7 18bf
000000c0: 135f 40bf 6af3 37c0 06c6 c53d 3c9c 943e
000000d0: 9023 803d 4a08 debd 56c1 9439 ceb3 243e
000000e0: 5686 923d 05ff 2e3e a5fe 8c3e e084 043d
000000f0: 70fe 11bf 253d 57be 34e2 78bf 73bd 6f3e
0.00063872454 0.51516694 -0.21303639 -0.40413034 -0.0016076303 -0.7833758 0.4305338 0.30340543
-0.4119173 -2.4817746 -0.3989853 -1.5227538 -1.8196322 0.0012109149 -0.7628212 0.19383317
0.13791336 0.09423654 -1.582046 0.6769937 -0.2650002 -1.2721139 0.3469591 -0.3310529
-0.39714184 0.52727056 0.14509663 -0.60158616 0.13400407 -0.7178564 0.103566766 0.11879055
7.1066344e-05 0.16347148 -1.7247372 -1.9994075 0.3988157 0.25654224 -0.9170276 -0.22182061
0.1831804 -0.0011936848 0.1631419 0.18533069 -1.5325578 0.26378414 0.24905096 -0.59704584
-0.7514507 -2.8742318 0.096569106 0.29025447 0.06256783 -0.10841425 0.00028372806 0.16084215
0.07154529 0.1708947 0.27538028 0.032353282 -0.57028866 -0.21019419 -0.9722016 0.23412113

net2.0.weight f4 [64, 16]
00000000: e3df 52bc b4cb 82bd d484 aebd 49e5 ee3e
00000010: c36c d43e 38d0 1ebd ca8e 41be e704 9fbd
00000020: 0ac4 253e a12b 693d 5204 41bb 5da4 d43d
00000030: 5c4f ec3d 51c3 24c0 625f 2b40 e502 a4bf
00000040: 86c0 8a3d bb2b cc3f c8f2 2d3d 010a b3bd
00000050: 9c4b 853e 02ce 6bbe 4337 0dbe 813c 2cbd
00000060: 12c5 e4be 2088 c2be cba5 0c3c 98c5 78bd
00000070: e0db 0a3c 63a7 fa3a 6cb2 953b 8237 4fbd
00000080: 9244 4abe 7173 14bf a813 eebd 078a 03bf
00000090: ac6b 323e 6ccc 77be fe0b 77bd 9421 9c3d
000000a0: 1452 9c3e 1c03 093e c5ce 4ebf 0457 7a3f
000000b0: 6c6d 583e e990 933f 86eb a9be b273 2bbd
000000c0: bbbd 033e 22c7 0b3e 4647 043e 46e7 a0bf
000000d0: f5ac dc3f 8e96 36be 3cca 11bc a009 d03d
000000e0: 7d11 75be c08e 1b3e 709d debd aaa4 063e
000000f0: 9ca2 5f3e 7a1c 0c3f dddd d13e 05c2 843f
00000100: 26a7 37c0 895b b7bd 96fa 3e3e b1f6 05bf
00000110: ab32 ddbd 200b ea3d 9322 923e 08eb b13d
00000120: 03c6 773e 2aaa a23b 2c02 fc3e ac54 1a3f
00000130: 0ef5 383e a533 ed3d 371c cf3d e4d1 833d
00000140: 45ca eabc 77e1 86bd 1637 0fbe 1e88 753f
00000150: 86a4 9f3e 1444 023e 5516 08ba 5383 7ebe
00000160: 33a0 2d3d ad44 303e 6da7 b23d c1fa 36be
00000170: 0cfc a2bd b20a 3740 9f58 aabe 941a 3bc0
00000180: 80e4 f93e 6ac1 5abf fc59 653e 5edd 95bd
00000190: 52d8 b5bd 9a6d 443e a58f 45bb 0dd3 853d
000001a0: ce98 033e af0d ba3e 3fec d63f d50d 3fbd
000001b0: c060 623c cc6e 133e 1755 013e 7934 1d3e
000001c0: e925 223e 76eb 15bf d484 20be c252 4c3e
000001d0: fd58 cd3e 3aa1 12be f838 d13d c79f f9bc
000001e0: ee8e 22bc 4665 2bbe 8a51 9ebf 7c5a 963e
000001f0: 6e0e 333e 59c9 92bf 7361 403f a7bb e1bf
00000200: 521f bc3e 37ca 85bf 92c6 263e 1625 43bf
00000210: e5ba 59be 12a6 79be 818a 8ebe 313b 9abe
00000220: 4218 b2bd 3dc0 ae3b ed08 65bf 43a1 103f
00000230: 269d 713e a3b1 9c3e 0fe3 13bf 2137 dcbb
00000240: c1e8 603e 85af e2be 001b 9f3c 3958 153f
00000250: 4bd3 96bf aeea 7bbe f5aa 153e 8169 e83c
00000260: 1465 b23d ae50 ca3d ab9f 53be aca6 acbd
00000270: f832 ad3d d333 1a3f 26d3 c1b9 77e9 5d3f
00000280: 72d4 3e3f eb6a 6d3f 087b 633d ecba d4bd
00000290: 729a c03d 40f2 7dbc da38 8abe 1ec3 aebe
000002a0: 6ddd fbbd 5219 02be 198d 783e fd04 27be
000002b0: b257 44be e6f7 663e 7860 a5bd c3b9 423e
000002c0: b378 943d b5af 02be c8cc 43bd 82e8 f0bd
000002d0: cd8e fcbc 6a41 2d3e 86b9 023e 9006 293e
000002e0: 4b9e d7bd 9258 083e c47f 943f d30c b4bf
000002f0: e0bf 9abc dcf2 5b3e 911d b53c b5b3 d6be
00000300: 0a7f 08bf fa0c 08bf 9c4e 7fbe 7bcb 563e
00000310: c8dc 34bf 905c 713d a2d2 573e c200 593e
00000320: 4765 dd3d 9436 943e 09b4 b4be 68b7 b2be
00000330: 6425 c3bd acf3 613f 7770 b63e 480a e33e
00000340: 34ae 63be 5691 54be 6ce1 053e 6ff9 b93d
00000350: b2ba 1fbf 981d 7c3e c66a e63d cced 023d
00000360: 1d64 833e 7aa5 a03d e7bd 3cbf 43d4 a83d
00000370: 2e4e 7fbe 0dde 89bf 1830 febe 020f 923f
00000380: f443 d83e b911 c1bd 60a4 5ebd d59b 843e
00000390: 420e 12c0 32e6 6d3e 86db 423c 4b23 393e
000003a0: 89c6 6cbd cf55 e7bc 284c eabe 22ca 7bbe
000003b0: 2073 0a3c 5b83 193f 0e71 36bf 1b7b 4c3f
000003c0: 1422 0abf 13e7 53be a8d8 053e 8640 bd3e
000003d0: 2ad5 fcbe 38c0 2cbd 082c 833e 45bc 0b3e
000003e0: a9fe 6d3e 6119 15be 409c 963e 9a90 ad3f
000003f0: dcdf 5a3e d907 d5bc 1047 3b3c e4e5 2fbf
-0.012870762 -0.063865095 -0.08521429 0.46659306 0.4148923 -0.03877279 -0.18902126 -0.07764607
0.16188064 0.056926373 -0.0029452038 0.10382912 0.11538574 -2.5744212 2.6776967 -1.2813383
0.06775002 1.5950845 0.042467862 -0.087421425 0.26034248 -0.23027804 -0.13790612 -0.04204989
-0.44681603 -0.3799448 0.00858445 -0.060735315 0.008475274 0.0019123371 0.0045683887 -0.050590046
-0.1975272 -0.5798865 -0.11624843 -0.5138249 0.17423886 -0.24199075 -0.06031417 0.07623592
0.3053137 0.13380092 -0.80784255 0.97789025 0.21135491 1.1528598 -0.33187503 -0.041858383
0.12865345 0.13650182 0.12917814 -1.2570579 1.7240282 -0.1783087 -0.008898314 0.10158086
-0.23932452 0.15191174 -0.108698726 0.13148752 0.21839374 0.5473095 0.4098958 1.037171
-2.869577 -0.08953006 0.18650278 -0.52329546 -0.1080068 0.11427903 0.28542003 0.08687407
0.24196629 0.004964133 0.49220407 0.6028545 0.18062231 0.11582116 0.101128034 0.06436518
-0.028660903 -0.06585973 -0.13985857 0.95910823 0.3118021 0.12721282 -0.0005191316 -0.24854784
0.042389106 0.17213698 0.0872334 -0.17869093 -0.079582304 2.8600278 -0.33270738 -2.9234972
0.48807144 -0.85451376 0.22397608 -0.07317613 -0.088791505 0.19182435 -0.0030145433 0.06534395
0.12851259 0.36338565 1.6790847 -0.04664405 0.013817012 0.14397734 0.12630115 0.15352048
0.15834774 -0.5856241 -0.1567567 0.19953445 0.40106955 -0.14319316 0.10215944 -0.030471696
-0.009921772 -0.16737852 -1.2368634 0.2936591 0.17485973 -1.1467696 0.75148696 -1.7635392
0.36742646 -1.0452336 0.16286686 -0.76228464 -0.21262701 -0.24379757 -0.27840045 -0.30123284
-0.08696033 0.005332975 -0.89466745 0.56496066 0.23595104 0.30604276 -0.5776834 -0.006720439
0.21963789 -0.44274536 0.019422054 0.5833774 -1.1783231 -0.24601242 0.14615996 0.02837062
0.08710685 0.0987867 -0.20666377 -0.08430228 0.08456987 0.6023533 -0.00036969146 0.86684364
0.74542916 0.9274127 0.055537254 -0.10387215 0.09404458 -0.015499651 -0.269965 -0.34133238
-0.12298093 -0.12704971 0.24272574 -0.16310497 -0.19174078 0.22555503 -0.080750406 0.19016175
0.07249584 -0.1276234 -0.047802716 -0.11763097 -0.030829811 0.16919485 0.12766084 0.1650641
-0.10528239 0.13315037 1.1601491 -1.4066414 -0.018890321 0.21479362 0.022108825 -0.4193398
-0.53318846 -0.531448 -0.24932331 0.20976059 -0.70649385 0.058926165 0.21076444 0.21191695
0.10810333 0.2894789 -0.35293606 -0.34905553 -0.09528616 0.8826244 0.3563268 0.4434378
-0.22234422 -0.20758566 0.13074273 0.09080779 -0.6239425 0.24620664 0.11250834 0.031965062
0.25662318 0.07844062 -0.7372727 0.08243611 -0.24932167 -1.077089 -0.49646068 1.141083
0.42239344 -0.094272085 -0.05435598 0.2590014 -2.2821202 0.23232344 0.011893159 0.1807987
-0.057806525 -0.028239159 -0.45761228 -0.24588826 0.0084502995 0.5996606 -0.7126626 0.79875344
-0.5395825 -0.20693617 0.13070929 0.3696329 -0.4938138 -0.0421755 0.2561953 0.13646038
0.23241676 -0.14560463 0.29416084 1.3559754 0.21374458 -0.026004719 0.011430517 -0.6871016

net2.0.bias f4 [64]
00000000: 6ccb 18be 2e51 bfbe 25c7 163e 776f 10bd
00000010: 77d6 db3e d7b6 65be 81ad a53e e570 78be
00000020: 848b 96bb 83d1 213e d73d 17be 5217 27be
00000030: 2501 dbbd c403 2cbd f509 84be 27d0 0a3e
00000040: cb60 353e e04d 2c3e 36b2 ca3d 7223 81be
00000050: b644 07bd 2ce8 a6be 29cd 153e c8ae 4ebd
00000060: 304e 8cbd 738e 0d3e 55e5 18be fc6f 18bd
00000070: d26a 383e de8e 87bd 208c 5c3e ef86 a2bd
00000080: 7d9c 1bbe 1e55 7cbe 60f9 64be 5174 64bd
00000090: e6bb a0be 9bdf 613d 9ac7 ecbd 88ed 153d
000000a0: 9b5a 90bb cda7 5fbe 1813 fe3d b8cd f43c
000000b0: 9286 563e 893e 043e 0055 373d 89ea 833e
000000c0: 4ef0 72bd e96a 7fbe 7e15 eb3d 8946 f5bd
000000d0: 6061 b5bd 0466 2abd 926c b5bd c8ce a43e
000000e0: e330 6dbd e7c2 833d f6b3 20be 6a61 86bd
000000f0: a0d0 a1bd 4f94 efbc d442 05be bf5e 743e
-0.1492135 -0.37366623 0.14724405 -0.03526255 0.4293706 -0.22433029 0.32358935 -0.24261816
-0.0045942683 0.15802579 -0.14769684 -0.1631749 -0.10693578 -0.04199578 -0.25788847 0.13555966
0.17712705 0.16826582 0.09897272 -0.25222355 -0.033024512 -0.32599008 0.14629044 -0.050459653
-0.068508506 0.13823871 -0.14931233 -0.03721617 0.18009499 -0.06619047 0.21537828 -0.07935893
-0.15196414 -0.24641845 -0.22360754 -0.05577499 -0.31393355 0.055144887 -0.115615085 0.03660348
-0.0044053323 -0.21841355 0.124059856 0.02988325 0.20949772 0.1291448 0.044758797 0.25764874
-0.059311204 -0.24943127 0.11478709 -0.11976344 -0.088564634 -0.041601196 -0.08858599 0.32189012
-0.05790795 0.06433659 -0.1569365 -0.06561549 -0.0790112 -0.029245524 -0.13013774 0.23864268

net2.2.weight f4 [64, 64]
00000000: 364d dfbd f79f 013f 24cb 9b3e c785 533d
00000010: aa09 00bf 0234 ea3c c9d1 59be 40fc 303e
00000020: 8d67 02bf f130 a53c 2ec2 123e b98b 1bbe
00000030: 116c d23d a631 183e 7a28 82bd 6e01 0c3e
00000040: bae0 8abd 0163 973e 3d20 0d3f da59 a1bd
00000050: ac39 19be c452 6ebf baae 56bd 987d 11c0
00000060: 1fae 19bf c56d a5be d726 303e dc33 28be
00000070: 296a c83d 861d 1dbf 22fd d5be 1af3 f0bd
00000080: dcf6 133d 7f79 a53d bef6 ee3c b4c4 1f3e
00000090: 6d07 6cbd 5f2d 263d c752 7c3d 77b3 e33e
000000a0: 2862 9dbb 53b7 2e3d e29f 9abc 41bc 1ebd
000000b0: 4539 7fbe 6b66 8bbe da91 92be c01c 33bf
000000c0: 32a4 633d c7c5 2b3d 8505 263e 00c1 afbe
000000d0: 0525 b7be 0862 ae3d 473a 013c 8eb3 dbbe
000000e0: edf7 a5be 10ea b9bd 1d97 913e da66 953d
000000f0: cdc2 0c3e 8d4c 7e3d 3686 50be a9c0 313e
00000100: ca75 da3e ab9e 3bbe a5ee 6cbe b71c 05bf
00000110: 99e5 f53e 81ff 0f3f 95ea a4be c2fc 5e3c
00000120: 6352 d73e a00a 41bf d7d8 82bf 3ec4 2cbd
00000130: ce46 4dbe 0299 88bd 1b14 1cc0 7664 b13d
00000140: bd97 ae3e 0101 07be 69e0 babf cc58 0bbf
00000150: 0a73 40bf acb9 233d 1465 8abe 23e4 25bf
00000160: 051d ac3e d228 cbbe c774 113e f70e 153f
00000170: f9a2 803f 336c d1bd e12d 0e3f 2499 663d
00000180: 94df 9fbf 2dbc 67be 1b76 173f 4f04 70be
00000190: 7b7b 003e 7269 e23d ba00 203f a952 023f
000001a0: d976 53be 052f 243d f4bb 0cbe 4345 573f
000001b0: 1357 27be 29ce 28bf 714d 543f 9377 73be
000001c0: 8903 db3f 1775 b8be 89a0 e3bf 0d3d 7abe
000001d0: 7684 bd40 2e87 d0be 6fff 053f 30f8 f53e
000001e0: 6e0a 23bf 767b 86be 4f35 363e f939 853d
000001f0: d1cd 9f3f 41a3 63bf 35fa 88bc 6528 e13e
00000200: dcc4 bd3e 26b7 42bf 0333 11be 655e fa3c
00000210: 78a2 ab3f 7de9 143f e4be 2fbf a56f aa3e
00000220: 8e7b a93e 0628 cd3d ded9 6b3e 21f3 b1bc
00000230: 27e2 42bb 27e6 ac3d ddf1 9dbe 755f 0a3f
00000240: f9ee d0be cc00 bc3e 5090 c7bd 8f83 6c3e
00000250: 0843 833d 40f8 00bf 8ba2 363d 3309 b8bd
00000260: 3876 1f3c 51ad 3cbe b520 063e 356e a5bc
00000270: 7fc0 ff3d b673 06bf bc65 ecbe 7642 98be
00000280: 2ff9 5bbf 52f5 dcbe 5d1b 663c 9674 3e3e
00000290: b7fc 9abe 86ed d73e 4f2a bd3e 811c 81be
000002a0: 1946 5c3e b77c 173e 97d6 533c c9f3 0c3f
000002b0: 8a09 c13d fbfc 68be 3f1e 26be f5fa 87be
000002c0: 826e e13e 5d3f 11be 0ef9 39be bcaf b53c
000002d0: 7a10 9d3f 5cfc bcbd b070 083d e56b 783e
000002e0: 0911 653d bded 79bd 5dee afbe 191e 05bf
000002f0: 1430 283d 0bec e63d d55b 16bf eb17 a5bf
00000300: f450 e8bc feeb 0abf a905 bd3e b234 143e
00000310: 86c9 a43c 6094 10bf cbe6 c5bf 1f39 89bf
00000320: d600 5cbe e64a a8be 1b78 68bd 6569 21be
00000330: b80f 18be ea9f 1fbe 624c b8be bb70 ddbe
00000340: 3354 823e 3089 e3be 58c0 dfbf 6b5a 41bf
00000350: 5ec4 10bf 0e08 41bf d9c9 c83c 8264 05be
00000360: 7fc2 bd3c 4c63 05bf e062 2ebf 3a27 563f
00000370: 7a38 8b3d 2d0a 17bf 6821 04bf 45e4 3dbf
00000380: 86fe 06bf 14cc d43d 21bf e9be 1f21 9bbe
00000390: 4293 3f3d a3ba 5dbf 15b8 f7be ab6d 9f3b
000003a0: 8cc3 d03c f651 153f 421a 2f3d f176 c5bd
000003b0: 0ab8 cabe 87de 163f f93c c33f dab9 01bd
000003c0: 9009 963d 26ff 883e 132b ce3e 2d94 7e3e
000003d0: 12cb ea3d 185e 6a3e 8f49 873f 6bdd debe
000003e0: 6f9f e3be 6838 a8be 5ebb 5c3f e469 f4be
000003f0: 192b 113f 6d40 813d d080 f7be 9fc6 27bf
-0.10903399 0.5063471 0.30428421 0.051641252 -0.50014746 0.028589252 -0.21271433 0.17283726
-0.50939256 0.020164939 0.14331886 -0.15190019 0.10274518 0.1486269 -0.063553765 0.1367242
-0.067811444 0.2956772 0.55127317 -0.07878466 -0.14963406 -0.9309504 -0.052412726 -2.2732906
-0.6003131 -0.3231031 0.17202316 -0.16426033 0.097858734 -0.61373174 -0.41794688 -0.11765118
0.036124095 0.08079814 0.02917039 0.1560238 -0.05762427 0.040570613 0.06160238 0.44472858
-0.004802961 0.0426553 -0.018875066 -0.03875375 -0.2492419 -0.27226576 -0.286269 -0.69965744
0.05557651 0.041936662 0.16213043 -0.34326935 -0.3577043 0.08514792 0.00788743 -0.42910427
-0.32415715 -0.09077847 0.28435603 0.07295008 0.13746186 0.062084723 -0.20363697 0.1735865
0.4266799 -0.18322246 -0.2313791 -0.5199694 0.48026732 0.56249243 -0.32210222 0.013610067
0.42055044 -0.7540684 -1.0222424 -0.04217934 -0.20046541 -0.06669809 -2.4387271 0.086617395
0.34100142 -0.13183977 -1.4599735 -0.5443237 -0.75175536 0.039971992 -0.2703024 -0.64801234
0.3361589 -0.3967958 0.14204703 0.5822596 1.0049735 -0.102257155 0.55538756 0.05629839
-1.2490106 -0.22630377 0.5916459 -0.23439144 0.12547104 0.11055268 0.6250111 0.5090738
-0.20650806 0.040083904 -0.13743573 0.8409006 -0.1634181 -0.65939575 0.82930666 -0.23776083
1.7110454 -0.36026832 -1.7783366 -0.24437352 5.9224195 -0.40728134 0.52342886 0.48040915
-0.6368779 -0.26266068 0.17793773 0.06505198 1.2484685 -0.8892098 -0.01672087 0.4397613
0.37064254 -0.7606071 -0.14179616 0.030562589 1.3408957 0.58168775 -0.6865065 0.33288303
0.33102077 0.100173995 0.23032328 -0.021722378 -0.0029736848 0.084423356 -0.3084859 0.54051906
-0.40807322 0.36719358 -0.09744322 0.2309706 0.064092696 -0.503788 0.044588607 -0.089861296
0.009732775 -0.1842549 0.13098414 -0.020194152 0.124878876 -0.5252031 -0.46171367 -0.29738206
-0.859271 -0.43155915 0.01404461 0.18599162 -0.3027093 0.42173404 0.3694634 -0.2521706
0.21511115 0.14793669 0.01292958 0.55059487 0.094256476 -0.22752754 -0.16222475 -0.26558653
0.44029623 -0.14184327 -0.18161413 0.022178523 1.2270653 -0.09227821 0.033310592 0.24259908
0.05592445 -0.06101774 -0.34361544 -0.5199905 0.041061476 0.112754904 -0.58733875 -1.2897924
-0.028358914 -0.54266346 0.3691838 0.14473227 0.020115625 -0.564764 -1.5461057 -1.0720557
-0.21484694 -0.32869643 -0.056755167 -0.15762861 -0.14849746 -0.15588346 -0.35995775 -0.4325007
0.25454864 -0.44440603 -1.7480574 -0.7552859 -0.5654963 -0.75402915 0.024510311 -0.13026622
0.023164032 -0.5210464 -0.6811962 0.83653605 0.067978814 -0.589999 -0.51613474 -0.74176437
-0.5273212 0.10390487 -0.45653632 -0.30298707 0.046771295 -0.8661291 -0.4838263 0.0048653684
0.025483869 0.5832819 0.04274965 -0.09641827 -0.39593536 0.589333 1.5252982 -0.031671382
0.07326043 0.26757163 0.40267238 0.24861212 0.11464514 0.22887456 1.0569323 -0.43528304
-0.44457576 -0.32855535 0.862234 -0.47737038 0.56706387 0.06311116 -0.48340464 -0.65537447

net2.2.bias f4 [64]
00000000: ee5a 32bd 5cce b6be e417 db3c 3ed3 01be
00000010: 978b 723c 19d6 9ebe 6267 7ebc bcbd 21bf
00000020: e4c9 47bd 85ab a4be a483 d0bd 4046 4e3e
00000030: a205 00be c549 89bd cde1 13be 58f3 c8be
00000040: 0f77 5f3e d958 28bf 7f2e f1be a358 a63d
00000050: ee34 1e3d 4176 16bd 0932 0fbf 3a96 953a
00000060: 193c edbe 0f09 0fbe 68c0 523e 0746 67bd
00000070: d271 0fbf 23e6 933d 1cce 053d 5235 80be
00000080: 0772 19bf 2d42 88be 4bac 70bb 5e71 11be
00000090: 2004 3bbe f5a7 e3be 217c c53d 417f c3bd
000000a0: 2741 f2be d358 adbe cff4 49bd ebf3 58be
000000b0: 1d6a cbbd 32e5 c8be a9fd 47bd a521 a6be
000000c0: 7b75 abbc 84ab a83d 4ea7 dcbd 5753 25be
000000d0: 76e7 fdbe 66a0 8fbe d655 5e3d 24d4 16bf
000000e0: a4bf 2c3e 9d7c 8fbe 9dd2 8fbe 3909 9fbd
000000f0: ae60 a13b 2769 ebbd f9cf 96bd 0046 203c
-0.04354375 -0.35704315 0.02674479 -0.12678239 0.014803789 -0.3102272 -0.015527578 -0.63180137
-0.048776522 -0.3216211 -0.101813585 0.20143986 -0.12502149 -0.067035235 -0.14441605 -0.39248157
0.21822761 -0.6576057 -0.47105786 0.08122375 0.038624696 -0.03673387 -0.5593572 0.0011412569
-0.46334913 -0.139683 0.2058121 -0.056463268 -0.5603305 0.072216295 0.032667264 -0.2504068
-0.59939617 -0.26612988 -0.0036723788 -0.14203402 -0.18263292 -0.4446408 0.09642816 -0.09545756
-0.47315332 -0.3385683 -0.049305733 -0.21186797 -0.09932349 -0.39237362 -0.048825894 -0.32447544
-0.020930042 0.08235839 -0.10774098 -0.16145073 -0.49590653 -0.28052062 0.05428108 -0.5891745
0.1686998 -0.2802476 -0.28090373 -0.07765431 0.004924855 -0.114946656 -0.073638864 0.009782314

net2.4.weight f4 [1, 64]
00000000: a3b8 bd3e dee4 84bf 2c81 a7be 66a4 a43f
00000010: 1c0d cebf 9dc3 603e eb11 02c0 413c 23bd
00000020: bd6e 24bf 14a1 0bbe 6284 afbe e763 b63e
00000030: 1b73 cbbf e1a4 273e 8962 c9be 440c 543f
00000040: d99e 6cbe 187e 19bf e3ce 29c0 9bbd 713e
00000050: aaa2 77be ec6b cdbf 4870 c0bf 863a 3d3b
00000060: b1c5 acbe 560f b43d 02df 36be 5e6d 383b
00000070: f6e9 07bd 0df6 1ac0 9bfe 8439 6e2c 88be
00000080: fa06 a03d a1ad dcbd aee5 1abe 459d 91bd
00000090: 01f2 bb3e 2815 8dbe 80bf 873e 904a f2bf
000000a0: ccb6 6ebf a04b 0cbf e5aa ea3e ea55 683e
000000b0: c3ba 5a39 a303 18bf 7a30 ad3d 4b4c 33bf
000000c0: 9f4c edbf b7ef a23e 8d35 afba 6e31 643f
000000d0: 44f2 ebbe 9ec1 edbe 71d0 4d3e 3eca 5dbf
000000e0: 742f 843e 3535 8bbf 9f92 2abf 7f3e c2be
000000f0: 349e 32be 561a c0be 50ce 4e3a 6a02 9d3e
0.3705493 -1.0382345 -0.32715738 1.286267 -1.6097751 0.2194962 -2.0323436 -0.039852384
-0.64231473 -0.13635665 -0.34280688 0.35623094 -1.5894502 0.1637149 -0.3933299 0.82831216
-0.2310747 -0.5995803 -2.6532524 0.23607485 -0.24183145 -1.604856 -1.5034266 0.0028873994
-0.33744577 0.087919876 -0.17858508 0.002814136 -0.033182107 -2.4212677 0.00025366698 -0.26596397
0.07813831 -0.107753046 -0.15126678 -0.07110075 0.36708072 -0.27555203 0.2651329 -1.8929005
-0.93247676 -0.54802895 0.45833507 0.22689024 0.00020859674 -0.5938055 0.08456512 -0.7003829
-1.8539008 0.31823513 -0.00133674 0.89137924 -0.46083272 -0.4643678 0.20099045 -0.8663672
0.25817454 -1.0875612 -0.66629976 -0.37938306 -0.17443162 -0.37520093 0.00078890193 0.30665904
