log/GC_SAC/cannot_used_lidar/maze3Env/20210803-1701/GC_SAC_HER_critic.pth (torch_old, 48518 bytes, 10 tensors)

net1.0.weight f4 [64, 24]
0	0xbea5aa5d	-0.3235654
1	0x3d6eddc5	0.058316965
2	0xbe333c0b	-0.17503373
3	0xbe1d6d0d	-0.15373631
4	0x3db3a986	0.087725684
5	0x3b2b9080	0.0026178658
6	0x3d3f7d82	0.046750553
7	0xbe4489a5	-0.19193132
8	0x3e484eeb	0.19561355
9	0x3e05da9d	0.13071676
10	0xbd34945a	-0.04408679
11	0x3dcbcbfb	0.099510156
12	0xbd815104	-0.06314281
13	0x3d204408	0.03912738
14	0xbc096cef	-0.008387788
15	0x3dfe4ee9	0.12417395
16	0x3e38c835	0.18045123
17	0xbe1c7931	-0.15280606
18	0x3e89a80f	0.2688603
19	0x3ed624e2	0.41825014
20	0x3e021fe4	0.12707478
21	0xbe8c5638	-0.2740953
22	0x3dee5fa6	0.11639337
23	0x3e02171c	0.12704128
24	0x3e931489	0.28726605
25	0x3e9ffd7b	0.31248078
26	0xbe22d850	-0.15902829
27	0x3d5eb6c6	0.054373525
28	0x3ef6faf2	0.4823833
29	0x3e1a8e8a	0.15093437
30	0x3ddedf8c	0.10882482
31	0x3b9290f6	0.004472847
32	0xbe2e789d	-0.17038198
33	0xbd835bd4	-0.06413999
34	0x3e3016e9	0.1719624
35	0xbd90c5a4	-0.07068947
36	0x3dedd5e0	0.11613059
37	0xbe2cd853	-0.16879396
38	0x3d1b9dd2	0.037992306
39	0xbe39dcbf	-0.18150614
40	0xba623aa6	-0.0008629955
41	0xbdfc6596	-0.123240635
42	0x3f423de2	0.75875676
43	0x3ee58537	0.44828197
44	0xbe0454c8	-0.12922966
45	0x3e57e72f	0.21084283
46	0x3dd3b668	0.103375256
47	0x3e05891a	0.13040581
48	0x3e94c7ae	0.29058594
49	0xbe744750	-0.23855329
50	0x3e2a2ffc	0.16619867
51	0x3f39dee2	0.7260572
52	0x3f006a56	0.50162256
53	0x3dd68de4	0.10476282
54	0x3dfc24c5	0.12311701
55	0xbe30c4ee	-0.17262623
56	0xbd97757b	-0.073954545
57	0xbd22c9d3	-0.039743256
58	0x3dda05e3	0.10645654
59	0xbc9a9262	-0.018868629
60	0xbc293290	-0.010326996
61	0xbc3f5758	-0.011678539
62	0xbdb5fe39	-0.0888638
63	0xbe475cea	-0.19469038
64	0x3dd1e413	0.1024858
65	0xbe0ee654	-0.1395505
66	0x3e7e0476	0.24806389
67	0x3e345705	0.1761132
68	0x3df7f75c	0.12107727
69	0x3f9c2e95	1.2201716
70	0xbeb3ed81	-0.3514214
71	0x3f8a0f59	1.0785934
72	0xbf0a9024	-0.5412619
73	0xbe029bb2	-0.12754706
74	0xbc493e90	-0.0122829825
75	0xbe176225	-0.14783533
76	0x3e8bbb71	0.27291444
77	0x3df9d430	0.12198675
78	0xba064f4a	-0.00051235093
79	0x3e24dea6	0.16100559
80	0x3e2bcf72	0.16778353
81	0x3d988dde	0.07448934
82	0xbd2cc225	-0.04217734
83	0xbdd50bc6	-0.10402636
84	0x3e033cd6	0.12816176
85	0x3e30c296	0.17261729
86	0x3e0f04c0	0.13966656
87	0x3d09b05d	0.03361546
88	0x3ac454a6	0.001497884
89	0xbd96a970	-0.073565364
90	0x3e005981	0.12534143
91	0x3e05b0d6	0.13055739
92	0xbcb94a48	-0.022618428
93	0xbebb1ca9	-0.36545303
94	0xbe9646ca	-0.29350883
95	0x3ebc11b5	0.3673226
96	0x3ecfdc23	0.40597638
97	0x3dd5e61a	0.10444279
98	0x3e0ce220	0.13758135
99	0x3e027041	0.12738134
100	0xbeacd1fa	-0.3375395
101	0x3b8f0f60	0.0043658465
102	0xbe4d2108	-0.20032132
103	0xbe64d016	-0.22345003
104	0x3def6d7a	0.11690803
105	0xbdfd570e	-0.1237012
106	0x3d1eea0f	0.038797434
107	0xbe0f8f74	-0.14019567
108	0xbd32f571	-0.043691102
109	0x3e05d146	0.13068113
110	0x3d980494	0.07422748
111	0xbd6bbabd	-0.057551134
112	0xbe59084f	-0.21194576
113	0xbd8af987	-0.06785875
114	0xbeb0b852	-0.34515625
115	0x3df3a65c	0.11896965
116	0xbc606880	-0.01369679
117	0xbf3b2ac9	-0.7311216
118	0xbd84e233	-0.064884566
119	0xbe8021b7	-0.25025722
120	0x3e958a61	0.29207137
121	0xbe8f1157	-0.27942917
122	0xbd0fd784	-0.03511764
123	0xbdaa206b	-0.083069645
124	0xbea533ed	-0.3226618
125	0x3e0d3bb8	0.13792312
126	0xbd7bf0a9	-0.06150881
127	0xbd216ebd	-0.03941225
128	0x3d9c6e32	0.076382056
129	0xbdab9fa0	-0.083800554
130	0x3dd59e86	0.104306266
131	0xbde2b5c4	-0.11069825
132	0xbdd63ecc	-0.10461196
133	0x3df41b2e	0.119192466
134	0xbaf9e537	-0.0019065504
135	0x3deae66a	0.11469729
136	0x3d88746c	0.06662831
137	0x3ccf2d35	0.025290111
138	0x3f40a3e1	0.7525006
139	0x3ec44013	0.38330135
140	0x3c8676e0	0.016414106
141	0xbe460068	-0.19336092
142	0x3e3a94fb	0.18220894
143	0xbe4b790e	-0.19870397
144	0x3ec9b95b	0.39399227
145	0xbe88ed14	-0.26743376
146	0x3dc0c5fc	0.094127625
147	0xbe96e2d2	-0.29469925
148	0xbe6e218d	-0.23254986
149	0xbe32f041	-0.17474462
150	0x3e21d710	0.15804696
151	0xbdee8df8	-0.11648172
152	0xbd8fa8f6	-0.070146486
153	0xbe41eed2	-0.18938759
154	0x3ceef7a7	0.029170824
155	0x3e0f415c	0.13989776
156	0x3dd0e850	0.1020056
157	0x3e1794de	0.14802882
158	0xbdaf4918	-0.085588634
159	0x3e2be302	0.16785815
160	0xbdacfd72	-0.08446778
161	0x3e0fb418	0.14033544
162	0xbe21501a	-0.15753213
163	0xbda71023	-0.08157375
164	0x3e260472	0.16212633
165	0xbe194d43	-0.1497088
166	0xbdb4758b	-0.08811482
167	0xbe42c919	-0.19022025
168	0xbf1e9eef	-0.61961263
169	0x3f078be1	0.52947813
170	0xbb1694c0	-0.0022976846
171	0xbe9948d4	-0.29938376
172	0xbdf9da71	-0.121998675
173	0x3e34e368	0.17664874
174	0xbb225482	-0.002476961
175	0xbdbf2aa1	-0.09334303
176	0x3d676412	0.05649192
177	0xbadeed77	-0.0017008026
178	0xbe1eb6d7	-0.15499435
179	0x3e1b309b	0.1515526
180	0xbdfce91e	-0.12349151
181	0x3e740e49	0.23833574
182	0x3af6f7b9	0.0018842138
183	0xbdf69577	-0.12040227
184	0x3e581065	0.21100004
185	0x3cf72ed0	0.03017369
186	0x3efd79aa	0.49506885
187	0x3d778a5f	0.060434695
188	0xbe0d655c	-0.13808197
189	0xbdf16918	-0.11787623
190	0x3c84d989	0.01621701
191	0xbd55ad1e	-0.05216705
192	0xbdea1ae6	-0.11430912
193	0xbec9aa6d	-0.39387837
194	0xbcdee968	-0.027210906
195	0xbe9063d8	-0.28201175
196	0xbef1808d	-0.4716839
197	0x3db53910	0.088487744
198	0xbdf61883	-0.12016394
199	0xbe57d6c5	-0.21078022
200	0x3de9e65f	0.11420893
201	0xbe84d728	-0.259454
202	0x3dede331	0.11615599
203	0x3d19c886	0.03754475
204	0xbd7e1ccb	-0.062039178
205	0xbdada7af	-0.08479249
206	0xbd862ca5	-0.06551484
207	0xbdf99139	-0.12185902
208	0xbe73dda4	-0.23815018
209	0xbe373a20	-0.17893267
210	0xbdd0f3a3	-0.1020272
211	0x3e4da37b	0.20081894
212	0xbdce8568	-0.10084039
213	0x3e2004fd	0.15626903
214	0xbea369f5	-0.31916776
215	0x3eeb2810	0.45929003
216	0xbeec54e8	-0.46158528
217	0xbdcf3d85	-0.10119156
218	0x3d9036d8	0.070417106
219	0x3c633098	0.013866566
220	0xbdb54104	-0.08850291
221	0x3caf42f0	0.021394223
222	0x3e08e1ab	0.13367335
223	0xbdb7044f	-0.08936369
224	0x3e24a403	0.1607819
225	0xbde814d3	-0.11332097
226	0xbe37ed97	-0.17961727
227	0xbdb56867	-0.08857804
228	0x3e10ea8b	0.14151971
229	0x3db034d5	0.08603827
230	0xbe354a89	-0.17704214
231	0xbdb8d31d	-0.09024642
232	0x3d5c6ad4	0.053812817
233	0x3e12fa98	0.14353406
234	0x3efb0de3	0.49034032
235	0xbd9d04b8	-0.07666916
236	0xbe43d995	-0.1912597
237	0xbcbd66cf	-0.023120312
238	0xbd87579b	-0.06608506
239	0x3bf314e0	0.00741826
240	0xbdfb06b2	-0.122571364
241	0x3e8ac93c	0.27106655
242	0xbe0ec0b9	-0.13940705
243	0xb91ef929	-0.00015160874
244	0x3d6f8338	0.05847475
245	0xbcda8328	-0.026673868
246	0xbd8e4778	-0.06947225
247	0xbb8c5156	-0.004282157
248	0x3dcea5b4	0.10090199
249	0xbd0f43ff	-0.034976956
250	0xbd911e9c	-0.070859164
251	0xbe02a891	-0.12759615
252	0x3c8efb2b	0.01745375
253	0x3e612ba1	0.219893
254	0xbce62c1e	-0.028097209
255	0x3ce24084	0.027618654

net1.0.bias f4 [64]
0	0x3d175435	0.03694554
1	0x3ad651cc	0.0016351282
2	0xbe05a2f7	-0.13050447
3	0xbd8b4c7d	-0.06801698
4	0x3c3373a4	0.010952864
5	0xbd49cf9b	-0.049270254
6	0xbdb627d2	-0.08894314
7	0xbe0e8ae3	-0.13920169
8	0x3c533068	0.012889959
9	0xbd766e7c	-0.06016396
10	0xbd39b1c1	-0.045335535
11	0xbe34cd46	-0.1765643
12	0x3e12c2dd	0.14332147
13	0x3d60aba1	0.054851178
14	0x3e643e40	0.22289371
15	0x3d2a1080	0.041519642
16	0xbe4887d4	-0.19583064
17	0x3e220370	0.15821624
18	0xbe541511	-0.20711161
19	0x3d1c3bc0	0.03814292
20	0x3ddf1f69	0.10894663
21	0x3d2dbf25	0.042418618
22	0x3e42f41c	0.19038433
23	0xbdeb6cb2	-0.11495341
24	0xbc941530	-0.01807651
25	0xbe3dafc4	-0.1852408
26	0xbd073574	-0.03300996
27	0xbdb69974	-0.089159876
28	0x3c6ecac2	0.014574708
29	0xbe66ba0a	-0.22531906
30	0x3d6f2dac	0.058393165
31	0xbe1f9bb1	-0.15586735
32	0xbe2b231a	-0.16712609
33	0x3e031608	0.12801373
34	0x3cff5d59	0.031172441
35	0xbe148edb	-0.1450762
36	0xbe203fb5	-0.15649302
37	0xbdf92b02	-0.12166406
38	0xbcecea6e	-0.028920379
39	0xbd3a5e9a	-0.045500375
40	0x3e20ca42	0.15702155
41	0xbd3bf209	-0.04588512
42	0x3dd89f63	0.105772756
43	0xbe316262	-0.17322686
44	0x3d5dcb1a	0.05414877
45	0x3e163782	0.14669612
46	0xbd44e658	-0.048071235
47	0x3b8e0e85	0.004335227
48	0x3bfb4703	0.0076683774
49	0xbd9c5b65	-0.076346196
50	0xbdbef2a5	-0.093236245
51	0x3d45b87d	0.048271645
52	0x3d82ebde	0.06392644
53	0x3c730b49	0.014834234
54	0xbe5cf546	-0.2157794
55	0xbd7b41c2	-0.06134201
56	0xbd8071c0	-0.06271696
57	0x3c1936e4	0.009351466
58	0xbc85b929	-0.016323643
59	0x3d8ee418	0.06977099
60	0x3e172f80	0.14764214
61	0xbdd14c59	-0.1021964
62	0x3e70a182	0.2349911
63	0xbd602156	-0.05471929

net1.2.weight f4 [64, 64]
0	0x3c731622	0.01483682
1	0xbf2636e5	-0.6492751
2	0xbe001b8b	-0.12510507
3	0x3d22477b	0.03961895
4	0x3c9702e1	0.01843399
5	0xbe44e6db	-0.1922869
6	0xbe17aaa6	-0.14811191
7	0x3e5fcc07	0.21855174
8	0x3dd7b30f	0.105321996
9	0x3ef32356	0.47487897
10	0xbdbe567d	-0.0929384
11	0xbe6a5461	-0.2288375
12	0xbd248395	-0.04016455
13	0xbec5878e	-0.38579983
14	0x3df25aa1	0.11833692
15	0xbd99d997	-0.07512205
16	0x3db94d2a	0.09047921
17	0xbe7db050	-0.24774289
18	0xbd51cc2a	-0.051220097
19	0xbe75021b	-0.23926584
20	0xbd3daff9	-0.0463104
21	0xbdcac89a	-0.09901543
22	0xbe5a6857	-0.21328865
23	0xbdd643f7	-0.10462182
24	0xbd10a963	-0.03531779
25	0xbe04e42f	-0.1297767
26	0xbe00bb8e	-0.12571546
27	0xbe520a7f	-0.20511816
28	0x3ea2fef9	0.31835154
29	0x3d8f0a4e	0.06984387
30	0x3d2ec37a	0.04266689
31	0xbef0137c	-0.46889865
32	0x3f150af1	0.5821982
33	0xbe0ea1ef	-0.1392896
34	0x3d925edd	0.07147
35	0x3e163ec9	0.14672388
36	0x3f5b0521	0.855547
37	0x3ecfc0cc	0.4057678
38	0x3f2dba82	0.67862713
39	0xbec39ab3	-0.38203964
40	0xbe3669bf	-0.17813776
41	0xbdd4671a	-0.103712276
42	0x3e01bca5	0.12669618
43	0x3d8b89ac	0.06813368
44	0x400de5d4	2.2171526
45	0x3f54f856	0.8319143
46	0xbdcfb163	-0.10141256
47	0x3ca8056d	0.0205104
48	0x406248a3	3.5356834
49	0x3de36d77	0.11104863
50	0xbeab0da3	-0.33408841
51	0xbea8a13a	-0.32935506
52	0x3e2626fb	0.16225807
53	0x3e767709	0.24068846
54	0x3c8cdc5a	0.017194916
55	0xbcbc42ff	-0.022981165
56	0xbdb93a8f	-0.09044372
57	0xbdf5bcd5	-0.119989075
58	0x3e1ecc57	0.15507637
59	0x3e20050b	0.15626924
60	0xbe0d0ca5	-0.13774355
61	0xbe554e7e	-0.20830724
62	0x3e7ef49c	0.24897999
63	0xbe09e451	-0.13466002
64	0x3e03386a	0.12814489
65	0xbedfd8ce	-0.43720096
66	0x3bb41fca	0.0054969536
67	0x3e2b3e0f	0.16722892
68	0xbd585776	-0.052817784
69	0xbdb57372	-0.0885991
70	0x3de2a33e	0.11066292
71	0xbf01f526	-0.5076469
72	0x3e42afcc	0.19012374
73	0xbca79cae	-0.020460453
74	0xbcfefdd1	-0.031126888
75	0xbe188ba8	-0.14897025
76	0x3e23c17d	0.15991779
77	0x3d79206d	0.06082194
78	0xbefc355e	-0.49259466
79	0xbcb2b914	-0.021816768
80	0xbca5ad66	-0.020224284
81	0xbd9b8d72	-0.07595338
82	0x3d94eff0	0.07272327
83	0xbb8e47fb	-0.004342077
84	0x3d86ef24	0.06588581
85	0x3e1a9db0	0.15099216
86	0xbe87ba3f	-0.26509282
87	0xbcc6e79e	-0.024280366
88	0xbd95604f	-0.0729376
89	0x3dd1e20d	0.10248194
90	0xbc290e86	-0.010318404
91	0xbc89d598	-0.016825482
92	0x3e4c6e1a	0.19963875
93	0x3c45a44f	0.0120631
94	0x3e4874e7	0.19575845
95	0xbafd3db4	-0.0019320757
96	0x3e7b0e6a	0.24517217
97	0x3daafe07	0.08349233
98	0xbe19c8de	-0.15018031
99	0xbea91555	-0.33024088
100	0xbcdfa850	-0.027301937
101	0xbcd0c75d	-0.025485689
102	0xbd304391	-0.043033186
103	0x3e0fa638	0.14028251
104	0x3e7374ed	0.23775072
105	0x3d41da35	0.04732724
106	0xbe69976e	-0.22811672
107	0xbd8e95b2	-0.06962146
108	0x3dc04c0a	0.09389503
109	0x3e36428d	0.17798825
110	0xbb951490	-0.0045495704
111	0x3cb66b62	0.022268001
112	0x3e697dc9	0.2280189
113	0xbdf29290	-0.11844361
114	0x3ec87a96	0.39156026
115	0xbe9668e3	-0.29376897
116	0xbe54c756	-0.20779166
117	0xbe9381c4	-0.2880994
118	0xbdc539b5	-0.09630147
119	0xbe89b673	-0.2689701
120	0x3d652280	0.055941105
121	0x3ddf7426	0.109108254
122	0xbe0ee82d	-0.13955756
123	0x3d125d49	0.035733495
124	0x3d280ec9	0.041029725
125	0xbbd32f5a	-0.0064448537
126	0xbdc39af8	-0.09551042
127	0x3e14b4c3	0.1452208
128	0xbd3981cd	-0.045289803
129	0x3d6c5a93	0.057703566
130	0xbe6bac1c	-0.23014873
131	0x3df8be13	0.12145629
132	0xbdea629a	-0.11444588
133	0x3d6b3485	0.057423133
134	0x3da6512f	0.08120953
135	0x3cbe410e	0.02322438
136	0xbdc606fe	-0.096693024
137	0x3e97aeb8	0.29625487
138	0x39a9facd	0.00032421053
139	0x3da3de92	0.08001436
140	0x3c68dd5d	0.014212933
141	0x3dd31fb0	0.10308778
142	0x3c9a833d	0.018861407
143	0x3dde2382	0.10846616
144	0x3d3cb440	0.046070337
145	0xbd45cd79	-0.048291657
146	0xbd26857b	-0.04065464
147	0x3daf1428	0.085487664
148	0x3d8d8cdd	0.06911633
149	0x3e3285dd	0.17433877
150	0xbd965da2	-0.07342078
151	0x397ffc86	0.00024412767
152	0x3e15d472	0.14631823
153	0xbb4d3bae	-0.003131609
154	0x3caf9443	0.021433001
155	0xbdf61345	-0.12015394
156	0x3c71fc7a	0.014769668
157	0xbde5f661	-0.11228634
158	0x3e0163dd	0.12635751
159	0x3d813036	0.06308024
160	0xbc8bb4b2	-0.017053936
161	0xbd566bf8	-0.05234906
162	0xbdd5874d	-0.10426197
163	0xbe8024e7	-0.25028154
164	0xbca64742	-0.02029765
165	0x3e235162	0.15949014
166	0x3e8cbbd9	0.27487066
167	0xbbba3dce	-0.005683637
168	0xbd13c35b	-0.036074977
169	0x3d10c581	0.035344604
170	0x3b22a1a5	0.0024815586
171	0x3ddc04c9	0.107431
172	0xbdf6afb8	-0.120452344
173	0x3c0da276	0.008644691
174	0x3dfea03e	0.124329075
175	0x3d937410	0.071998715
176	0xbe53af2b	-0.2067229
177	0x3e28027e	0.164072
178	0x3e28b9ca	0.16477123
179	0xbdba9953	-0.091112755
180	0x3d3634d9	0.044483993
181	0x3dfb2d29	0.12264473
182	0x3d5c364a	0.05376271
183	0x3d3da8dd	0.04630362
184	0xbd10d8c0	-0.03536296
185	0x3e3afca9	0.18260445
186	0xbd8cfe30	-0.0688442
187	0xbd0018c0	-0.031273603
188	0x3e03539f	0.12824868
189	0xbbf8c656	-0.007592003
190	0x3cf1cdb8	0.02951704
191	0xbce0018e	-0.027344491
192	0xbd4e8daa	-0.05042807
193	0x3dab94c9	0.08377988
194	0xbde1876f	-0.1101216
195	0x3a60c06e	0.0008573596
196	0xbd940c08	-0.07228857
197	0x3c8d9c6e	0.017286506
198	0x3e1f2c98	0.15544355
199	0xbde8a916	-0.113603756
200	0xbdb8b21d	-0.090183474
201	0x3e54c345	0.20777614
202	0xbd32c783	-0.0436473
203	0x3c0b5e0e	0.008506311
204	0x3db0f9b7	0.08641379
205	0xbd14d6cc	-0.03633766
206	0xbd589f2e	-0.05288618
207	0x3dae915f	0.08523821
208	0x3ce36cec	0.027761899
209	0x3dcf176a	0.10111888
210	0xbd2f1acd	-0.04275017
211	0x3c6a8a2f	0.014315172
212	0x3df88755	0.121351875
213	0x3df3e319	0.1190855
214	0xbd22e5a3	-0.03976978
215	0xbd816cfe	-0.06319617
216	0x3d8294a7	0.063760094
217	0x3b0cbaa4	0.0021473551
218	0xbd41ae67	-0.047285464
219	0xbd8714bb	-0.06595751
220	0xbd3d0630	-0.04614848
221	0xbdbbcd9c	-0.09170076
222	0xbd9ec88c	-0.07753095
223	0x3d97eeeb	0.07418617
224	0xbddd2eab	-0.10799917
225	0x3dd3c779	0.10340781
226	0x3d794f8a	0.06086687
227	0xbde01d0e	-0.10943042
228	0xbdb6d713	-0.08927741
229	0x3e574d19	0.21025504
230	0x3e886c76	0.2664525
231	0x3dca6625	0.09882764
232	0xbbba39ef	-0.0056831758
233	0xbe396a85	-0.1810704
234	0x3d928ef0	0.071561694
235	0x3deced12	0.11568655
236	0xbcff5785	-0.031169662
237	0x3c5303cb	0.012879322
238	0x3df030a6	0.11728029
239	0x3e09ce6e	0.13457653
240	0xbe8029fd	-0.25032035
241	0x3d42d785	0.047568817
242	0x3db0aa8c	0.08626279
243	0xbdd3aff5	-0.103362955
244	0xbde1a959	-0.110186286
245	0x3e8729ec	0.2639917
246	0xbcbe9045	-0.023262152
247	0x3e12163f	0.14266299
248	0x3df9f21b	0.12204381
249	0x3e38b0dd	0.18036218
250	0xbddf5d5e	-0.1090648
251	0xbcde4208	-0.027131096
252	0x3e228670	0.15871596
253	0xbe536d20	-0.20647097
254	0xbd0ed66c	-0.034872457
255	0x3d958f89	0.07302768

net1.2.bias f4 [64]
0	0xbca1932d	-0.0197235
1	0xbcf9f551	-0.030512484
2	0x3c1c4df3	0.009540069
3	0xbda06618	-0.07831973
4	0x3d764577	0.06012484
5	0xbd44aad5	-0.04801448
6	0xbce7e0a9	-0.028305368
7	0x3d83cdf4	0.06435767
8	0x3df40eaf	0.11916863
9	0x3e1fd2ae	0.15607712
10	0x3b336295	0.0027371992
11	0xbe1dfa32	-0.15427473
12	0xbd1e5470	-0.038654745
13	0xbcc740a7	-0.02432282
14	0x3c30a8b4	0.010782409
15	0x3d0dea0a	0.034647025
16	0x3d86ff98	0.065917194
17	0xbd30bfa8	-0.043151528
18	0xbbab3f2b	-0.005226036
19	0xbe251b60	-0.16123724
20	0xbe4304b5	-0.19044764
21	0xbd924dd5	-0.071437515
22	0x3d4010ed	0.04689114
23	0x3e21d123	0.15802436
24	0xbd12d2e4	-0.035845652
25	0xbc5fd9e5	-0.01366279
26	0xbc9e5a08	-0.01933004
27	0x3e0216a7	0.12703954
28	0xbdbccaa8	-0.09218341
29	0x3db01039	0.08596844
30	0x3dbebb72	0.09313096
31	0x3dfed70b	0.1244336
32	0xbcf89be9	-0.030347781
33	0xbd41f8ba	-0.047356345
34	0xbba19501	-0.0049310927
35	0xbcc2eb7a	-0.023793925
36	0xbca29dad	-0.019850576
37	0x3c5e7cec	0.013579588
38	0x3da0077e	0.07813929
39	0xbb745b02	-0.003728569
40	0x3caf2d30	0.021383852
41	0xbdc214b5	-0.09476606
42	0xbdcf7df7	-0.10131448
43	0x3d93fbb8	0.07225746
44	0x3e061ac1	0.13096143
45	0xbcada84c	-0.021198414
46	0x3cf03dfb	0.02932643
47	0x3c91717c	0.017754309
48	0x3dc32ae7	0.09529667
49	0xbe1ba6dc	-0.1520037
50	0x3d840bf6	0.06447594
51	0xbe771cb0	-0.24132037
52	0xbdd3ff81	-0.10351468
53	0xbde8b915	-0.113634266
54	0x3d106936	0.035256587
55	0xbcc031c8	-0.023461238
56	0xbd3d5e36	-0.046232425
57	0xbaf056c0	-0.00183364
58	0x3e0e0cf3	0.13872127
59	0xbd0beddb	-0.034162384
60	0xbdd91457	-0.10599583
61	0x3dbc3f40	0.091917515
62	0xbd0e857d	-0.034795273
63	0x3d3191a7	0.043351796

net1.4.weight f4 [1, 64]
0	0xbf39dcc1	-0.7260247
1	0xbe153b95	-0.1457351
2	0x3dbf91ab	0.09353956
3	0x3d2f549e	0.042805307
4	0xbc5a77e7	-0.013334251
5	0x3d4483e6	0.04797735
6	0xbea99f61	-0.3312941
7	0xbec710ed	-0.388801
8	0xbeadb521	-0.33927253
9	0x3d959c7f	0.0730524
10	0xbe98fece	-0.298819
11	0xbf36ef0b	-0.714585
12	0x3d783243	0.06059481
13	0xbe6a83da	-0.2290186
14	0x3d66586e	0.056236677
15	0xbe73d95d	-0.23813386
16	0x3dd452f5	0.10367385
17	0xbde19ce3	-0.11016252
18	0xbeafdde6	-0.34348983
19	0xbf7511a8	-0.95730066
20	0xbf2f9a89	-0.68595177
21	0x3e10c96f	0.14139341
22	0x3da87f7f	0.08227443
23	0x3e8df925	0.27729145
24	0xbe81f5ad	-0.25382748
25	0x3e802360	0.2502699
26	0x3d20cec0	0.039259672
27	0x3df7c9db	0.12099048
28	0x3e5a8b2c	0.21342152
29	0xbeb3b8c9	-0.35101917
30	0x3e7d64f2	0.24745539
31	0x3d97ff87	0.07421785
32	0xbeb257d5	-0.34832636
33	0x3d3aeda4	0.045636788
34	0xbe3ecaae	-0.18632004
35	0xbe346943	-0.17618279
36	0xbe5486c4	-0.20754534
37	0x3e60b7af	0.2194507
38	0x3dd6b122	0.10483004
39	0x3e03baf8	0.12864292
40	0xbe163c60	-0.14671469
41	0x3a6b8844	0.0008984844
42	0xbec3b761	-0.38225845
43	0x3d82e220	0.06390786
44	0x3d74acce	0.059735112
45	0xbefffaa5	-0.49995914
46	0xbf2f6578	-0.68514204
47	0x3ca85e78	0.020552859
48	0x3e0559b2	0.13022497
49	0xbf2f6521	-0.68513685
50	0xbf0397df	-0.5140361
51	0xbe91cafa	-0.2847517
52	0xbe36deb9	-0.178584
53	0xbf3c004d	-0.7343796
54	0x3e03d010	0.12872338
55	0xbe881d55	-0.2658488
56	0xbe701ec4	-0.23449236
57	0x3eb0fce7	0.3456795
58	0x3d967180	0.07345867
59	0xbf136284	-0.575722
60	0xbe80133e	-0.2501468
61	0x3d2c095b	0.04200111
62	0xbe8aab5d	-0.27083865
63	0xbd6f1797	-0.058372106

net2.0.weight f4 [64, 24]
0	0x3e9fd84a	0.31219703
1	0xbd2730f4	-0.04081817
2	0xbdb56bef	-0.08858477
3	0xbdb82650	-0.089916825
4	0x3f0c719c	0.54860854
5	0xbe0a9b38	-0.13535774
6	0x3dad00d0	0.084474206
7	0xbd663026	-0.05619826
8	0x3e1017fb	0.14071648
9	0x3d9d3e68	0.07677919
10	0xbd9d9422	-0.0769427
11	0x3cf9b621	0.030482354
12	0x3d60b772	0.054862447
13	0x3e185523	0.14876227
14	0xbddac8aa	-0.10682805
15	0xbe2757e5	-0.16342123
16	0xbcfae9f0	-0.030629128
17	0xbd5a7309	-0.053332362
18	0x3cb6da9d	0.02232104
19	0x3d6cf401	0.057849888
20	0xbe24d668	-0.16097414
21	0xbea81804	-0.32830822
22	0x3d9cb4fe	0.07651709
23	0x3f0993d3	0.53741187
24	0xbed871d7	-0.42274353
25	0xbed5c38c	-0.41750753
26	0x3dfe737c	0.12424371
27	0xbe8f2abf	-0.279623
28	0xbd5ce2c1	-0.053927187
29	0xbd0e2964	-0.034707442
30	0x3e1621fc	0.14661402
31	0x3d5bf7e6	0.05370321
32	0x3e112ff8	0.14178455
33	0xbd9e2973	-0.077227496
34	0x3da2bb53	0.079458855
35	0xbdbe2113	-0.09283652
36	0x3e0a162a	0.13485017
37	0xbe141bfc	-0.144638
38	0x3ccf156c	0.02527877
39	0x3e163da8	0.14671957
40	0x3ddd7842	0.10813953
41	0x3e3e2264	0.18567806
42	0x3cc5edbc	0.024161212
43	0xbdaa4d65	-0.08315543
44	0xbd5d8dbc	-0.054090247
45	0xbd114a23	-0.035471093
46	0x3d161e36	0.036649905
47	0x3d9ff78e	0.07810889
48	0x3f8c3226	1.0952804
49	0x3dc5b1e7	0.09653073
50	0xbdf9b1fa	-0.121921495
51	0x3db7973f	0.08964395
52	0x3df8e03e	0.12152146
53	0xbda3aba9	-0.07991726
54	0xbe2e7460	-0.17036581
55	0xbd67786a	-0.05651132
56	0xbd3892f4	-0.04506202
57	0x3bdc4040	0.0067215264
58	0xbcf0015f	-0.029297529
59	0xbb887792	-0.0041646445
60	0xbd0629c4	-0.032754675
61	0x3e350d30	0.17680812
62	0x3e0ba528	0.13637221
63	0x3d55e180	0.052217007
64	0x3de4c583	0.11170485
65	0x3e356802	0.17715457
66	0x3db772e2	0.08957459
67	0x3d656b2c	0.05601041
68	0xbde6fe5f	-0.11278986
69	0xbdcfb1c7	-0.1014133
70	0xbc823e79	-0.01589893
71	0x3deb640a	0.1149369
72	0xbe9bc11e	-0.30420774
73	0xbcb25cbf	-0.02177274
74	0xbde52938	-0.111895025
75	0xbde978d1	-0.11399997
76	0x3de67508	0.11252791
77	0xbe113b02	-0.14182666
78	0x3c229c7b	0.009925003
79	0x3e2e1f32	0.17004088
80	0xbe2be688	-0.1678716
81	0x3c2308f3	0.009950864
82	0xbe2f52dc	-0.17121452
83	0x3e3610a6	0.17779788
84	0xbd4fb17a	-0.050706364
85	0xbb3a1315	-0.0028392721
86	0xbdc4f228	-0.096165
87	0xbe240f6c	-0.16021508
88	0xbd52551c	-0.051350698
89	0x3e0cb6ea	0.13741651
90	0x3f0040fd	0.50099164
91	0xbf16a12f	-0.58839697
92	0xbd82b368	-0.06381875
93	0x3dc8eb60	0.09810519
94	0xbd903001	-0.07040406
95	0x3d5e790d	0.05431466
96	0xbeb7b9c0	-0.35883904
97	0xbedad78e	-0.4274258
98	0x3e0df492	0.13862827
99	0xbe3c3070	-0.18377852
100	0xbdc5d072	-0.096588984
101	0x3e19f94c	0.15036505
102	0x3d98dba4	0.07463768
103	0xbe23cd99	-0.15996398
104	0xbdbb7544	-0.09153226
105	0x3d03eb58	0.032206863
106	0x3e4b8433	0.19874649
107	0x3dfdce98	0.1239292
108	0x3d668ce5	0.05628671
109	0x3dcbff02	0.09960748
110	0x3dfdf282	0.1239977
111	0xbe323f8b	-0.17407052
112	0x3e19aee4	0.15008122
113	0x3d02ce53	0.031935047
114	0x3dcd9888	0.10038859
115	0x3e436eec	0.19085282
116	0xbda3e962	-0.080034986
117	0x3cbde109	0.023178594
118	0x3e2fd1a0	0.1716981
119	0x3de3dc9e	0.11126064
120	0xbd7ee7f4	-0.062232926
121	0x3e21f2eb	0.15815322
122	0xbe2513db	-0.16120856
123	0xbd2b193b	-0.04177211
124	0xbd8f9b82	-0.07012083
125	0xbe0c448d	-0.13698025
126	0xbe1d69ec	-0.15372437
127	0x3d14ca16	0.036325537
128	0x3d8ceb59	0.068808265
129	0xbd9e1415	-0.07718674
130	0x3d51a3f2	0.05118174
131	0xbd81d23f	-0.063389294
132	0xbe07eb82	-0.13273433
133	0xbd00ce79	-0.031446908
134	0x3d97ca2b	0.07411607
135	0x3dcfd72f	0.10148465
136	0xbd35f9cc	-0.044427678
137	0x3e0e0a9c	0.13871235
138	0x3f1d4f30	0.61448956
139	0x3f3886e1	0.7208081
140	0xbe0b270a	-0.13589111
141	0x3d941f72	0.0723256
142	0x3d683ab3	0.056696605
143	0xbde69a48	-0.112598956
144	0xbe8ef3a8	-0.2792027
145	0x3ece9436	0.4034745
146	0x3e087c20	0.133286
147	0x3e5b8f77	0.21441446
148	0x3e15b29d	0.14618917
149	0x3e323882	0.17404369
150	0x3e435c90	0.19078279
151	0xbd802165	-0.062563695
152	0xbdcd939f	-0.10037922
153	0xbe3d7ea2	-0.18505338
154	0x3e47901c	0.19488567
155	0xbe480b0e	-0.19535467
156	0x3e28d9ee	0.16489384
157	0xbdbf5285	-0.09341911
158	0x3daf24a7	0.08551913
159	0x3d6d591c	0.05794631
160	0x3d09e814	0.033668593
161	0x3d0caff8	0.034347504
162	0xbd7f963a	-0.062399127
163	0x3d93bc56	0.072136566
164	0xbc839fd8	-0.01606743
165	0x3e363b21	0.17795993
166	0x3dc8ed41	0.098108776
167	0x3dec305b	0.115326606
168	0xbdc9724a	-0.09836252
169	0x3e8478c2	0.2587338
170	0xbd320360	-0.04346025
171	0x3f192f9e	0.59838283
172	0x3efee665	0.49785152
173	0x3d916da0	0.071009874
174	0xbc72fc12	-0.014830606
175	0xbd225565	-0.03963222
176	0xbe1a30ce	-0.1505768
177	0xbc2bf990	-0.010496512
178	0x3d762ce5	0.06010141
179	0xbdc72803	-0.097244285
180	0x3d40b5c1	0.047048334
181	0x3e0f09f2	0.13968638
182	0xbb1b4c21	-0.00236965
183	0xbe13aa6c	-0.1442048
184	0x3ce0a8b3	0.027424192
185	0x3dcdafbd	0.10043285
186	0xbf015dbc	-0.5053365
187	0xbf103f00	-0.5634613
188	0x3d9411e0	0.07229972
189	0x3d21d424	0.039508954
190	0x3eec3249	0.46132115
191	0xbf1655ac	-0.58724475
192	0xbe622fcb	-0.22088544
193	0xbd7ce138	-0.061738223
194	0xbe2773a8	-0.16352713
195	0xbea5a4f1	-0.32352403
196	0x3d03db11	0.03219134
197	0xbc23b5f0	-0.009992108
198	0x3bd8b771	0.006613665
199	0xbe05a500	-0.13051224
200	0xbd0fb138	-0.03508112
201	0x3e5cc0c6	0.21557912
202	0x3e13ddce	0.1444008
203	0x3e17f188	0.1483823
204	0xbc3f4986	-0.011675244
205	0xbe1903f8	-0.1494292
206	0xbe0feb9c	-0.14054722
207	0xbdc47bf6	-0.09593956
208	0x3e1937aa	0.1496264
209	0x3dcbe6f6	0.09956162
210	0x3eebd8c3	0.46063814
211	0x3faa7376	1.3316486
212	0xbe377e50	-0.17919278
213	0xbea6ce49	-0.32579258
214	0xbdc6f653	-0.09714951
215	0x3e80fd61	0.25193313
216	0xbedc1b81	-0.42989734
217	0xbef619d2	-0.48066574
218	0xbce45080	-0.027870417
219	0x3e8e21c2	0.2776013
220	0xbebb17a0	-0.36541462
221	0xbe1c0696	-0.15236887
222	0xbc67eca4	-0.014155541
223	0x3e2cd4e2	0.16878083
224	0x3e21892a	0.1577498
225	0x3d834d7c	0.06411263
226	0x3e2dbde2	0.16966966
227	0x3e701dde	0.23448893
228	0xbd1ed6ea	-0.038779177
229	0x3c6730c0	0.014110744
230	0x3cb459c3	0.022015458
231	0xbe1a2654	-0.15053684
232	0xbd5d1c95	-0.053982336
233	0x3e3fce9c	0.18731159
234	0xbe3cd774	-0.18441564
235	0xbe65e4da	-0.22450581
236	0x3ddff834	0.10936013
237	0x3e8cf471	0.27530244
238	0xbe31e024	-0.17370659
239	0xbcbca004	-0.02302552
240	0xc040ef8b	-3.0146205
241	0xbc310778	-0.010805003
242	0xbd4514fc	-0.048115715
243	0xbf334c05	-0.7003787
244	0x3d1c9ebb	0.038237315
245	0xbe193e4d	-0.14965172
246	0xbe1a1aef	-0.15049337
247	0x3e554075	0.2082537
248	0xbd478baa	-0.04871718
249	0xbcfd94e5	-0.030954788
250	0xbe169725	-0.14706095
251	0xbdb28fe1	-0.08718849
252	0xbe17dbcf	-0.14829944
253	0x3dc81e07	0.09771352
254	0x3e25b191	0.16181017
255	0x3e2e8a19	0.17044868

net2.0.bias f4 [64]
0	0x3e0adf0f	0.13561653
1	0x3e1f625a	0.15564862
2	0xbcbc6bd3	-0.023000633
3	0x3d7a3de0	0.061094165
4	0x3d70765b	0.058706623
5	0xbc7df6e3	-0.015500757
6	0x3dcf7f8b	0.10131749
7	0xbd987a6c	-0.07445225
8	0x3e1d1800	0.15341187
9	0x3dcc54b9	0.09977097
10	0x3dd6c351	0.104864724
11	0xbe05b82c	-0.13058537
12	0xbdf0d0f1	-0.117586024
13	0x3d50f044	0.051010385
14	0x3c79cf40	0.015247166
15	0x3e118856	0.14212164
16	0xbe022ca9	-0.12712349
17	0xbe4c2453	-0.19935732
18	0x3e148353	0.14503221
19	0x3e3524a3	0.17689757
20	0x3dc087d6	0.09400909
21	0x3d11bad2	0.035578556
22	0xbdd09da8	-0.101863205
23	0xbe91ab51	-0.28451017
24	0x3e2c72a9	0.16840614
25	0x3dad3248	0.08456856
26	0xbdbdc425	-0.09265927
27	0xbc6ec5c9	-0.014573523
28	0xbda0ee87	-0.078579955
29	0x3be10bdc	0.006867869
30	0xbdbe0f14	-0.0928022
31	0x3e54b6ca	0.20772853
32	0x3e194feb	0.14971893
33	0xbdbfa8bb	-0.09358355
34	0x3db0206e	0.085999355
35	0x3e1c3dc3	0.15257935
36	0x3d61a15b	0.05508552
37	0x3d0d0a68	0.034433752
38	0x3d144a90	0.03620392
39	0xbe0af6d8	-0.13570726
40	0x3e5764fe	0.21034619
41	0x3e374de3	0.17900805
42	0xbe4ed919	-0.20200004
43	0x3dab40c7	0.08361965
44	0x3ded533c	0.11588141
45	0xbcd71cb5	-0.026258806
46	0x3de2807e	0.11059664
47	0x3e049e1e	0.12950942
48	0x3e85ac07	0.2610781
49	0x3e5226b0	0.2052257
50	0xbd9e2c47	-0.07723289
51	0x3ccef2c1	0.025262238
52	0xbd67147b	-0.056416016
53	0xbd4ac099	-0.04950008
54	0x3e2ae9b3	0.16690712
55	0x3e11bd50	0.14232373
56	0x3e4c7da6	0.19969806
57	0x3d3ffb50	0.04687053
58	0x3e3eb694	0.18624336
59	0x3de82994	0.113360554
60	0xbe440b33	-0.19144897
61	0x3d85cf70	0.06533706
62	0xbe096956	-0.13419089
63	0x3de15ba1	0.11003805

net2.2.weight f4 [64, 64]
0	0xbd7f6d27	-0.062359955
1	0xbd6a0a2b	-0.057138603
2	0x3dae63fc	0.08515164
3	0xbe3a00a9	-0.18164314
4	0x3c07ff74	0.008300651
5	0xbe75d00d	-0.24005146
6	0xbcfb0b2d	-0.030644977
7	0xbe9a9d43	-0.30198106
8	0x3e2f3f06	0.17113885
9	0xbe22e3b9	-0.15907182
10	0x3e403e40	0.18773746
11	0xbe8aefa1	-0.27135947
12	0x3cd831d9	0.026390957
13	0xbe8266c8	-0.2546904
14	0xbc5d5948	-0.013510056
15	0x3d0c484f	0.034248646
16	0xbe4ef948	-0.20212281
17	0x3e904c98	0.28183436
18	0xbde4437c	-0.11145684
19	0xbbd3ca7a	-0.006463346
20	0xbb14118b	-0.0022593464
21	0xbe042ad7	-0.12906967
22	0x3c748c2f	0.0149260005
23	0x3e306d28	0.1722914
24	0x3e70cfd6	0.23516783
25	0x3da78b5d	0.08180878
26	0xbec796dc	-0.38982284
27	0x3d335c34	0.043789104
28	0x3de9963b	0.11405607
29	0x3e7f1419	0.2491001
30	0xbca4a558	-0.020098373
31	0xbed6b4f0	-0.4193492
32	0xbe40c646	-0.18825635
33	0xbeb6db4e	-0.3571419
34	0x3cbd5549	0.023111956
35	0xbeefc81d	-0.46832362
36	0xbdcaf5d5	-0.0991017
37	0x3ebc8000	0.36816406
38	0x3de378a1	0.111069925
39	0x3cae7de2	0.02130026
40	0x3d93e9fe	0.07222365
41	0xbef68d6c	-0.4815477
42	0x3da528a3	0.080643915
43	0x3e29450a	0.16530243
44	0x3d519c68	0.05117455
45	0xbe8b1e46	-0.27171534
46	0x3e8c059f	0.2734804
47	0xbe4aa52d	-0.19789572
48	0x3e49180e	0.19638082
49	0xbed94244	-0.4243337
50	0x3ded4480	0.11585331
51	0xbe6b96b4	-0.23006707
52	0x3e63b0af	0.22235368
53	0x3d780bcf	0.060558137
54	0xbd8e8734	-0.06959382
55	0xbd1eb717	-0.038748827
56	0x3be33029	0.0069332314
57	0x3c3b008d	0.011413706
58	0x3d8dbdef	0.069209926
59	0x3d725aca	0.059168614
60	0xbccc7759	-0.024959253
61	0xbd92242f	-0.07135808
62	0xbced31d0	-0.028954417
63	0xbcf13017	-0.029441876
64	0x3d9c2b06	0.076253936
65	0xbe75e9a6	-0.24014911
66	0x3c2e7bd9	0.010649645
67	0x3e36f404	0.17866522
68	0xbdaeb956	-0.08531444
69	0x3d335024	0.0437776
70	0xbd061ce3	-0.032742392
71	0xbd8d9049	-0.06912286
72	0xbe8f33df	-0.27969262
73	0xbe6b04c2	-0.22951034
74	0xbbf3a1cf	-0.0074350606
75	0xbe85ff52	-0.26171356
76	0xbdf079c4	-0.11741975
77	0x3d42eb2a	0.04758755
78	0x3e67da1b	0.22641794
79	0xbd7582b4	-0.0599391
80	0xbe0e5b3b	-0.13901989
81	0x3dd396f6	0.10331528
82	0x3e18398d	0.14865704
83	0xbe3b434e	-0.18287393
84	0x3d753ccd	0.059872437
85	0x3e98b6a5	0.29826847
86	0xbdd6d92f	-0.10490643
87	0xbe72c8a5	-0.23709352
88	0xbdc601db	-0.09668323
89	0x3e623d1f	0.22093628
90	0xbd5ad4af	-0.053425487
91	0x3cd1b7c7	0.025600327
92	0xbdbe8746	-0.09303145
93	0xbe316ed5	-0.17327435
94	0x3e846b32	0.25863034
95	0x3d86d55b	0.06583663
96	0x3d839fd2	0.06426968
97	0xbd534f90	-0.05158955
98	0x3d4edc03	0.05050279
99	0x3dde1ffc	0.10845944
100	0xbdd53d5c	-0.10412094
101	0xbe3eb37a	-0.18623152
102	0xbd2177c7	-0.03942087
103	0xbe8a9f9e	-0.27074903
104	0x3dee13b6	0.11624853
105	0x3e1a0ec2	0.15044692
106	0x3e0297d9	0.12753238
107	0x3dac00c5	0.08398584
108	0x3d716e83	0.058943283
109	0xbdddbd21	-0.10827089
110	0x3d5edfba	0.05441258
111	0xbc8726b2	-0.016497944
112	0xbedfc854	-0.43707526
113	0x3d0707f8	0.032966584
114	0x3c44d4ab	0.012013595
115	0x3d98d16a	0.074618176
116	0x3e9d47b5	0.3071877
117	0x3d4d6fa8	0.05015531
118	0x3ea8623c	0.32887447
119	0xbe282008	-0.16418469
120	0xbe5f6be5	-0.21818502
121	0x3d29cc93	0.041454863
122	0x3d1645ac	0.036687538
123	0xbe140abe	-0.14457223
124	0xbd60f49b	-0.054920774
125	0xbeb1f2f5	-0.34755674
126	0xbd818ad0	-0.063253045
127	0x3e18cfd5	0.14923032
128	0x3bf5cac5	0.0075009787
129	0x3d09232d	0.033480812
130	0xbd86f377	-0.06589406
131	0x3d490631	0.04907817
132	0x3de7ef69	0.11324961
133	0xbed450fb	-0.41468033
134	0x3d9660d9	0.07342691
135	0x3da9e702	0.08296014
136	0xbe02c813	-0.12771635
137	0x3e0c4fab	0.13702266
138	0x3bf9ae08	0.007619623
139	0x3da81f89	0.0820914
140	0x3df014b5	0.117226996
141	0xbed99ff4	-0.42504847
142	0xbe1ca04e	-0.15295526
143	0x3e039385	0.12849243
144	0xbdfe8526	-0.1242774
145	0x3b9f29cc	0.0048572775
146	0xbf2c15db	-0.6722085
147	0xbda100c1	-0.07861472
148	0xbd8d239f	-0.0689156
149	0xbe9dda56	-0.3083064
150	0x3e000d19	0.12504996
151	0x3ea9e8c5	0.33185402
152	0x3c9021ee	0.017594304
153	0xbc76ee88	-0.015071519
154	0xbeb9a47c	-0.36258304
155	0xbda6f556	-0.08152263
156	0x3cc44721	0.023959698
157	0xbe36b41d	-0.17842145
158	0xbe880d49	-0.26572636
159	0x3cfc72ca	0.030816454
160	0x3ca28130	0.019836992
161	0xbe1182c7	-0.14210044
162	0xbd9dcac3	-0.07704689
163	0xbdcba1bc	-0.09942958
164	0xbd3353bb	-0.043781023
165	0x3e506781	0.20351984
166	0xbdb2da8b	-0.0873309
167	0xbc90e4a2	-0.017687146
168	0x3e82dd37	0.255594
169	0x3e17a031	0.14807202
170	0x3d03140e	0.032001548
171	0xbf07ff23	-0.5312368
172	0x3d8b3cbd	0.06798694
173	0xbe89820b	-0.26857027
174	0x3dc5ab9d	0.09651873
175	0x3a3f6a39	0.00073019
176	0x3e5e86e8	0.2173115
177	0xbe21b190	-0.15790391
178	0xbe9a3fd9	-0.30126837
179	0x3d15e8c4	0.036598936
180	0xbe0f9067	-0.14019929
181	0xbd47b67c	-0.048758015
182	0xbe2c3a00	-0.16819
183	0x3d86826b	0.06567844
184	0x3bfa7c33	0.0076442
185	0xbdacd207	-0.08438497
186	0xbc1f4822	-0.009721788
187	0xbd82f7ae	-0.063948974
188	0xbd24c736	-0.040229045
189	0x3c88a839	0.016681777
190	0xbe2fc973	-0.1716669
191	0x3dd1e53f	0.10248803
192	0xbbe29a80	-0.0069153905
193	0xbdabe57b	-0.08393379
194	0xbdf49bc5	-0.11943773
195	0x3e8a0334	0.2695557
196	0x3e028e62	0.12749627
197	0x3d51ae68	0.051191717
198	0x3c745595	0.0149129825
199	0x3dea6588	0.11445147
200	0x3dc5b49d	0.0965359
201	0x3dc31b3b	0.09526678
202	0x3c2d1c75	0.010565867
203	0x3e907b2b	0.2821897
204	0xbb3fd331	-0.0029270167
205	0xbe8081c1	-0.25098994
206	0x3e78e984	0.24307829
207	0xbd95e8fa	-0.073198274
208	0xbe55f009	-0.20892347
209	0x3d95c1e4	0.07312372
210	0xbddc224c	-0.10748729
211	0x3e09653c	0.13417524
212	0x3c77ab78	0.015116565
213	0x3c831d54	0.016005196
214	0x3d823a54	0.063587815
215	0xbcd0a583	-0.025469547
216	0x3d8fa893	0.07014575
217	0x3d986279	0.07440657
218	0xbe5098eb	-0.20370834
219	0xbdae30f1	-0.085054286
220	0xbe220747	-0.15823089
221	0x3e9dae1e	0.30796903
222	0x3e074628	0.13210356
223	0x3e40524f	0.18781398
224	0xbd6ddab3	-0.058069896
225	0xbca19e1b	-0.01972871
226	0x3da9fc8f	0.08300125
227	0x3d3d5a6f	0.046228822
228	0xbd6779c1	-0.056512598
229	0x3e2d8262	0.16944268
230	0xbd7b9c18	-0.06142816
231	0x3dd8ede7	0.10592251
232	0x3d9014f0	0.070352435
233	0xbd574775	-0.05255838
234	0x3dcf1c03	0.10112765
235	0x3b604fea	0.003422732
236	0xbd119850	-0.035545647
237	0x3c0ee1d4	0.008720834
238	0xbe34ad02	-0.17644122
239	0xbd99ae5c	-0.075039595
240	0x3e10716e	0.1410577
241	0xbd9674b0	-0.07346475
242	0xbd329ac6	-0.043604635
243	0x3d96a2b1	0.0735525
244	0xbd15a847	-0.036537435
245	0x3d1ffdca	0.03906039
246	0x3e20dcf3	0.15709285
247	0xbdbb1dd2	-0.09136547
248	0xbdc926bd	-0.09821842
249	0xbcb2529e	-0.02176791
250	0x3c8650c3	0.016395932
251	0xbe86e914	-0.263497
252	0xbdb81227	-0.08987837
253	0xbdfe8002	-0.12426759
254	0xbe4df10d	-0.20111485
255	0xbc3a28b7	-0.011362246

net2.2.bias f4 [64]
0	0x3dcd36bf	0.100202076
1	0x3df0872a	0.117445305
2	0x3e1567ed	0.14590426
3	0x3d9828cc	0.074296564
4	0x3d99fb53	0.075186394
5	0x3d14855b	0.03625999
6	0xbe1872ef	-0.14887594
7	0xbe10fccb	-0.14158933
8	0x3e109708	0.14120114
9	0xbd577e52	-0.052610703
10	0x3d9fec91	0.07808793
11	0xbdbfb18b	-0.093600355
12	0xbcc6a25c	-0.02424734
13	0x3d3c5ec8	0.045988828
14	0xbcb72fd0	-0.022361666
15	0xbd6dfb75	-0.058101136
16	0xb949b08e	-0.00019234626
17	0xbb982067	-0.0046425345
18	0x3da41146	0.08011107
19	0x3b1d2bb2	0.0023982343
20	0xbce6a25d	-0.028153593
21	0xbbf31b4d	-0.007419026
22	0x3db02ef9	0.08602709
23	0xbd847c0f	-0.06468975
24	0xbdc96a2b	-0.09834703
25	0xbb76e571	-0.0037673379
26	0xbceb6aba	-0.028737415
27	0x3d94e9ae	0.07271133
28	0x3dd5c756	0.10438411
29	0x3d207b07	0.039179828
30	0xbbfb7e2d	-0.0076749534
31	0xbdc9b76e	-0.098494396
32	0xbdfdc8ed	-0.12391839
33	0x3cf0c8a3	0.029392546
34	0xbca50d51	-0.020147951
35	0xbe14c251	-0.14527251
36	0xbea917a3	-0.33025846
37	0xbe27a3b8	-0.16371047
38	0x3d5b0d3a	0.05347941
39	0xbc063e4e	-0.0081935655
40	0xbe06b656	-0.13155493
41	0xbd87b0c6	-0.06625514
42	0xbd8f414c	-0.06994876
43	0xbd720c95	-0.05909403
44	0xbd93fb68	-0.07225686
45	0xbc5e7fed	-0.013580305
46	0x3d8a118d	0.06741629
47	0x3e205943	0.1565905
48	0xbdccb601	-0.09995652
49	0x3d224a21	0.039621476
50	0x3c954f84	0.018226393
51	0xbdbaa00e	-0.09112559
52	0x3c51b3b3	0.012799191
53	0x3dcfe3df	0.10150885
54	0xbc79f5f6	-0.015256396
55	0x3d47d88d	0.048790503
56	0x3d67b814	0.056572035
57	0xbdce1027	-0.100616746
58	0xbe462b03	-0.19352345
59	0x3de300d7	0.110841446
60	0xbe4bde78	-0.19909084
61	0xbd1331a2	-0.035936005
62	0xbc1dd8b8	-0.009634189
63	0xbbf97f02	-0.0076140175

net2.4.weight f4 [1, 64]
0	0xbe69caa3	-0.22831206
1	0x3e2d6400	0.16932678
2	0xbcd1b701	-0.025599958
3	0x3dff1c8e	0.12456618
4	0x3d60b249	0.054857526
5	0xbee093a0	-0.4386263
6	0xbf86dbaf	-1.0535792
7	0x3dfd0d38	0.12356037
8	0x3e057ebd	0.13036628
9	0x3e6bae57	0.23015724
10	0x3e96b524	0.29435074
11	0xbe0275d2	-0.12740257
12	0xbe94cea0	-0.29063892
13	0x3dd373b8	0.10324806
14	0xbe1844fe	-0.14870068
15	0x3cfe0248	0.031006947
16	0xbe6063ba	-0.21913043
17	0xbe36cce2	-0.17851594
18	0x3e408dfb	0.18804161
19	0x3d29aa55	0.041422207
20	0xbf89e2f1	-1.0772382
21	0x3ef80b33	0.48446044
22	0xbe0ac11b	-0.13550226
23	0xbee9e171	-0.4567981
24	0x3c50dae3	0.012747499
25	0xbab1da19	-0.0013569026
26	0xbe7aae42	-0.24480537
27	0xbe8a713e	-0.27039522
28	0x3df54053	0.119751595
29	0x3e2f40f1	0.17114617
30	0xbefd3211	-0.4945226
31	0x3cda2f84	0.026633985
32	0xbea8b92d	-0.32953778
33	0x3e1a5683	0.15072064
34	0x3dd64edd	0.10464261
35	0xbf2d424a	-0.67679274
36	0xbf381868	-0.7191224
37	0xbf2292b2	-0.6350509
38	0xbe09b57a	-0.13448134
39	0xbe47b16d	-0.19501276
40	0xbe5b98a9	-0.21444954
41	0xbf220035	-0.63281566
42	0x3d864fd1	0.065581925
43	0xbeefb281	-0.46815875
44	0xbeaced5d	-0.33774844
45	0xbe92ccf1	-0.28671983
46	0x3aeb920d	0.0017972604
47	0x3f09f091	0.538827
48	0x3dadb6a3	0.08482101
49	0xbe6108a5	-0.21975954
50	0xbdb87f3e	-0.090086445
51	0xbe88c766	-0.2671463
52	0x3c6c7abd	0.01443356
53	0x3d80b3f0	0.0628432
54	0xbf042a2d	-0.51626855
55	0x3d0dc75c	0.034613952
56	0x3d58126e	0.05275195
57	0xbe63d35a	-0.22248593
58	0xbf01483d	-0.5050085
59	0x3e4b79c7	0.19870673
60	0xbf64744c	-0.89239955
61	0x3e931399	0.2872589
62	0xbdf87696	-0.121319935
63	0xbd15a7bc	-0.036536917
