log/GC_SAC/cannot_used_lidar/square3Env/20210804-1350/GC_SAC_HER_critic.pth (torch_old, 44422 bytes, 10 tensors)

net1.0.weight f4 [64, 16]
000000 bc 1c f6 bf f9 5a b5 3c da 07 1c be d9 bc ac be
       -1.9227519 0.022138106 -0.1523737 -0.3373783
000010 58 0b ed 3d 90 60 8e 3d 25 db 27 bd 28 df 88 3d
       0.11574429 0.069520116 -0.040980477 0.06683189
000020 b8 93 8e 3d 35 eb 95 3e fb 90 8f be 4e 53 a7 bc
       0.06961769 0.2928101 -0.280403 -0.020425465
000030 a8 a0 a2 bd 30 a6 0e 3f 27 4a 00 3d c7 17 1e be
       -0.07940799 0.5572233 0.031320717 -0.15438758
000040 66 14 f9 bd 5e f5 5e 3e c0 14 d7 bc 0e 61 3f bc
       -0.12162094 0.21773288 -0.026255012 -0.0116808545
000050 55 fb d0 3e 02 b3 7c be ba 8e ea bd a1 fd fc 3d
       0.4081675 -0.24677661 -0.11453004 0.123530634
000060 e5 70 8e bc 1d 87 2e be ed df 4c bf 61 ad 11 3d
       -0.017387817 -0.17043729 -0.80029184 0.035565738
000070 c8 af 0b bd dd e2 e5 3e d6 5d 1e 3e fc 2b ff bd
       -0.034103185 0.44899645 0.15465483 -0.12459561
000080 a0 05 03 c0 6d 5e 56 be 48 5e 61 3d cf d3 05 bf
       -2.0472183 -0.20934458 0.055021554 -0.5227632
000090 b4 b9 35 3e 0c fb 93 3d b2 22 07 3e ad 31 a3 bd
       0.17746621 0.07225618 0.13196829 -0.07968459
0000a0 c3 1b 88 bd a0 cf 32 3e a3 da 91 3d 54 ea 07 bd
       -0.0664592 0.17462015 0.0712178 -0.033182457
0000b0 68 16 e0 bd 53 8f ee 3e ad ab 09 be 46 2a 80 bd
       -0.10941774 0.46593723 -0.13444395 -0.06258063
0000c0 b4 f0 21 bf 58 d1 59 3e 2c 4c f1 bd 0e fb 96 3d
       -0.6325791 0.21271265 -0.11782107 0.07372104
0000d0 ac c7 28 bf 18 ab e9 bd 10 65 e7 3d 9e 05 2d 3d
       -0.65929675 -0.11409587 0.11298573 0.042241685
0000e0 b4 c5 49 bd 13 4a 6c be 7a 45 e5 3e 84 e9 07 3e
       -0.04926081 -0.23075132 0.4477957 0.13272673
0000f0 60 f6 49 3e dc c0 f1 3d 39 cd 7c bd b0 ba 08 be
       0.19722891 0.11804363 -0.061719153 -0.13352466
000100 94 a4 b7 ba 6d 98 cf bd e0 28 6d 3c df 90 7f bc
       -0.001401084 -0.10136495 0.014475077 -0.015598505
000110 c2 88 4d 3e 38 aa 9d bd 04 ef d5 3c d9 06 bb 3d
       0.200717 -0.07698482 0.026114948 0.091321655
000120 e2 5b ba bc 81 86 9c bd 2e 06 5e 3e ac 7b d6 be
       -0.022748891 -0.07642842 0.21682045 -0.4189123
000130 00 59 c2 bd 50 4d aa 3d d1 07 32 be ce 3b 0f be
       -0.09489632 0.083155274 -0.17385794 -0.13987657
000140 75 be a1 3c bd d8 2f 3e c8 72 57 be 33 5e fa be
       0.019744137 0.17172523 -0.2103988 -0.48899993
000150 83 16 82 3e c6 6f 5a 3e b9 80 7a 3e b5 80 4e bd
       0.254078 0.213317 0.24463166 -0.050415713
000160 1f 78 28 be e0 9f 64 3c 14 ad ac 3e 2d ff b5 be
       -0.16452073 0.013954133 0.33725798 -0.35546246
000170 00 50 40 ba fc f0 de bd 25 1e 6a 3e e3 e1 15 3e
       -0.00073361397 -0.10885808 0.22863062 0.1463695
000180 59 58 f6 3d 9a 93 21 be 90 9f 9c 3d a4 48 74 bc
       0.1202857 -0.15778962 0.07647622 -0.014909897
000190 81 ef 60 3e 30 f0 90 bc 3a 54 7f 3d 6a 82 43 be
       0.21966363 -0.017692655 0.062336184 -0.19092718
0001a0 04 8d 58 3d e6 7b 82 be 02 e6 12 3f 74 ae 13 3f
       0.052868858 -0.25485152 0.57382214 0.5768807
0001b0 5a 60 57 3e e8 dd 3a 3e 6a 67 81 bd 78 79 e5 bd
       0.21032849 0.18248713 -0.06318553 -0.11204809
0001c0 db 6a ff 3e 6c c0 50 3e a0 0d 3f 3e 72 1d 4b 3e
       0.49886212 0.20385903 0.18657541 0.19835451
0001d0 5d a6 16 bf f2 0b 12 3e 3c 4c 0e 3e dd a6 92 bd
       -0.588476 0.1426237 0.13896269 -0.07160733
0001e0 8f ba d8 bd dc 69 48 3e cf 4d ac 3c d2 50 4a 3e
       -0.10582458 0.19571632 0.021033196 0.19757393
0001f0 2e 74 60 be e7 c7 31 bf fe a0 80 be ce ae 8b 3e
       -0.21919319 -0.6944565 -0.25122827 0.27281803
000200 ae b4 66 3e 31 e8 5c be 7c a2 2d 3e 5b 7a 05 be
       0.22529861 -0.21572949 0.16956514 -0.13034956
000210 95 de 31 3e 60 72 58 3e 8f 14 34 be 4f bb d4 3d
       0.17370065 0.2113738 -0.17585967 0.10387289
000220 a2 4f 07 3e 1b 9a 38 3e a4 a5 31 be bd 49 2b 3f
       0.13213971 0.18027537 -0.17348343 0.6690939
000230 74 c7 a7 bd 5a 10 27 bf 37 89 5a 3f dc 88 bd be
       -0.081923395 -0.65259326 0.85365623 -0.37018478
000240 0f 28 eb 3d cb 91 e3 3d f0 a8 c8 bc 84 82 a1 bd
       0.1148225 0.11111792 -0.024494618 -0.07886222
000250 9d 08 2f bf 28 47 a7 3d 62 6c 1d 3d a4 4a 0c be
       -0.6837252 0.08167869 0.03843344 -0.13700348
000260 4f cf 57 bc 8f f6 d6 bd 5b bb 71 3d 36 3f 57 3d
       -0.013171985 -0.10496246 0.059016567 0.052550517
000270 bc ae 6d be bc 34 cb bf e7 61 80 bf ad 57 76 3f
       -0.23211187 -1.5875468 -1.0029877 0.9622753
000280 b6 a6 6b 3e 0f 24 41 3c 60 ec 51 be 3c 22 a2 bc
       0.23012814 0.011788382 -0.20500326 -0.019791715
000290 34 22 0a bd 78 fb 02 3d 84 ee 41 be d0 f2 27 3d
       -0.033724025 0.0319781 -0.18938643 0.04100305
0002a0 9d 4d bc 3d a1 d8 b6 3d d7 e2 0c 3e 7b 01 34 be
       0.09194491 0.089280374 0.13758408 -0.1757869
0002b0 50 fe d6 3d 46 78 89 be 4f 9c 69 bd 38 43 10 3f
       0.10497725 -0.26849574 -0.057033833 0.5635257
0002c0 53 86 a8 be 20 14 ef 3e e0 8d c1 bc 74 d6 84 3b
       -0.3291498 0.46695042 -0.023627222 0.004053885
0002d0 56 8a 48 3f 40 5d b6 3b 77 a5 a3 bd a3 29 1e be
       0.78336084 0.0055653155 -0.07990544 -0.1544557
0002e0 33 8a d7 bd 3c 07 99 3c bd 5a b4 bd 4d d7 62 be
       -0.10524406 0.018680207 -0.088063695 -0.22152443
0002f0 10 25 92 3d 0f ea cb be 3e ac 0b bf 55 04 ce bd
       0.07135975 -0.3982701 -0.54559696 -0.1005942
000300 b0 67 42 bf d5 e6 e0 3e b6 78 75 3e c4 48 c5 be
       -0.75939465 0.4392611 0.23971829 -0.38532078
000310 30 a8 95 3e 60 07 40 3e b9 5c b5 3c 8f d7 1f be
       0.2922988 0.18752813 0.02213894 -0.15609573
000320 79 07 19 3e b1 85 18 be 8a 05 e7 3e c8 ef 13 3e
       0.14944257 -0.14894749 0.45121413 0.14446938
000330 00 c8 c3 b9 56 d3 c0 bd 08 54 a3 bc 57 5f b0 be
       -0.0003734231 -0.09415309 -0.01993753 -0.3444774
000340 fc 77 f2 be bd 48 ad 3e 3c a7 f9 3d 5e 65 ae 3c
       -0.47357166 0.33844557 0.121901006 0.02128857
000350 9a c9 55 3e 2c 0b 83 3d 1c 58 99 bb 9d 24 6f be
       0.20877686 0.06398615 -0.004679693 -0.2335381
000360 c7 46 58 3e f7 44 a0 3a b9 a7 84 be a8 43 a0 3e
       0.2112075 0.0012227584 -0.25909212 0.31301618
000370 40 41 aa bd 77 b6 cf bd a1 df 30 3e 49 0c 62 be
       -0.08313227 -0.10142224 0.17272808 -0.22074999
000380 78 e9 f9 3e 9f 2b 7a bd 38 1d 34 3d fc 88 0e 3f
       0.48810935 -0.061076757 0.043973178 0.5567777
000390 c0 51 cf 3e 12 28 29 be 67 d5 29 be a0 9f 30 3d
       0.40492058 -0.16519192 -0.16585313 0.04312098
0003a0 35 ef 50 be 18 3a 8e bd cf 33 39 be 8d ba ac 3e
       -0.2040375 -0.06944674 -0.1808617 0.33736077
0003b0 e4 bf 75 3e f7 ba 3e bf d1 8b f1 bd dd c1 30 bf
       0.23998982 -0.74504036 -0.11794246 -0.6904581
0003c0 74 3d 56 3e 0f e7 f5 bf d2 85 4e 3e c1 db cc 3d
       0.2092188 -1.9211138 0.20168236 0.10002852
0003d0 73 7d 92 bf be 4e 23 3e c9 5f 11 be 7b f9 b1 bc
       -1.1444534 0.15948007 -0.14196695 -0.021725407
0003e0 e5 2d 72 3e 4f 30 17 be 7e 03 2a 3e ff a5 87 bb
       0.2365032 -0.14764522 0.16602895 -0.0041396613
0003f0 0e c5 71 be cf 22 83 bf af ae 39 3f 94 8a b5 3e
       -0.23610327 -1.0244998 0.7253217 0.3545729

net1.0.bias f4 [64]
000000 f7 b3 ba 3e 27 87 95 3d ee 22 07 3d e8 f1 79 3d
       0.36465427 0.07301169 0.032992296 0.061021715
000010 31 ed ec bc 88 a1 1f 3e c2 1f e3 3d 1d 27 c0 3e
       -0.028921695 0.15588963 0.11090042 0.3752984
000020 ee d9 52 3d 43 33 58 3e fa 59 5c bd 43 a3 da bd
       0.051477365 0.21113305 -0.053796746 -0.10675671
000030 ed 44 93 3e 37 0d 39 be b0 4b 31 3e 4a e9 f8 3d
       0.28763524 -0.18071447 0.17314029 0.12153871
000040 3f a0 54 be 66 b8 44 be 95 a8 35 be db ab 05 3e
       -0.20764254 -0.19210967 -0.1774009 0.13053839
000050 0e 9a 05 3e c2 9a 92 be 25 2f c6 bb 48 a0 9d bd
       0.13047048 -0.28633696 -0.0060481005 -0.07696587
000060 53 18 a7 be 3f 05 eb bc 45 7a b3 3d 7d b9 75 be
       -0.32635745 -0.028689025 0.087635554 -0.2399654
000070 dd 9a 6b 3e b8 49 14 3e d3 1c a0 3d 06 fb b5 3e
       0.23008294 0.14481246 0.07817998 0.35543078
000080 4d fb 0a 3e 5c 76 22 3e c6 ac 85 bd 35 fa 62 bd
       0.13572426 0.15865463 -0.065270945 -0.055414397
000090 88 a7 77 3d 8a 8b 56 be 2a 3d 45 3d 13 69 17 3e
       0.060462505 -0.20951667 0.048154034 0.14786176
0000a0 b1 b2 79 3e c9 3f 3d be ab b0 ac 3e bf 60 02 bd
       0.24384572 -0.18481363 0.33728537 -0.031830546
0000b0 2f 52 1e be 46 11 59 be b6 97 eb bd 5d d6 42 3e
       -0.15461038 -0.21197996 -0.11503546 0.19027086
0000c0 31 da 9c 3e 31 d7 d4 bd 22 6c 2f 3e 00 18 44 3e
       0.30635217 -0.10392607 0.17131093 0.1914978
0000d0 ee ec 01 3e b4 be 82 3d 0b f6 18 3e 3d e4 60 3e
       0.12688038 0.0638403 0.14937608 0.21962066
0000e0 70 b9 6c 3e db 59 fc 3d 19 f1 c1 bd 47 dd 10 3d
       0.23117614 0.12321826 -0.09469814 0.035367277
0000f0 02 71 0d 3d ac 34 4c 3d de 27 09 be ef 57 0b be
       0.0345316 0.04985492 -0.13394114 -0.13607763

net1.2.weight f4 [64, 64]
000000 38 0e 66 bd f6 0a b0 3d fa e0 eb 3d 8e 16 dd bd
       -0.056165904 0.08595841 0.1151752 -0.107953176
000010 f8 9a 73 be 5d 33 d3 3d 4a 77 95 3e 77 5d c2 bd
       -0.23789585 0.10312531 0.29192573 -0.09490483
000020 19 73 e8 bc 2f 72 8e be 7f 71 e7 bc 17 28 bb be
       -0.028375195 -0.2782149 -0.028252361 -0.36554024
000030 d3 2d 56 bd fc d5 33 be 37 83 5d be c6 40 45 be
       -0.052289795 -0.17562097 -0.21632086 -0.1926299
000040 0b e7 9d bd 7f 5d 25 3e 6e 84 53 3d 38 38 31 be
       -0.077100836 0.16148947 0.051639967 -0.17306602
000050 a5 3c 13 bd f1 f7 47 3e 18 53 35 3c d4 5d ff bb
       -0.035946507 0.19528176 0.011067174 -0.0077931676
000060 09 0b 84 bd 7f d5 5a 3d 4a 4a bc 3d 03 a9 4a be
       -0.06447417 0.053426262 0.09193857 -0.19791035
000070 b0 18 77 3e 07 34 8e bd 1d e9 d5 bd 55 6f 6b be
       0.24130511 -0.06943517 -0.104448535 -0.22991689
000080 d9 f8 59 3d af ca 2b 3a f5 cf aa be 9b 39 96 3d
       0.053215835 0.00065533345 -0.33361784 0.07335206
000090 14 e7 71 be c6 c8 6d bd 17 4b 40 be 12 cd 05 bd
       -0.23623306 -0.0580528 -0.18778645 -0.032666273
0000a0 5d ee 22 be ef 55 1d be 6d fd 56 be 78 d3 16 bd
       -0.15911241 -0.15364812 -0.20995112 -0.036822766
0000b0 c9 c8 7a be 9d dd e0 bd 56 96 96 3d 58 7b 85 3d
       -0.24490656 -0.109797694 0.07352893 0.065176666
0000c0 2d ce cc 3c c2 fa 88 3e 6f 32 fb bc 14 89 8b bd
       0.025000656 0.26753813 -0.030663697 -0.06813255
0000d0 6b fb 1c bd 52 8f 8a bd 23 a9 0e be 2e 6b fc bc
       -0.03832571 -0.067656174 -0.13931708 -0.030812826
0000e0 2e e1 29 3e 1c 3e db 3d 4e bb 3a bd 16 d6 55 bd
       0.16589805 0.10705206 -0.045588784 -0.05220612
0000f0 ba c1 f1 3d 00 e7 5d 3d 32 47 e4 bd e8 b0 bc 3c
       0.118045285 0.054175377 -0.11146392 0.023033574
000100 1a 48 77 3e 0b c4 80 3d 8a 8b a4 3e cb 4e 40 3e
       0.24148598 0.06287392 0.3213771 0.18780057
000110 23 db 43 3d 58 47 e2 3d bf 89 06 3f 41 1f 5b be
       0.047816407 0.11048764 0.52553934 -0.21398641
000120 bb a2 03 3e 41 89 15 be 85 13 2a be 04 31 b5 bd
       0.12855045 -0.1460314 -0.16609009 -0.088472396
000130 88 78 b2 3e e6 d5 9c be 6d 75 8f 3e 24 27 ac 3d
       0.34857583 -0.30631942 0.28019276 0.08405903
000140 03 45 65 3e 20 44 d1 3d 0f ad de 3c b0 82 59 bd
       0.22389607 0.10218072 0.02718213 -0.05310315
000150 87 35 83 bd d5 d7 78 3e 88 48 2c 3d a2 7b 81 3d
       -0.06406694 0.24301083 0.04206136 0.06322409
000160 94 bc 5e bc 66 55 46 3e b1 36 82 be 1f 08 45 bd
       -0.013594765 0.19368514 -0.2543235 -0.048103448
000170 a7 66 ef 3d 4a 4b 65 bd c0 c1 a5 3d 07 59 08 3e
       0.11689501 -0.055980004 0.080935955 0.13315211
000180 14 66 be bc 97 94 8f 3e 6d 9f 87 bd 9b e7 09 3c
       -0.023242034 0.28043053 -0.06622205 0.008417035
000190 cd 00 29 bf ad e4 10 be 2d e3 e2 bc d2 60 66 be
       -0.66016847 -0.14149733 -0.027696216 -0.22497872
0001a0 f9 42 15 3d fa 33 da bc 8d b6 a9 bd 7c 5d ed 3d
       0.036440823 -0.026636112 -0.08286772 0.11590096
0001b0 24 aa 1d be 23 b9 6e be 6a ca ff bd e1 8c d1 3d
       -0.15396935 -0.23312812 -0.12489779 0.10231949
0001c0 07 86 ce 3d c3 b4 bf bc 79 84 c8 bd b4 55 af 3d
       0.100841574 -0.023401624 -0.09790892 0.085612684
0001d0 52 f9 83 3e 2e e0 1e 3e 27 eb d0 3b 90 34 a5 bc
       0.25776154 0.15515205 0.0063756886 -0.020166665
0001e0 2f 99 fa bd 6f b1 b9 3d 1e b3 22 3e 24 7d 8f be
       -0.12236249 0.09067046 0.1588864 -0.28025162
0001f0 65 52 e4 bd 7f 5b 5c be 99 8b 07 be 5f 14 eb 3d
       -0.11148528 -0.21519278 -0.13236846 0.11478495
000200 46 dd e6 bd e8 8c eb bc 6a 22 01 be 92 1e 20 be
       -0.11272673 -0.028753713 -0.12610784 -0.15636662
000210 90 27 cb 3d c3 90 6d 3d de 47 45 be 70 e0 2b bd
       0.09919655 0.057999384 -0.19265696 -0.041962087
000220 cb 3e a1 3d 92 a4 08 3c c4 58 02 3d 0d ff b0 3d
       0.07873305 0.008340018 0.031822935 0.08642397
000230 3a e2 09 be f3 7b 32 be 32 9b e9 be da 41 cb 3f
       -0.13465205 -0.17430095 -0.45626217 1.5879471
000240 4f dc 85 3e 7d d7 d2 bc d4 86 8d bd 44 ed 23 bd
       0.26144645 -0.025737518 -0.06910482 -0.040021196
000250 9d ed fa bc fb 90 1c 3d de 6d 0a 3e 5a 66 b2 bd
       -0.030630881 0.0382242 0.13518474 -0.08710928
000260 80 8f 80 bd d4 b4 84 3c 2d 40 39 bc a2 61 c0 bd
       -0.062773705 0.016199507 -0.011306805 -0.09393622
000270 43 dd ac bd f8 77 96 3b 94 14 d3 3f d6 46 13 3f
       -0.0844064 0.004591938 1.6490655 0.5752996
000280 79 19 81 bd b0 dd 6e 3e 77 9f f4 3d a2 f7 d5 3c
       -0.06303687 0.23326755 0.11944478 0.026119057
000290 07 51 49 be c6 ab 8c bc 35 96 18 40 b8 ae c6 be
       -0.19659816 -0.017171752 2.384168 -0.38805175
0002a0 16 d3 47 3b 5d 27 96 bd 3d aa 32 bd b4 08 9d 3c
       0.0030490807 -0.07331727 -0.043619383 0.019169189
0002b0 71 86 61 bd 9c 5d be ba a2 89 54 be 71 fd f4 be
       -0.055059854 -0.0014523747 -0.20755628 -0.4784961
0002c0 bb 7a b5 3f 1e 25 ed bd a5 05 05 3e eb 4c a5 bd
       1.4178079 -0.11579345 0.12990434 -0.080713116
0002d0 94 f3 a1 3a 42 75 aa 3f e0 c8 c8 bd 4b 12 aa 3d
       0.0012355917 1.3317034 -0.09803939 0.0830427
0002e0 b8 54 4b be 90 37 95 be ff b2 0c be 6e 95 3e be
       -0.19856536 -0.29143953 -0.13740157 -0.1861169
0002f0 6e c1 38 be 97 bc f9 bd d9 ff 2e 3d c6 ba 05 3d
       -0.18042538 -0.12194174 0.042724464 0.032648824
000300 6a 4f 05 3f da a3 53 bd af f0 48 3f e3 33 c6 bd
       0.520743 -0.051669933 0.78492254 -0.09677865
000310 fb a3 7f bd 6e e0 57 3d 9d f6 e4 3d 64 a9 d0 be
       -0.062412243 0.052704267 0.1117985 -0.40754235
000320 d0 91 36 be 6f e8 2d be a5 bf de bd cc 92 09 3d
       -0.1782906 -0.16983198 -0.10876397 0.033587262
000330 41 60 10 3e e7 84 8e 3d b3 bb ce 3d dd 15 37 3e
       0.14099218 0.06958943 0.100943945 0.17879434
000340 8f 3e 6c 3d cc 98 8b bd af c9 b8 bc 78 68 9a 3d
       0.057676848 -0.06816253 -0.022557108 0.07539457
000350 40 9d c2 3d eb e3 66 3e ac 39 cc 3c 11 8d 16 3e
       0.09502649 0.22547881 0.024929844 0.1470225
000360 6d b8 f1 3c a1 d2 44 3f 4c b7 c0 3c c1 ec 1a 3f
       0.029506886 0.76883894 0.023524903 0.6051751
000370 dc bd 0f bd 98 23 19 3f 79 eb 95 3e 37 30 09 be
       -0.035093173 0.59819937 0.29281214 -0.13397299
000380 18 73 16 3e 25 21 f3 bd af 0d 89 3f 13 f7 14 be
       0.14692342 -0.11871556 1.0707301 -0.14547376
000390 58 a2 93 3e 48 10 8a 3c 8d 72 4a 3e a6 41 d4 bd
       0.28834796 0.016853467 0.1977026 -0.10364084
0003a0 01 9e 8c bd b2 5e a6 3f 49 da d4 3f 31 ff 92 3f
       -0.06866074 1.2997649 1.6629115 1.1484128
0003b0 78 63 4b bd 40 55 03 bd 7f b9 fa 3d 34 f5 f3 bc
       -0.049655408 -0.032063723 0.12242412 -0.029780008
0003c0 c6 5a 2b 3e c7 2c dd bc e2 dd 2f bd 3c ac 29 be
       0.16733846 -0.02699889 -0.042936213 -0.16569608
0003d0 46 ca f7 3b f8 36 69 bc 08 fd 99 3f 5f 00 70 bd
       0.0075619547 -0.014234297 1.2030344 -0.058594104
0003e0 9b f4 ed 3d 74 6f 61 3e f9 66 dd 3d 00 4f b9 bc
       0.116189204 0.22015172 0.10810656 -0.022620678
0003f0 6a 98 80 3d ac bd 20 bf ee d1 b5 be 20 53 e5 3e
       0.06279071 -0.62789416 -0.35511726 0.44789982

net1.2.bias f4 [64]
000000 e4 8d 0b bd 1b 1d fc bd 2d ea 9a 3d c6 80 e5 bd
       -0.034070864 -0.12310239 0.07564197 -0.11206202
000010 12 45 01 3e e7 d7 bb 36 6c 01 17 be 4c 22 d0 bd
       0.12624004 5.5981686e-06 -0.14746636 -0.101627916
000020 39 48 3b bd cd d4 4c bd 55 df eb 3d 32 71 0c be
       -0.045723174 -0.05000763 0.115172066 -0.13715056
000030 43 d1 7c bc 20 dc 09 bc 0b bb 01 3e 9c a8 ef bc
       -0.015430751 -0.008414298 0.12669007 -0.029255204
000040 af bf 99 bd be 1d 3c bd e5 55 af bc f4 f3 96 bd
       -0.07507264 -0.0459268 -0.021403262 -0.07370749
000050 47 4a 46 bc f2 31 3e be 7d af f0 3c d6 a2 0d 3d
       -0.01210267 -0.1857374 0.029380554 0.03457912
000060 cb 26 ac 3c 1d a7 d0 bd c0 7d 81 bd d9 83 95 3a
       0.021014592 -0.10188124 -0.06322813 0.0011407092
000070 97 57 2b bc 31 2b b5 bd ad cd 57 3d 00 81 4a 3c
       -0.010457895 -0.08846129 0.052686382 0.012359858
000080 37 56 c7 bd 14 51 ba ba d5 85 3f 3d f8 d2 f2 bd
       -0.09733241 -0.0014214837 0.04675849 -0.11856645
000090 a4 55 5d bd 29 b0 82 3c 00 7d ce bd a7 67 34 bc
       -0.05403675 0.01595314 -0.100824356 -0.011011041
0000a0 bf a2 59 bd 4e 40 b4 bc 7f 9d 1e be a4 e0 98 bd
       -0.053133722 -0.02200332 -0.15489767 -0.07464722
0000b0 a4 5d 23 be 24 a6 c0 bb 52 49 8c bd ab e8 d3 bd
       -0.1595369 -0.0058791805 -0.06849922 -0.10347112
0000c0 df ba 27 bd 94 17 41 bd 09 10 5f bd 7e 67 b6 bc
       -0.0409497 -0.047141626 -0.05445865 -0.022266146
0000d0 91 49 07 bd 79 d3 98 3c 22 9f 7f 3d 9e c4 12 be
       -0.033029143 0.018655526 0.06240762 -0.14332816
0000e0 1d 4b 00 be e3 4a 1f bc 52 2e 46 be d0 71 64 bd
       -0.12528653 -0.009722444 -0.19353607 -0.055772603
0000f0 fe a7 d5 bd 25 88 62 3d 69 13 29 3d 49 02 2a bd
       -0.104324326 0.05530562 0.041278277 -0.041506086

net1.4.weight f4 [1, 64]
000000 1b b7 54 3e 49 27 84 3e 20 76 23 bf 94 0a 79 bd
       0.20772974 0.25811222 -0.6385212 -0.060801104
000010 8f 1a cf 3d 47 78 69 be ec 16 cf 3d 95 85 23 bf
       0.101124875 -0.22799788 0.10111794 -0.63875705
000020 d4 35 37 3e f4 cd 34 3e 6b 62 71 bf f9 38 8c 3e
       0.17891628 0.1765669 -0.942908 0.27387217
000030 48 e5 30 3e 67 22 20 bf a4 13 8a bf 34 e9 a2 be
       0.17274964 -0.62552494 -1.0787244 -0.31818545
000040 d1 10 67 be 96 e0 7a be 6e 48 a2 3d dc eb 0f 3e
       -0.22565009 -0.24499735 0.07923971 0.14054817
000050 1b 83 b3 3c eb c5 6d bf e8 5e 97 be bd d6 69 3e
       0.021913102 -0.92880124 -0.29564595 0.22835822
000060 1e 4c 35 bf 4b f4 a9 be 99 9d 91 be 3c 6b 32 3e
       -0.7081927 -0.33194193 -0.2844055 0.17423719
000070 7e f4 b2 be 0e 2b 3f bf 50 ac d1 3d 66 d6 5a 3e
       -0.34952158 -0.7467507 0.10237944 0.21370849
000080 9b 98 a6 be f0 92 32 3e c2 d4 40 be 0a a5 a3 3d
       -0.32538304 0.17438865 -0.1883116 0.07990463
000090 9a 90 06 3e 52 7f 86 3e 15 93 84 3e 74 eb 6a 3e
       0.13141099 0.26269013 0.25893465 0.2294138
0000a0 a7 39 55 3e 5b 0d 3c 3e 0d 9e ae be 0a 91 01 bf
       0.20822774 0.1836447 -0.34104958 -0.5061194
0000b0 a2 be a9 be 2d dc af 3d 3f 71 60 bd 72 2e 57 3e
       -0.33153254 0.08586917 -0.0547955 0.21013811
0000c0 5f 97 0c 3e 82 8b 10 be 21 f9 97 3d 36 29 c6 be
       0.13729618 -0.14115718 0.074205644 -0.38703316
0000d0 66 ad 4a 3e 50 03 a9 be cd 32 86 bf 4f cd 7c 3e
       0.19792709 -0.3301034 -1.0484253 0.24687694
0000e0 27 f6 82 be 46 64 2e 3e 57 05 bd 3e 51 f3 85 3e
       -0.25578424 0.17030439 0.36918136 0.26162198
0000f0 28 15 8a 3e 08 8a 82 3e 4c 70 c2 3e 3b 6d 84 be
       0.26969266 0.25495934 0.379763 -0.25864586

net2.0.weight f4 [64, 16]
000000 bd 66 b4 3c 8a 7d 61 bf a4 67 a4 bd b2 cc 9a 3c
       0.022021646 -0.8808218 -0.080275804 0.018896434
000010 85 64 e8 3e 46 92 02 3e ab ec 42 3e 44 c4 63 bd
       0.4538919 0.12751111 0.19035594 -0.055607095
000020 fe 41 e3 3d de fe c5 3d b3 2e 75 bd d7 55 c6 be
       0.110965714 0.09667753 -0.05985899 -0.38737366
000030 88 b8 38 3e 02 f3 35 3e 66 69 00 3e b4 f1 8e be
       0.18039143 0.17768481 0.12540206 -0.2791878
000040 2f 9f 4e bf 69 fe d8 bd 30 26 be 3c c0 8e f1 be
       -0.80711645 -0.105954 0.023211569 -0.47179222
000050 d1 d9 98 3f 38 12 5c be 4d 4c dd bd ec c1 1a 3e
       1.1941472 -0.21491325 -0.10805569 0.15113038
000060 88 7a 79 be 01 86 74 bd 93 d9 f4 3e 56 b9 e2 3e
       -0.24363148 -0.05969811 0.47822246 0.44282025
000070 6a 87 74 be a0 34 a6 3f bd 2e 96 be 6a 13 1b 3f
       -0.23879781 1.298481 -0.29332533 0.605765
000080 dc 9d 32 3f 63 63 3a 3b 08 0e 10 3e cb dc 20 3e
       0.69772124 0.0028440587 0.14067852 0.15709226
000090 26 76 17 bf 98 f5 6a 3d 91 83 c3 bd cb 8d af bd
       -0.59164655 0.057363123 -0.09546579 -0.08571967
0000a0 34 19 3c 3e ac ba 13 3e bf bc e4 3d 02 25 bd 3d
       0.18368989 0.14426678 0.11168813 0.09235574
0000b0 ba c9 01 be b4 ac 29 bf df 86 17 be a5 7d 8d bd
       -0.12674609 -0.6627915 -0.14797543 -0.069087304
0000c0 14 98 48 bf 5a f4 fe 3d ee f3 31 be c1 98 46 be
       -0.7835705 0.1244895 -0.17378208 -0.19394208
0000d0 fc bf 3c bf a0 d6 e3 bd 1e 58 ee 3b 27 43 19 be
       -0.73730445 -0.11124921 0.007273688 -0.14967023
0000e0 17 03 cf 3d 51 6e 14 3e 1a 7f a7 3e 46 b5 68 bd
       0.10108011 0.14495207 0.32714158 -0.0568135
0000f0 6c 27 12 3e 95 f6 a6 be 13 2c b7 3c 0e c6 5c be
       0.14272851 -0.32610002 0.022359883 -0.21559927
000100 e6 ca 47 bd 7e 26 39 c0 d0 5c 50 3d 49 60 15 bf
       -0.048777483 -2.8929744 0.050869763 -0.58350044
000110 53 2d 31 3e 40 d6 92 bb f5 57 8e 3e 3e 62 c8 bd
       0.17302446 -0.004481107 0.2780148 -0.09784363
000120 d2 6d 4b bc b9 02 1a bd c7 29 da bc 2c 61 47 be
       -0.01241632 -0.037600253 -0.02663125 -0.19470662
000130 c0 f4 d0 3c b4 4f 63 be 01 f1 81 be 7d 43 8a bf
       0.02550733 -0.22198373 -0.25379184 -1.0801846
000140 d7 18 1b 3e 04 49 23 be c0 08 a3 3c 4c be b7 3c
       0.15146194 -0.15945822 0.019901633 0.022429608
000150 aa a3 07 3e e0 5c 01 3d 4f 3e 36 be 71 71 4c be
       0.13246027 0.031582713 -0.17797206 -0.1996515
000160 1c e8 cc 3d 08 66 c4 bc fc fe 08 3f c8 d0 f7 3e
       0.10005209 -0.023974434 0.53514075 0.48401475
000170 7a b3 5e 3e c6 2e ec 3d 02 e9 ec bd ee 84 25 be
       0.21748152 0.11532359 -0.1156788 -0.1616399
000180 57 4d d5 3e 2f 66 9e 3e e8 9e 29 bd 15 f1 b5 3e
       0.41660568 0.30937335 -0.04141131 0.35535493
000190 33 49 1c bf 60 83 7c 3c 82 28 a3 3d 5e fb c6 bd
       -0.61049193 0.015412182 0.079667106 -0.09715913
0001a0 f9 ad a3 3e b8 ca 20 be 77 b3 60 3d 58 b2 dd 3d
       0.31968668 -0.15702331 0.05485865 0.10825032
0001b0 64 89 be 3d 62 2b e6 be 7e c2 2d 3e 82 44 ce 3b
       0.09303549 -0.44954973 0.16968724 0.006294788
0001c0 ce 49 58 bb a3 7a f4 bd bc 34 bc 3d 1e 85 c6 3e
       -0.0033002975 -0.119374536 0.09189746 0.38773435
0001d0 b5 77 c1 3e e0 19 6e bc b9 a6 23 3c 5d 0d 0e 3e
       0.37786642 -0.014532536 0.00998848 0.13872285
0001e0 7c 4a bc bd b7 40 11 3e 62 ee 77 be e9 aa 2a bd
       -0.09193894 0.14184843 -0.2421203 -0.0416669
0001f0 64 c5 bb 3d 84 13 1b be 77 4d fc bd c3 0a a0 3e
       0.09168509 -0.15144163 -0.12319463 0.3125821
000200 2d 86 c7 be 19 79 4c 3d 18 3a 2a 3d 7d a4 c0 3d
       -0.38969555 0.049920175 0.04155931 0.09406374
000210 43 ff 25 bf 40 1f d1 bb a4 f1 4b 3e 74 1f d8 3c
       -0.64842623 -0.006381899 0.19916397 0.026382186
000220 60 49 38 be 10 16 46 3e 34 75 05 be 75 eb 41 3e
       -0.1799674 0.19344354 -0.1303299 0.18937476
000230 8c 05 5b be dc e0 68 be cf 40 66 3e 20 66 86 be
       -0.21388835 -0.22742027 0.2248566 -0.2624979
000240 93 ff 5c c0 7d da 3e be de ba 07 be 33 c3 eb be
       -3.453099 -0.18638034 -0.13254878 -0.46047363
000250 b5 d1 86 be 20 99 8e bd 79 8b b7 bd a0 d2 35 3e
       -0.2633187 -0.069628 -0.08962149 0.17756128
000260 6d 12 95 3d d3 30 70 3c b1 b1 b5 3d 53 cd 86 3a
       0.07278905 0.014660078 0.088717826 0.001028458
000270 c0 78 28 3c b6 48 92 3d 6e e3 b1 3c 97 2a 26 3e
       0.010282695 0.07142775 0.021714892 0.16227184
000280 d0 56 88 bf 16 27 c1 3e 14 11 4a 3e 7c ab af be
       -1.0651493 0.37725133 0.19733077 -0.3431052
000290 67 a7 55 3f e0 84 0d bc 66 72 11 be 7c 1b 1a be
       0.8345856 -0.008637637 -0.14203796 -0.15049547
0002a0 d9 20 1b 3d 0c 58 d7 3c 4b 82 21 be 10 20 9e bd
       0.037873123 0.026287101 -0.15772359 -0.07720959
0002b0 1c 7f 74 3e c3 fd 4e 3f d7 c3 40 3e 8a 95 3a bf
       0.23876613 0.8085596 0.18824707 -0.7288443
0002c0 ed 8b 8e 3d b1 e5 a3 3d d4 8e bc bd 96 71 ee bd
       0.069602825 0.080027945 -0.0920693 -0.116427585
0002d0 1e e8 fa 3d 6e 9d 3d 3e 2e 9a f2 3d 97 d4 81 be
       0.12251304 0.18517086 0.11845814 -0.25357506
0002e0 90 08 8a 3d 28 e3 df 3d c5 2c ac 3e 5c eb 09 3e
       0.067399144 0.109319985 0.33627906 0.13468689
0002f0 70 7c e8 3c 7a 02 88 be f6 87 74 be 99 5c 4c bd
       0.028379649 -0.2656439 -0.2387999 -0.049892996
000300 5f b6 b9 bf d4 53 f6 be 2e 73 6c be 6d 9f 15 be
       -1.450878 -0.4811083 -0.23090813 -0.14611597
000310 6b 68 f0 be 90 c0 2e 3e 46 d7 99 3e a1 35 00 3e
       -0.46954665 0.17065644 0.30047053 0.12520458
000320 94 c0 10 be 04 cd 86 3c 9a 20 0d be ca ac 87 3e
       -0.14135963 0.016455181 -0.13781968 0.26499015
000330 c4 02 97 bd ed d9 c2 3d fb 28 67 bc 7c 97 8a 3d
       -0.073735744 0.09514222 -0.014108892 0.067671746
000340 b1 5b a9 be 1a 43 8c 3e ec 2f bc bd 66 5f 30 bd
       -0.33077767 0.27394944 -0.09188828 -0.04305973
000350 06 8e 25 3d 20 94 98 3c d9 85 4f 3e e8 1f da ba
       0.040418647 0.018625319 0.20265903 -0.0016641589
000360 41 4c 1c be fc cc ca 3d 1e f8 47 be fa 26 0e bf
       -0.15263464 0.09902379 -0.19528243 -0.55528224
000370 4c 14 08 be f8 f0 29 be b1 e2 ea 3d ef 47 b8 bd
       -0.13288993 -0.16595829 0.11469019 -0.08998095
000380 bd 37 42 be e7 cb 0c 3a 44 85 70 be 7d d8 11 3f
       -0.18966575 0.000537096 -0.23488337 0.5697096
000390 c7 b8 15 be 24 3c 4a 3e e5 05 de 3d 84 b5 61 3d
       -0.14621268 0.19749504 0.10840968 0.055104747
0003a0 e3 9c 21 be 93 74 17 3e 43 42 42 be 93 21 ea 3d
       -0.15782504 0.14790563 -0.1897059 0.11432185
0003b0 00 a0 50 b9 c6 38 0c bf 0c d6 a7 3e c4 df 2a be
       -0.0001989603 -0.5477413 0.32780492 -0.16686922
0003c0 72 90 bd bf e5 dd 51 bd ae 3a 06 be ee b2 0a bf
       -1.4809706 -0.051237006 -0.13108322 -0.54179275
0003d0 74 78 24 bf 28 93 5a bd e5 b9 02 3d cf fa 75 bd
       -0.64246297 -0.053362995 0.031915564 -0.060053643
0003e0 95 4f e8 bd 85 c2 20 3e 95 69 fc bd fa 36 9b 3b
       -0.11343304 0.15699203 -0.12324826 0.0047367783
0003f0 74 4e 73 3e 6b 62 88 bf 32 bb 7d be e4 7a 08 3f
       0.23760396 -1.0655035 -0.2477844 0.53312516

net2.0.bias f4 [64]
000000 bf 20 8f 3e af ab 9e 3d 01 2d 88 3d d0 d0 87 be
       0.2795467 0.0774759 0.06649209 -0.265265
000010 92 35 dd 3d 0c df ca 3c a5 d6 c6 3d 9e ee 55 be
       0.10801233 0.02476456 0.09708909 -0.20891806
000020 bd b1 f9 bc 21 92 2a 3e 28 ba 95 3d 36 03 82 bd
       -0.03048026 0.16657306 0.07310897 -0.06348269
000030 29 c2 bc 3d 94 5c e7 3d 1b 27 00 be 64 67 18 bd
       0.092167206 0.11296955 -0.12514918 -0.037207976
000040 76 1b b1 3d 69 97 1c be 82 55 5c bd 9e 1b 16 be
       0.08647816 -0.15292133 -0.053792484 -0.14658973
000050 11 3b 18 3d 2d 48 eb bd 3b c9 5a 3e af f5 99 bb
       0.037165705 -0.11488376 0.21365826 -0.004698477
000060 a1 8e 48 ba a8 51 f9 bd 13 97 cb 3d 84 a2 4b 3e
       -0.0007650648 -0.12173778 0.099409245 0.19886214
000070 70 56 69 3e 35 69 2b 3d 4e f8 97 bd b5 80 62 be
       0.2278688 0.04184838 -0.07420407 -0.2211941
000080 00 6c 97 3e be 49 05 be f1 09 34 3c 9b 68 02 3d
       0.29574585 -0.13016412 0.010988698 0.03183804
000090 b2 92 38 bd eb bf 61 3d 44 75 65 ba 66 9d 1f be
       -0.045061775 0.055114668 -0.00087531307 -0.15587386
0000a0 3a c1 bc bc b8 73 20 bd 95 8d cd bd c9 cc ae 3c
       -0.023041356 -0.039172858 -0.1003677 0.021337884
0000b0 e5 65 53 3e f4 f1 8c bd 77 7a 8c 3b 64 53 18 bd
       0.20644338 -0.068820864 0.00428706 -0.037188902
0000c0 b0 e3 12 3e 4b 43 0d 3e 6a e3 d3 bd 86 d4 cd 3d
       0.14344668 0.13795201 -0.1034611 0.10050301
0000d0 61 a9 5e 3e b8 c1 b3 be 3d b3 36 3e 60 2f 8a be
       0.217443 -0.35108733 0.17841811 -0.2698927
0000e0 4e 61 59 3e 65 58 24 3e f7 78 27 be 43 8f 1b 3e
       0.21228525 0.16049345 -0.16354738 0.15191369
0000f0 26 5c 89 bd 50 2d 59 3d c2 67 3b 3d c5 72 df bd
       -0.06707029 0.05302173 0.045753248 -0.109105624

net2.2.weight f4 [64, 64]
000000 b0 60 01 3e ac bc a1 3e f9 02 48 bf e2 bc 5e bc
       0.1263454 0.31589258 -0.78129536 -0.013594838
000010 e6 20 de bc 41 91 4b 3c d9 24 d8 be 81 03 e8 3b
       -0.027115297 0.012424768 -0.42215613 0.007080496
000020 e8 68 ca bd 9d 48 64 3f a0 93 19 3f c2 70 e1 bd
       -0.098832905 0.891733 0.5999088 -0.11007835
000030 82 25 09 3f ca 59 ad bd 0d 1d b1 bd 5e 02 40 3c
       0.5357286 -0.084643915 -0.08648119 0.011719314
000040 f8 1f c8 bc 48 7d 8c 3d 73 6f 01 be 63 b9 2d 3f
       -0.024429306 0.06859833 -0.12640171 0.67861
000050 0f 6a 86 be 24 35 ce bd 68 a7 26 3e ec 8c 55 bd
       -0.2625279 -0.100687295 0.16274798 -0.052136347
000060 44 5c 24 3d 6e e6 03 3d 89 c1 a6 bb 6f fc 5d bd
       0.040127054 0.032202177 -0.005088989 -0.054195818
000070 ac 76 ea 3d 71 47 b4 bf 3d 43 89 3f 83 54 2d be
       0.11448416 -1.4084302 1.0723644 -0.1692677
000080 e2 f7 0a be 43 8f 07 be 29 0b fc 3d 44 d1 02 be
       -0.13571122 -0.13238244 0.12306816 -0.12775141
000090 45 9e 8a 3c f4 6a d5 be 9d 27 14 3e 87 0b d8 3f
       0.016921172 -0.4168316 0.14468236 1.6878518
0000a0 b3 59 52 3f bc ea 85 3f 75 37 5c 3f 7e 27 7a be
       0.8216812 1.046226 0.8602212 -0.24429128
0000b0 25 d5 23 be 3a a0 68 3f 23 a0 e8 3f 60 99 81 3f
       -0.15999277 0.90869486 1.817387 1.0124931
0000c0 a3 e5 49 bd c9 34 27 3e 4c 2e 7a 3d 27 e0 e1 3d
       -0.049291264 0.1632873 0.06107931 0.11029082
0000d0 8c 68 07 bd ca d0 18 be 22 6f d4 be 8b 96 92 3b
       -0.033058688 -0.14923397 -0.41491038 0.0044735125
0000e0 2b cd 49 be d9 b7 04 bc 23 1e dd 3e 32 60 b9 3d
       -0.19707172 -0.008100473 0.43187055 0.09051551
0000f0 dc ac 44 3d 45 53 c2 3d 07 f6 13 3f f6 d3 0a 3e
       0.048016414 0.09488539 0.5779728 0.13557419
000100 93 b2 ba 3e a6 e8 e9 be 50 3b 80 3d b2 8d bc 3d
       0.36464366 -0.4568531 0.06261313 0.09206714
000110 d7 77 39 3f bb 8f 16 bf 56 b1 37 3e d0 45 63 3d
       0.72448486 -0.58813065 0.17938742 0.0554865
000120 41 00 8b 3d b5 3f 69 3f b4 df 50 3f 16 6a 60 3d
       0.06787158 0.91112834 0.81591344 0.05478867
000130 5b 72 92 3e 77 88 31 3d 63 aa 27 3c e4 62 00 3f
       0.2860287 0.043343034 0.010233494 0.50150895
000140 71 5a cb 3e fe 3f 38 3e bd c9 00 3e 11 75 4a 3d
       0.3971744 0.17993161 0.12576957 0.04942805
000150 c6 0a 89 3c fa d2 e9 bd f0 00 1a 3d ba d6 0b 3d
       0.01672877 -0.11417194 0.03759855 0.034140326
000160 ae fb ef 3e 0f 5e 0a 3d 4c 0b 41 3f ce 94 c5 bd
       0.46871704 0.033781108 0.7540786 -0.09647523
000170 9c ae 88 be 62 d5 63 3d d4 eb 5b 3f 3e 9d b2 bd
       -0.26695716 0.05562342 0.8590672 -0.08721398
000180 d5 34 9b 3e 9c 32 bb bd dd cb 7e be 8b 75 72 3f
       0.30313745 -0.09140512 -0.24882455 0.94710606
000190 5a 3f 42 3f 2b 1c 30 3d ed f7 13 bd 3e 11 b1 3e
       0.75877917 0.042995613 -0.036125112 0.34583467
0001a0 a5 bd 4d 3e c8 90 ce 3e 53 38 8b bd 40 1e 0a 3c
       0.20091875 0.40344834 -0.06797852 0.008430064
0001b0 ae 76 10 be 8c 3f 1a 3d 42 9e 33 bd 83 b4 14 3f
       -0.14107773 0.03765826 -0.0438521 0.5808794
0001c0 b3 56 e6 be 1f 88 56 3e 95 e0 fc 3d 11 51 06 3f
       -0.4498802 0.20950364 0.12347523 0.5246745
0001d0 5b 9f c0 3d 55 14 0b 3e f4 f9 17 be 7a 4e 92 3d
       0.09405395 0.13581975 -0.14841443 0.071438745
0001e0 2b c1 1c 3e 40 4d ae be c6 72 fd bd fd ae e9 3d
       0.15308063 -0.34043312 -0.12375407 0.114103295
0001f0 ba ae f1 3d 4b 26 ed 3e 2a 9b d6 3e 1f 5c 76 be
       0.118009046 0.46318278 0.41915256 -0.24058579
000200 a7 15 bb 3d 2e cc 1a 3e b2 25 17 bf 94 76 8b b7
       0.09134989 0.15116951 -0.59041893 -1.6625308e-05
000210 31 79 07 3e fb d6 35 bd cb 05 e5 be 1f 02 45 bd
       0.13229825 -0.044394474 -0.44730982 -0.048097726
000220 59 18 4b be c1 85 3e 3f f6 df 48 3f a4 9a d4 3c
       -0.19833507 0.7442284 0.7846674 0.025952645
000230 d3 05 f3 3e 67 7f d2 3d 6d 43 60 be 61 c9 d0 3d
       0.4746538 0.10278206 -0.21900721 0.1019466
000240 61 f6 46 3e 92 54 40 3e 87 10 2e be e2 7e 08 3f
       0.19429924 0.18782261 -0.16998492 0.5331861
000250 72 68 a6 bd d8 88 36 be 19 cc a6 bd 5d 11 c5 bd
       -0.0812539 -0.17825639 -0.08144397 -0.096224524
000260 30 fd 0f 3e 8b f2 19 be af f7 2e 3e cf a4 a1 bc
       0.14061427 -0.15033929 0.17086671 -0.019731907
000270 8d c2 a2 3c 90 64 81 bf bf 0c 7f 3f 68 3e 22 be
       0.01986816 -1.0108814 0.99628824 -0.15844119
000280 28 68 92 bd 65 91 99 3c 9a 21 2a 3d d7 dc 66 3d
       -0.071487725 0.018746087 0.04153595 0.056362953
000290 a8 de c4 3d 13 bf c7 be 87 5c 1c bd de e7 af 3f
       0.09612781 -0.39012966 -0.03817418 1.3742635
0002a0 99 1b 5e 3f 71 66 84 3f 52 a1 49 3f 4f 7a 61 be
       0.8676086 1.0343763 0.7876178 -0.22019313
0002b0 aa cc 33 3b 31 4e 41 3f 29 7c ce 3f f5 27 33 3f
       0.0027435222 0.75509936 1.6131641 0.69982845
0002c0 22 b2 51 3d 9d 28 01 3c 3e 01 89 3d f0 f5 82 3c
       0.05119527 0.007883218 0.0668969 0.015986413
0002d0 96 87 0e 3d 50 66 d7 3c f4 86 bc be f6 05 6b bd
       0.034797274 0.026293904 -0.3682171 -0.05737873
0002e0 95 92 cc bc 2e 11 d3 3d f4 5e cc 3e fd 0f 49 bd
       -0.02497224 0.10306011 0.39916193 -0.049087513
0002f0 6c b0 83 3d 70 8b 22 bd e0 9d 23 3f ec 42 b5 3d
       0.06430134 -0.03968376 0.63912773 0.08850655
000300 bf b8 7a bd 78 57 37 3e 8a 5e 9a bd 4e 2e 01 3e
       -0.061211344 0.1790446 -0.07537563 0.1261532
000310 7c cd 08 bd d9 d0 ee 3e 96 c3 99 bd bc 88 0f bd
       -0.03339909 0.46643713 -0.07508008 -0.03504251
000320 e8 f4 55 bd e4 57 8e be cc 9c bb bc 4c 87 ff 3d
       -0.052235514 -0.2780143 -0.022901915 0.12476978
000330 f4 47 9f be 0b 0e bf bd 5a 74 10 3e 63 38 df 3d
       -0.31109583 -0.0932885 0.14106885 0.10899427
000340 4b b9 69 bd a4 31 f4 3d f6 23 1f 3e c4 b4 e7 bd
       -0.057061475 0.11923531 0.15541062 -0.11313775
000350 4b e3 1e 3d 2c ff 04 be 9a c0 33 bc b3 8e 80 bd
       0.038790982 -0.12987965 -0.010971213 -0.06277218
000360 2a 4f 66 3c b9 e9 bf be a8 38 1e bd 65 3f 82 bd
       0.01405696 -0.37483004 -0.03862825 -0.06359748
000370 61 ec 48 3e a0 ac 2a be d5 2e 2d 3d bf c3 b8 3c
       0.19621421 -0.16667414 0.04228099 0.022554277
000380 3a 74 7e be 33 c7 7d 3e 1d 38 d5 3d c1 aa 26 3e
       -0.24849024 0.2478302 0.104110934 0.16276075
000390 31 63 8d be 3c 5f 0f 3e b4 17 6d 3e f6 ee ed bd
       -0.2761474 0.14001173 0.23153573 -0.11617844
0003a0 45 f5 77 3c 92 7c 0c 3e b7 38 ab 3c 59 a8 cc be
       0.01513416 0.13719395 0.020901067 -0.3997219
0003b0 56 bc ff 3c 16 81 15 3e 4f 87 b8 bd ea 07 16 be
       0.031217735 0.14600024 -0.09010183 -0.14651456
0003c0 57 11 b9 3d a5 f1 09 be c7 a4 51 bd 68 20 dc 3d
       0.090365104 -0.13471086 -0.051182535 0.107483685
0003d0 59 d6 bf 3b ec 47 0d be 07 59 56 3d 4b 1d a0 3c
       0.0058544097 -0.13796967 0.052330997 0.019545218
0003e0 89 b1 ec 3c 18 f0 71 3e fb ca a6 3c 7b ea 7f 3e
       0.02889325 0.23626745 0.02036046 0.24991791
0003f0 ee 92 8c 3d e0 40 05 be e9 28 8b 3d d6 64 ab 3c
       0.06863962 -0.13013029 0.06794912 0.020922106

net2.2.bias f4 [64]
000000 ef 1d 81 bd 60 d0 69 3d da 2d 0d bc e8 8c 11 3b
       -0.063045375 0.057083488 -0.008616889 0.002220923
000010 d7 d1 18 3e 4f 5b 94 3d d5 7a c0 3c e2 c5 b7 bd
       0.14923798 0.07243978 0.02349607 -0.0897329
000020 12 f8 15 bd e7 70 27 bd 02 2e 2d 3e 8b ae 07 be
       -0.03661353 -0.040879156 0.16912082 -0.13250177
000030 da 02 fa bd a5 6c 1b be 59 03 ff bd a1 cf 13 be
       -0.12207575 -0.15178163 -0.124518104 -0.14434673
000040 b5 42 00 be da bc 6d 3d b5 9e b1 3d 42 fc 41 bc
       -0.12525447 0.05804143 0.08672849 -0.011839928
000050 29 de e8 bb 83 83 49 bb d6 87 80 3c 44 7b ab bc
       -0.0071065617 -0.0030748553 0.015689772 -0.020932801
000060 f3 ae 38 be 9d 60 d2 bc 9b 78 4e 3b a1 e5 3e bd
       -0.18035488 -0.025680834 0.0031504992 -0.04660571
000070 e3 3a e2 bd fe 4f 3f be c6 5f 7d bd d9 32 c8 3c
       -0.11046388 -0.18682858 -0.061858915 0.024438309
000080 99 fd f8 3d 9b da 4c bb 97 99 88 bd 1f 74 2a be
       0.12157745 -0.0031258229 -0.0666992 -0.16645859
000090 23 5e 06 be bf d0 fa bd cc e4 e6 bd 7e 68 bc bd
       -0.13121848 -0.122468464 -0.11274108 -0.09199618
0000a0 d7 94 fa bd e4 9e 88 bd 47 20 3d bc c7 15 21 be
       -0.1223542 -0.06670931 -0.01154334 -0.15730964
0000b0 af 9a 1b 3d 3b 3b 46 be 06 38 b0 bd 03 cf a5 3b
       0.037989315 -0.19358532 -0.086044356 0.005060078
0000c0 b6 d3 23 be e5 59 31 be 23 b9 8c bd b7 11 16 3e
       -0.1599873 -0.17319448 -0.068712495 0.14655195
0000d0 49 cf 34 be 09 af 8e 3d dd 91 cf bd 34 26 71 bd
       -0.17657198 0.06966979 -0.10135243 -0.058874324
0000e0 53 19 84 bd 7a 7e 6b bd d0 02 24 3c c5 0d 30 bd
       -0.06450143 -0.057493664 0.010010436 -0.04298188
0000f0 e1 10 0b be 3d e2 28 bd bf 00 97 3b 48 c8 6c bd
       -0.13580658 -0.041231383 0.0046082432 -0.05780819

net2.4.weight f4 [1, 64]
000000 d0 92 b5 be 6f 19 73 bf f7 29 3f be ba b9 48 3e
       -0.35463572 -0.94960684 -0.18668352 0.19602099
000010 9f 47 3a bf 26 bf f4 be fb dc 7a be d3 c6 b5 bd
       -0.72765535 -0.47802085 -0.2449836 -0.08875813
000020 c2 01 7d 3e 3b 89 52 3e 8c c9 f1 be d1 1a a6 be
       0.24707702 0.20560162 -0.4722408 -0.32442334
000030 48 91 26 3e 33 57 74 3e 45 ea 98 3e 91 c1 b7 3e
       0.16266358 0.23861389 0.29866233 0.35889867
000040 6f 61 86 be 4d 86 8a bf 66 15 16 bf 72 ce 94 3e
       -0.2624621 -1.0822235 -0.586264 0.29063755
000050 de 0e 1d bf 7b 01 46 3e e0 97 5e be e1 b4 d6 3e
       -0.6135081 0.19336502 -0.21737623 0.41934875
000060 f1 33 4e bf 08 9b 66 be 71 55 93 3e 98 ee a0 3e
       -0.80548006 -0.22520077 0.28776124 0.31432033
000070 26 54 bb be c1 a0 5c be 4a 25 57 be 22 9b 36 3e
       -0.36587638 -0.21545698 -0.21010318 0.17832616
000080 ea 30 c0 bf 05 37 9f 3e 26 ea 96 be b2 5e 67 be
       -1.5014927 0.31096664 -0.29475516 -0.22594717
000090 4c 73 76 be 2f 55 d2 3e 8d ff e9 3d 31 b9 b6 3e
       -0.2406742 0.41080615 0.114256956 0.35688165
0000a0 7f e8 75 be 69 8b 59 3e 7f 79 7c 3e cc d7 6d 3e
       -0.24014471 0.21244587 0.24655722 0.23226851
0000b0 e5 f7 ac 3d 1a f9 64 be f0 2c 09 bf 9e 7c 5c 3e
       0.0844572 -0.2236065 -0.53584194 0.21531913
0000c0 11 9d b0 3e 8a a9 e3 3d 4a 6f c4 be 9d 09 c9 3e
       0.34494832 0.111163214 -0.38366157 0.39265147
0000d0 f2 78 9e be 36 bf 92 ba 91 be 23 bf 5f 85 44 3e
       -0.3095165 -0.0011195901 -0.63962656 0.19191502
0000e0 30 44 8e 3e 8d 44 23 bf 02 58 2e 3e f6 1b a0 be
       0.27786398 -0.63776475 0.1702576 -0.31271333
0000f0 a5 e2 04 be 34 1e 30 3e 1d 4a 7b 3e 83 68 1e 3e
       -0.12977083 0.17199022 0.2453999 0.15469556
