log/GC_SAC/square3Env/20210804-0852/GC_SAC_HER_critic.pth (torch, 46735 bytes, 10 tensors)

net1.0.weight f4 [64, 16]
00000000: 6764 ac3e b84e 193d c888 83bd b2db c53e
00000010: 513d 263f c0dc 013e d0b9 e2bc 2f8f 463e
00000020: 29e2 6e3d 58ab 86bd 0760 eebd a735 e63a
00000030: 8c3b 3b3e 8af9 a9be 5ace 82be 2de4 b8be
00000040: c0e4 093e b747 9d3d 22cd 4b3e a377 aebe
00000050: aa20 913a e245 7e3e cd14 54bb ede8 09be
00000060: f60f ecb9 485e e63d 2860 11bc 4825 a83e
00000070: 82f3 08be c622 acbd 6a80 1abe 4a32 d0be
00000080: 0009 7dbe 233c 9f3e d081 d03c 3728 b5be
00000090: 14b1 a23d d09f 843c a7df 8f3e 6d3b 1e3e
000000a0: 2830 023e 1241 253e c2d9 943e 8da1 c53b
000000b0: 28a7 a2bd c300 853e 64a0 363d ef05 10be
000000c0: 3aaf 2a3e b30c 0fbe f4d3 66be da72 963e
000000d0: 757a fcbe 54ad 2c3e 1a86 85bd 7f1c f33b
000000e0: e5ea 6c3e 5040 893d 1fac 6d3e 4ed0 b33b
000000f0: d2e6 25be 13e6 153c 0112 e03c 6cae 533e
00000100: 41b2 88be 1c46 31be 8a70 51be 2f44 60be
00000110: bbf9 9c3d 0015 d4bd fdc6 943e 0ceb ba3d
00000120: 5474 833e b231 5b3e 7ba2 563e ca95 89be
00000130: 885b b13d 8643 09be 2be3 483e 6f5c 863e
00000140: 1694 253e d23a 193e 5eff 34be 9de0 02be
00000150: b7fc cc3e d03f 1a3e 6cf2 4ebe 7b8b 2fbe
00000160: 8abc 5d3c 1de5 96be 51a9 3ebe 9924 febd
00000170: 7c02 8c3d 91d1 6e3e e2e5 103d 9da5 63be
00000180: 3d9c 1abe 1b85 1bbe 5037 14be c703 c63d
00000190: e888 2a3e 505e 9e3c 4cb8 473e 394b a1bd
000001a0: 528b 483d 1849 673e fb97 24bb c4de b03e
000001b0: 4c51 f1bd fbce 47bf 8bf4 653f 251e 143f
000001c0: baa3 e83d e884 88be 1813 7abe ae67 af3e
000001d0: a67e c2be 80e9 f7bc a9bd f7bd dd2e 9bbe
000001e0: 1dd5 10be a351 0a3d 31a1 93be c328 0cbe
000001f0: 3e02 5cbe c78f c7be 2da1 48bd 52df cfbe
00000200: 9a70 f8bd a080 983e 5ace 79be 75e5 63be
00000210: e709 613d aa73 42be dd7c f5bd 8b9f bcbd
00000220: b3e4 8abe 59e7 063e 0116 933f 7e22 473e
00000230: 24e8 b03d a11b 943c 1fa8 843d a181 403d
00000240: 6fdc ca3e 37b2 893e b058 48bd 8f6f 9f3e
00000250: 5d76 e63e 80d5 fb3d 4f6d 6d3e 5d7a 17be
00000260: 33b1 943d 7a0a 02be 714d 813d 21a1 16be
00000270: c0c0 643e 92e2 343e 4bda 7dbe ee5e febd
00000280: c73b 8e3b d25f 11be d826 243e 8ae0 543f
00000290: 142f 523f 5011 0abd 224e 00be 2744 54bd
000002a0: c658 87be 731a 9bbd aaef cfbe d793 c9be
000002b0: 2e6c 553e d85d 5dbd fb7a 9cbc 50dc 663e
000002c0: e93e 533e aab5 c2be fc17 c4bd 759c 81be
000002d0: 2702 31be cc27 4a3e 66ff d1bd e81b 463d
000002e0: b7c3 4ebe fbd8 783d 58bf 31be e748 ebbd
000002f0: 8079 48bb b588 b8bd 5c1a 3f3e 375a e0bd
00000300: ac51 883d 2387 933c 9883 373d fefc 9a3d
00000310: 5ba1 43bf 00d5 063c b976 103e fb0b 84bd
00000320: 4eb3 4d3c 1359 6e3d bc87 a63e c6b8 903e
00000330: dc0d 15be 3674 91be 4a91 07bc e15a 0bbf
00000340: 3c2f 1c3e cd73 b4bd 4847 213e c7b6 8f3f
00000350: aa19 f83e 6eb4 3d3e 577d 8abe ea02 0a3e
00000360: 548f 313b 4e75 3bbe fb01 223e a2b9 dc3e
00000370: c46b fa3d a567 943e d9fa c33e 0ed1 043f
00000380: 9ebf fbbb 0b03 55bc 9013 e23c 9238 e9be
00000390: a710 623e 54ac bebd e9eb febd 6a88 9cbc
000003a0: e801 bdbd 4971 2e3e 8ef5 6d3f 28ea 2cbf
000003b0: bcd5 423e 48a9 debd de0b fd3d d48f 313e
000003c0: 7254 213c 849a ebbd 00d6 0bbb 33eb 8ebe
000003d0: 07ee 0f3e e046 b5bd 638d 743e 5008 acbd
000003e0: d485 863e 1794 bebc f46b 8b3d 9882 9c3f
000003f0: a8dd cc3d fccb df3e 84d2 d3be e208 a93e
0.3367035 0.037428588 -0.06422573 0.38644177 0.6493731 0.12681866 -0.027676493 0.19390558
0.058321152 -0.0657565 -0.116394095 0.0017563597 0.18284434 -0.33198196 -0.2554806 -0.36111584
0.13466167 0.07679694 0.1990247 -0.3407565 0.0011072357 0.24831346 -0.003236103 -0.1346776
-0.0004502532 0.112484515 -0.008873023 0.32840943 -0.13374141 -0.0840507 -0.15088049 -0.40663368
-0.24710464 0.31100568 0.025452524 -0.35382244 0.07943931 0.016189486 0.2810032 0.15452357
0.12713683 0.16138104 0.29072386 0.0060312212 -0.07942039 0.25977144 0.044586554 -0.14064763
0.16668406 -0.13969688 -0.22541791 0.293845 -0.49312177 0.16862994 -0.065197185 0.0074191685
0.2313648 0.0670172 0.2321019 0.0054874783 -0.16201332 0.009149092 0.027352335 0.20672005
-0.26698497 -0.17311901 -0.20453086 -0.2190101 0.0766482 -0.10355568 0.29058066 0.09126863
0.2567469 0.21405676 0.20960419 -0.26872092 0.08660036 -0.13404664 0.19617908 0.26242396
0.16169772 0.14963844 -0.1767554 -0.12780996 0.40036556 0.15063405 -0.20209664 -0.17143051
0.013533721 -0.29471675 -0.18619277 -0.12409324 0.06836411 0.2332213 0.035375483 -0.22231145
-0.15098663 -0.15187494 -0.14474225 0.09668689 0.16653788 0.019332081 0.19503897 -0.07875676
0.04896099 0.22586477 -0.0025115001 0.34544957 -0.11783084 -0.780502 0.8982627 0.57858497
0.11359353 -0.266639 -0.24421346 0.3425879 -0.3798725 -0.030262709 -0.12096722 -0.3030919
-0.14143796 0.03376926 -0.28833917 -0.13687424 -0.2148523 -0.3897688 -0.048981834 -0.40600067
-0.12130852 0.29785633 -0.24395123 -0.222555 0.054941084 -0.18989435 -0.119867064 -0.09210118
-0.2712761 0.1317419 1.149109 0.19446751 0.08638027 0.01807958 0.06477379 0.046998624
0.39621302 0.2689378 -0.048912704 0.311398 0.4501218 0.12296581 0.23186229 -0.14792772
0.072603606 -0.12699309 0.06313599 -0.14709903 0.22339153 0.17664555 -0.24790303 -0.1242045
0.004340622 -0.14196709 0.16030443 0.8315512 0.82103086 -0.033707917 -0.12529805 -0.051822808
-0.26434916 -0.07573404 -0.40612537 -0.39370605 0.20842049 -0.054044574 -0.01910161 0.2254498
0.20629467 -0.38029224 -0.09574887 -0.2531468 -0.17285977 0.19741744 -0.102537915 0.048366457
-0.20191847 0.060753804 -0.17358148 -0.114885144 -0.0030589998 -0.0901045 0.18662399 -0.10954707
0.06656203 0.018008774 0.044803232 0.07567786 -0.76418084 0.008229494 0.14107789 -0.064475976
0.012554957 0.058190417 0.32525432 0.2826597 -0.14556068 -0.28408974 -0.008274386 -0.54435545
0.15252393 -0.0881115 0.15749848 1.1227654 0.4845708 0.1852586 -0.27048752 0.13477674
0.0027093487 -0.18306467 0.15821068 0.43110377 0.12227586 0.28985325 0.3827732 0.5188149
-0.0076827547 -0.013001214 0.027597219 -0.45550972 0.22076665 -0.09310213 -0.1244734 -0.019108016
-0.09228879 0.17035402 0.9295281 -0.67544794 0.19026846 -0.108721316 0.12355779 0.17340022
0.0098467935 -0.11504081 -0.002133727 -0.27913818 0.14055644 -0.08851409 0.2388206 -0.08400023
0.26273978 -0.023263974 0.068077 1.2227354 0.10003215 0.43710315 -0.41371548 0.3301459

net1.0.bias f4 [64]
00000000: 5327 ce3d 612d 77be a641 5abd e7a8 893e
00000010: c531 9f3e 2c3f a4be 9adb 883e 8e43 4ebe
00000020: ef3d 3cbe a0ab e4bc 98ad 443e 6d07 163e
00000030: b4c9 2a3e e8bd 2abe 1933 7bbc 3d6d 5d3d
00000040: d149 2bbd f43f 4d3e 8def 51bd 6d33 0bbe
00000050: e1d0 69be 4778 4e3c ab7d 03be d3c0 b13e
00000060: 97e4 7d3e aae5 173e 7060 8ebd 8889 293d
00000070: 219e 3bbe 8a58 3cbe 6bab 56be 2ea3 2f3e
00000080: 1935 843e eefb 703e 7208 703e 1f2d 0b3e
00000090: 15c8 a8bc 5eda 1bbe b0be 2f3e ce92 de3d
000000a0: a376 28be a30b aabc df04 95bb f1c3 9d3d
000000b0: 5573 55bd 605c adbe 8d19 043e daa9 d2bd
000000c0: 75a4 953e db8c 383e 8f37 1d3e 575f 093e
000000d0: 5caf 813e f3f4 833e 98b1 1cbe 90be 0dbe
000000e0: bac6 92be 80b8 173e c6f3 f1bc df4c 44be
000000f0: 8df3 6f3e a9cc 793d 7d3f e4bd d779 2cbd
0.10066094 -0.24138404 -0.053285263 0.26886675 0.3109266 -0.32079446 0.26730043 -0.20142958
-0.18383001 -0.027913868 0.19206846 0.1465127 0.16678506 -0.16674006 -0.015332007 0.054059256
-0.041818444 0.20043927 -0.051253844 -0.13593836 -0.22833587 0.012601919 -0.12840907 0.34717426
0.24794231 0.14833704 -0.06951988 0.041390926 -0.1832204 -0.1839315 -0.20963828 0.17152092
0.2582176 0.23533604 0.23440722 0.13591431 -0.020603219 -0.15220019 0.17162585 0.108678445
-0.16451506 -0.020757502 -0.0045477 0.077033885 -0.052111942 -0.3385954 0.12900372 -0.10286303
0.29227033 0.18022482 0.15353225 0.13415276 0.253291 0.2577282 -0.15302122 -0.13842225
-0.2866724 0.14816475 -0.029535186 -0.19169949 0.23432751 0.060986195 -0.11144922 -0.042108383

net1.2.weight f4 [64, 64]
00000000: 5efb 6cbe ad9a 613a 5059 c1bc 1648 2c3e
00000010: 61ab 90bb 2cdb 2d3d b612 c4bd c535 b13d
00000020: 3d69 473e 69b7 dbbe 1749 14bc d5c9 373e
00000030: ff45 c1bd 587d a5bd f9b1 ef3d 7ea9 98bd
00000040: ac99 733d 0e0a dbbd bc0c 543d 9ada 273d
00000050: 815a 6abe 4a12 c03d 9eed 7c3d b2b6 df3d
00000060: 9ae0 afbe 3640 ae3d 91cf 8c3e c312 c9bd
00000070: 121b 033f ee5c ea3f 101f 0ebf b97b 013f
00000080: 49d4 a03d 9cc9 c33c 9b68 b33d f7bf 553d
00000090: 653f 493f e2e2 72bf 8663 2ebe d018 90be
000000a0: a2f3 a5be 5a55 46be 1185 fabd 2f94 01be
000000b0: 20ee 27be ea89 c4bd 5995 fd3f 3d97 d83d
000000c0: 52ad 3cbd abce f83d 65d8 4abe aa4b 8d3e
000000d0: 47e7 113e 2344 22bf 637f 6dbe b3a9 31be
000000e0: aaea 8cbd 2754 5c3d 46c7 e33b cd5f b9bf
000000f0: 6c3e 5b3f db4c 8abe 8487 96bd dfaf 63be
00000100: 6a76 3abd bf94 113d c5db 373d e86a 3f3d
00000110: fb22 32bd d5bf 093d c1fd c2bb 91f2 efbd
00000120: ee59 d2be 22c0 38bc c5f8 723e e4b5 423d
00000130: 5f4a 3c3d b7a0 cfbc c47f a2be f79d 693e
00000140: dadf 4cbe e33c 7c3d 9b82 e1bc 5341 7dbd
00000150: dbf4 14bd fe6b 313d c155 033c c429 7ebd
00000160: c317 923d 6457 0a3c 5649 cabd a11d d2bd
00000170: 90c0 6cbd ba01 66bd 19d4 e5bd 32ba 603a
00000180: 39f6 e0bd 0c74 bebd dc62 04be b13c 01be
00000190: db72 4abe 0add afbc 4881 83be 5da8 853d
000001a0: 6d6c 0e3d 6c67 d5bd cd37 933d f5c2 5dbd
000001b0: c569 09bd 6ee7 653c 1fee 5bbe b4c6 89bd
000001c0: fa3e 87bd 78b2 983c f246 d3bd 1b2d 16be
000001d0: 483e f1bc 100d d03d 5e53 913d dc9d 60bd
000001e0: 37be a13c 509a a63c 5d7d c3bd 1d1f a7bc
000001f0: 6b5e 723e c6eb 15bd 2f9f 5d3d 7f52 c23d
00000200: bf90 a93c f029 d8bd 37b4 ff3d cded 403d
00000210: 14f1 dc3d bd22 55bd 96e9 6e3d 40d2 503d
00000220: 51fb aabe 5d5a f7bc cc50 613d 8c9a 3ebc
00000230: 8c96 79bb 6100 ff3d fb60 c4be fcfe 7e3e
00000240: 3117 5ebe 6739 0f3c ca3e d23c 3596 b53c
00000250: 6454 a03d 9586 d33d ffe1 3dbd e8ca 163e
00000260: 2352 48bd 8c6c 9f3d 5d25 98be fe9e 87bd
00000270: 2b6c fdbb d3b9 4abd 02cd 95bd bbc1 c4bc
00000280: 5c00 a33d ff8e 813d f7ba 343b 26d8 f5bc
00000290: 8ac5 b1bc b20c d53d ca50 a6be 527d ca3d
000002a0: 126b e13d e8ca 1dbe fd2c f63d 842b d1bd
000002b0: 0ab2 d2bc 8375 a43d 9a47 51be 0d25 88be
000002c0: 59d9 a13d 074e 62bd afd0 d53d 2e8b 31bc
000002d0: f755 8fbc e356 b9ba 9ab1 b33d 8ff4 b4bd
000002e0: 2a50 92bd 8e33 97bd def2 81bd 271d 07be
000002f0: e24f 5a3e c64f 0bbd c530 8cbc 4acf 0c3c
00000300: 8fc0 cebc f376 913d 3829 a53d fc58 443d
00000310: 29d6 7dbd 7be5 a83d c2e9 43bc c79a b7bb
00000320: 3af7 f7be 8849 e6bd 3876 333e f1e5 c9bc
00000330: be79 12be 7d46 ef3d bc50 edbe e7b2 8c3e
00000340: b6f8 0cbd 10b9 a7bc f2c7 4c3c 1842 ac3d
00000350: 02d7 323e 0e8a 0bbd 1a4b da3d d1eb 14be
00000360: b0a0 ce3d fcb0 db3d e275 8cbd 790d ffbc
00000370: b921 d1bc 6ef6 01be 6c11 1abd 5fd4 edbb
00000380: c84f a8be d33e 053b b7d3 563b fa71 583d
00000390: 45d7 08bd 88a2 c1bd a782 02be 24cf 143e
000003a0: bebc a93d 7ca6 adbd 5ed3 18bd f4ec 96bd
000003b0: f4fe 0ebe 1040 1abc 94ef bbbd 90cd 36be
000003c0: 8517 00be b276 b3bd c5b1 ae3d f0a0 463d
000003d0: 7722 ec3d 2ccf 0a3b 7b7e 933d 80c6 dcbd
000003e0: 3df2 8dbd ec42 ca3d cf0c bdbd e46a 76bc
000003f0: ba7e 563e d75f a1bd 26aa dd3d 3c09 113d
-0.23142764 0.00086061173 -0.023602158 0.16824374 -0.004414961 0.042445347 -0.09573881 0.08652834
0.19473739 -0.42913368 -0.009050629 0.17948087 -0.09437179 -0.08080548 0.117038675 -0.07454203
0.059472725 -0.10695277 0.051769957 0.04097996 -0.22886087 0.09378488 0.061750047 0.10923518
-0.34351045 0.08508341 0.2750211 -0.09818032 0.5121318 1.830961 -0.5551615 0.5057941
0.0785299 0.023899846 0.08760186 0.052185025 0.7861236 -0.94877446 -0.17030153 -0.2814393
-0.3241244 -0.19368497 -0.12232412 -0.12654184 -0.16399431 -0.095966175 1.9811202 0.105757214
-0.04606373 0.12148794 -0.1980911 0.2759679 0.14248382 -0.6338522 -0.23193125 -0.17349891
-0.06880696 0.05379119 0.0069512455 -1.4482361 0.85642123 -0.2701176 -0.07350066 -0.22235058
-0.045523085 0.035542246 0.044887323 0.046732813 -0.04349039 0.03363021 -0.00595066 -0.11716188
-0.41084236 -0.011276277 0.2372771 0.047536746 0.045969363 -0.02534519 -0.31738102 0.22814165
-0.20007268 0.061581504 -0.027528098 -0.061829876 -0.036366325 0.04331588 0.008016051 -0.06205155
0.071334384 0.008443687 -0.09877269 -0.102595575 -0.05780083 -0.05615399 -0.11222095 0.0008572667
-0.10984463 -0.09299478 -0.12928337 -0.12620808 -0.19770376 -0.021467704 -0.2568457 0.06526253
0.03477137 -0.10420117 0.071883775 -0.054141004 -0.033548135 0.014032228 -0.21477555 -0.06727353
-0.06603809 0.018639788 -0.10316266 -0.14665644 -0.029448643 0.101587415 0.07095979 -0.054838046
0.019744022 0.020337254 -0.095453955 -0.020400578 0.2366883 -0.036601804 0.054106887 0.09488391
0.020698903 -0.10554874 0.12485545 0.047101784 0.107881695 -0.052035082 0.058328234 0.05098176
-0.33394864 -0.030194456 0.055008695 -0.0116335265 -0.0038084118 0.12451244 -0.3835524 0.24901956
-0.21688534 0.008741713 0.025664706 0.02216635 0.07828596 0.10328404 -0.046358105 0.1472584
-0.048906457 0.077843755 -0.29716006 -0.06622122 -0.007733842 -0.049493622 -0.07314493 -0.02401816
0.07959053 0.063261025 0.002757726 -0.030010294 -0.02170064 0.10402812 -0.32483512 0.09887184
0.1100675 -0.15409434 0.120202996 -0.10213378 -0.025719661 0.08030226 -0.2043747 -0.26590768
0.07902784 -0.055250194 0.10440194 -0.010836406 -0.017497046 -0.0014140274 0.08774109 -0.08835708
-0.07144196 -0.0738288 -0.06345151 -0.13194714 0.21319535 -0.034011625 -0.017113099 0.008594343
-0.025238303 0.07102766 0.080645025 0.047936425 -0.061971817 0.08246895 -0.011957588 -0.0056031677
-0.48430806 -0.11244494 0.17525566 -0.024645777 -0.14304253 0.116833664 -0.46350658 0.27480242
-0.034416877 -0.020473987 0.012498843 0.08411044 0.17464831 -0.034067206 0.10658856 -0.14543082
0.100892425 0.107271165 -0.06858422 -0.031134354 -0.025528776 -0.12691662 -0.03761427 -0.0072579826
-0.32873368 0.0020331636 0.003278 0.05284307 -0.033408422 -0.094548285 -0.12745152 0.14532143
0.08287953 -0.0847902 -0.03731095 -0.07369414 -0.13964444 -0.009414688 -0.09176555 -0.17851853
-0.12508972 -0.08762874 0.085300006 0.048493326 0.11530011 0.0021180613 0.072018586 -0.10780048
-0.06930969 0.098760456 -0.09230959 -0.015040133 0.2094678 -0.07879608 0.10823469 0.035409197

net1.2.bias f4 [64]
00000000: 11fe 85bd b1fa 02be 42cf 9e3d 5b54 ac3d
00000010: 2fa3 6d3d ef18 06be 9fb4 433c 7ad3 6abd
00000020: aeac e8bd 0123 ddbc f9fd d53d 1dd9 82bd
00000030: 2028 813d 51db a73d 583a fa3d 7cff 8a3a
00000040: 5f92 acbd ba32 00be 6edd 73bb f223 b13c
00000050: 71cd 78bc c592 0fbd 6a88 46be a4f4 15be
00000060: e9de 4c3d 2248 cb3c d395 67bd 5c7d 2bbe
00000070: b039 863d 9523 0b3e 74fe 9fbd 8d57 8f3d
00000080: 9445 cdbd c889 3ebd 9419 08be d8b6 ce3c
00000090: 7835 d5bd d94a 653d 94d0 97bd a5e2 39bd
000000a0: 5d9c 63be 7e59 90bc 9243 1fbe 6219 023d
000000b0: 54ef 31be 2a60 b3bd acee 98bc a58a dcbd
000000c0: 34ce 8c3d bed7 513c 9522 ed3d 362c 90bd
000000d0: eac9 d8bc 644c a1bd 7abe 0ebe 947c 0c3d
000000e0: ec9c b13c 2af5 eabd 409f b93d 9821 a9bd
000000f0: 981c f0bd eb76 bdbc db76 12be af77 02be
-0.065426 -0.12790944 0.07754375 0.08414527 0.058016952 -0.13095449 0.011944919 -0.057330586
-0.11361061 -0.02699423 0.10448832 -0.06389067 0.06306481 0.08196128 0.122181594 0.0010604705
-0.084263556 -0.1251935 -0.003721084 0.021623585 -0.0151857 -0.03505208 -0.19387975 -0.14644104
0.05001727 0.024814669 -0.056539368 -0.1674704 0.06553972 0.13587792 -0.07812205 0.06999121
-0.100230366 -0.046518117 -0.13291007 0.025233671 -0.10410589 0.055979583 -0.0741283 -0.04538216
-0.22227617 -0.017620798 -0.1555312 0.03176249 -0.17376453 -0.08758576 -0.018668495 -0.10768632
0.068752676 0.012807785 0.115788616 -0.070396826 -0.026463468 -0.078758985 -0.13939849 0.034298494
0.021681271 -0.114725426 0.09063578 -0.082583606 -0.11724204 -0.023127994 -0.14303152 -0.12740968

net1.4.weight f4 [1, 64]
00000000: 1cfa f9be a333 833d 24f5 913d b6fb 293e
00000010: 672c 233e aa75 c53d 6852 733e d880 e33d
00000020: 5a77 d0be b834 d2be 8ebd 623e fd18 3f3e
00000030: 63fa 023e 264e ca3d 9303 bebe 2e93 303e
00000040: 2600 04bf eef6 503e ce2d 923e 810a 903d
00000050: 0264 c33d aa1a 33be b668 aabe 147d 983e
00000060: 0ee0 8ebe 0b0c d338 d038 fdb9 0e92 08bf
00000070: d498 0e3e 949e 8fbe d6e4 71be dc81 073e
00000080: 3b94 2c3e dcb1 27bf 6d83 bfbe f18a b63e
00000090: e552 b2be 7724 113b 4673 ad3e 1d85 6bbf
000000a0: 11cd 2cbf 4a15 3e3e c1cd 13bf 5495 6dbf
000000b0: 662c e3be 4218 56ba 9de6 c2be 7f74 a9be
000000c0: 3ed7 8b3e 4282 183e fbb7 56be 31a4 8a3e
000000d0: 06d4 0bbf c969 e6be a024 64be b6b1 d8be
000000e0: 17fd 7cbf 4c86 a0be 5cea 873d db7e 2d3e
000000f0: b32a 16bf 2a3d febe c85d d4be 37a7 283e
-0.4882363 0.06406333 0.07126835 0.16599926 0.15934907 0.09641583 0.23761904 0.11108559
-0.40716058 -0.41055846 0.22142622 0.18661876 0.12790827 0.09878187 -0.37112102 0.17243645
-0.51562726 0.20406696 0.2855057 0.070332535 0.09540559 -0.1749064 -0.33283013 0.29782927
-0.27905315 0.00010063507 -0.0004829825 -0.5334786 0.13925487 -0.28050673 -0.2362245 0.13233131
0.1685342 -0.65505767 -0.37404957 0.3565288 -0.34828869 0.002214698 0.3387701 -0.9199999
-0.67500407 0.18562809 -0.5773583 -0.9280598 -0.4436981 -0.0008167067 -0.3806657 -0.33096692
0.27312654 0.1489344 -0.2096862 0.27078393 -0.546204 -0.45002583 -0.22279596 -0.42323083
-0.98823684 -0.3135246 0.066364974 0.16942923 -0.58658904 -0.4965604 -0.414778 0.16470037

net2.0.weight f4 [64, 16]
00000000: 8d1b 4ebe e08f a23e d694 1b3e a0b5 4bbf
00000010: 8609 e1bb f09f 093e 440d 73bd f551 813d
00000020: ad1e 1fbe 952c 83bd 9d8d 8a3b 3305 5fbe
00000030: ea3b 5f3e cc78 33be eece 2abe c655 083e
00000040: f050 66be e208 4abf 7caa a0bd 13fd ebbe
00000050: 9ecf 18bf 889c 7fbe a962 333e ea75 b7bd
00000060: 6961 36bd 086f 93bd 4061 e8bd 5e83 f53e
00000070: 4c8a d8bd a05d 353f 0101 9fbe f7b8 7e3e
00000080: 34e0 a0bd 2d92 953e 1cf5 093e d992 fbbe
00000090: 4a7a 703d dcdf 9d3d b4b1 32be 7c67 ad3d
000000a0: 458e 6a3e 305f 2b3e 66cc fc3d 3316 0c3e
000000b0: cec3 343e 7cbc 863e b655 bdbc a8a6 3a3e
000000c0: d656 1abe 6ed6 85bf a4a2 c13d 25ad ec3d
000000d0: 641f 20bf 8c5e 323e 8e1d 8bbd 60c9 8f3d
000000e0: 2ee2 113e 60b6 d6bd 2950 25be b25d 023e
000000f0: 7c20 d13d f466 e73d a8ae 863e 5285 ef3d
00000100: 885c 96bd 1642 593e 4018 f1bc 6d05 18bf
00000110: f17c b23e 0ae8 143e 8cc4 bdbd ed16 0ebb
00000120: 3a03 c03d e313 02be 9345 17be 6ff4 e13e
00000130: 2630 0a3e 58e3 843e 13be 5c3e f207 d03d
00000140: e968 84bf 9201 98be 86eb 53be 4ddb a53d
00000150: c998 7cbe 2852 293d 20a8 53bd ec57 b9bc
00000160: 2ef0 8abd 164c 013e 4875 033e ccba ed3e
00000170: 30fb de3c 596e 723f d871 3dbe cda8 85bf
00000180: fdf4 09c0 0849 0dbe e0ba 0fbc 767f c6be
00000190: ffcb 4bbd 38ab c3bd 21e0 1f3e 6b66 60ba
000001a0: c8be e7bd 9a03 893e 7b14 1d3d d995 33bd
000001b0: c410 8f3d 0274 1f3b 065e 983e 9b04 81be
000001c0: d4fa 09be bdee b03e fc71 38be 0986 37bf
000001d0: d50d 883e 1ec8 0c3e af38 533e 8cb3 03be
000001e0: 3e5b b5bd 18be 7fbe c243 a8be 81fa e23e
000001f0: a025 2dbe 9117 98be f9a0 23be 5890 77be
00000200: 2b9b 3fbe 15d6 903e 2cd8 6a3e be2a dc3e
00000210: b653 b93e 14e2 9ebd 5b26 dd3b 168f 8ebd
00000220: 705c 86be 3b2d 12be 6a3a 39be d23a a83c
00000230: 92f9 123e 803c 453e 1233 e7bd 05ad 003e
00000240: 22ab c5be 7887 c03e b0b4 bc3c b784 d5be
00000250: 77ec e13d d2d4 223e 52bb 85bd 65f9 ccbc
00000260: 6a87 87bd 6d55 043e b3ec eabe aadf d6bd
00000270: 70fc 633e 76a3 303e 6a74 71bd 19b8 8c3e
00000280: f815 69be 124c 103e 9ebf 723e b90f 26be
00000290: 3e67 8d3e 103f 843c 89fc 60bc a402 27bd
000002a0: 0b47 873d cba1 b3bd 0fdd 033f e45d 7abf
000002b0: 7afc 713e 4cf0 9bbe f7fc a73d 540d a83e
000002c0: d1da c83d 039f 93bb a86c c63d 1609 4c3d
000002d0: e80f 823e 86fe 36be aaed 163b e86d a53d
000002e0: 34e0 503d 5215 bfbd 80d0 253e cfae 543f
000002f0: 462d 01be 1687 f33d d1cf 5dbe eb61 553d
00000300: 372c d83e c742 a4be 8aea 163e 4b2f 913e
00000310: 6cfa 68be f807 973d 3b03 2dbe 2235 9dbc
00000320: cd56 17be 4a27 533d 2cdc 2bbe 3f00 1e3f
00000330: 7c45 4bbe e3de 793d d52e 31bd 169c 1c3e
00000340: c366 9f3d 810b 1b3d d8c0 63bd 56d6 643f
00000350: caeb ca3e c04b f83b 54d0 f7bd 4905 6ebe
00000360: cd27 46be b2d4 80be c368 65be 0e20 1cbe
00000370: 7c06 aabd e9d6 0dbd 7277 49bc 3e51 7c3d
00000380: 829b b93e eb76 90be 50ba a1bc 4d91 133f
00000390: 1f6b 15bf a063 153c 2c27 5c3e ae97 5d3e
000003a0: 50f8 7fbe a55d 92bd c71e 913e b6ed 1f3e
000003b0: c00c 163d c7e9 523d 47cb a5be e7f5 893e
000003c0: bbb5 a93e 7c39 3bbe c0b3 343c 7644 f13e
000003d0: 15b2 4c3d 9857 ae3d 4ef9 91be befc 62be
000003e0: 9ce2 68be 8810 36be 6491 9ebe ef9c 23b9
000003f0: 38bd 5ebd d46d 34bd 6336 853d 61b2 c83d
-0.20127697 0.31750393 0.15193495 -0.7957401 -0.0068675904 0.13439918 -0.059338823 0.0631446
-0.15539046 -0.06404988 0.0042283074 -0.21779327 0.21800199 -0.17526549 -0.166805 0.1331397
-0.22491813 -0.78919804 -0.07845017 -0.46091518 -0.596918 -0.24962056 0.17518105 -0.08958037
-0.04452649 -0.07198912 -0.11346674 0.47951788 -0.10573253 0.70845985 -0.31055453 0.24875246
-0.07855263 0.29213086 0.13472408 -0.49135473 0.058710374 0.077087134 -0.17450601 0.08467004
0.22905834 0.1673553 0.123436734 0.13680343 0.17652819 0.26315677 -0.02311216 0.18227637
-0.15072188 -1.0456064 0.09454849 0.11556462 -0.625479 0.1741888 -0.067927465 0.07020831
0.14246437 -0.10484004 -0.1614386 0.12731054 0.10211274 0.112989336 0.26305127 0.11695351
-0.07341868 0.21216616 -0.029430509 -0.5938328 0.34860948 0.14541641 -0.09266004 -0.0021681145
0.093756154 -0.12702899 -0.14772634 0.441318 0.1349493 0.259547 0.21556883 0.101577654
-1.0344516 -0.29688698 -0.20695314 0.08098469 -0.24667658 0.041338116 -0.05167401 -0.022624932
-0.06784092 0.1262668 0.12837708 0.46431577 0.027219385 0.9469963 -0.18500459 -1.0442139
-2.155578 -0.1379739 -0.008772582 -0.3876912 -0.049755093 -0.09554142 0.15612842 -0.00085601833
-0.113156855 0.2676056 0.03834961 -0.043844078 0.0698562 0.002433062 0.29759234 -0.25198826
-0.1347459 0.34557143 -0.18012232 -0.71688896 0.26573053 0.13748214 0.20627092 -0.1286146
-0.08855294 -0.24974859 -0.32864195 0.44331744 -0.16908884 -0.2970548 -0.15979375 -0.24176157
-0.18711536 0.28288332 0.22934026 0.4300136 0.3619668 -0.07757965 0.006748957 -0.06960885
-0.262424 -0.14275067 -0.1808869 0.02053586 0.14353016 0.1926136 -0.11289038 0.12566002
-0.38607126 0.37603354 0.023035377 -0.41702816 0.1103143 0.15901497 -0.06529869 -0.025021264
-0.06617625 0.12923212 -0.45883712 -0.10491879 0.22264266 0.17249855 -0.05894891 0.27484205
-0.22762287 0.14091519 0.23705909 -0.16216935 0.2761783 0.016143352 -0.013732084 -0.040774003
0.06605347 -0.08771094 0.51509184 -0.97799516 0.23631468 -0.3045677 0.08202546 0.3282267
0.09807361 -0.0045050397 0.09688693 0.049813353 0.2540276 -0.1787053 0.0023029842 0.080776036
0.050995067 -0.093302384 0.16192818 0.83079237 -0.12614927 0.11891 -0.21661307 0.052095335
0.42221233 -0.32082197 0.14737907 0.28356394 -0.22751778 0.07374567 -0.16895764 -0.019190375
-0.14779206 0.05155114 -0.16783208 0.61719126 -0.19850725 0.061003577 -0.043257553 0.15293917
0.07783272 0.037852768 -0.055603832 0.8938955 0.39633018 0.0075773895 -0.12100282 -0.23244204
-0.1935112 -0.25162274 -0.22403245 -0.15246603 -0.08302018 -0.034628782 -0.012296544 0.061600916
0.36251456 -0.28215727 -0.019742161 0.57643586 -0.5836658 0.009117991 0.21499318 0.21639892
-0.24997067 -0.071467675 0.28343794 0.15618023 0.036633253 0.05149248 -0.3238165 0.2694542
0.33146462 -0.18283647 0.011029184 0.47122544 0.04997452 0.08512801 -0.28510517 -0.22166726
-0.22742695 -0.17779744 -0.309703 -0.00015603354 -0.05437967 -0.044050053 0.06504514 0.09799648

net2.0.bias f4 [64]
00000000: b816 6a3d 7a91 0c3d 926a 57bc 6cae 90be
00000010: 2b05 5cba 5128 f4bd 071a 6d3e 0d8e ba3d
00000020: 9cee 27be a5bd 843d c4c9 2c3e 5584 413e
00000030: 7239 edbd 919f 123d 0a9f 2c3e 83e4 523e
00000040: 6d06 293d 0b66 f0bc 1a43 153e bf32 d6bd
00000050: a522 c1bc d489 0f3d 5f1c 37be 9fd8 f83d
00000060: c307 07bd f5ad 673d e1cb 15ba 2bad 683d
00000070: 8eaa 863d 8688 c43d 2e18 853c f1c4 15be
00000080: df4a 60be 55e4 c0bd e86e f93d 6ecf 7bbd
00000090: b6e9 8f3e 1636 2cbd f30d 5f3e 40ca de3d
000000a0: 2e19 07be 88f5 23bb 06fa 183e ddb2 f7bd
000000b0: 2882 cd3d 202e cfbd 26b2 a2bd a80d 96bd
000000c0: 8f21 66be aba5 a13d 54a7 ed3d ed56 b73d
000000d0: 14c0 223d c866 80bd ec3f 343b cfaa 10bc
000000e0: 0be4 7dbe eca9 833d 4584 09bd 69e9 043e
000000f0: a585 a1bc 7152 c2bd 053f 80be 51b6 33be
0.057150573 0.034318425 -0.013147967 -0.28258073 -0.0008393104 -0.11921752 0.2315446 0.09109125
-0.16399616 0.06481484 0.16873842 0.18898137 -0.115832224 0.035796706 0.16857544 0.20594983
0.041265894 -0.029345533 0.14576378 -0.10458898 -0.02357609 0.035043553 -0.17881916 0.12150692
-0.032966387 0.056562383 -0.0005714279 0.05680577 0.065754995 0.09596352 0.016246881 -0.14625908
-0.21903561 -0.09418551 0.12179357 -0.061477117 0.28107995 -0.042043768 0.21782665 0.1087842
-0.13193199 -0.0025018174 0.14939126 -0.12094662 0.10034591 -0.101162195 -0.07944135 -0.073268235
-0.22473739 0.07892927 0.11604181 0.08952127 0.03973396 -0.06269604 0.002750392 -0.008829786
-0.24794023 0.064288944 -0.033573408 0.12979664 -0.019717047 -0.09488381 -0.2504808 -0.17550017

net2.2.weight f4 [64, 64]
00000000: c962 0cbd a28c f6bd bcdd dbbd 0375 0f3d
00000010: c836 59bd 02de b43c 5548 673c f892 93bd
00000020: 092f 1a3c 4c78 95bb f692 153e b002 1c3e
00000030: fa59 c0be 73fa 9b3d 8ced 9bbd 957c 1c3d
00000040: 3d9d a0bd f235 a5bd 769b bdbd 73b2 56bc
00000050: 5884 88bd fe2b 0b3e c642 80bd 39a1 df3b
00000060: cc38 3a3d 9aa5 ddbc 62a7 8d3d 5e2c cb3d
00000070: a37f 09be 638c 7dbe 53e1 3c3c 34e1 ad3c
00000080: 8920 a1bd 0c10 c5bd 53a4 9e3d a688 11bf
00000090: 7c6a 9ebe 23ea a03c e5a8 573d 52c5 893d
000000a0: 9063 49bd a32c 02be 4bdd 3bbc 7982 8dbd
000000b0: 3e0f e0bc 4c10 17bd 35cc f13a 7d6b 133d
000000c0: d070 b8bc 6396 ed3d d092 25bc f7f2 8fbd
000000d0: 046c 8dbd 3da4 fcbd bbf4 173e ef22 ac3c
000000e0: 3db6 293d 2c91 bf3d e766 3b3e e231 6d3a
000000f0: 2c8b a4bd b19b 083d e5b7 e6bd 0c59 41bd
00000100: d507 223e 8adb 1b3d f462 d73b 408d e03c
00000110: d182 173d bb3b 44bc 63c6 4c3d 0ec5 11bc
00000120: 9476 08be 0cd6 ccbd 2da2 3d3d 6cfa 023e
00000130: f63a 18bd 31f4 c13d 2cc3 91bd 9070 613d
00000140: 31ca 83bc 1cba 02be 954c d4bd 6297 0e3b
00000150: 9e12 30bc 5405 42bc 47b1 07bd 8daf efbd
00000160: e4da 023d 97d7 b0bd 92ed b43d 09d3 ae3d
00000170: ee4d d5bd 2fea 64bd ae3e 0dbd ad9c d0bc
00000180: 57bf 50bd f027 92bd d7cc 643d 1847 1bbd
00000190: 0d21 3ebb e258 193d 5616 c33d 99a2 14bd
000001a0: 2132 26bd d952 9d3d b49d bfbd 31ea 883d
000001b0: 766e b0bd 9eb9 1d3e d5fc 463d 1720 00be
000001c0: deaf 0a3d c524 3bbd 514f e63d 4390 273d
000001d0: 48e4 ac3d b268 9dbd ab1c aa3d 3b16 853d
000001e0: 6f3a 26bd 82b0 553d 523a e53b 8d3c 7dbd
000001f0: 9c2b 91bd b14e bb3d d032 d1bc ee35 f3bd
00000200: a3f3 293e ace2 e6bd 51c0 7dbd 6fd8 eb3d
00000210: ca62 503e 7537 8cbd da6a a93d 2352 69bd
00000220: 4c23 7c3d ce23 06b9 9bc9 adbd efc8 823e
00000230: 7d2f 96be e313 dd3c 1a09 55bd 3614 1abc
00000240: 0c92 db3d 7742 b1bd 7d25 50be 5da2 0cbe
00000250: 96a3 ff3d 9a53 683d dd18 233b 4424 663c
00000260: 6c1d 18be 88e6 003e 219f 0ebe e30f 3aba
00000270: ba28 3b3e 3a6a dfbe 2a03 aa3d 91ca 873d
00000280: 3b39 dbbd 8b38 b53c 4f7a 62bd 0087 f9be
00000290: 9e73 50be 947d f63d 546b cc3d 2b31 d03d
000002a0: 8106 58bc 15f3 a5bc 6e09 f5bd c6fe 24bd
000002b0: 7332 883c f78f 1fbd 9642 643d 9d9e ca3d
000002c0: f150 88bc fec4 1b3e aaad 463d dc85 53bd
000002d0: 7207 bcbd 5c8d cb3d 3bd7 f73d b3c5 8f3d
000002e0: 389d dfbc 9866 193c 3798 4d3e 34dc babc
000002f0: ade5 b7bd b750 e9bd bb34 3fbd 790a a83d
00000300: abb6 153c 4097 013f 92d6 bbbd a6fd 993f
00000310: ef58 3fbe ef18 253f 4f1a 793e 3242 e2be
00000320: 945c a9bd 81d1 f4be 9f14 de3c 6fa8 2cbd
00000330: e34c a03e cc31 8d3d a068 363d d5d9 e33d
00000340: a3f9 e23f 20f5 50be 1ede 35bd edff 883c
00000350: 8668 2cbe 5067 843f 1e06 99bd 24e7 cd3f
00000360: c596 bc3d 6c3b cebe 8a55 903a 8dae 0dbd
00000370: d6e7 8abe 5429 003e ef0a 01bf c571 0b3d
00000380: 748e 413e dced 41bc feef 54bf 9bcc bbbe
00000390: 6677 0e3d 6c84 673f 2094 a43f d54f 89bf
000003a0: adfd 04be 62c4 be3f 7bfa d9bd 3049 243d
000003b0: 73bd 163f b975 be3e 05ee 283d 0467 7ebc
000003c0: e929 ea3d 3b50 8ebd 0631 57bf 73ce 0a3e
000003d0: 812a 47bd 86ed 9f3d 0179 5a3c c847 353f
000003e0: db26 b13d e203 8d3d f74d 143e c2e3 fe3e
000003f0: e713 72be c77b 5bbe dba3 a13c f5d7 af3b
-0.034273896 -0.12038542 -0.10735652 0.0350237 -0.05303076 0.022078518 0.014116366 -0.072057664
0.009410628 -0.0045614596 0.14606842 0.152354 -0.37568647 0.07616129 -0.07613668 0.03820475
-0.07842491 -0.0806693 -0.092581674 -0.013104069 -0.066658676 0.13591 -0.06262736 0.006824639
0.045464322 -0.027056504 0.06916691 0.09920572 -0.13427596 -0.24760585 0.011528331 0.02122555
-0.07867534 -0.09622201 0.07746186 -0.56849134 -0.30940616 0.019642895 0.052651305 0.06727089
-0.049167216 -0.1271234 -0.011466335 -0.06909651 -0.027351018 -0.036880776 0.0018447699 0.03599118
-0.02251473 0.116009496 -0.010105804 -0.07028764 -0.06905368 -0.123360135 0.14839451 0.021012751
0.04143356 0.09353861 0.18300973 0.00090482656 -0.080343574 0.033351604 -0.11265544 -0.047204062
0.158233 0.038051166 0.0065730754 0.027411103 0.03698999 -0.0119771315 0.049993884 -0.008897079
-0.13326484 -0.10001764 0.04629724 0.12790841 -0.037165605 0.09470404 -0.07117304 0.05503899
-0.016087623 -0.12766308 -0.10366169 0.0021757712 -0.010746626 -0.011842091 -0.03312805 -0.117034055
0.03194703 -0.086348705 0.088343754 0.085363455 -0.104152545 -0.055887397 -0.034483604 -0.025465334
-0.050963726 -0.07136524 0.055859413 -0.037909597 -0.00290114 0.03743828 0.095257446 -0.036287878
-0.04057515 0.076818176 -0.09356251 0.066852935 -0.08614819 0.15402839 0.048580963 -0.12512241
0.033859126 -0.045689363 0.11245597 0.040909063 0.08441979 -0.07685985 0.08306249 0.06498381
-0.04058307 0.052170284 0.0069954777 -0.061825324 -0.07088396 0.091458686 -0.025536925 -0.11875521
0.16596846 -0.11273703 -0.061950985 0.11515891 0.20350185 -0.06846515 0.082723334 -0.056963097
0.0615571 -0.00012792574 -0.08485719 0.25543925 -0.29333106 0.026987022 -0.052010633 -0.009404233
0.107212156 -0.08655255 -0.203268 -0.13733812 0.124823734 0.056720354 0.0024886646 0.014046732
-0.14854974 0.1258794 -0.1392789 -0.0007097704 0.18277255 -0.43635732 0.08301385 0.06630433
-0.10704275 0.022121688 -0.055292424 -0.4873581 -0.20356604 0.12035671 0.09981409 0.10165628
-0.013185144 -0.020257512 -0.11964689 -0.040282033 0.016625619 -0.038955655 0.055727564 0.09893534
-0.016640158 0.15211865 0.048505463 -0.05164133 -0.091811076 0.099390715 0.12101599 0.0702013
-0.027296647 0.009362839 0.20077597 -0.02281008 -0.08979354 -0.11392348 -0.046681147 0.082051225
0.00913779 0.50621414 -0.091717854 1.2030532 -0.18686269 0.6449117 0.24326442 -0.44191128
-0.08269611 -0.4781609 0.027109442 -0.04215282 0.3130866 0.068942636 0.044533372 0.111255325
1.7732433 -0.20406008 -0.04440128 0.016723597 -0.16836748 1.0344028 -0.0747187 1.6086164
0.092084445 -0.4027971 0.0011011821 -0.034590293 -0.27130002 0.12515765 -0.5040731 0.034044046
0.18901998 -0.011836495 -0.831787 -0.3667954 0.034781836 0.90436435 1.2857704 -1.0727488
-0.12987395 1.4903681 -0.106434785 0.04010886 0.58882827 0.3719919 0.041242618 -0.0155274905
0.11433775 -0.069488965 -0.8405918 0.13555317 -0.04862452 0.07808976 0.013334514 0.70812654
0.08649989 0.06885506 0.14482866 0.4978314 -0.23640405 -0.21433936 0.019731453 0.0053663203

net2.2.bias f4 [64]
00000000: 9614 dc3c edec 383d 297e e6bd 250b 8b3b
00000010: 6cd4 b5bd 468b 3b3d c25d eabd ab3b 08bb
00000020: 6fc1 afbd bad2 b73d a674 2bbe 16ce 0cbe
00000030: 0d94 913c abc9 fbbd 74a7 c73d 2ba2 35be
00000040: bdfe 983c c3c0 c53d e48d e2ba 8571 4bbb
00000050: b598 d5bd 97ae 70bd e909 89be db01 483d
00000060: 02d3 99bd 0a48 053e 546a 833d 7f8b 81bc
00000070: c024 9b3d 026e b7bd a46f eabc 28b5 1fbe
00000080: f450 f63c 1ff0 563c bbed acbd 9dc2 0ebe
00000090: f8c4 17bd 9d0c 87be db18 393d 49ac 30be
000000a0: 54b5 723d 0b98 073d bf79 4b3d 9c28 11be
000000b0: e657 52bd 681a 09be b81b 483c 4fe2 b0bd
000000c0: 616e 32be beac 0fbe b01f 0cbe 0ac1 7a3d
000000d0: e610 1bbe 3798 bcbd 47ec b53c b3d8 0fbd
000000e0: 0347 2ebe 622c f5bd c121 19bd 7550 a8bd
000000f0: c3c8 eabc 3063 3ebe 66cb 8c3c 262e c9bd
0.026865285 0.045147825 -0.11254532 0.004243272 -0.08878407 0.04578712 -0.11443664 -0.0020787518
-0.085818164 0.0897574 -0.16743717 -0.1375049 0.017770791 -0.122943245 0.09748736 -0.17737643
0.018676156 0.09655907 -0.0017284718 -0.0031043005 -0.10429517 -0.05876025 -0.26765373 0.048829895
-0.0751095 0.13015762 0.06416765 -0.015813587 0.07575369 -0.08956529 -0.028617688 -0.1559645
0.030067898 0.013118773 -0.08443781 -0.13941427 -0.03705308 -0.2637681 0.04518972 -0.17253222
0.05925496 0.033103984 0.049676653 -0.14175647 -0.051353358 -0.1338898 0.01221364 -0.08636915
-0.17424919 -0.1403074 -0.13683963 0.061219253 -0.15143165 -0.0920872 0.022207392 -0.03511877
-0.17019276 -0.11971356 -0.037385706 -0.08218471 -0.028660184 -0.18592525 0.017186832 -0.09823255

net2.4.weight f4 [1, 64]
00000000: f054 043e 5aca 5e39 a6b1 813e fcfb c3be
00000010: 887a 9cbe f854 eebe 570d 3b3e 4c11 053e
00000020: cafe 40bf 8582 bcbe 7e04 aebe 15cd 9b3e
00000030: 2c36 39bf a958 3abe 892d 1abf c4ec a2be
00000040: 9745 e9be 5a36 8a3e ff5f 0b3e 51da 903e
00000050: 35fb 2cbf e2d8 033e 96af 5fbf 505d c63d
00000060: 5f07 dfbd 8064 89be 967d 0a3e ea3f 6e3e
00000070: 154e fe3d a76f 18bf e094 103e daed 113e
00000080: aff5 233e b583 6ebe 1b03 9f3e 81c5 4c3e
00000090: 6000 1f3e d50e a7be fa44 1bbe b38d 6fbe
000000a0: e4c5 2ebb fa30 753e a41a 15bf 3337 babe
000000b0: 1788 7b3e 777a 3f3e a54d 5e3e 5ba5 6ebe
000000c0: 2aad 023e c752 483e f22f 46bf 5b69 393e
000000d0: 8291 bbbe 3528 98be ed28 1d3e 70e8 6abf
000000e0: 3782 793e 5cf1 0b3e cd27 ecbe 1adc efbe
000000f0: 465c b1ba 75e5 8ebe ca82 f83d bc75 253e
0.12923026 0.00021246952 0.25330848 -0.38278186 -0.30562234 -0.465492 0.18266807 0.1299488
-0.7538878 -0.36818328 -0.33987802 0.30429903 -0.72348285 -0.18197884 -0.6022573 -0.31821263
-0.45560905 0.26994592 0.13610838 0.28291562 -0.6757081 0.12875703 -0.873773 0.09685767
-0.10890078 -0.26834488 0.1352447 0.23266569 0.12417237 -0.5954537 0.14119291 0.1425089
0.1601169 -0.2329243 0.31057057 0.19997217 0.15527487 -0.32628503 -0.15163031 -0.23393898
-0.0026668245 0.23944464 -0.58243775 -0.3637024 0.24563633 0.1869906 0.21709307 -0.23305266
0.1276137 0.19562827 -0.7741691 0.18106596 -0.3663445 -0.29718176 0.15347643 -0.9176092
0.2436608 0.1366629 -0.46124116 -0.46847612 -0.0013531528 -0.27909437 0.12134321 0.16158193
