log/GC_SAC/cannot_used_lidar/maze3Env/20210803-1326/GC_SAC_HER_critic.pth (torch_old, 44422 bytes, 10 tensors)

net1.0.weight f4 [64, 16]
26.55752 26.656654 0.11071277 1.7710859 0.37725905 -0.12022534 28.230028 28.327547
28.571873 28.307861 -10.770963 -13.432929 0.0439336 2.140248 0.77840906 -0.3915331
-7.151723 0.08957241 0.06526613 -3.0707242 1.4498037 0.043907315 -0.434758 -0.57092255
-0.44582334 -0.56768465 0.20452285 -0.07671689 -0.12264049 -0.17048259 -0.73152715 0.59874254
-7.6066504 -0.052942242 -0.18073669 -2.7573981 1.4247937 -0.037200034 -0.73298854 -0.45444927
-0.3098171 -0.3830637 0.15472642 -0.119947955 -0.005694151 -0.20777301 -0.73194623 0.5062972
-7.414337 0.026200093 0.02624628 -2.9620433 1.4819376 -0.10574904 -0.5833667 -0.5642521
-0.54317755 -0.26395097 0.20521948 -0.09436915 -0.19520992 -0.07648358 -0.77395093 0.48502564
-0.1285828 -2.648349 -0.21383572 1.5151101 -1.8545756 0.064629465 -0.5917336 -0.42328173
-0.38208568 -0.4522946 -0.053899642 -0.17906599 0.18748641 -1.1260047 -0.30168438 0.046421856
26.2289 26.682833 0.049191386 1.5332053 0.16203214 0.05409938 28.207087 28.428661
28.3342 28.155622 -10.891068 -13.518742 0.15273544 2.0811336 0.6701533 -0.29757416
26.40491 26.801691 0.07590622 1.8109739 0.24277131 -0.12513724 28.347399 28.249737
28.387905 28.157337 -10.844776 -13.218763 -0.01037097 2.467304 0.8962138 -0.40761146
-3.6927214 -0.9634243 0.15299928 -1.5021561 -1.1137897 0.18343109 -0.49933186 -0.29415956
-0.3953962 -0.51093996 -0.8551506 0.27202642 -0.06904623 -0.9723763 0.21985345 -0.13981722
0.1309631 -2.0123289 0.18277752 1.1264666 -1.1483896 -0.101619184 -0.57087255 -0.42539588
-0.6368356 -0.40813902 -0.10262057 -0.2270849 0.24051088 -0.69999886 0.17860176 0.6751964
26.161495 26.622932 -0.13764316 1.6973062 0.52369684 0.10149935 28.068466 28.400352
28.218815 28.447834 -11.067657 -13.243049 0.2389741 2.4048734 0.5060608 -0.5747725
26.396734 26.8836 0.13407177 1.4061861 0.5474562 0.09490284 28.351625 28.26061
28.457392 28.146948 -10.748065 -13.499898 -0.010454804 2.1391838 0.5490974 -0.33861998
26.54737 26.938112 -0.11640602 1.5785494 0.209448 0.08186403 28.265991 28.407234
28.530308 28.127787 -10.84694 -13.626502 -0.11457202 2.1556215 0.8921755 -0.38617456
26.368732 26.738153 0.22061658 1.6693068 0.079817414 0.06483197 28.188663 28.310627
28.41249 28.104393 -10.717072 -13.24433 0.09503299 2.0661843 0.744828 -0.12761183
-0.43608153 -3.317745 0.016506582 0.11563203 -1.7884021 0.14350182 -0.3066364 -0.32319835
-0.53190064 -0.6356445 -0.09484642 0.10803652 0.1328311 -0.8533254 -0.40532935 0.11177532
0.12421185 0.22615814 -0.08320531 -0.41478938 0.052413195 -0.10109928 -0.5041315 -0.49807417
-0.74668247 -0.6454315 0.17647703 -0.4030492 -0.06464982 0.31697693 0.059268825 -0.26208186
26.738237 26.65193 0.10536656 2.182305 0.39829418 0.06987852 28.150686 28.427473
28.614073 28.420858 -10.773573 -13.492184 0.12473336 2.0561707 0.73809206 -0.3397077
00000000: cd75 d441 d440 d541 60bd e23d f1b2 e23f
00000010: 1928 c13e b438 f6bd 19d7 e141 d19e e241
00000020: 3293 e441 8076 e241 dd55 2cc1 47ed 56c1
00000030: b8f3 333d d3f9 0840 d145 473f 0777 c8be
00000040: eada e4c0 bd71 b73d 40aa 853d bf86 44c0
00000050: 2b93 b93f 28d8 333d 9a98 debe fb27 12bf
00000060: f542 e4be c853 11bf 706e 513e bf1d 9dbd
00000070: f02a fbbd fd92 2ebe 5d45 3bbf 3147 193f
00000080: ae69 f3c0 f7d9 58bd 0a13 39be 3679 30c0
00000090: a45f b63f 105f 18bd 23a5 3bbf 93ad e8be
000000a0: 59a0 9ebe ed20 c4be 9a70 1e3e 46a7 f5bd
000000b0: 0096 babb 73c2 54be d460 3bbf b19c 013f
000000c0: 4042 edc0 94a1 d63c 7002 d73c 1e92 3dc0
000000d0: 22b0 bd3f f492 d8bd 8557 15bf d372 10bf
000000e0: af0d 0bbf 9524 87be 0e25 523e 9d44 c1bd
000000f0: 1ce5 47be 6ca3 9cbd a621 46bf 4855 f83e
00000100: 36ab 03be 8d7e 29c0 c0f7 5abe 21ef c13f
00000110: bc62 edbf 745c 843d da7b 17bf 62b8 d8be
00000120: bca0 c3be 2893 e7be dfc5 5cbd 135d 37be
00000130: 70fc 3f3e ec20 90bf 6076 9abe d824 3e3d
00000140: cad4 d141 7176 d541 e87c 493d 1240 c43f
00000150: c1eb 253e 5097 5d3d 1da8 e141 e66d e341
00000160: 71ac e241 b73e e141 d141 2ec1 c44c 58c1
00000170: ae66 1c3e 4b31 0540 2b8f 2b3f a45b 98be
00000180: 413d d341 dd69 d641 b874 9b3d fecd e73f
00000190: 0b99 783e fa23 00be 79c7 e241 76ff e141
000001a0: 6e1a e341 3a42 e141 3484 2dc1 0e80 53c1
000001b0: 00eb 29bc 4fe8 1d40 456e 653f 73b2 d0be
000001c0: 8c55 6cc0 faa2 76bf d8ab 1c3e a746 c0bf
000001d0: a990 8ebf 5cd5 3b3e 6da8 ffbe 159c 96be
000001e0: 5f71 cabe f6cc 02bf 26eb 5abf 0c47 8b3e
000001f0: 1c68 8dbd a7ed 78bf 4321 613e 3f2c 0fbe
00000200: 311b 063e ffc9 00c0 082a 3b3e 0f30 903f
00000210: 6efe 92bf b81d d0bd b424 12bf 7dcd d9be
00000220: a807 23bf 99f7 d0be bc2a d2bd f288 68be
00000230: 7c48 763e 2033 33bf 61e3 363e acd9 2c3f
00000240: be4a d141 c4fb d441 54f2 0cbe 5441 d93f
00000250: ff10 063f e4de cf3d 388c e041 ec33 e341
00000260: 22c0 e141 2a95 e341 2015 31c1 87e3 53c1
00000270: a0b5 743e 72e9 1940 338d 013f 4a24 13bf
00000280: 832c d341 9d11 d741 1c4a 093e e8fd b33f
00000290: 1726 0c3f 6c5c c23d 21d0 e241 bb15 e241
000002a0: bda8 e341 f32c e141 13f8 2bc1 95ff 57c1
000002b0: a04a 2bbc 63e8 0840 a691 0c3f 995f adbe
000002c0: 0461 d441 4181 d741 4866 eebd e80d ca3f
000002d0: 8979 563e 54a8 a73d c020 e241 0442 e341
000002e0: 123e e441 b505 e141 118d 2dc1 2706 5ac1
000002f0: bca4 eabd b4f5 0940 9d65 643f acb8 c5be
00000300: 2af3 d241 bde7 d541 50e9 613e d8ab d53f
00000310: 5077 a33d a0c6 843d 6282 e141 2a7c e241
00000320: c84c e341 ccd5 e041 2079 2bc1 c7e8 53c1
00000330: a8a0 c23d 5d3c 0440 0cad 3e3f adac 02be
00000340: 1446 dfbe ef55 54c0 d038 873c 7cd0 ec3d
00000350: 5cea e4bf 24f2 123e 72ff 9cbe 417a a5be
00000360: a42a 08bf 99b9 22bf d73e c2bd 4042 dd3d
00000370: e004 083e 8973 5abf 5487 cfbe 75ea e43d
00000380: c862 fe3d 0096 673e 8c67 aabd 465f d4be
00000390: 38af 563d 240d cfbd c30e 01bf 9403 ffbe
000003a0: 9526 3fbf 003b 25bf 65b6 343e 775c cebe
000003b0: 2067 84bd cd4a a23e dec3 723d 982f 86be
000003c0: e9e7 d541 2737 d541 6cca d73d e3aa 0b40
000003d0: 37ed cb3e 781c 8f3d 9b34 e141 776b e341
000003e0: 9fe9 e441 eb5d e341 8e60 2cc1 fcdf 57c1
000003f0: 3474 ff3d 4d98 0340 9af3 3c3f 2bee adbe

net1.0.bias f4 [64]
28.087675 -0.49540338 -0.3106525 -0.2553222 -0.2851405 28.246225 28.122652 -0.4516709
-0.44208086 28.151379 28.420563 28.168236 28.049885 -0.30279303 -0.60038984 28.22868
28.220419 28.432192 -0.4151887 28.164248 -0.22330645 -0.38202226 -0.5598636 -0.46067968
-0.29809296 -0.5590098 28.133352 -0.6699876 28.17775 -0.25835812 -0.77018887 27.587767
-0.38270932 -0.5340688 -0.37303877 28.16462 -0.3868488 -0.57623124 28.081745 28.511095
-0.4506392 -0.7209982 28.542906 28.259333 -0.69277817 28.11566 -0.33190185 28.113174
28.305641 27.995693 28.29571 28.452068 -0.49729308 -0.33264312 -0.60495055 28.261032
28.13956 28.230335 -0.6827977 28.294054 28.281237 -0.35117698 -0.16866148 -0.34665343
00000000: 8fb3 e041 83a5 fdbe d80d 9fbe 97b9 82be
00000010: f0fd 91be 45f8 e141 31fb e041 6941 e7be
00000020: 6c58 e2be 0636 e141 505d e341 8c58 e141
00000030: 2a66 e041 b007 9bbe 26b3 19bf 56d4 e141
00000040: 6bc3 e141 2175 e341 9d93 d4be 6150 e141
00000050: 72aa 64be 6c98 c3be 3953 0fbf 35de ebbe
00000060: a49f 98be 441b 0fbf 1b11 e141 4f84 2bbf
00000070: 086c e141 8447 84be 192b 45bf bfb3 dc41
00000080: 7af2 c3be bcb8 08bf f0fe bebe 2451 e141
00000090: 0c11 c6be e483 13bf 6aa7 e041 b916 e441
000000a0: 2eba e6be 5793 38bf df57 e441 1d13 e241
000000b0: e959 31bf dfec e041 0aef a9be c8e7 e041
000000c0: f471 e241 2ef7 df41 9d5d e241 d69d e341
000000d0: 339d febe 3350 aabe 0ade 1abf 9816 e241
000000e0: d21d e141 bad7 e141 d4cb 2ebf 395a e241
000000f0: f93f e241 78cd b3be 98b5 2cbe 8f7c b1be

net1.2.weight f4 [64, 64]
28.369993 -27.476799 -27.506386 -27.463902 -28.249884 28.26411 28.269398 -27.952301
-27.98499 28.335562 28.158934 28.184742 28.444744 -28.204126 -28.362204 28.218771
28.366661 28.102493 -28.291822 28.265574 -28.361492 -28.14336 -28.19415 -27.97332
-28.206013 -28.344547 28.332556 -28.055109 28.2839 -28.277784 -28.478643 28.00532
-27.799292 -28.131071 -28.02361 28.192373 -27.644913 -28.044537 28.259558 28.18148
-27.378487 -28.215601 28.186981 28.24913 -28.09893 28.320576 -28.180208 28.118746
28.28983 28.273891 28.23761 28.2722 -28.082426 -28.237564 -28.242476 28.26954
28.257141 28.213161 -28.033117 28.126047 28.254566 -28.703474 -28.040789 -28.450598
28.293009 -27.60846 -27.564957 -27.401955 -28.186825 28.236898 28.210564 -27.88205
-28.09217 28.291107 28.170855 28.017382 28.199543 -28.031586 -28.429417 28.140335
28.264606 28.065578 -28.193111 28.22582 -28.241077 -28.019016 -27.969372 -27.878143
-28.081562 -28.32442 28.343636 -27.99915 28.136541 -28.279705 -28.449123 28.028345
-27.765648 -28.184692 -27.799633 28.182045 -27.41164 -28.080551 28.155128 28.295708
-27.370258 -28.164764 28.245615 28.307482 -27.990509 28.205704 -28.104073 28.195454
28.295343 28.386538 28.163551 28.26798 -27.930767 -28.178074 -28.201645 28.304575
28.303352 28.130104 -27.867413 28.034264 28.288857 -28.75248 -28.084007 -28.344902
28.243809 -27.406456 -27.42247 -27.618042 -28.355316 28.377064 28.167114 -27.823057
-28.04116 28.455778 28.066618 28.123098 28.307608 -28.000765 -28.383066 28.158266
28.30129 28.17317 -28.164211 28.10063 -28.211016 -28.048712 -27.960379 -27.799173
-28.14668 -28.211517 28.386341 -27.964417 28.179539 -28.231295 -28.397913 28.02037
-27.881128 -28.160812 -27.812222 28.20159 -27.630352 -28.188349 28.186522 28.161839
-27.536943 -28.263378 28.125124 28.228092 -28.210014 28.324335 -28.224894 28.161436
28.285826 28.29047 28.103376 28.287811 -27.932346 -28.245958 -28.036469 28.18399
28.404264 28.079826 -27.864645 28.257828 28.359573 -28.741596 -28.062292 -28.264273
0.018959627 -0.09063241 -0.0110603 0.10796876 0.13592897 -0.12111883 -0.11123433 -0.022407295
0.134009 -0.10105003 -0.053648517 0.035941567 -0.08417812 0.15039065 -0.05504641 0.02626443
0.012539587 -0.014581154 0.064086065 -0.05933316 0.02384036 0.07867036 0.0123437885 -0.036667798
-0.017919874 0.12285624 -0.1259452 -0.03237199 -0.09788366 -0.017108677 -0.0688785 -0.021081515
-0.022769015 0.12304698 0.07966992 -0.06371053 -0.038803767 -0.071966596 -0.15851696 -0.10476895
-0.101935655 0.14566666 -0.10003059 -0.007071621 0.04758401 0.038010444 0.11205092 -0.09587388
-0.09182425 -0.04548951 -0.1266586 0.033835996 0.042312853 0.07759518 -0.07631502 -0.10994681
0.01781955 0.056150064 -0.04879807 0.054211948 -0.09914392 -0.07519246 -0.062142994 0.04555345
00000000: bff5 e241 7cd0 dbc1 140d dcc1 12b6 dbc1
00000010: c3ff e1c1 e61c e241 ba27 e241 509e dfc1
00000020: 42e1 dfc1 3baf e241 7f45 e141 5a7a e141
00000030: d68e e341 0da2 e1c1 cbe5 e2c1 0bc0 e141
00000040: ecee e241 e8d1 e041 a755 e2c1 e51f e241
00000050: 56e4 e2c1 9a25 e1c1 9f8d e1c1 5cc9 dfc1
00000060: eaa5 e1c1 a2c1 e2c1 13a9 e241 dd70 e0c1
00000070: 6d45 e241 e738 e2c1 43d4 e3c1 e50a e041
00000080: f364 dec1 6f0c e1c1 5a30 e0c1 fb89 e141
00000090: c828 ddc1 365b e0c1 9313 e241 ac73 e141
000000a0: 2407 dbc1 8db9 e1c1 f07e e141 38fe e141
000000b0: 9cca e0c1 8a90 e241 1171 e1c1 31f3 e041
000000c0: 9251 e241 ee30 e241 a0e6 e141 772d e241
000000d0: cfa8 e0c1 88e6 e1c1 97f0 e1c1 0528 e241
000000e0: a00e e241 8eb4 e141 d343 e0c1 2502 e141
000000f0: 5a09 e241 b7a0 e5c1 8953 e0c1 d39a e3c1
00000100: 1558 e241 20de dcc1 0885 dcc1 3437 dbc1
00000110: 9e7e e1c1 2be5 e141 3caf e141 700e dfc1
00000120: c4bc e0c1 3054 e241 e95d e141 9923 e041
00000130: aa98 e141 b040 e0c1 726f e3c1 681f e141
00000140: ea1d e241 4e86 e041 7e8b e1c1 7bce e141
00000150: baed e1c1 f226 e0c1 46c1 dfc1 7006 dfc1
00000160: 0aa7 e0c1 6a98 e2c1 c4bf e241 42fe dfc1
00000170: a317 e141 d63c e2c1 ce97 e3c1 0d3a e041
00000180: 0c20 dec1 407a e1c1 a665 dec1 d474 e141
00000190: 0a4b dbc1 f8a4 e0c1 b43d e141 9c5d e241
000001a0: 4af6 dac1 7051 e1c1 05f7 e141 b975 e241
000001b0: 90ec dfc1 48a5 e141 24d5 e0c1 4a90 e141
000001c0: dd5c e241 a117 e341 f44e e141 d324 e241
000001d0: 3672 dfc1 b26c e1c1 f89c e1c1 c56f e241
000001e0: 446d e241 740a e141 76f0 dec1 2c46 e041
000001f0: 944f e241 1405 e6c1 0cac e0c1 5cc2 e2c1
00000200: 52f3 e141 6c40 dbc1 3861 dbc1 c0f1 dcc1
00000210: b0d7 e2c1 3a04 e341 4056 e141 9f95 dec1
00000220: 4c54 e0c1 6fa5 e341 6f88 e041 1bfc e041
00000230: fb75 e241 9101 e0c1 8510 e3c1 2144 e141
00000240: 0b69 e241 a762 e141 4e50 e1c1 17ce e041
00000250: 29b0 e1c1 c363 e0c1 dbae dfc1 b564 dec1
00000260: 672c e1c1 30b1 e1c1 3a17 e341 20b7 dfc1
00000270: b26f e141 b1d9 e1c1 ed2e e3c1 b829 e041
00000280: 8d0c dfc1 5849 e1c1 6e7f dec1 db9c e141
00000290: f60a ddc1 bd81 e1c1 ff7d e141 724b e141
000002a0: a94b dcc1 661b e2c1 4100 e141 22d3 e141
000002b0: 1cae e1c1 3d98 e241 95cc e1c1 9f4a e141
000002c0: 5f49 e241 e252 e241 b7d3 e041 704d e241
000002d0: 7275 dfc1 b9f7 e1c1 b04a e0c1 d078 e141
000002e0: ef3b e341 7ca3 e041 cbea dec1 0810 e241
000002f0: 68e0 e241 caee e5c1 937f e0c1 3b1d e2c1
00000300: 3851 9b3c 7c9d b9bd 4336 35bc ba1e dd3d
00000310: f730 0b3e 260d f8bd d3ce e3bd 818f b7bc
00000320: a839 093e 51f3 cebd 8cbe 5bbd 7737 133d
00000330: 9465 acbd 0200 1a3e 5878 61bd 8028 d73c
00000340: d772 4d3c cbe5 6ebc 8e3f 833d 5407 73bd
00000350: dc4c c33c ed1d a13d 9a3d 4a3c f930 16bd
00000360: b3cc 92bc 0d9c fb3d c7f7 00be 7e98 04bd
00000370: 3a77 c8bd 7f27 8cbc 2c10 8dbd 24b3 acbc
00000380: 1686 babc 0e00 fc3d fc29 a33d ab7a 82bd
00000390: b3f0 1ebd 3963 93bd 4552 22be 1a91 d6bd
000003a0: a4c3 d0bd a429 153e d7dc ccbd 0eb9 e7bb
000003b0: 73e7 423d d7b0 1b3d f47a e53d 8659 c4bd
000003c0: 5a0e bcbd 3553 3abd cbb2 01be 9d97 0a3d
000003d0: 3e50 2d3d 39ea 9e3d 0d4b 9cbd cb2b e1bd
000003e0: 4efa 913c 9cfd 653d 7ce0 47bd 590d 5e3d
000003f0: f80b cbbd 81fe 99bd a789 7ebd 4196 3a3d

net1.2.bias f4 [64]
27.838224 27.62663 27.681913 -0.08341539 0.09844906 0.04490602 -0.010033618 -0.032365628
27.57818 0.056459256 -0.05481014 0.092644885 27.786594 27.669035 0.08028441 27.790634
27.554964 27.594368 0.008505244 27.601994 -0.0454297 27.557352 -0.1107578 27.593616
0.037958745 27.768991 27.72797 0.03210756 27.788347 -3.934244e-05 27.702744 0.0045645796
27.739212 -0.012784578 27.549189 27.631514 27.642328 27.570545 -0.11954153 27.703804
27.680822 -0.046649236 27.749506 27.715786 27.573204 27.591145 27.661497 -0.045041647
27.67481 -0.062905595 -0.124437995 0.014341475 27.5314 0.054646187 -0.08343195 0.004708897
-0.091628976 0.028257916 0.0010800286 0.12188175 -0.10412906 0.107032515 -0.007923238 -0.059693176
00000000: afb4 de41 5703 dd41 8f74 dd41 b0d5 aabd
00000010: a99f c93d 60ef 373d 0b64 24bc d291 04bd
00000020: 1da0 dc41 d241 673d 9980 60bd 9abc bd3d
00000030: f24a de41 2f5a dd41 276c a43d 3853 de41
00000040: 9170 dc41 44c1 dc41 9459 0b3c e2d0 dc41
00000050: 7e14 3abd 7575 dc41 fcd4 e2bd babf dc41
00000060: a17a 1b3d e526 de41 e2d2 dd41 3883 033d
00000070: 894e de41 a003 25b8 389f dd41 7892 953b
00000080: e8e9 dd41 6876 51bc bd64 dc41 570d dd41
00000090: 7d23 dd41 7a90 dc41 31d2 f4bd 64a1 dd41
000000a0: 5372 dd41 4513 3fbd fdfe dd41 eeb9 dd41
000000b0: ec95 dc41 aaba dc41 bf4a dd41 977d 38bd
000000c0: 0366 dd41 a6d4 80bd 59d9 febd 82f8 6a3c
000000d0: 4f40 dc41 aed4 5f3d 5fde aabd 174d 9a3b
000000e0: f9a7 bbbd 257d e73c bf8f 8d3a 249d f93d
000000f0: 9e41 d5bd dd33 db3d 78d0 01bc d580 74bd

net1.4.weight f4 [1, 64]
27.780165 27.79351 27.83097 -27.090849 -27.075935 -25.052898 -25.11054 -25.243069
27.79417 -24.889427 -27.072483 -25.121422 27.777042 27.851479 -24.363874 27.781588
27.83202 27.796894 -27.047531 27.835003 -24.62261 27.860872 -24.931923 27.758018
-27.06439 27.832563 27.851295 -27.166584 27.775393 -25.09651 27.82941 -24.767946
27.794474 -27.163326 27.79636 27.880102 27.848154 27.854147 -27.047413 27.754265
27.772322 -25.080414 27.761354 27.830057 27.792458 27.801971 27.787107 -25.225922
27.82153 -27.087442 -27.163067 -27.133587 27.878695 -24.95626 -24.873571 -27.084272
-24.22411 -27.04404 -25.033106 -25.098303 -24.576754 -24.482388 -25.313528 -27.128448
00000000: c73d de41 1c59 de41 d4a5 de41 0fba d8c1
00000010: 849b d8c1 566c c8c1 63e2 c8c1 cef1 c9c1
00000020: 765a de41 8c1d c7c1 7294 d8c1 acf8 c8c1
00000030: 6237 de41 d4cf de41 37e9 c2c1 b140 de41
00000040: faa7 de41 0a60 de41 5861 d8c1 16ae de41
00000050: 1bfb c4c1 11e3 de41 9474 c7c1 6c10 de41
00000060: df83 d8c1 17a9 de41 74cf de41 2a55 d9c1
00000070: 0134 de41 a7c5 c8c1 a2a2 de41 c124 c6c1
00000080: 155b de41 7e4e d9c1 f25e de41 730a df41
00000090: 05c9 de41 4bd5 de41 1a61 d8c1 bc08 de41
000000a0: b72d de41 b0a4 c8c1 4117 de41 f5a3 de41
000000b0: f456 de41 706a de41 ff4b de41 b0ce c9c1
000000c0: 7e92 de41 15b3 d8c1 f64d d9c1 9611 d9c1
000000d0: 9107 df41 6ca6 c7c1 13fd c6c1 97ac d8c1
000000e0: faca c1c1 325a d8c1 cd43 c8c1 53c9 c8c1
000000f0: 319d c4c1 eedb c3c1 1b82 cac1 1007 d9c1

net2.0.weight f4 [64, 16]
0.20358449 -1.3659866 0.03787613 1.4364189 -0.9086321 0.031241238 -0.5194822 -0.6256279
-0.6611628 -0.28223732 -0.082725964 -0.2033179 0.047702014 -0.65738934 -0.050412904 0.38800988
-0.3904332 -2.7185419 0.21491301 0.96460694 -1.9090352 -0.21833196 -0.24152175 -0.6418509
-0.61979026 -0.33908883 -0.15487708 0.011131493 0.014725715 -1.1992986 -0.4320315 -0.01934285
-0.4909467 0.37190077 0.076737195 -0.609693 1.2494954 -0.15511262 -0.6352311 -0.7437789
-0.5038515 -0.5959644 0.13844612 -0.3869158 0.23965916 -0.59077394 0.1898595 0.10099992
26.150414 26.410683 -0.21332178 1.5732042 0.58618426 0.24778211 27.945486 28.01714
28.293884 28.345686 -10.587498 -13.177721 0.08188996 2.016956 0.6367975 -0.39083636
0.224271 0.19992363 -0.21407837 1.1527507 0.10406963 0.2422589 -0.46208405 -0.6569554
-0.69848335 -0.46635982 0.036933478 -0.15147404 -0.11077231 0.34955463 0.45106128 -0.33731863
26.653194 26.563244 0.0057283044 1.9566 0.31827477 -0.21935824 28.101599 28.248224
28.396143 28.312155 -10.9190235 -13.39816 -0.19617513 2.163528 0.4532729 -0.5509054
0.057981048 0.2405769 0.16182762 -0.40490255 0.9348668 0.13911119 -0.73552006 -0.7314237
-0.51142174 -0.48217556 0.16975273 -0.46839666 -0.061751723 0.30396873 0.08873731 -0.35862076
26.173294 26.402544 -0.20084369 1.5631341 0.25390244 0.05523005 28.078117 28.186714
28.372156 28.209902 -10.908457 -13.23289 0.010992199 2.1576445 0.91104865 -0.4600032
26.43699 26.658197 0.014139801 1.8899578 0.3487446 0.23149821 28.328766 27.957958
28.450726 28.098467 -10.801043 -13.372402 0.2231232 2.3018472 0.6035976 -0.3955884
26.332832 26.548737 -0.13424852 1.9258804 0.40308252 0.16958535 28.397839 28.399471
28.229977 28.169518 -10.624263 -13.345026 -0.1183846 2.2508996 0.77045786 -0.1473868
26.503456 26.858532 0.16736776 1.5646861 0.36945885 -0.026307672 28.43095 28.189533
28.420956 28.108625 -10.984749 -13.243043 -0.22538501 2.1696227 0.72661793 -0.5812191
26.59896 26.688667 -0.23991129 1.939125 0.52765477 -0.12646505 28.431702 28.095524
28.204372 28.412289 -10.7552395 -13.177078 -0.20505837 2.1665852 0.6025432 -0.367095
0.21357833 0.17432167 0.22960922 0.7606228 0.2246985 0.16961178 -0.6468943 -0.56250685
-0.76565856 -0.4189045 0.12669228 -0.34322676 -0.14295125 0.5794925 0.22167479 -0.14141421
-0.06600462 -2.627657 -0.20510542 1.0594016 -1.7032099 0.07098684 -0.5176642 -0.43471834
-0.5942988 -0.24313317 -0.046656795 -0.19323915 -0.07834649 -0.55130494 -0.43030587 0.3286539
26.041225 26.53397 -0.06837016 1.9089105 0.5134742 0.16088334 27.849936 28.216385
28.20115 28.215279 -11.021171 -13.031459 -0.21094939 2.2156727 0.9044237 -0.51530707
26.34576 26.857397 0.059796005 1.7588153 0.17422815 -0.040938407 28.202217 28.359873
27.988094 28.358572 -10.675196 -13.307877 -0.013445646 2.2171698 0.7551089 -0.18065518
00000000: 7478 503e a6d8 aebf 0024 1b3d 93dc b73f
00000010: 1d9c 68bf a0ed ff3c c9fc 04bf 2629 20bf
00000020: f741 29bf 6981 90be 3b6c a9bd 9132 50be
00000030: 3063 433d ab4a 28bf c37d 4ebd 3ba9 c63e
00000040: dce6 c7be 97fc 2dc0 2812 5c3e 7bf0 763f
00000050: 445b f4bf 6a92 5fbe 7a51 77be 5750 24bf
00000060: 93aa 1ebf 0d9d adbe 1998 1ebe de60 363c
00000070: 2044 713c 9e82 99bf 3c33 ddbe e674 9ebc
00000080: 5e5d fbbe c769 be3e 6428 9d3d d714 1cbf
00000090: 77ef 9f3f d8d5 1ebe 819e 22bf 4b68 3ebf
000000a0: 69fc 00bf 1f91 18bf d2c4 0d3e d419 c6be
000000b0: 3669 753e f63c 17bf 876a 423e 0cd9 ce3d
000000c0: 0c34 d141 1449 d341 0671 5abe c15e c93f
000000d0: 2c10 163f 98ba 7d3e 5b90 df41 1a23 e041
000000e0: e059 e241 f7c3 e241 6466 29c1 f2d7 52c1
000000f0: ecb5 a73d cf15 0140 2905 233f b41b c8be
00000100: 4ca7 653e c8b8 4c3e 5c37 5bbe 568d 933f
00000110: 7522 d53d b812 783e 4896 ecbe 3b2e 28bf
00000120: cecf 32bf b7c6 eebe 8f47 173d 031c 1bbe
00000130: 98dc e2bd d3f8 b23e 81f1 e63e 07b5 acbe
00000140: be39 d541 8681 d441 80b4 bb3b de71 fa3f
00000150: e9f4 a23e 729f 60be 13d0 e041 5dfc e141
00000160: 4d2b e341 4b7f e241 52b4 2ec1 dd5e 56c1
00000170: 22e2 48be 3e77 0a40 6313 e83e 2308 0dbf
00000180: 897d 6d3d ca59 763e 24b6 253e 634f cfbe
00000190: 6e53 6f3f 2a73 0e3e 0b4b 3cbf 953e 3bbf
000001a0: 89ec 02bf b7df f6be a9d3 2d3e b0d1 efbe
000001b0: 60ef 7cbd caa1 9b3e e8bb b53d 249d b7be
000001c0: e862 d141 6938 d341 f8a9 4dbe c714 c83f
000001d0: 80ff 813e e838 623d fc9f e041 647e e141
000001e0: 2dfa e241 e1ad e141 0a89 2ec1 ebb9 53c1
000001f0: a018 343c d916 0a40 7c3a 693f 8a85 ebbe
00000200: f57e d341 fd43 d541 a0aa 673c 23ea f13f
00000210: a78e b23e de0d 6d3e 50a1 e241 e6a9 df41
00000220: 169b e341 a9c9 e041 12d1 2cc1 5cf5 55c1
00000230: 687a 643e 7751 1340 5f85 1a3f 908a cabe
00000240: a4a9 d241 d063 d441 7278 09be 4083 f63f
00000250: d560 ce3e c8a7 2d3e c62e e341 1e32 e341
00000260: fed6 e141 2c5b e141 fbfc 29c1 3a85 55c1
00000270: a073 f2bd bd0e 1040 ba3c 453f 91ec 16be
00000280: 1407 d441 46de d641 7462 2b3e a247 c83f
00000290: b629 bd3e 3083 d7bc 9672 e341 2a84 e141
000002a0: 1e5e e341 77de e041 88c1 2fc1 81e3 53c1
000002b0: 54cb 66be 19db 0a40 a203 3a3f c6ca 14bf
000002c0: acca d441 6482 d541 4eab 75be 3f35 f83f
000002d0: 6214 073f 0e80 01be 2074 e341 a2c3 e041
000002e0: 8ea2 e141 5e4c e341 7615 2cc1 50d5 52c1
000002f0: d2fa 51be 55a9 0a40 4540 1a3f e0f3 bbbe
00000300: 47b4 5a3e 6181 323e ae1e 6b3e 2db8 423f
00000310: 5d17 663e b6ae 2d3e dd9a 25bf 7300 10bf
00000320: 3302 44bf a77a d6be 9fbb 013e 6bbb afbe
00000330: d061 12be 9f59 143f b7fe 623e e3ce 10be
00000340: 6e2d 87bd 882b 28c0 2807 52be 799a 873f
00000350: c802 dabf 8c61 913d a485 04bf 6793 debe
00000360: f723 18bf e7f7 78be 321b 3fbd 7ce0 45be
00000370: 2074 a0bd 5222 0dbf 0d51 dcbe 5345 a83e
00000380: 6e54 d041 9245 d441 a805 8cbd 2e57 f43f
00000390: 0c73 033f 9abe 243e abcc de41 28bb e141
000003a0: f59b e141 e4b8 e141 b756 30c1 db80 50c1
000003b0: 1e03 58be 95cd 0d40 5088 673f 2aeb 03bf
000003c0: 1ec4 d241 f3db d641 a8ec 743d dc20 e13f
000003d0: dd68 323e 08af 27bd 249e e141 05e1 e241
000003e0: 9ee7 df41 5bde e241 9acd 2ac1 10ed 54c1
000003f0: 204b 5cbc 1ce6 0d40 d14e 413f acfd 38be

net2.0.bias f4 [64]
-0.40901932 -0.32570326 -0.4092191 28.234026 -0.72363937 28.339272 -0.5014403 28.312786
28.236385 28.048225 28.347218 28.011635 -0.38833544 -0.5094524 28.071722 28.124887
-0.47892177 -0.4959543 -0.752376 28.262955 28.357666 -0.6052018 28.06791 28.28947
28.179565 -0.2681528 28.260965 27.90808 28.20554 -0.55423486 28.25901 28.271301
28.171808 -0.5448918 -0.18047395 -0.7151349 -0.10759633 28.071281 27.98689 28.1031
28.213615 -0.4552887 -0.5352409 28.396389 -0.42781436 28.173985 -0.4092544 -0.7218496
28.121706 28.375757 -0.46441886 27.944857 28.28931 -0.31734654 -0.5405041 28.22434
-0.62895 28.25373 28.073513 -0.32202286 27.992733 -0.53171206 -0.43518043 -0.5986259
00000000: fb6a d1be 94c2 a6be 2a85 d1be 49df e141
00000010: 6e40 39bf d4b6 e241 645e 00bf 9680 e241
00000020: 1ee4 e141 c462 e041 1ac7 e241 d417 e041
00000030: e7d3 c6be 796b 02bf e392 e041 c5ff e041
00000040: 3c35 f5be b9ed fdbe b79b 40bf 881a e241
00000050: 80dc e241 81ee 1abf 148b e041 d650 e241
00000060: c06f e141 534b 89be 7516 e241 bf43 df41
00000070: f2a4 e141 56e2 0dbf 7412 e241 a02b e241
00000080: dd5f e141 077e 0bbf 2ace 38be 1513 37bf
00000090: 775b dcbd fc91 e041 27e5 df41 26d3 e041
000000a0: 7cb5 e141 9a1b e9be 8c05 09bf ce2b e341
000000b0: 7c0a dbbe 5264 e141 cb89 d1be 23cb 38bf
000000c0: 41f9 e041 8d01 e341 4fc8 edbe 118f df41
000000d0: 8250 e241 3f7b a2be 7a5e 0abf 73cb e141
000000e0: de02 21bf a407 e241 8e96 e041 2ee0 a4be
000000f0: 1ef1 df41 481e 08bf f8cf debe 8c3f 19bf

net2.2.weight f4 [64, 64]
-0.07091267 -0.06868598 -0.08178712 -0.167355 -0.052158218 -0.05154951 -0.0316663 -0.0029319518
-0.093433835 -0.0696415 0.04226118 -0.072571374 0.042076904 0.028094895 -0.102726124 0.064295396
0.08284797 0.060347646 0.054784723 0.093485974 -0.11039773 0.03147398 0.06789408 -0.036665995
0.036751952 -0.083573855 0.021568408 -0.16333139 0.002160763 -0.07502499 0.033960573 0.016133659
0.069244124 0.16624428 0.034108713 0.123096496 0.061545786 -0.05561345 -0.14319015 -0.063880704
-0.14857003 0.006075921 0.06824375 -0.14262258 -0.020019589 -0.134375 -0.052416585 0.13813742
-0.08594772 0.011542866 0.08906429 -0.12938513 -0.11379533 -0.05007124 0.016444469 -0.11391402
0.09074496 -0.13813892 0.036459558 0.07601295 -0.070084825 0.048291173 0.004934926 0.06022858
-27.890373 -27.996183 -28.400951 28.282858 -28.257406 28.002829 -28.19173 28.198692
27.996283 28.126514 28.064735 28.110971 -28.160769 -27.793493 28.31632 28.021902
-28.742123 -27.992437 -28.117239 28.034342 28.050575 -27.405457 28.021168 28.126324
27.95275 -28.102577 28.064047 28.150808 28.041977 -27.338274 28.2033 28.027388
28.05304 -28.100702 -27.82839 -28.002436 -28.035862 27.99634 28.010658 28.08088
27.995964 -27.926725 -28.276682 28.211494 -27.99256 28.102867 -27.959192 -28.534012
28.344397 28.0287 -28.042095 28.152975 28.095472 -27.915998 -28.07832 28.241089
-27.987204 28.139242 28.114594 -28.058191 28.141829 -27.81949 -27.392044 -27.96114
-28.049807 -27.817919 -28.353846 28.219946 -28.069143 28.015425 -28.226978 28.095583
27.989334 28.03233 28.095545 28.067343 -28.276178 -27.82805 28.156168 28.007557
-28.628578 -28.083084 -28.184336 28.228941 28.086067 -27.372213 28.199846 27.950567
28.105265 -28.13965 27.940718 28.06758 28.184647 -27.360252 28.2354 27.961063
27.941319 -28.125174 -27.874355 -27.988922 -27.842337 28.039669 28.029434 28.006859
28.059868 -28.023148 -28.222536 28.069391 -27.88015 28.0406 -27.88218 -28.521357
28.203276 28.110758 -28.005127 28.217836 28.227413 -27.767849 -28.010485 28.13123
-28.06968 27.963228 28.03777 -28.061676 28.174355 -28.03858 -27.195314 -28.021622
-0.023100344 -0.009528574 0.05404135 -0.16849278 -0.019631915 -0.15472984 0.1324443 0.0031406365
-0.03538049 0.036045533 -0.12437019 0.020134 0.10368018 -0.061500616 -0.2078973 -0.020605776
0.13036233 0.12312506 0.02146314 0.052742064 0.031210236 -0.04435484 0.05564183 0.06121333
-0.06778935 0.115496345 0.011656765 0.046245966 -0.055494312 0.09288248 0.03961307 -0.017598059
-0.12991555 -0.036856115 -0.063337564 0.13336603 0.13415939 0.07955233 -0.14843865 -0.030201538
-0.03338127 0.11703657 -0.08136727 -0.12592317 0.015866155 -0.018251507 0.009917955 0.015473953
-0.1331668 -0.11163266 0.12907289 -0.09494362 0.06779513 0.08022752 0.052853126 -0.16633914
-0.03494224 -0.06744857 -0.052265737 -0.008514575 -0.009522421 -0.065545484 -0.079279914 0.020676218
00000000: a93a 91bd 3cab 8cbd 0180 a7bd 1c5f 2bbe
00000010: dba3 55bd 9425 53bd 86b4 01bd fd25 40bb
00000020: 3d5a bfbd 34a0 8ebd 0f1a 2d3d 4da0 94bd
00000030: d558 2c3d 4427 e63c 1362 d2bd 4ead 833d
00000040: 32ac a93d 182f 773d f265 603d 9375 bf3d
00000050: 3418 e2bd dcea 003d 0d0c 8b3d 152f 16bd
00000060: 3789 163d c528 abbd 3bb0 b03c 5840 27be
00000070: 969b 0d3b b4a6 99bd 3e1a 0b3d bc2a 843c
00000080: ddcf 8d3d f13b 2a3e 94b5 0b3d 041a fc3d
00000090: 6f17 7c3d eeca 63bd 70a0 12be e3d3 82bd
000000a0: be22 18be 8518 c73b 61c3 8b3d a70b 12be
000000b0: 1f00 a4bc 9a99 09be c6b2 56bd e573 0d3e
000000c0: 5c05 b0bd 4a1e 3d3c 5767 b63d 897d 04be
000000d0: 870d e9bd 8017 4dbd 8db6 863c c14b e9bd
000000e0: 7ed8 b93d 4a74 0dbe 9e56 153d adac 9b3d
000000f0: a288 8fbd f7cc 453d 29b5 a13b 3eb2 763d
00000100: 7c1f dfc1 2ff8 dfc1 2635 e3c1 4b43 e241
00000110: 2b0f e2c1 cb05 e041 aa88 e1c1 ec96 e141
00000120: 63f8 df41 1a03 e141 9484 e041 45e3 e041
00000130: 4149 e1c1 1359 dec1 d387 e241 db2c e041
00000140: deef e5c1 83f0 dfc1 1bf0 e0c1 5546 e041
00000150: 9467 e041 603e dbc1 5a2b e041 b602 e141
00000160: 3b9f df41 14d2 e0c1 2b83 e041 db34 e141
00000170: f855 e041 c9b4 dac1 5ca0 e141 1738 e041
00000180: a06c e041 3dce e0c1 8ba0 dec1 fd04 e0c1
00000190: 7249 e0c1 81f8 df41 d415 e041 a4a5 e041
000001a0: bcf7 df41 ef69 dfc1 a536 e2c1 24b1 e141
000001b0: c3f0 dfc1 acd2 e041 6dac dfc1 a845 e4c1
000001c0: 53c1 e241 c73a e041 3656 e0c1 4b39 e141
000001d0: 87c3 e041 f753 dfc1 66a0 e0c1 c0ed e141
000001e0: cbe5 dfc1 2b1d e141 b0ea e041 2d77 e0c1
000001f0: 7722 e141 518e dec1 e822 dbc1 6ab0 dfc1
00000200: 0166 e0c1 198b dec1 add4 e2c1 73c2 e141
00000210: 9b8d e0c1 971f e041 dad0 e1c1 c1c3 e041
00000220: 28ea df41 3642 e041 adc3 e041 eb89 e041
00000230: 9d35 e2c1 d99f dec1 d53f e141 7a0f e041
00000240: 5407 e5c1 28aa e0c1 8579 e1c1 dfd4 e141
00000250: 44b0 e041 4bfa dac1 4999 e141 c39a df41
00000260: 95d7 e041 011e e1c1 9786 df41 678a e041
00000270: 287a e141 cce1 dac1 19e2 e141 42b0 df41
00000280: d287 df41 5b00 e1c1 aefe dec1 50e9 dfc1
00000290: 1bbd dec1 3e51 e041 483c e041 0c0e e041
000002a0: 9c7a e041 682f e0c1 c1c7 e1c1 1d8e e041
000002b0: 8c0a dfc1 2653 e041 b40e dfc1 bd2b e4c1
000002c0: 4fa0 e141 d5e2 e041 800a e0c1 21be e141
000002d0: bed1 e141 8e24 dec1 7915 e0c1 c20c e141
000002e0: b48e e0c1 b1b4 df41 5a4d e041 507e e0c1
000002f0: 1465 e141 034f e0c1 0190 d9c1 482c e0c1
00000300: ef3c bdbc bc1d 1cbc 765a 5d3d 5f89 2cbe
00000310: 1cd3 a0bc 8071 1ebe 7b9f 073e 23d3 4d3b
00000320: 22eb 10bd 7ba4 133d ccb5 febd 0ff0 a43c
00000330: 4656 d43d 12e8 7bbd 08e3 54be 72cd a8bc
00000340: b47d 053e fe28 fc3d 78d3 af3c 1008 583d
00000350: 9cac ff3c 6cad 35bd b0e8 633d d4ba 7a3d
00000360: 25d5 8abd 5989 ec3d 04fc 3e3c 696c 3d3d
00000370: 014e 63bd 2b39 be3d 5141 223d ce29 90bc
00000380: 9508 05be 70f6 16bd 20b7 81bd 1b91 083e
00000390: 1461 093e 55ec a23d 4d00 18be 3769 f7bc
000003a0: ccba 08bd dfb0 ef3d e2a3 a6bd 01f2 00be
000003b0: bdf9 813c 2f84 95bc eb7e 223c 7786 7d3c
000003c0: e15c 08be aa9f e4bd af2b 043e cd71 c2bd
000003d0: 2cd8 8a3d 534e a43d 857c 583d cf54 2abe
000003e0: 981f 0fbd 7a22 8abd 9914 56bd b780 0bbc
000003f0: ee03 1cbc b63c 86bd 825d a2bd 2c61 a93c

net2.2.bias f4 [64]
-0.08556228 27.522736 27.48614 -0.1098137 27.490803 0.07620631 27.465532 -0.054601382
0.031943735 -0.04176737 0.0310519 27.635153 27.5713 0.06708258 27.54433 27.660784
-0.09811138 0.03458937 -0.15208724 27.500034 0.02594255 27.444344 -0.056859635 27.656157
27.607332 0.06792992 -0.048479594 -0.07217196 27.627445 27.542543 27.549088 -0.08776043
27.531559 0.08347123 -0.15228486 27.476048 27.56845 -0.021613482 -0.13095705 -0.073409
27.518545 0.0073165684 27.499403 27.588028 27.630531 -0.010782947 0.09533799 -0.040391985
-0.050858367 27.526522 0.062808976 27.460272 -0.06988543 27.535261 -0.02093874 -0.077415474
-0.0744048 -0.06932435 -0.06797691 0.011833858 27.437668 27.570612 27.586311 27.506489
00000000: 473b afbd 902e dc41 9de3 db41 01e6 e0bd
00000010: 2aed db41 0e12 9c3d 69b9 db41 b3a5 5fbd
00000020: 6fd7 023d 4314 2bbd 8e60 fe3c cb14 dd41
00000030: 0692 dc41 9762 893d ca5a dc41 4949 dd41
00000040: 9fee c8bd 95ad 0d3d c2bc 1bbe 1200 dc41
00000050: 7885 d43c 048e db41 a6e5 68bd cf3f dd41
00000060: d1db dc41 d81e 8b3d 8a92 46bd e4ce 93bd
00000070: 0205 dd41 2157 dc41 8864 dc41 bebb b3bd
00000080: a240 dc41 f7f2 aa3d 90f0 1bbe f2ce db41
00000090: 308c dc41 c20e b1bc 9b19 06be 7557 96bd
000000a0: fb25 dc41 d3bf ef3b c7fe db41 48b4 dc41
000000b0: 540b dd41 f5aa 30bc 9040 c33d 1172 25bd
000000c0: dd50 50bd 5136 dc41 fea1 803d a3ae db41
000000d0: 1820 8fbd 3748 dc41 b887 abbc 018c 9ebd
000000e0: 8b61 98bd edf9 8dbd 7a37 8bbd cce2 413c
000000f0: 5880 db41 9d90 dc41 c4b0 dc41 4a0d dc41

net2.4.weight f4 [1, 64]
-26.957157 27.575987 27.587727 -26.914257 27.526213 -24.835268 27.58186 -27.001957
-27.044485 -24.556204 -24.739807 27.561481 27.619553 -26.978611 27.60466 27.523613
-24.598711 -25.273073 -24.274258 27.518707 -24.405243 27.593075 -27.037893 27.557774
27.505564 -24.647116 -27.028522 -23.97917 27.579336 27.540314 27.622993 -27.017324
27.587257 -26.973574 -26.930872 27.584839 27.523855 -27.035812 -26.984743 -24.583178
27.560915 -27.04876 27.500233 27.492037 27.481363 -24.382383 -26.98506 -26.940653
-24.86607 27.5779 -24.17634 27.539486 -24.525528 27.589693 -26.986334 -26.976332
-26.986042 -26.991943 -27.021914 -24.816954 27.54876 27.594484 27.52109 27.551004
00000000: 42a8 d7c1 9f9b dc41 aab3 dc41 6650 d7c1
00000010: af35 dc41 a1ae c6c1 a6a7 dc41 0204 d8c1
00000020: 1b5b d8c1 1b73 c4c1 20eb c5c1 ea7d dc41
00000030: d8f4 dc41 32d4 d7c1 58d6 dc41 5c30 dc41
00000040: 29ca c4c1 412f cac1 ae31 c2c1 5026 dc41
00000050: f03d c3c1 9ebe dc41 9b4d d8c1 5276 dc41
00000060: 650b dc41 4b2d c5c1 6a3a d8c1 57d5 bfc1
00000070: 7ba2 dc41 9052 dc41 e4fb dc41 7b23 d8c1
00000080: b4b2 dc41 e1c9 d7c1 6d72 d7c1 c0ad dc41
00000090: db30 dc41 5849 d8c1 c1e0 d7c1 59aa c4c1
000000a0: c17c dc41 dc63 d8c1 7a00 dc41 b1ef db41
000000b0: d5d9 db41 1f0f c3c1 67e1 d7c1 7586 d7c1
000000c0: b6ed c6c1 8a9f dc41 2569 c1c1 de50 dc41
000000d0: 4834 c4c1 b1b7 dc41 03e4 d7c1 87cf d7c1
000000e0: 6ae3 d7c1 80ef d7c1 e12c d8c1 1f89 c6c1
000000f0: dc63 dc41 81c1 dc41 312b dc41 7568 dc41
