log/GC_SAC/square3Env/20210804-0735/GC_SAC_HER_actor.pth (torch, 24159 bytes, 6 tensors)

net.0.weight f4 [64, 13]
00000000: 0f19 463e d725 603e 40a2 76bc 1683 0fbd
00000010: 5e3b b3bd 286c 2c3d 1650 9cbe 6a76 42bd
00000020: 41af d63d 84df 87be 346f 993e dbe2 843e
00000030: eddb 28be a4e4 60be 1dc8 823e 9822 21be
00000040: d1b1 b33c 2bb3 743a 1e01 6d3e 2012 5cbe
00000050: 7310 a73d 267e 403d 42f6 e3bd d8c8 6fbe
00000060: ca5e 0f3f b471 073e ec94 ffbd fcd7 ac3e
00000070: 2026 a63c 0688 01ba 4055 813e 7a79 523e
00000080: 306e 5d3e af31 d2bd 3a33 ef3d 75be 52be
00000090: 8bed 573c ae2d 043f 3cf1 93bd 844b b3bd
000000a0: c78f b03e 489c 233e 4443 e6bd 48a8 f93c
000000b0: 8f31 85be 2940 5abd 1bdf 1fbe f9b1 0dbe
000000c0: b580 9c3c a9b4 0fbf 3f2e 5bbe 5c2f f93d
000000d0: 17f3 293e 6f71 0fbe ea29 713e 786b 3a3e
000000e0: 5c73 123e 0854 bb3d 40e0 803e 5118 3e3e
000000f0: 3b15 55bd 0f77 34bd e4bd 49be 0bd7 debe
00000100: 164b c1bd 3d1d 1abe 1f23 f93c 8a07 33be
00000110: ddcc 0c3f 3780 16be d617 733e 9968 d53c
00000120: 11c1 81be 3cc3 c23d 08ed 873d e66d 9cbd
00000130: e80e 05bf 448f 0b3e 6132 0fbe a71c 0f3f
00000140: 4544 843e 40fe 8a3d ef1a 2cbd 5a25 733e
00000150: b671 dbbd 38df 0abe a8d4 dabd 2e5d 23be
00000160: 495b 04bf 9e06 25bd c04b 2dbe 3be7 233e
00000170: 3e4d a0bc c4fe 123e 1c35 0abf 9d8b 023f
00000180: ce1b 243e 157e 253e 9493 1fbd e4a3 ecbd
00000190: 94a0 e43d b835 16bd d94f 88be 7aa6 4ebe
000001a0: 65fc 843e dc13 9ebd b1a7 883e 3b7d 2e3f
000001b0: 3977 8dbe 3cdb 99bd 4840 e5bd 94e5 123c
000001c0: b445 183e ede0 a6be 24cb 9dbe 053f 9a3d
000001d0: 70c4 8e3d 8214 9e3d 0186 7abe b17b 56be
000001e0: 5dd5 09be eb62 1dbe e6f4 5a3e 034e 1a3e
000001f0: 0657 3a3e cf52 eebc 0620 c63d 3d81 153e
00000200: eb46 61bf aa87 253e 6ace 2bbe 1786 73be
00000210: ae1b 28be f70b 14be e1f5 fd3c bed6 283e
00000220: 34a7 653d 8223 a8bb 1dc7 5e3d 4580 893e
00000230: 545b 0c3f c56d b3be bce5 ea3d 2a56 ffbe
00000240: 9a54 f13d f14c 8a3e 7e59 43be 76af 843e
00000250: bc6f 1b3e 4362 423d be72 f0bd 1a40 4e3e
00000260: b21f a43d a633 67be 051b c0be b0fb 003d
00000270: b9d8 e9be bb2a e23d 50cf 083d 4cdf e6be
00000280: cab0 0cbe 085b 32be 25ac 163d a508 1ebe
00000290: 9907 783e d173 63be 68e9 f23e d17b 0ebf
000002a0: eec1 253e d3e6 77be 7252 e9bd 82f9 503e
000002b0: b88d 263d 442a 4ebd 3607 403e 293b 7fbe
000002c0: 50ae 303d 442b b73d 1ad7 d2bd 205d e03c
000002d0: e474 0e3e da16 29be f9c3 81bb c232 90bf
000002e0: 4bcb 86be 67d2 ef3d 7478 96be f8cd 37be
000002f0: 8255 ab3d 9620 06bd 7f2d 343e 21d5 903e
00000300: fa96 3c3e 1239 9abd 68c0 023d 57a6 0f3e
00000310: d414 21bd e0aa a4bd d848 8ebd 944f 57bf
00000320: a28d fabd d598 313e 4a55 67be ac96 293e
00000330: 7f0b 06bd b992 b63e 4d45 1b3e 801d c7bd
00000340: f8ec 9fbd 69f8 c0be 00fb 80bb b675 803e
00000350: b761 263e 2da3 8c3e cd54 7a3e 0f4b 92bd
00000360: 3602 20be 007c 953e d912 d9bd 9c37 ee3e
00000370: 8061 e3bb 27db 30be c693 74be 1483 e4bd
00000380: 457e 85bc eb1c 59be e67d 3ebe 779a cf3c
00000390: a0cd 35bd 54e0 32bd e4bd 423d aef2 34be
000003a0: 9d68 b6bd 10a0 f23c 93b3 17bf 01a7 c1bd
000003b0: b058 0e3e 9fb8 82bd 802b 85bd 6e0d 40be
000003c0: 9b77 83be b43a 653e 7c55 5f3e 3c5f fc3d
000003d0: 767b 23bf 911c 813e 88db 053e aa14 c7bc
000003e0: c9d0 14bf a967 58be ab10 d03d 441d 153d
000003f0: 743c 55be 5b88 443e b85e 143e 8314 203e
0.19345497 0.21889435 -0.015053332 -0.035037123 -0.08751558 0.042095333 -0.3052985 -0.04747621
0.10482646 -0.26537716 0.29967654 0.25954327 -0.16490145 -0.2196222 0.255433 -0.15735853
0.021935375 0.00093345594 0.23144957 -0.21491289 0.08157434 0.046995305 -0.11130954 -0.2341646
0.5600401 0.13226968 -0.124795765 0.33758533 0.020281851 -0.00049412285 0.25260353 0.20554152
0.21624064 -0.10263383 0.116796926 -0.20580466 0.013179193 0.516322 -0.07223746 -0.08754638
0.34484693 0.15977585 -0.11243299 0.03047575 -0.26014373 -0.053283844 -0.15612452 -0.13837422
0.019104341 -0.5613504 -0.2140436 0.12167236 0.16596638 -0.14008115 0.23551145 0.18205059
0.14301819 0.09146887 0.2517109 0.18563963 -0.0520222 -0.044058856 -0.19701344 -0.4352344
-0.0943815 -0.15050216 0.030412255 -0.17483345 0.55000097 -0.14697348 0.23739561 0.026050853
-0.2534261 0.09509894 0.06637007 -0.07638149 -0.5197587 0.1362887 -0.13984062 0.55903095
0.25833336 0.067867756 -0.042017873 0.23744717 -0.10715048 -0.13561714 -0.10685092 -0.15953514
-0.5170179 -0.040289514 -0.16923428 0.16006176 -0.019568082 0.14354998 -0.5398729 0.5099428
0.16026232 0.16161378 -0.0389591 -0.11554697 0.1116344 -0.036672324 -0.2662342 -0.20180693
0.25973812 -0.077186316 0.26690438 0.68159837 -0.27630022 -0.07512519 -0.11193901 0.0089658685
0.1487034 -0.3259348 -0.30819046 0.07531551 0.06971061 0.07718755 -0.24465181 -0.20945622
-0.13460298 -0.15369765 0.21382484 0.15068822 0.1819726 -0.02909222 0.09674077 0.14600082
-0.8799884 0.16165033 -0.1677796 -0.2378162 -0.16416809 -0.14457689 0.031001033 0.16488168
0.05606766 -0.005131186 0.054389108 0.26855674 0.54826856 -0.35044685 0.114695996 -0.49870425
0.117837146 0.27011827 -0.19077107 0.25915116 0.15179342 0.04745699 -0.11740635 0.2014164
0.08013858 -0.22578296 -0.37520614 0.031490028 -0.4567316 0.110433064 0.033400834 -0.45092237
-0.13739315 -0.17417538 0.036785264 -0.15432985 0.24221648 -0.22212149 0.474437 -0.5565768
0.1618726 -0.24209146 -0.11392678 0.2040768 0.040662497 -0.050333276 0.18752751 -0.24924912
0.043134987 0.08943799 -0.102949336 0.027388155 0.13911778 -0.16512623 -0.0039601293 -1.126549
-0.26326975 0.11710053 -0.29388773 -0.17949665 0.08365919 -0.03274592 0.1759548 0.28287604
0.18416968 -0.075304165 0.031921774 0.14028297 -0.039326504 -0.08040404 -0.069474876 -0.841058
-0.122340456 0.17343457 -0.22591129 0.16561383 -0.032725807 0.35658816 0.15163155 -0.097224236
-0.0780887 -0.37689522 -0.0039361715 0.25089806 0.16248213 0.27468243 0.24446411 -0.071432225
-0.15625843 0.29196167 -0.10599298 0.46526802 -0.006939113 -0.172711 -0.23884496 -0.11157814
-0.016295562 -0.21202438 -0.18602714 0.02534221 -0.044385552 -0.043670967 0.047544375 -0.176707
-0.08906672 0.02961734 -0.59258384 -0.094556816 0.13901019 -0.0638287 -0.065024376 -0.18755123
-0.2567719 0.22385675 0.21809953 0.12322852 -0.6386026 0.25217107 0.13072026 -0.024301846
-0.5813108 -0.21133293 0.10159429 0.036404863 -0.20823842 0.1919264 0.14489257 0.15632825

net.0.bias f4 [64]
00000000: 48a7 8c3a aa12 dd3d 0622 5dbe 70ab 85bd
00000010: a66f 553e 6210 dc3d 588e 87be ff01 8ebe
00000020: e2a0 5bbe 89a6 10be 6543 f23d 86b4 6a3d
00000030: 5477 ba3c 29e2 29be f3c7 3ebe 388b 99be
00000040: 1587 d73d 7c5e 243e 7ed7 f93d d5e3 a03e
00000050: 7698 4dbe 3129 2d3d 813c 32bc 361c 49bb
00000060: ffd8 22be e429 81be 2cf5 5fbe 7335 093e
00000070: 3565 4a3e 799d 42bc fea3 183e 80ff 1b3e
00000080: a04b e83d a327 ed3d 54cc 193e f7a8 363e
00000090: c63f 343d f839 1dbe 7d5a 0b3e d022 71bd
000000a0: c819 24be f87e a23e ff25 3bbd 842b 743e
000000b0: 370b 40be a12f aabe f6db 6f3e 12d4 1b3e
000000c0: d6fc 953d 6899 f5bc cca9 ae3e 7a58 703e
000000d0: ca2a f33d face 10be 5eb3 00be 5d84 b1bd
000000e0: 30b3 46be c3c3 9cbe 166e 06be 67ce 143e
000000f0: 6417 85be 38ce 3cbe 8aff 67be 0e65 a6be
0.0010731006 0.107945755 -0.2159501 -0.0652684 0.20843372 0.10745312 -0.26475787 -0.27735898
-0.2144809 -0.14126028 0.11829261 0.057301067 0.022761978 -0.1659018 -0.18630962 -0.29989028
0.10523812 0.16051668 0.12199305 0.31423822 -0.2007769 0.04227561 -0.010878683 -0.003068698
-0.1590309 -0.25227273 -0.2187087 0.13399296 0.1976517 -0.011878365 0.14906308 0.15234184
0.11342549 0.11579826 0.15019351 0.17837892 0.04400613 -0.15354145 0.13608737 -0.05887109
-0.1602546 0.31737494 -0.045690533 0.23844725 -0.18754278 -0.33239463 0.23423752 0.15217617
0.07323615 -0.029980376 0.3411392 0.23471251 0.11873396 -0.14141455 -0.12568423 -0.086678244
-0.19404292 -0.30618104 -0.13127932 0.14531861 -0.25994408 -0.18438041 -0.22656074 -0.32498974

net.2.weight f4 [64, 64]
00000000: d80a 933c 9ec1 f83b 0ae7 d83c 12b0 a4bd
00000010: 0289 36bd 8b53 f03d a16d ebbd b40f a93c
00000020: 2e9d 62bd a27b b23d 62a3 d7bd b02e a1bd
00000030: dc95 1b3d 72c0 dfbd 105e 0b3d 7484 b0bd
00000040: e376 febd c284 c73d cd59 c0bd 609d 0b3d
00000050: 3a1d 07bd efa3 d7bd 6ce7 e7bd afc8 c03d
00000060: ec07 6e3c 76b0 873d 0806 853d e71e e7bb
00000070: e464 71bd 0706 8e3d 31bc dcbc e9d9 3f39
00000080: f637 70bd 7808 6ebd 87c5 f0ba 9322 01be
00000090: 5167 a2bd 0231 bdbc 6b84 acbd 2ad5 933d
000000a0: 554d d13d 0a4d f6bc 9dc0 03be 7f3b 0c3c
000000b0: a503 c73d e7d0 37bd 0061 1c3d 88f9 603d
000000c0: 0f32 febd 86cc 1fbc 293c b63d 7c16 d9bd
000000d0: 13f7 8b3d 00f4 67b9 8000 edbc 50a4 e23b
000000e0: 5886 19bd 9e9c 8dbd efe2 093c 36fe a3bd
000000f0: ad91 56bd 5a49 d9bd 0f6e c8bd 40ea fb3c
00000100: f623 f13d 18d7 33bf d1fa 3cbd c1f2 33be
00000110: 2c6d 363d 7282 a2be 8d09 bc3b 6e5b e0bb
00000120: b708 05be 7746 d53d a5c1 3c3e 991c cc3d
00000130: de16 78be 6807 33bd 9727 73bf 633d 46be
00000140: 92a6 e0be 76a7 d7bd ba04 8dbe b8c3 b3bd
00000150: 6285 20be 0f0b ef3c 41b3 7f3d 9197 633e
00000160: 4cf1 763e 08b9 863c 84b9 633d c993 053b
00000170: 6136 03bd 5610 08bf 97a4 c63c a6ce 62bb
00000180: f88d 83bc 051b a5bb ccf5 2cbd e5a2 fb3c
00000190: 651a 1e3e 665a 3a3e f31d d6bd 0862 6cbd
000001a0: 8754 6bbf de68 a23c 3975 c03d ab80 a03d
000001b0: cf2c 243c ce47 dabe d40d 6bbe 1e15 db3d
000001c0: 88bc e63d b076 c13e fa16 2a3d 249f 6a3e
000001d0: 3141 f2bd e656 e13d 7471 debd 338a 813d
000001e0: 5ad4 a3bd 7e00 f63d a414 313e c5a7 a23e
000001f0: a9d2 43bf 98d8 5b3d 70f2 c1bd 53ce 063e
00000200: 15f7 1d3f c181 50be b7fe 6b3e f7de 5d3d
00000210: c8ab 183e 4c01 673b 22c5 803d a9c8 203e
00000220: 488d 90bd f9e9 8fbe 8c5f b8be 10fe 943d
00000230: 14ab b63d 748d 69bd 780f 0b3b 6900 e4bc
00000240: 8b91 5b3d 489e a13c 627b 163e d70d 68be
00000250: 67ca 54bd 9d33 d13d a8b8 843d 1af1 543e
00000260: 9da9 16bd 9c55 05bd 987b eb3d 3e91 9cbe
00000270: 9f65 3d3d 6727 443e ccfa bdbe dd02 b6bc
00000280: 7cfa d2bd 5bdb dabd c6d0 273e 7c8b 373d
00000290: 40d9 6ebd 2027 60be 4947 c63b fc3d 5b3d
000002a0: ba8d 67bd e7e6 d63d 40b9 4c3d d747 27bd
000002b0: 766a 12be 232b 6e3e b53d 613d 401e 8dbd
000002c0: 3a2a 423e 12ae 4fbe 07a8 583e 6833 403e
000002d0: 6b72 19bd 708c 16bc 4b25 1bbd 3e2d 113d
000002e0: 2050 f73c 41a6 dd3e 5736 903e a12d b63d
000002f0: 75cd 7abe 920b e2be 1057 17bf 39b8 c9bd
00000300: 062d c33d d879 ac3d 6873 44bd e879 fa3b
00000310: 7087 cf3c d71b a73d 8129 8dbd fea3 723d
00000320: af13 83bc 1120 8bbd ea0d 03be badd a03c
00000330: 7b02 9f3d dccc d83d 47b9 b03d ce4c 6e3c
00000340: 40e5 cb3d a028 9a3c 9383 dfbc 2641 99bc
00000350: c734 abbd 71d9 8f3d 94e4 c33d 53c9 b73b
00000360: 6e12 cd3d 40b2 adbd 9841 2c3d 0882 04be
00000370: 8014 0dbd 9baf f7bd 50cb 48bd 8cc1 f7bd
00000380: 3bde 18be b888 a3bd 1d33 3abd 6f90 203d
00000390: 5503 07be 1e07 f4bd 70ac d93d c089 0dbb
000003a0: 0503 babd 91f1 bcbd 3e2f 83bc 8593 b23d
000003b0: 726a 3ebd 7097 debd 14a7 a93d 6c82 a93d
000003c0: afe0 fdbc 1051 cf3c ae8b 99bd f000 06bc
000003d0: beab dd3d 404f 2b3c aefd e03d cece 0bbe
000003e0: 14fb 0ebd e1bc d63b 006e 9cbd 1cd2 d83d
000003f0: c0f1 54bd 6dc7 f0bc 6082 803d 114e d73c
0.017949507 0.0075914403 0.026477356 -0.08041395 -0.044564255 0.117346846 -0.114955194 0.02063737
-0.05532568 0.08714987 -0.1052921 -0.07870233 0.037984714 -0.10925378 0.034025252 -0.086190134
-0.124250196 0.097421184 -0.09392128 0.03408563 -0.032986857 -0.10529315 -0.11323437 0.09413277
0.014528256 0.06625454 0.06495291 -0.0070532444 -0.058934107 0.069347434 -0.026945205 0.00018296357
-0.05864712 -0.058113545 -0.0018369415 -0.12610845 -0.07929862 -0.023094658 -0.08423694 0.07218392
0.10219828 -0.030066032 -0.12866445 0.008559107 0.09717492 -0.04487696 0.038178444 0.05492547
-0.12411892 -0.009753352 0.088981934 -0.10599992 0.06834235 -0.00022120774 -0.028930902 0.00691656
-0.037481636 -0.06914638 0.008415922 -0.08007471 -0.05238502 -0.10609694 -0.09786617 0.030751348
0.11774437 -0.7025008 -0.046137635 -0.17573072 0.04453771 -0.31740147 0.005738443 -0.006846837
-0.12991606 0.10413831 0.18433245 0.09966392 -0.24227473 -0.043708235 -0.94982284 -0.19359355
-0.43877083 -0.105299875 -0.2754267 -0.08777565 -0.15675882 0.029180078 0.06242681 0.22225787
0.24115485 0.016445652 0.055596843 0.0020382276 -0.03203428 -0.53149927 0.024248404 -0.0034608035
-0.016058907 -0.0050386214 -0.042226598 0.030717323 0.15439756 0.18198547 -0.10454931 -0.057710677
-0.91925853 0.019825395 0.093973584 0.078370415 0.010020449 -0.42632908 -0.22954494 0.10697387
0.11266428 0.37785864 0.04152582 0.2291227 -0.118288405 0.11002903 -0.10861483 0.063251875
-0.07999487 0.120118126 0.1729303 0.31768623 -0.76493317 0.053673357 -0.094700694 0.13164644
0.6170514 -0.20361997 0.23046385 0.054167714 0.1490928 0.0035248576 0.062876 0.15701546
-0.07058197 -0.28108194 -0.36010396 0.07275021 0.08919349 -0.057019666 0.0021218937 -0.027832227
0.053605597 0.019728795 0.14695504 -0.2266153 -0.05195084 0.102149226 0.06480533 0.20795098
-0.03678285 -0.032552347 0.11498183 -0.3057956 0.04623949 0.19155656 -0.37105405 -0.022218162
-0.10301682 -0.1068637 0.16388234 0.044810757 -0.058312654 -0.21889925 0.0060509783 0.05352591
-0.056531645 0.1049326 0.049981356 -0.040839996 -0.14298424 0.23258643 0.05499049 -0.06890535
0.1896142 -0.20281246 0.21157847 0.1876961 -0.037462633 -0.009188756 -0.037877362 0.035443537
0.030189574 0.43290904 0.28166458 0.08895422 -0.24492438 -0.44149452 -0.5911722 -0.09849591
0.09530072 0.08421677 -0.047961622 0.007643927 0.025333136 0.08159607 -0.06892682 0.059238426
-0.016000597 -0.067932256 -0.12798277 0.019636977 0.07764145 0.10585949 0.08629089 0.014544679
0.09955835 0.0188182 -0.02728442 -0.018707823 -0.08359676 0.070238955 0.09565082 0.0056087165
0.10013281 -0.08481264 0.042054743 -0.12940228 -0.03444338 -0.12094041 -0.04902202 -0.12097463
-0.14928524 -0.079850614 -0.0454589 0.039200243 -0.13184865 -0.1191542 0.10628593 -0.0021596998
-0.09082607 -0.09225763 -0.016013738 0.08719543 -0.046488233 -0.10868728 0.08283821 0.08276829
-0.030990927 0.025307208 -0.07497345 -0.008178934 0.10823773 0.010455906 0.109858856 -0.13653108
-0.034907416 0.006553278 -0.07638168 0.1058695 -0.051988363 -0.029391969 0.06274867 0.026282342

net.2.bias f4 [64]
00000000: 999f 713b 6b7f 203d 2d16 c43d 893e a1bd
00000010: 088e a83d 554f a23d 1220 f4bd af85 14be
00000020: 2085 063e 6d8f 073e e28f 08be 79fd 963d
00000030: ae28 1c3e 54e5 90bc 0562 72bd 345b 41be
00000040: c2c4 aabd 1f86 113e e722 6cbc 8289 183d
00000050: 5c6a c0bb 27d3 8cbd 618d 3bbd 955d 083e
00000060: 734a 0b3d af6d e33c d187 383e 4f8e a0bd
00000070: 1607 5dbd 7597 dc3d 3db1 0b3d 5239 f03d
00000080: d69f 07bd ad02 0abc 364c 003e 0970 61bd
00000090: 1c5d ddbd 2667 373e f3ef 79bd cff2 f43d
000000a0: 2a42 113e 8045 85bd 85ae 54bd 59ab 62bd
000000b0: 28aa 173c 60a3 0abd fc58 8f3c a011 4cbd
000000c0: cb11 363e e399 9e3d 6d5c 7c3d d29e 68bd
000000d0: b0a2 f0bc ab0a adbd 9b5b 33bd ae8f 3f3e
000000e0: f1e9 0bbe b5cf 423d 9bd6 203e f393 9e3d
000000f0: cbd0 15bd 696e db3c 8f93 a9bc 4b06 9f3d
0.003686881 0.039184015 0.09574542 -0.07873256 0.08230215 0.07925288 -0.119201794 -0.14504121
0.1313672 0.13238306 -0.13336137 0.07372565 0.15249893 -0.017687477 -0.05917551 -0.18882447
-0.0833831 0.1421132 -0.014412618 0.037240513 -0.005872054 -0.068762116 -0.045789126 0.13316949
0.034006547 0.027762262 0.1802056 -0.07839643 -0.053961836 0.10771076 0.034104574 0.11729683
-0.033111416 -0.0084234895 0.12529072 -0.055038486 -0.10808775 0.17910442 -0.06101985 0.119603746
0.14185396 -0.06507397 -0.051924247 -0.05533919 0.009256877 -0.033847213 0.017498486 -0.049821496
0.17780225 0.07744195 0.06161158 -0.056792088 -0.02937445 -0.084493004 -0.043788534 0.18707153
-0.1366346 0.047561366 0.15706865 0.07743063 -0.036576074 0.026786046 -0.020700244 0.07764872

net.4.weight f4 [6, 64]
00000000: 40f2 f33c b345 713d cee1 d13e 18c1 46bd
00000010: 1322 853e e449 8e3c b19b 0fbd 0ff6 ca3c
00000020: d833 123f 789c dd3d 301d 083f 3b0f 853d
00000030: 1114 3e3e 4ab5 eb3e 3a17 df3e 7e7f 35bf
00000040: d387 fabe 0a4b 21be b369 eabe ed76 18bf
00000050: 0af2 10bd 56b3 0ebf 10da c8bd 98ab 263e
00000060: 7d49 983e ca08 983d e64a 563e 8137 b03e
00000070: 31ae 8b3d abc0 e83d 7f12 f43b f27a d63e
00000080: 32cd c1bd 9f89 54bd 97fa 503e aed0 15bd
00000090: 1d25 4abe 0a8f e73e c7a7 a33d 6376 83bf
000000a0: d6f5 41bd a22e b1be 223f 39be 5503 d9be
000000b0: bdc0 b63d a204 fb3e e365 dabc 52ba 00be
000000c0: 92d3 9fbf e496 87be 26ff efbe c411 e8bd
000000d0: d8ee 7d3d 250d ea3d e09e dbbc d6f7 8f3d
000000e0: 74b6 7c3e f100 fcbe cae7 c5be ea02 b4bd
000000f0: 4205 e83e edc5 f7bd 7906 4d3d 3fc8 533e
00000100: fe27 903d 34fb 01bf 1d67 e8bc 2a8c b63d
00000110: bfb2 bdbe 1891 15bd ef1c 23bd a18f 913b
00000120: 83ac e9be d5e7 e13d d97c 153f a7a6 e13e
00000130: 8c65 353d 7cc9 a73e 914a d9be 9a27 3dbf
00000140: 76b0 453f 2150 b83d 6dc3 ac3e ee59 c8be
00000150: 7c18 a53d 1835 f2be a977 23bf f98c 343f
00000160: 0c23 33be 382a 9c3d 301d f13d a283 83bf
00000170: 3e67 b8b9 cfb1 403e e856 80be b8d7 ce3e
00000180: a713 723d 0033 b73b 3a9d e23e 52dc c43b
00000190: 9a4f a6be 6305 c93e ef83 583c a39f 663f
000001a0: e8a1 b83e bad8 e83d 7dd3 ecbd 58fd 54bf
000001b0: 4224 66bd e170 9cbe ec70 ad3d 576b a13d
000001c0: d048 71bf ec86 d13e 4c5f 29bf ebc8 e5be
000001d0: bcbc d3bc bdbf 80bc fb59 c43d 8771 a23c
000001e0: fe25 06bf 6fcc 903e 877f 2b3e 74cd 9d3d
000001f0: 8d99 223d f4dd a93d a50e a53d 20fb d8be
00000200: 19e5 8dbd e739 cdbd 6bfc d73d 928b d03d
00000210: c854 b03e 096b 52be d837 a9bc f619 9fbc
00000220: a8fe b0bd 7221 783e 5191 79bd ef47 833d
00000230: 9cf3 c2be 55ce 3d3e 2d78 193e 9562 4cbe
00000240: ed48 4f3f b621 0ebf b3b1 913d 8283 f03e
00000250: fa5e d63c 3795 b7be 1eb8 7b3e fbd2 f03e
00000260: 9dc3 b43d e369 b03d f1c3 f53c f789 a9be
00000270: 788d 923b 46bf c1be 60b6 1ebf 9eb7 993d
00000280: 3091 0b3d 33a8 28bc 2d53 be3e 230d 163f
00000290: 32c4 99be 3d18 433e bd5c ef3e b8d5 0b3e
000002a0: 6b55 afbe 3fa9 913e 57db 813e f83a 2e3e
000002b0: 2825 0bbd ac78 19bf 9d60 e83c 0818 94be
000002c0: 9514 b8be 94d1 43be 373d 913f 1628 2a3e
000002d0: f58c ddbc 4e6d a93d f4db 5e3d fb1b f43e
000002e0: 177a 233f 4f26 403e 5a9c d03e e77d 9dbe
000002f0: 8d6c f03e 5d19 e03e b0e8 05be cf14 9cbd
00000300: c340 e73d eb50 cc3a 521e 00be f128 bdbd
00000310: a3cd edbd e44c b83c 4b4b f13d 9358 b53c
00000320: 8c8a cebd a07c 2cbe 71f4 d13b 1ac9 67bd
00000330: cbfe 4d39 35f0 c83c 67ee 20be df9b c5bd
00000340: 3507 ed3d afa5 323d 8565 703d a052 c2bd
00000350: a62a bfbd 2d9d 36bd b918 963d fddd 343c
00000360: f4fa 30bd 7d4a 54bd 059e abbd 985e 913b
00000370: 3ba7 b0bc 2ace c53d 54e4 013d 49bf ce3d
00000380: 28c4 a3bc 8415 063d 96f3 4e3d fb36 1fbe
00000390: 8791 693d 0759 9dbd b205 99bd 581c 863e
000003a0: c925 b6bd aa79 9d3d 532f 513d 9ad8 39be
000003b0: a385 a83d e689 aabd eb68 753d dae9 d83c
000003c0: f736 f9bd 0cc9 c7bc df07 573e 437b 8cbd
000003d0: 7fc6 c73d fca5 883d 2c76 bd3d 781b 0fbd
000003e0: 3d0e e0bd 04c9 ed3a 2e33 ea3d 259f b2bd
000003f0: 5413 2f3e 0930 4fbc 807a 8b3d 4c33 af3c
0.0297786 0.05890436 0.40992588 -0.048523992 0.2600256 0.017369218 -0.03506059 0.024775533
0.5711036 0.1082086 0.53169537 0.064970456 0.18562342 0.4603675 0.43572408 -0.7089766
-0.4893175 -0.15751281 -0.45783767 -0.59556466 -0.035387076 -0.55742395 -0.09807217 0.16276395
0.29743567 0.074235514 0.20927009 0.34417346 0.06820334 0.113648735 0.007448494 0.41890675
-0.09462966 -0.05188906 0.20408092 -0.036575966 -0.1974072 0.45226318 0.07990985 -1.0270504
-0.047353588 -0.3460589 -0.1809049 -0.42385355 0.08923481 0.49026972 -0.026659911 -0.12571076
-1.2486441 -0.26482308 -0.4687435 -0.113315135 0.061995357 0.11428288 -0.026809156 0.07029693
0.24678975 -0.49219468 -0.38653404 -0.08789618 0.4531651 -0.12098298 0.050055 0.20681857
0.07038878 -0.5077393 -0.02836948 0.08913453 -0.37050435 -0.036515325 -0.039822515 0.0044421707
-0.45639428 0.110305466 0.5839363 0.44072458 0.044286296 0.32770908 -0.42439702 -0.7388855
0.77222383 0.089996584 0.33742848 -0.3913111 0.08061311 -0.47306132 -0.6385446 0.7052761
-0.17493838 0.0762524 0.11773145 -1.0274546 -0.00035172136 0.18817829 -0.25066304 0.40398955
0.059100773 0.0055907965 0.4426058 0.0060077095 -0.32482606 0.39261922 0.013215049 0.90087336
0.36061025 0.11369462 -0.11563776 -0.8319907 -0.056186922 -0.3055487 0.08468804 0.078818016
-0.9425173 0.4092325 -0.66161036 -0.4487985 -0.025846832 -0.015716428 0.09587475 0.019829525
-0.5240172 0.2828097 0.16747867 0.07705203 0.03969722 0.08294287 0.08059434 -0.42379093
-0.069284625 -0.100208096 0.10546192 0.10182871 0.34439683 -0.20548643 -0.020656511 -0.019421559
-0.08642322 0.24231508 -0.0609296 0.064102046 -0.38076484 0.1853574 0.1498725 -0.19959481
0.8097065 -0.5552019 0.071139716 0.46975332 0.026168335 -0.3585603 0.24581954 0.47035965
0.08826373 0.08613946 0.030000659 -0.3311307 0.004472431 -0.37841243 -0.6199703 0.07505725
0.03407401 -0.010294008 0.37172833 0.58613795 -0.30032498 0.19052215 0.4675044 0.13655746
-0.34244856 0.28449437 0.25362656 0.17014682 -0.03397098 -0.59949756 0.028366381 -0.28924584
-0.35953203 -0.19122916 1.1346806 0.16616854 -0.027044753 0.08272801 0.054408982 0.47677597
0.6385817 0.18764614 0.40744287 -0.30760118 0.46957818 0.4376935 -0.13077044 -0.076211564
0.11291649 0.001558808 -0.12511566 -0.092363246 -0.11611488 0.022497602 0.11781939 0.022136962
-0.100850195 -0.16844416 0.0064073135 -0.05658827 0.00019645241 0.024528602 -0.15715943 -0.09648871
0.1157364 0.04361504 0.058690567 -0.09488416 -0.093343064 -0.04458349 0.07328934 0.011039254
-0.043208078 -0.05182885 -0.08379749 0.0044363253 -0.021564117 0.09658463 0.03171189 0.100950785
-0.019990996 0.032735363 0.05052527 -0.15548317 0.05702355 -0.07682996 -0.074717894 0.261935
-0.08893926 0.07689221 0.051070523 -0.18149033 0.08228614 -0.08327083 0.05991451 0.026478697
-0.12168687 -0.024387859 0.20999096 -0.06859448 0.09754657 0.06672284 0.09251055 -0.034938306
-0.10940216 0.0018141572 0.11435543 -0.08721761 0.17097217 -0.01264573 0.068104744 0.021386765

net.4.bias f4 [6]
00000000: 5c89 113e 3575 43bd 9fd2 493d b5a6 86bd
00000010: eb1f 18be 42f0 37bd
0.14212555 -0.0477192 0.04927313 -0.065747656 -0.14855926 -0.044906862
