log/GC_SAC/maze3Env/20210818-1305/GC_SAC_HER_actor.pth (torch_old, 25959 bytes, 6 tensors)

net.0.weight f4 [64, 25]
0.22045408 0.1547135 0.05324976 0.04336202 0.07306077 -0.17662923 -0.11886536 -0.04152543
-0.08829326 -0.18426922 -0.09133353 0.12322333 -0.033191845 0.07332077 -0.30933848 0.02488269
-0.020667762 0.21331939 0.30219284 0.20972145 -0.41814375 -0.11173515 0.2737449 -0.23853484
0.11275329 0.289143 -0.13712001 0.0798661 0.055550072 0.060007766 0.111717954 0.0961847
0.19054995 0.11527778 0.010713905 -0.37473693 0.29783356 0.17099893 -0.23601183 0.13575372
0.19879952 -0.32177567 -0.17399588 -0.40409562 -0.12613468 -0.110330835 -0.007076881 -0.23622897
0.11370602 0.17710413 0.049107578 -0.14832807 0.19945623 -0.03044147 0.0458009 0.14855476
0.23497403 -0.14037423 0.09277294 -0.046090677 0.03067224 -0.101719305 0.060664807 0.020579642
-0.12427479 0.095399655 -0.15223822 -0.12985837 0.32971436 0.24699749 0.13083953 0.05298084
0.81048965 -0.024042862 -0.11894598 0.14363989 -0.2848816 -0.021369308 -0.058737185 0.0038002424
0.0646659 -0.16057926 -0.06455962 0.111531705 0.38592148 0.15939526 0.02845703 -0.23249471
-0.001959441 0.16353351 0.040798232 -0.058006924 0.044114687 0.07473414 -0.029993206 0.055195518
-0.13937318 -0.29358375 0.31304908 -0.1655072 0.2189139 0.1099296 -0.0030458272 0.097954065
0.24452779 0.092931524 -0.14764172 -0.06983961 0.1433784 -0.11833903 -0.25379235 0.29466626
0.036517486 -0.055318464 0.0057670036 -0.021283094 0.16773649 -0.27186194 -0.0674611 0.22958921
0.07633337 -0.046450846 -0.11399294 -0.4493567 0.028651312 0.20238523 0.17451705 -0.12130375
-0.13293464 0.022208104 -0.13959014 0.01604208 0.15617128 0.15402228 0.022698024 0.093015544
-0.08633551 -0.08624504 0.052590143 -0.29733637 -0.12896624 -0.33805966 0.08296525 -0.43911242
0.1231586 -0.007651255 0.044848893 -0.05452503 -0.35562825 0.029700354 -0.0034444232 -0.043658532
0.03659141 0.8385533 -0.14564261 -0.06789175 0.0673205 -0.74407506 -0.5514982 -0.70672303
-0.098619305 0.030581493 -0.57932657 -0.6498359 0.27735955 0.13726822 0.035418976 0.020069258
0.042491365 0.12874454 0.21384542 0.16086383 -0.06509262 -0.082718715 0.14404087 -0.12988436
-0.11144014 -0.016737387 0.17392342 -0.06578155 -0.048535317 -0.10661199 -0.099273376 0.09000097
0.024612635 0.0027685463 0.12983848 -0.010846943 -0.11813386 0.047754675 -0.11629386 -0.104182936
-0.00909552 -0.002021119 -0.16824093 -0.10599311 -0.09457388 0.007470399 -0.10202906 -0.18480067
-0.028792731 0.22958289 -0.0035900772 0.057269465 -0.08405404 0.038898826 -0.076875016 -0.25694296
-0.32365492 -0.2568655 -0.028306017 -0.054497648 -0.089062884 0.11419082 -0.025904162 0.11339937
0.052040998 0.14617783 0.42800823 -0.27403393 -0.11144633 -0.21887712 0.13030013 0.2131784
-0.18828778 -0.16000366 -0.044728342 0.12365846 0.072140284 -0.082994565 0.05237721 -0.119155996
-0.2817204 -0.07788598 -0.16191457 0.20792897 -0.042174593 -0.08094045 -0.22955987 0.2392133
0.1370607 0.291001 0.08876615 -0.11065826 -0.009896575 -0.11352895 0.10607749 -0.53748167
0.101433955 0.05408545 0.17782897 0.029605212 -0.1446831 -0.15796532 0.14896198 -0.17638953
00000000: b7be 613e 376d 1e3e 6c1c 5a3d 609c 313d
00000010: e3a0 953d 4bde 34be af6f f3bd 9216 2abd
00000020: 19d3 b4bd 12b1 3cbe 130d bbbd 835c fc3d
00000030: 2cf4 07bd 3329 963d 9d61 9ebe c8d6 cb3c
00000040: 704f a9bc 6670 5a3e 05b9 9a3e 38c1 563e
00000050: f016 d6be 66d5 e4bd 4b28 8c3e 7a42 74be
00000060: 32eb e63d 8d0a 943e 3069 0cbe d690 a33d
00000070: 7988 633d b4ca 753d 62cc e43d 7cfc c43d
00000080: 871f 433e c216 ec3d 6089 2f3c 85dd bfbe
00000090: a47d 983e 581a 2f3e 16ad 71be 0603 0b3e
000000a0: 1a92 4b3e c8bf a4be fa2b 32be 9fe5 cebe
000000b0: 7329 01be 22f5 e1bd 2ee5 e7bb 02e6 71be
000000c0: b4de e83d c95a 353e 0725 493d 50e3 17be
000000d0: 413e 4c3e 6460 f9bc b999 3b3d bd1e 183e
000000e0: 089d 703e 43be 0fbe bdff bd3d 94c9 3cbd
000000f0: 5944 fb3c 3652 d0bd a97b 783d a396 a83c
00000100: c883 febd e560 c33d 56e4 1bbe 98f9 04be
00000110: 52d0 a83e e9ec 7c3e ccfa 053e 7002 593d
00000120: 407c 4f3f 89f5 c4bc f399 f3bd 5616 133e
00000130: 00dc 91be b00e afbc 6796 70bd 7d0d 793b
00000140: 8e6f 843d e46e 24be d637 84bd bc6a e43d
00000150: 8097 c53e 8338 233e b81e e93c 1813 6ebe
00000160: f769 00bb 5475 273e 0c1c 273d ab98 6dbd
00000170: 9ab1 343d 360e 993d 50b4 f5bc b214 623d
00000180: d8b7 0ebe 9c50 96be f847 a03e b87a 29be
00000190: f72a 603e c522 e13d 809c 47bb 249c c83d
000001a0: 7e65 7a3e e252 be3d 642f 17be 1208 8fbd
000001b0: cad1 123e bc5b f2bd 12f1 81be 7fde 963e
000001c0: 5c93 153d 9d95 62bd 22f9 bc3b e259 aebc
000001d0: 1dc3 2b3e 7d31 8bbe 0c29 8abd 6f19 6b3e
000001e0: ab54 9c3d 3e43 3ebd 2175 e9bd 1512 e6be
000001f0: 28b6 ea3c 133e 4f3e 99b4 323e 1a6e f8bd
00000200: 0520 08be c5ed b53c b8f0 0ebe ae6a 833c
00000210: 5deb 1f3e 04b8 1d3e 35f1 b93c ef7e be3d
00000220: acd0 b0bd 3da1 b0bd c368 573d 793c 98be
00000230: ba0f 04be 2816 adbe afe9 a93d 58d3 e0be
00000240: 933a fc3d 61b7 fabb 79b3 373d a355 5fbd
00000250: e814 b6be 284e f33c d5bb 61bb 4ad3 32bd
00000260: e0e0 153d 6eab 563f 5623 15be d40a 8bbd
00000270: 55df 893d b47b 3ebf fc2e 0dbf cdeb 34bf
00000280: ebf8 c9bd 0a86 fa3c bf4e 14bf a55b 26bf
00000290: 1202 8e3e 0a90 0c3e 7d13 113d 4968 a43c
000002a0: 6d0b 2e3d 9cd5 033e 4bfa 5a3e 7db9 243e
000002b0: 484f 85bd 6e68 a9bd 737f 133e 6800 05be
000002c0: ba3a e4bd d81c 89bc fb18 323e 7ab8 86bd
000002d0: f8cc 46bd 6357 dabd d74f cbbd 6e52 b83d
000002e0: 70a0 c93c 8070 353b 61f4 043e 60b7 31bc
000002f0: 2af0 f1bd 689a 433d 7a2b eebd dd5d d5bd
00000300: 6005 15bc c074 04bb 5a47 2cbe ea12 d9bd
00000310: f3af c1bd 40ca f43b 9df4 d0bd 633c 3dbe
00000320: bcde ebbc c717 6b3e 8047 6bbb 6393 6a3d
00000330: 8624 acbd 6054 1f3d a670 9dbd 078e 83be
00000340: 19b6 a5be e083 83be 05e2 e7bc ed38 5fbd
00000350: 9a66 b6bd e0dc e93d f734 d4bc ee3d e83d
00000360: f128 553d a4af 153e e523 db3e 2d4e 8cbe
00000370: f93d e4bd 5321 60be 666d 053e 704b 5a3e
00000380: 83ce 40be 00d8 23be 1135 37bd a640 fd3d
00000390: 49be 933d 0ef9 a9bd 7c89 563d 0f08 f4bd
000003a0: a83d 90be af82 9fbd efcc 25be 55eb 543e
000003b0: 44bf 2cbd 1bc4 a5bd be11 6bbe 55f4 743e
000003c0: a459 0c3e 15fe 943e 07cb b53d cca0 e2bd
000003d0: 3e25 22bc de81 e8bd 283f d93d 6698 09bf
000003e0: 9bbc cf3d b488 5d3d cc18 363e a186 f23c
000003f0: ce27 14be a9c1 21be 7d89 183e 759f 34be

net.0.bias f4 [64]
-0.009636795 -0.14527011 -0.066545725 0.1656519 0.0112494165 0.18666793 -0.04087626 0.10880472
0.20468594 0.2907237 -0.11957144 0.0832025 -0.08981223 -0.18831198 -0.105892286 0.18118112
0.090668924 -0.059827525 -0.07027678 -0.029517192 -0.017339349 0.11057712 -0.21693063 0.031958174
-0.19880432 0.02458633 0.208145 -0.19781826 -0.051046003 0.0090286285 0.027526528 -0.10714981
0.0047210455 0.11241911 -0.0051970826 -0.10706928 -0.027075376 0.081338346 0.18644223 -0.07926854
-0.19169305 -0.029441964 0.08181728 -0.00027023916 0.04369269 -0.078479774 -0.074947 -0.15092094
-0.13746619 0.0277986 -0.2654002 -0.2259725 -0.10157405 0.088146135 -0.02170113 0.10170322
-0.007143496 0.22320484 -0.08155956 0.09284714 -0.03477856 0.207373 0.12285242 -0.1343737
00000000: a6e3 1dbc b0c1 14be 2049 88bd a7a0 293e
00000010: 794f 383c e125 3f3e dd6d 27bd 02d5 de3d
00000020: 3199 513e bdd9 943e dfe1 f4bd 1366 aa3d
00000030: 79ef b7bd dbd4 40be 0ede d8bd 8b87 393e
00000040: a1b0 b93d b50d 75bd 46ed 8fbd 0ace f1bc
00000050: 400b 8ebc 4276 e23d 1023 5ebe 93e6 023d
00000060: 5c93 4bbe 4569 c93c f623 553e df90 4abe
00000070: 9d15 51bd d0ec 133c 507f e13c 5c71 dbbd
00000080: 00b3 9a3b fe3b e63d 4a4c aabb 2447 dbbd
00000090: 2ecd ddbc b894 a63d b6ea 3e3e 8b57 a2bd
000000a0: 2f4b 44be 4630 f1bc d18f a73d e3ae 8db9
000000b0: 1bf7 323d 01ba a0bd d07d 99bd 058b 1abe
000000c0: f0c3 0cbe e4b9 e33c 89e2 87be 5665 67be
000000d0: 0e06 d0bd f685 b43d 91c6 b1bc c749 d03d
000000e0: fd13 eabb cf8f 643e b308 a7bd a426 be3d
000000f0: f773 0ebd 9659 543e 0d9a fb3d 4299 09be

net.2.weight f4 [64, 64]
0.1268058 -0.3008924 0.08319862 -0.35893464 -0.016813273 0.037638392 -0.39566267 0.09292768
0.13639343 -0.9783045 -0.063755155 0.018638974 0.0025218956 0.15699492 -0.0021919443 0.06658655
-0.004981457 0.05607584 0.14757422 -0.08678514 0.12478459 -0.035876907 0.050024398 0.033253893
-0.34366176 -0.046191346 -0.56843525 0.066964 0.10158124 -0.036990315 0.054894418 -0.47276905
0.029924199 -0.11441374 -0.42367548 -0.02095495 -0.043031223 0.23493306 0.058175854 0.075590536
0.12350754 -0.17542748 0.13043708 -0.11204013 0.31542245 0.36063513 -0.063658305 0.020923376
-0.30328652 0.12798668 0.06622517 0.16790591 -0.18812805 0.037627775 0.14422546 -0.11913618
-0.21678835 0.1399557 -0.42527893 0.094962396 -0.04063814 -0.02009986 -0.19978808 0.38850465
-0.04390064 -0.22812083 0.057145555 0.34349805 -0.311484 -0.15333986 -0.42864552 0.01289925
0.026214458 -0.17892256 -0.16743743 -0.04241807 0.10237976 0.10264388 -0.003175753 -0.021292405
-0.17502499 -0.047561627 -0.044945363 -0.0053687063 0.08686517 -0.19772874 0.06797879 0.110494666
0.13933735 0.20541616 0.04923537 0.015685111 0.10209781 -0.05195591 0.052306518 -0.06608838
0.042457923 -0.11821754 -0.122839 0.04562474 0.05449414 -0.0041985027 -0.08688406 0.38464397
-0.18802325 0.07875059 0.0627751 0.12186817 0.111781605 0.20935076 0.1689597 0.012684435
0.012346179 0.15067966 0.15052275 0.4075235 -0.16939633 -0.45991993 0.06652537 0.035193644
0.2222137 -0.17563164 -0.7950396 0.055394106 -0.4100522 -0.22747433 -0.05055758 0.17473064
-0.026213376 0.22592518 -0.09361728 0.15676177 -0.12642007 -0.5868954 0.47981954 -0.082489684
0.05314014 0.107484795 0.057078045 0.24332513 -0.019219182 0.06830387 0.102525 -0.031270657
0.15964697 0.010851889 -0.2922932 -0.077827916 0.029576942 0.052873455 -0.00046073162 -0.19204375
0.02979584 -0.046007928 -0.12838028 -0.0024879286 0.047673196 0.0002412796 -3.7372112e-05 -0.42320535
0.0003940612 0.020270301 -0.32613817 0.04575088 0.105656974 -0.08786449 -0.33718592 -0.0062175104
0.077175625 0.046468187 -0.10998835 -0.12260788 -0.39128393 -0.5649826 0.4779895 -0.055015564
0.13714013 0.007048007 0.0674604 -0.0726058 0.1457934 0.03367332 0.040990815 -0.1839217
0.19802022 -0.06811874 0.12081121 -0.4474672 -0.006583521 -0.06269035 0.08401428 0.052545644
0.037084717 -0.11438519 0.040266845 0.13459633 0.10703497 -0.071465 0.6721249 0.0578444
0.06459728 0.058478512 -0.511985 -0.37035346 0.04922815 0.07051482 0.30262962 0.07050139
-0.059122942 -0.4343937 -0.3113597 0.089832366 0.02003795 -0.1811132 -0.23028924 0.43232393
-0.8068761 -0.6940353 -0.3610493 0.0866409 -0.024029298 0.04545279 0.06400199 -0.09426211
0.040142298 -0.06605314 -0.064906895 0.07552966 0.024735643 0.20683177 -0.24710833 -0.32090184
-0.52429354 -0.08398441 0.025565887 -0.14728692 0.086131044 0.040113892 -0.14738211 -0.10254125
-0.08003563 0.053247016 -0.33245188 0.21092926 0.2885184 -0.8082883 -0.4459493 -0.046966188
-0.09994554 0.2527004 0.03381262 0.057675365 0.06783038 -0.08086389 -0.1806847 -0.44757882
00000000: 61d9 013e 920e 9abe 0a64 aa3d 48c6 b7be
00000010: fdbb 89bc b72a 1a3d 4c94 cabe de50 be3d
00000020: b8aa 0b3e 2a72 7abf 1092 82bd c3b0 983c
00000030: 6346 253b 47c3 203e b9a6 0fbb 875e 883d
00000040: 7d3b a3bb c8af 653d b21d 173e 68bc b1bd
00000050: 108f ff3d aaf3 12bd 62e6 4c3d 3c35 083d
00000060: 6ff4 afbe 2333 3dbd f984 11bf 6c24 893d
00000070: d309 d03d 2883 17bd f8d8 603d c90e f2be
00000080: 9823 f53c c051 eabd feeb d8be b7a9 abbc
00000090: 8241 30bd 4b92 703e ce49 6e3d 36cf 9a3d
000000a0: 85f1 fc3d 43a3 33be 4c91 053e 4c75 e5bd
000000b0: 0d7f a13e 2ba5 b83e 495f 82bd 8067 ab3c
000000c0: 5f48 9bbe f10e 033e 10a1 873d 87ef 2b3e
000000d0: a4a4 40be 951f 1a3d d7af 133e abfd f3bd
000000e0: c4fd 5dbe 8c50 0f3e 29be d9be a57b c23d
000000f0: 2e74 26bd 76a8 a4bc 3f95 4cbe 15ea c63e
00000100: 28d1 33bd 8298 69be 7511 6a3d fade af3e
00000110: d57a 9fbe 2005 1dbe 6d77 dbbe 6057 533c
00000120: b4bf d63c 7a37 37be b874 2bbe 92be 2dbd
00000130: 7bac d13d f436 d23d 4b20 50bb 696d aebc
00000140: c039 33be fbcf 42bd a118 38bd f9eb afbb
00000150: 5ee6 b13d 6779 4abe 7738 8b3d 074b e23d
00000160: 73ae 0e3e 9d58 523e 07ab 493d 107e 803c
00000170: a818 d13d b8cf 54bd 5c3f 563d 5859 87bd
00000180: 5ce8 2d3d 0a1c f2bd 0393 fbbd 02e1 3a3d
00000190: 3f35 5f3d 9893 89bb 45f0 b1bd 0ef0 c43e
000001a0: 2b89 40be fd47 a13d 3b90 803d 0596 f93d
000001b0: c1ed e43d 0c60 563e c603 2d3e 60d2 4f3c
000001c0: a147 4a3c c54b 1a3e a322 1a3e eca6 d03e
000001d0: 3b76 2dbe a07a ebbe 743e 883d 3627 103d
000001e0: fd8b 633e c8d8 33be b787 4bbf eee4 623d
000001f0: 5df2 d1be 08ef 68be 7715 4fbd 97ec 323e
00000200: 6fbd d6bc ee58 673e 6bba bfbd 2886 203e
00000210: 4374 01be c73e 16bf e8aa f53e 5af0 a8bd
00000220: 7aa9 593d fd20 dc3d abca 693d 392a 793e
00000230: 8c71 9dbc e6e2 8b3d a1f8 d13d a915 00bd
00000240: 7f7a 233e 1fcc 313c 74a7 95be 3e64 9fbd
00000250: 584b f23c d691 583d 5a8e f1b9 1ea7 44be
00000260: 6816 f43c cf72 3cbd 1f76 03be 840c 23bb
00000270: f844 433d 0000 7d39 00c0 1cb8 5fae d8be
00000280: 009a ce39 e70d a63c 95fb a6be 4665 3b3d
00000290: af62 d83d 4cf2 b3bd a2a3 acbe 42bc cbbb
000002a0: 410e 9e3d 6d55 3e3d 9241 e1bd d719 fbbd
000002b0: 5e56 c8be b3a2 10bf 0abb f43e 0058 61bd
000002c0: 766e 0c3e f8f2 e63b ae28 8a3d 5ab2 94bd
000002d0: dd4a 153e 09ed 093d fce5 273d f855 3cbe
000002e0: d0c5 4a3e d781 8bbd de6b f73d 6c1a e5be
000002f0: 94ba d7bb cc63 80bd ae0f ac3d 1a3a 573d
00000300: 25e6 173d c842 eabd d9ee 243d 9fd3 093e
00000310: 2635 db3d 3e5c 92bd 6110 2c3f 40ee 6c3d
00000320: 944b 843d 2a87 6f3d 7311 03bf f89e bdbe
00000330: 75a3 493d 136a 903d 45f2 9a3e 0863 903d
00000340: e62a 72bd da68 debe 8a6a 9fbe 08fa b73d
00000350: a026 a43c bd75 39be f1d0 6bbe 9059 dd3e
00000360: 6f8f 4ebf 4cac 31bf 74db b8be c970 b13d
00000370: 17d9 c4bc b42c 3a3d 7a13 833d 7e0c c1bd
00000380: 406c 243d de46 87bd e8ed 84bd 4baf 9a3d
00000390: 67a2 ca3c b5cb 533e f709 7dbe 3f4d a4be
000003a0: 1a38 06bf 0500 acbd 8d6f d13c 62d2 16be
000003b0: 7965 b03d 774e 243d 56eb 16be 2601 d2bd
000003c0: b8e9 a3bd 8b19 5a3d 2237 aabe d7fd 573e
000003d0: afb8 933e fbeb 4ebf 7753 e4be 9e5f 40bd
000003e0: 3fb0 ccbd f261 813e 1a7f 0a3d 013d 6c3d
000003f0: a7ea 8a3d f89b a5bd 6905 39be 0d29 e5be

net.2.bias f4 [64]
0.10852686 -0.11450859 -0.18791258 -0.19652182 0.01338547 0.11381218 -0.07303821 -0.016446538
0.031164179 0.096148655 -0.20643193 0.043317344 -0.12808487 0.04314534 0.16117772 0.006544657
0.23688157 0.15944768 0.16924806 -0.10971301 -0.03126015 -0.07303269 0.13114291 0.16892111
0.1641855 -0.08224694 -0.11990154 0.06815457 -0.079048336 0.15374304 0.15217696 -0.21217756
0.034657203 -0.04548233 0.030767335 0.039571546 -0.01799598 -0.17616922 0.1162252 0.1125645
0.02689034 0.012181788 -0.09745004 0.028792426 0.1344195 -0.1306289 -0.06029052 0.14739762
-0.13153513 -0.13217796 -0.07497152 -0.08037504 -0.043236416 -0.015075774 0.050886754 -0.005467908
0.15832217 0.06535762 0.0138422735 0.15069847 0.034223508 0.14916268 0.2430492 0.03653302
00000000: 5543 de3d 7b83 eabd 286c 40be 043d 49be
00000010: bb4e 5b3c 5c16 e93d 0f95 95bd e4ba 86bc
00000020: 054c ff3c 96e9 c43d e462 53be 876d 313d
00000030: ae28 03be 2bb9 303d c60b 253e 9074 d63b
00000040: 1591 723e 4146 233e 5d4f 2d3e 37b1 e0bd
00000050: a50a 00bd 2a92 95bd 544a 063e a8f9 2c3e
00000060: 3e20 283e 1571 a8bd f08e f5bd a094 8b3d
00000070: 18e4 a1bd d16e 1d3e 47d4 1b3e 1345 59be
00000080: b6f4 0d3d ae4b 3abd c70b fc3c c615 223d
00000090: 4e6c 93bc b465 34be 7a07 ee3d 3788 e63d
000000a0: 2149 dc3c 1f96 473c e393 c7bd 18de eb3c
000000b0: 44a5 093e 95c3 05be 31f3 76bd 67ef 163e
000000c0: 25b1 06be a959 07be ab8a 99bd ab9b a4bd
000000d0: ab18 31bd 6100 77bc a16e 503d 232c b3bb
000000e0: 351f 223e 37da 853d b4ca 623c b350 1a3e
000000f0: f32d 0c3d 1abe 183e e4e1 783e a6a3 153d

net.4.weight f4 [6, 64]
-0.19279005 -0.39350325 0.5377727 0.38210335 -0.1898955 -0.45134056 -0.40079236 0.37829724
0.11609808 -0.52761996 0.4229952 0.10976898 -0.1282126 0.09919304 0.27328458 1.1396595
-0.1942201 -0.7526675 0.095966674 -0.036072165 -0.5109745 -0.3658621 0.34968004 0.6412148
-0.35815504 0.08496977 0.109122 0.4145912 0.314322 0.75179577 0.37342703 -0.32960322
0.3083145 0.51078844 0.91420746 0.062204115 -0.28467202 0.52068835 0.47703856 -0.2639314
-0.2371991 -0.08685721 0.3998436 -0.4315942 -0.8523155 -0.21123211 -0.38785917 0.515192
-0.13448729 -0.02623012 -0.16598055 0.042546757 0.058100544 -0.032509807 -0.1756014 -0.06362398
0.40517506 0.48935297 -0.18290856 -0.18541932 0.2475174 0.46072945 0.05149939 -0.6657674
0.45619252 0.64885205 -0.09304281 -0.4402988 0.66921955 0.1436288 0.22599973 0.48191887
-0.4248849 -0.13872463 0.53752893 -0.37924215 1.0461726 0.010658817 0.020414207 0.08862487
-0.46665314 0.5875545 0.13736062 0.030421965 -0.1881167 -0.041251317 -0.024772504 -0.03662876
-0.78820103 -0.7774759 -0.7769277 0.23095445 -0.2616235 -0.118279815 -0.11106081 0.046291836
0.22265168 0.08059058 -0.34778658 0.55179036 0.15381524 0.5996575 -0.119450115 0.6594338
-0.40771428 0.11211707 0.13737576 -0.36676186 -0.37026796 0.4315586 -0.12384749 -0.35310918
0.4692995 0.35532776 -1.149544 0.2528132 0.11181278 -0.074558705 -0.0462909 -0.6147069
0.24846712 0.045056168 0.41696143 -0.14494218 0.423792 -0.20600511 -0.12825404 -0.20154835
-0.18265863 -0.19125108 -0.40482435 0.25040898 -0.068025455 -0.005423876 -0.24549162 -0.09200744
0.099521555 0.05116214 -0.6514015 0.14722827 0.14080769 0.039398745 0.81335163 -0.08437262
-0.47604895 0.86458445 0.531794 0.05283589 -0.49358556 0.17291406 -0.87622917 -0.30091813
0.20674887 0.22455528 -0.08824747 0.4501315 -0.41790783 -0.13307506 0.47671774 -0.32630658
-0.44542834 0.3511452 0.12264166 0.6976969 0.7306662 -0.014660014 -0.049774487 0.08534495
-0.3025878 0.098473996 0.010931246 0.4761438 0.040446565 -0.41923615 -0.1495055 -0.5906192
-0.30891037 0.6815711 0.17924705 0.58025336 -0.021271512 -0.026580501 -0.5435489 -0.044146176
0.29506326 0.6459276 -0.5965698 0.33043703 0.31246322 0.4114908 0.31319982 -0.04934468
-0.01713744 0.039544526 -0.045478452 -0.01054518 0.08128462 -0.0058615003 -0.017501738 -0.052682128
0.016265582 -0.17641021 -0.08899961 0.007746212 -0.016247949 -0.04875856 -0.02905715 0.16787083
-0.105498336 -0.18082842 -0.12799601 -0.11200987 0.047367867 0.021171859 -0.05973761 0.015573463
-0.10566902 0.10464981 0.09989359 0.0011559712 -0.06721324 0.11748603 -0.19728188 -0.017423635
0.022104345 -0.0024246585 0.04575462 -0.08437813 -0.011383924 -0.07442161 -0.0800229 0.008646431
-0.056365978 0.12620632 -0.14808014 0.004333141 0.21847542 -0.044959832 -0.13999054 -0.16662225
-0.18983565 -0.00082207046 0.090317674 -0.07905044 0.049485344 -0.089708954 -0.085006155 0.013644331
0.046077024 -0.08379682 -0.04028272 0.040898766 0.0035526063 -0.046239905 -0.077351674 -0.08451407
00000000: c16a 45be 4279 c9be 79ab 093f 0da3 c33e
00000010: f773 42be 1c16 e7be a834 cdbe 2db0 c13e
00000020: d5c4 ed3d 1a12 07bf d492 d83e 8fce e03d
00000030: 2a4a 03be b825 cb3d f5eb 8b3e 5de0 913f
00000040: a2e1 46be d1ae 40bf 2d8a c43d 68c0 13bd
00000050: 3acf 02bf 4752 bbbe 4309 b33e a726 243f
00000060: 1960 b7be a104 ae3d 5b7b df3d 4c45 d43e
00000070: d0ee a03e b075 403f d431 bf3e c1c1 a8be
00000080: 66db 9d3e 08c3 023f 8009 6a3f bec9 7e3d
00000090: 88c0 91be d54b 053f 663e f43e 0422 87be
000000a0: 52e4 72be 31e2 b1bd 4db8 cc3e eaf9 dcbe
000000b0: 5931 5abf 3b4d 58be 7a95 c6be 9fe3 033f
000000c0: 09b7 09be 8ce0 d6bc cef6 29be 8245 2e3d
000000d0: d6fa 6d3d 0129 05bd dad0 33be 4a4d 82bd
000000e0: 1b73 cf3e 798c fa3e 624c 3bbe 90de 3dbe
000000f0: 3475 7d3e bbe4 eb3e 06f1 523d bb6f 2abf
00000100: 1192 e93e 2b1b 263f 3b8d bebd d86e e1be
00000110: f951 2b3f 6e13 133e 796c 673e 12be f63e
00000120: 838a d9be d40d 0ebe 7f9b 093f 072c c2be
00000130: fce8 853f 52a2 2e3c b23b a73c f580 b53d
00000140: 29ed eebe f969 163f 43a8 0c3e 7c37 f93c
00000150: aaa1 40be 24f7 28bd b5ef cabc 0a08 16bd
00000160: 8bc7 49bf a908 47bf bce4 46bf 537f 6c3e
00000170: 84f3 85be b03c f2bd da73 e3bd 829c 3d3d
00000180: cdfe 633e ad0c a53d 1511 b2be 2242 0d3f
00000190: be81 1d3e 2783 193f 43a2 f4bd a7d0 283f
000001a0: edbf d0be a29d e53d 3bac 0c3e 36c8 bbbe
000001b0: c393 bdbe 40f5 dc3e c1a3 fdbd baca b4be
000001c0: 0648 f03e 85ed b53e 4224 93bf bb70 813e
000001d0: 19fe e43d 3cb2 98bd 879b 3dbd 6e5d 1dbf
000001e0: 2a6e 7e3e d18c 383d f87b d53e b96b 14be
000001f0: 44fb d83e 01f3 52be 0755 03be b162 4ebe
00000200: dd0a 3bbe 53d7 43be 2345 cfbe 9b35 803e
00000210: ee50 8bbd c5ba b1bb 2862 7bbe 666e bcbd
00000220: f5d1 cb3d 648f 513d 40c2 26bf 02c3 163e
00000230: e42f 103e 9460 213d d037 503f 8dcb acbd
00000240: b0bc f3be 6855 5d3f a723 083f 726a 583d
00000250: 3fb7 fcbe 6210 313e 8e50 60bf f111 9abe
00000260: fab5 533e d2f1 653e 17bb b4bd a377 e63e
00000270: 04f8 d5be d444 08be 5914 f43e a811 a7be
00000280: 2f0f e4be 4ec9 b33e 8d2b fb3d 449c 323f
00000290: f10c 3b3f 8e30 70bc 55e0 4bbd 55c9 ae3d
000002a0: caec 9abe bcac c93d f818 333c 1fc9 f33e
000002b0: 4cab 253d 1fa6 d6be f817 19be d232 17bf
000002c0: 8029 9ebe 727b 2e3f 8a8c 373e 7c8b 143f
000002d0: 9841 aebc 5abf d9bc 0526 0bbf 9fd2 34bd
000002e0: 8812 973e 835b 253f ccb8 18bf 0b2f a93e
000002f0: 2efb 9f3e ecae d23e ba5b a03e a61d 4abd
00000300: d163 8cbc 71f9 213d 9d47 3abd b1c5 2cbc
00000310: 8d78 a63d d411 c0bb ce5f 8fbc 37c9 57bd
00000320: 663f 853c e1a4 34be 6d45 b6bd f0d3 fd3b
00000330: 6b1a 85bc 0eb7 47bd 4309 eebc 55e6 2b3e
00000340: 830f d8bd 162b 39be 6311 03be 6e65 e5bd
00000350: cf04 423d 9b70 ad3c 6daf 74bd d727 7f3c
00000360: 0069 d8bd a452 d63d 0395 cc3d f583 973a
00000370: 18a7 89bd 849c f03d 4304 4abe 03bc 8ebc
00000380: 2c14 b53c 05e7 1ebb 3269 3b3d 71ce acbd
00000390: a383 3abc 5b6a 98bd 0ce3 a3bd c3a9 0d3c
000003a0: 03e0 66bd 3b3c 013e 52a2 17be 05fd 8d3b
000003b0: 05b8 5f3e cd27 38bd ae59 0fbe 069f 2abe
000003c0: 4764 42be 3780 57ba 79f8 b83d 32e5 a1bd
000003d0: 25b1 4a3d 54b9 b7bd b517 aebd 798c 5f3c
000003e0: 43bb 3c3d ab9d abbd 7eff 24bd 7785 273d
000003f0: d8d2 683b 0e66 3dbd 8e6a 9ebd b615 adbd

net.4.bias f4 [6]
-0.037559997 0.018916355 -0.13101816 -0.15375246 -0.28681812 -0.0054983334
00000000: 83d8 19bd 79f6 9a3c a029 06be 4971 1dbe
00000010: d3d9 92be 5d2b b4bb
