log/GC_SAC/maze3Env/20210728-1420/GC_SAC_HER_actor.pth (torch_old, 22887 bytes, 6 tensors)

net.0.weight f4 [64, 13]
0	0x3f07a9e0	0.52993584
1	0xbf849761	-1.0358697
2	0x3d96bfac	0.07360777
3	0x3d4615e3	0.048360717
4	0xbe8467a5	-0.25860325
5	0xbd81526e	-0.0631455
6	0x3e88adac	0.26695
7	0x3de1a45d	0.11017678
8	0xbd650be1	-0.05591953
9	0xbb8853ea	-0.004160394
10	0x3bd319ee	0.0064423
11	0x3f298078	0.6621165
12	0xbde8dfe2	-0.11370827
13	0x3dd095fe	0.10184859
14	0xbc2f42f8	-0.010697119
15	0xbe20b0a3	-0.15692382
16	0xbc299f55	-0.010352929
17	0x3e58eadc	0.21183342
18	0xbe7630bc	-0.24042028
19	0x3cee6d24	0.029104777
20	0xbe533c2d	-0.20628424
21	0xbe8b041b	-0.2715157
22	0x3d703889	0.058647666
23	0x3dab028e	0.08350097
24	0x3e315731	0.17318417
25	0xbe22837e	-0.15870473
26	0xbee030e9	-0.43787315
27	0x3f1052c6	0.563763
28	0xbd8ef2e4	-0.069799215
29	0xbdb84c0c	-0.0899888
30	0x3e238979	0.1597041
31	0xbd8dde6c	-0.06927189
32	0x3cc8319b	0.024437716
33	0xbe987824	-0.2977916
34	0xbe8de586	-0.27714175
35	0x3d64e3c2	0.05588127
36	0x3f7b9dd9	0.9828773
37	0xbf5d820b	-0.86526555
38	0xbe5d11da	-0.21588841
39	0x3c9dccb3	0.019262647
40	0x3d7e97b4	0.062156394
41	0xbe501cfc	-0.20323557
42	0x3ea4b8e1	0.321723
43	0x3e9c2e06	0.30503863
44	0xbe82e1a1	-0.25562766
45	0x3e36eb91	0.17863299
46	0xbe99ccb9	-0.30039003
47	0x3ddd14ec	0.10795006
48	0xbe40eb74	-0.18839818
49	0x3dbe0b7c	0.09279534
50	0x3d90683c	0.07051131
51	0x3db1e604	0.0868645
52	0x3e87255b	0.26395687
53	0x3f7d6105	0.98976165
54	0xbdda0888	-0.106461585
55	0x3c0d21cc	0.008614015
56	0x3cb421b7	0.021988733
57	0x3e269ea8	0.1627146
58	0xbd9dc505	-0.07703594
59	0xbeb25e90	-0.3483777
60	0x3c9e7df6	0.019347172
61	0xbe70b5f3	-0.23506908
62	0x3e5a3d33	0.21312408
63	0x3f483cf1	0.7821799
64	0x3e85fa45	0.26167503
65	0x3f46c379	0.7764202
66	0xbef42753	-0.47686252
67	0xbe671549	-0.22566713
68	0x3d8072de	0.06271909
69	0xbe68465c	-0.2268309
70	0x3e28a33a	0.16468516
71	0x3de19eab	0.11016592
72	0x3d31756b	0.04332487
73	0xbe1b2866	-0.1515213
74	0xbd9d7c3d	-0.07689712
75	0xbf62a3fb	-0.88531464
76	0xbd6edc70	-0.058315694
77	0x3d158918	0.036507696
78	0xbef747d7	-0.48296997
79	0xbf64a4a9	-0.8931375
80	0xbe81f977	-0.2538564
81	0xbdd8850e	-0.10572253
82	0xbe91c051	-0.28467038
83	0xbe50f2b2	-0.20405081
84	0x3d4447bc	0.047919974
85	0x3e0c42c5	0.13697346
86	0xbd1a1f32	-0.037627406
87	0x3df33526	0.11875372
88	0x3f10d4df	0.56574816
89	0x3f885f13	1.0654014
90	0x3dcce654	0.10004869
91	0xbcf907bb	-0.030399194
92	0x3d0ac286	0.03387692
93	0xbcf98588	-0.03045918
94	0x3eba0d23	0.36338148
95	0xbe4ff248	-0.20307267
96	0x3d75f198	0.060044855
97	0xbed509da	-0.4160908
98	0x3dc00293	0.09375491
99	0xbcb31f80	-0.021865606
100	0x3cf4c0e6	0.029877137
101	0xbe5f6051	-0.21814086
102	0xbe28654f	-0.16444896
103	0xbdd70e1e	-0.105007395
104	0xbdb5658d	-0.0885726
105	0xbd8c4dd5	-0.06850783
106	0xbd9a4586	-0.07532792
107	0xbcd051f3	-0.025429701
108	0x3b27e712	0.0025619906
109	0x3d495ab8	0.04915878
110	0x3e37e8e6	0.17959937
111	0xbe78e052	-0.24304321
112	0xbe8998f2	-0.268745
113	0x3df53843	0.11973622
114	0x3d597ea7	0.0530993
115	0x3d18c580	0.037297726
116	0x3e305db2	0.17223242
117	0xbf65d9aa	-0.89785254
118	0xbd9e8b86	-0.07741456
119	0x3d3f5268	0.046709448
120	0xbe57c25c	-0.21070236
121	0x3d8344c1	0.06409598
122	0x3e519b04	0.2046929
123	0x3e24d52e	0.16096947
124	0xbd8d3682	-0.06895162
125	0x3e6a8954	0.22903949
126	0xbd109321	-0.035296563
127	0xbe5c0f21	-0.21490146
128	0xbf8d9a41	-1.10627
129	0xbd3e8a54	-0.04651864
130	0x3d5f7650	0.05455619
131	0xbd8bb66e	-0.06821905
132	0xbd96190a	-0.073289946
133	0xbda9f228	-0.08298141
134	0xbe378757	-0.17922722
135	0x3e1dbbca	0.15403667
136	0xbe3ddffa	-0.18542472
137	0xbe811758	-0.25213122
138	0xbd996a5e	-0.07490991
139	0x3e479bb0	0.19492984
140	0xbe790d77	-0.24321543
141	0x3d875134	0.06607285
142	0x3e8184cf	0.25296637
143	0xbe4ac6c6	-0.19802389
144	0xbf184734	-0.5948365
145	0xbe145590	-0.14485765
146	0xbe259c47	-0.16172896
147	0x3e20dca2	0.15709165
148	0x3e75702e	0.23968574
149	0xbe6d49a1	-0.23172618
150	0xbd339f7b	-0.043853264
151	0x3e80b5f2	0.25138813
152	0x3cea7685	0.028620968
153	0x3e9d23ea	0.30691463
154	0xbfc0efb4	-1.5073152
155	0xbe6dc548	-0.23219788
156	0x3d968c93	0.07351031
157	0x3e1a9990	0.15097642
158	0x3e8d842b	0.276399
159	0x3c6e3b77	0.014540545
160	0x3e108cfb	0.1411628
161	0xbd9aa9aa	-0.07551892
162	0xbe874f48	-0.26427674
163	0x3e13705f	0.14398335
164	0x3c89e876	0.016834479
165	0xbea132ac	-0.31483972
166	0x3e3cdff7	0.18444811
167	0xbe4c3792	-0.19943073
168	0x3e70778e	0.23483106
169	0xbd987fe7	-0.074462704
170	0x3e42dba7	0.19029103
171	0x3b2e5400	0.002660036
172	0xbca6c3b6	-0.020356994
173	0xbd4c9365	-0.049945254
174	0xbcca05a0	-0.024660885
175	0xbdd7f5f1	-0.105449565
176	0x3e0ab76a	0.1354653
177	0x3cce165d	0.025157148
178	0xbe7fa2e6	-0.24964485
179	0xbd92e820	-0.071731806
180	0x3cb9d0ee	0.022682633
181	0x3e5f0ba8	0.2178179
182	0x3e21afcd	0.15789719
183	0x3d4ffc8e	0.050777964
184	0x3d1d9248	0.038469583
185	0xbe1d06e0	-0.15334654
186	0xbd9e0605	-0.07715992
187	0x3c97b0a0	0.018516839
188	0xbe0006ac	-0.12502545
189	0xbc407829	-0.011747398
190	0xbe151f19	-0.14562644
191	0xbd194925	-0.03742327
192	0x3d546ff9	0.051864598
193	0x3d972bc8	0.073813975
194	0xbe4fb842	-0.20285133
195	0xbe57a5c5	-0.2105933
196	0x3e75d333	0.24006347
197	0xbe2dbc3a	-0.16966334
198	0x3e4f8fb6	0.20269665
199	0xbd831eda	-0.06402369
200	0x3e12a6da	0.14321461
201	0x3d711bbf	0.05886435
202	0xbda4ae96	-0.08041112
203	0xbe8aa13d	-0.2707614
204	0xbe697941	-0.22800161
205	0xbe4ca169	-0.19983448
206	0xbe72a655	-0.23696263
207	0xbe3ec3d2	-0.18629387
208	0xbe66b0e8	-0.22528422
209	0xbf5f5a99	-0.87247616
210	0xbe803d2d	-0.25046673
211	0x3d41ab82	0.047282703
212	0x3d0e9106	0.034806274
213	0xbe853838	-0.26019454
214	0x3e769966	0.24081954
215	0xbdfb6831	-0.12275732
216	0x3e484382	0.19557002
217	0x3d47f974	0.04882188
218	0xbf116df4	-0.568084
219	0xbf97bbac	-1.1854148
220	0x3e329e96	0.17443308
221	0x3e058a99	0.13041152
222	0xbd94905a	-0.072540954
223	0xbe7ef884	-0.24899489
224	0xbcc49c3a	-0.024000276
225	0xbdf4cc88	-0.11953074
226	0xbe8d18a0	-0.2755785
227	0x3c967ff3	0.018371558
228	0xbdf6bdba	-0.12047906
229	0x3d86041c	0.065437526
230	0xbe618746	-0.22024259
231	0x3d9f2882	0.07771398
232	0xbe3a2123	-0.18176703
233	0x3e580a92	0.21097782
234	0xbf127ef9	-0.57224995
235	0xbfb66fd1	-1.4252874
236	0x3e7075d2	0.23482445
237	0xbdc94b6f	-0.09828841
238	0xbe12ca80	-0.1433506
239	0xbe28a234	-0.16468126
240	0x3d914950	0.070940614
241	0x3e8c1aa5	0.27364078
242	0xbd4dd1d1	-0.050248925
243	0x3d882d9a	0.06649323
244	0x3f13f8ae	0.5780133
245	0xbf585bbd	-0.8451498
246	0x3e089ab0	0.13340259
247	0xbe24cf38	-0.16094673
248	0xbd945e68	-0.07244569
249	0xbe31e0a4	-0.1737085
250	0x3e830743	0.25591478
251	0xbe1d6544	-0.15370661
252	0x3e4b4b58	0.1985296
253	0xbe37679c	-0.17910618
254	0xbe8c7cef	-0.27439067
255	0x3df078d4	0.11741796

net.0.bias f4 [64]
0	0x3d8ad8dc	0.06779644
1	0x3e15c161	0.1462455
2	0xbe43c4ea	-0.19118086
3	0xbe83dfeb	-0.25756773
4	0xbe72f54e	-0.23726389
5	0xbe364638	-0.17800224
6	0x3e6db0a9	0.23211922
7	0xbd0027b7	-0.031287875
8	0xbe418125	-0.18896921
9	0x3e1600c8	0.14648736
10	0x3e17cdb0	0.14824557
11	0xbde416ee	-0.11137186
12	0xbeb2e3be	-0.34939378
13	0x3e136cd1	0.14396979
14	0xbd5e79d2	-0.054315396
15	0xbe60c5b2	-0.21950415
16	0x3e81f6a8	0.25383496
17	0xbe2ff326	-0.17182598
18	0x3e2552e5	0.16144903
19	0x3da94d7c	0.08266732
20	0xbe95fd7b	-0.29294953
21	0xbe817295	-0.25282732
22	0xbdc934c0	-0.098245144
23	0xbe88e307	-0.26735708
24	0xbcc5daeb	-0.02415224
25	0x3e7a11b1	0.24420811
26	0x3e14c43c	0.14527982
27	0x3e3b454c	0.18288153
28	0x3da6353a	0.08115621
29	0x3e60cfac	0.2195422
30	0x3e0482a0	0.12940454
31	0x3db5e77c	0.08882043
32	0xbe632ced	-0.22185107
33	0xbe3ec9d2	-0.18631676
34	0xbda29ffe	-0.07940672
35	0x3db78ad7	0.089620285
36	0xbe47a54b	-0.19496648
37	0xbd89d953	-0.067309044
38	0x3ec2f45d	0.3807706
39	0xbe9b671b	-0.303521
40	0xbe89eaef	-0.26937053
41	0xbe17cbc0	-0.14823818
42	0x3caf6f87	0.021415485
43	0xbdd80735	-0.1054825
44	0xbe82e517	-0.25565407
45	0xbe2cbac0	-0.16868114
46	0xbec57c25	-0.38571277
47	0xbe4b8b8e	-0.19877455
48	0xbe94437d	-0.2895774
49	0x3c50f2b6	0.012753179
50	0xbe160233	-0.14649276
51	0x3e8d5409	0.27603176
52	0xbe3adafe	-0.18247601
53	0xbeb1b882	-0.3471108
54	0xbebad39c	-0.3648957
55	0x3c2f5a56	0.01070269
56	0xbeb4b5cc	-0.3529495
57	0xbe4af3c6	-0.19819555
58	0x3d88baa8	0.06676227
59	0xbead48b0	-0.3384452
60	0xbded70ec	-0.11593804
61	0xbea1c5fe	-0.3159637
62	0xbd9e452e	-0.07728039
63	0x3c0446f3	0.008073556

net.2.weight f4 [64, 64]
0	0xbdb6d551	-0.089274056
1	0x3d7db990	0.061944544
2	0xbc9592a0	-0.018258393
3	0xbbe26128	-0.0069085546
4	0xbda335eb	-0.079692684
5	0xbd8ef74d	-0.06980763
6	0xbda60c5f	-0.08107828
7	0x3cf2a244	0.02961839
8	0x3dae1522	0.085001245
9	0x3d964223	0.07336833
10	0x3cc9dc30	0.024641126
11	0xbcc8d2d3	-0.024514591
12	0xbd391dbe	-0.04519438
13	0x3d4a5b3f	0.049403425
14	0x3c0f2612	0.008737104
15	0xbdcbc350	-0.09949362
16	0xbdf7d6b9	-0.12101502
17	0x3dc6a282	0.09698965
18	0xbc25fc02	-0.010130884
19	0x3d943fa4	0.07238701
20	0x3dbcc1bc	0.092166394
21	0xbb87d7a0	-0.0041455775
22	0xbcc4c687	-0.024020446
23	0x3d4c8121	0.049927834
24	0xbe0987dc	-0.13430732
25	0xbe05658f	-0.13027023
26	0xbdb8df8a	-0.09027012
27	0xbdb482c8	-0.08814007
28	0xbddfa540	-0.10920191
29	0x3bc82b20	0.0061086565
30	0x3d6311a4	0.055436745
31	0x3bde26bc	0.00677952
32	0x3c60c600	0.013719082
33	0xbda1c365	-0.07898597
34	0xbccc3844	-0.024929173
35	0xbda4be40	-0.080441
36	0x3b1a6d6d	0.0023563758
37	0xbdb14c01	-0.08657075
38	0x3a8197f4	0.0009887205
39	0x3d0b50df	0.03401267
40	0xbd3fdaa0	-0.046839356
41	0xbdbcb957	-0.09215038
42	0xbe0029b2	-0.12515905
43	0xbd863572	-0.06553163
44	0x3d86422f	0.06555592
45	0xbcbcee87	-0.023062957
46	0xbd4d4570	-0.05011505
47	0x3dd57e54	0.10424486
48	0xbd84b9da	-0.06480761
49	0xbbc05748	-0.0058697797
50	0x3dfc79fe	0.12327956
51	0xbe13048e	-0.14357206
52	0xbd96d963	-0.07365682
53	0xbc5eea82	-0.013605716
54	0xbe0349f1	-0.12821175
55	0xbd1f86ec	-0.03894703
56	0xbd1e76dc	-0.038687572
57	0x3d1d34a1	0.03838027
58	0xbd054b9c	-0.03254281
59	0x3ca0dc0b	0.019636175
60	0x3d7f2994	0.06229551
61	0x3d12acba	0.035809256
62	0x3cf7ee41	0.030264976
63	0x3db1e7a6	0.086867616
64	0xbbfdefb5	-0.0077495226
65	0xbbb49c35	-0.0055117854
66	0xbf2f5a01	-0.6849671
67	0xbcfd57aa	-0.03092559
68	0xbc4db547	-0.012555427
69	0x3e252fb8	0.16131485
70	0x3e2d9a2c	0.16953343
71	0x3dd61133	0.10452499
72	0x3cc78cbe	0.024359103
73	0xbe035c80	-0.12828255
74	0x3ca04c20	0.01956755
75	0x3e6bab27	0.23014508
76	0xbe18ed68	-0.14934313
77	0x3d385987	0.045007255
78	0xbb8e5817	-0.004343997
79	0x3d5b6fc8	0.0535734
80	0xbe47b4cc	-0.19502562
81	0xbdd862d4	-0.10565725
82	0xbe5c7c47	-0.21531783
83	0xbdd96aca	-0.106160715
84	0xbd7443ec	-0.059635088
85	0x3d64c6bf	0.0558536
86	0xbdb70598	-0.08936614
87	0xbe971889	-0.29510906
88	0x3f1d52b2	0.6145431
89	0xbf93065e	-1.1486318
90	0xbbe31a20	-0.0069306046
91	0x3dd7cea4	0.105374604
92	0x3db68ef8	0.08913988
93	0xbd83fc2a	-0.06444581
94	0xbc582ca0	-0.013194233
95	0x3edf6e01	0.43638614
96	0xbd655c74	-0.055996373
97	0x3cd769a0	0.026295483
98	0xbe17e8bf	-0.1483488
99	0xbe26f668	-0.16304934
100	0x3d3f4313	0.046694826
101	0x3dce8df4	0.10085669
102	0x3ed5bf16	0.4174735
103	0xbf4bf0a7	-0.7966408
104	0x3d85737b	0.06516167
105	0xbd300d7f	-0.04298162
106	0x3ea2346b	0.31680617
107	0xbdec9a34	-0.115528494
108	0xbe426a85	-0.18985946
109	0x3d994736	0.074842855
110	0x3e55cfaa	0.20879999
111	0xbdddb0a4	-0.10824707
112	0x3ec44076	0.3833043
113	0x3ea45099	0.3209274
114	0x3d79b17c	0.060960278
115	0x3d2af946	0.041741632
116	0xbee0ac02	-0.43881232
117	0x3dff54af	0.12467324
118	0x3d133cd9	0.0359467
119	0x3e4ba0bd	0.19885536
120	0xbf2c8f10	-0.67405796
121	0xbc17bdcc	-0.00926156
122	0xbe8570c8	-0.26062608
123	0xbf6fce34	-0.93674016
124	0x3e942cd1	0.28940442
125	0xbe81b64d	-0.25334397
126	0x3e63b8b0	0.22238421
127	0x3d8e2d59	0.06942243
128	0xc0181360	-2.3761826
129	0xbd4adc80	-0.04952669
130	0x3e837460	0.25674725
131	0xbc9615b1	-0.01832089
132	0x3f26b37c	0.6511762
133	0xbff08e18	-1.8793364
134	0x3ec82445	0.3909017
135	0xbe1270e1	-0.14300872
136	0xbc7e6af9	-0.015528434
137	0xbeaaad2c	-0.33335245
138	0x3da855c6	0.08219485
139	0xbff0cfc0	-1.88134
140	0xbea9afdc	-0.33141983
141	0x3d42a9c0	0.047525167
142	0x3e0236f6	0.12716278
143	0x3c98ac78	0.018636927
144	0xbf52ba67	-0.8231568
145	0xbd9d822e	-0.076908454
146	0x3e1477bc	0.144988
147	0xbdab6ec4	-0.08370736
148	0x3d1703ea	0.036868967
149	0xbc3b7088	-0.011440404
150	0xbde567de	-0.11201452
151	0xbf85ef01	-1.0463563
152	0xbddeb9ff	-0.1087532
153	0x3edbceae	0.42931122
154	0xbde0af50	-0.10970938
155	0xbdab37ad	-0.08360229
156	0x3d87d6d7	0.06632774
157	0x3da0d54c	0.07853183
158	0x3ddb6ce8	0.107141316
159	0x3efe9790	0.49725008
160	0x3c28b000	0.010295868
161	0xbf1395bf	-0.5765037
162	0xbdf4c175	-0.119509615
163	0xbf0a6a90	-0.5406885
164	0xbe142b79	-0.14469709
165	0xbe21303f	-0.1574106
166	0x3e183349	0.14863314
167	0xbd238176	-0.039918385
168	0xbd10ab23	-0.03531946
169	0x3ef67f52	0.48144013
170	0xbf86ef8e	-1.0541856
171	0x3d3839ec	0.044977114
172	0x3e127a89	0.14304556
173	0xbd0d1d5e	-0.034451835
174	0xbd42fee7	-0.047606375
175	0x3d1500dc	0.036377773
176	0xbe478fe6	-0.19488487
177	0xbf86df96	-1.0536983
178	0xbc9fa5a8	-0.01948817
179	0xbf19db91	-0.60100657
180	0x3ce0f76c	0.02746173
181	0xbe66703d	-0.22503753
182	0x3c623f16	0.013808986
183	0x3e2ff7b4	0.17184335
184	0xbee18aea	-0.44051296
185	0xbdf16e46	-0.11788611
186	0x3d8cb66b	0.06870731
187	0xbeba75de	-0.3641805
188	0xc0132fda	-2.2997956
189	0xbe824e8d	-0.25450554
190	0x3cc756e5	0.024333427
191	0x3d8be6cc	0.068311304
192	0xbfa307e1	-1.273678
193	0xbd0bb5c9	-0.03410891
194	0x3e180475	0.1484545
195	0x3d918186	0.07104783
196	0x3ebd2473	0.3694187
197	0xbe91edfd	-0.28501883
198	0x3e825840	0.25457954
199	0xbdbf6926	-0.09346227
200	0xbd8967a3	-0.0670922
201	0xbd84372b	-0.06455835
202	0xbdd89cb8	-0.10576767
203	0xbf58564d	-0.84506685
204	0x3cd0ace6	0.02547307
205	0x3d5a2b02	0.05326367
206	0xbc4343b0	-0.011917993
207	0x3ccaa2f0	0.024735898
208	0xbdb77862	-0.08958508
209	0x3dc58487	0.09644418
210	0x3d5bafaa	0.053634323
211	0xbdcb00c4	-0.099122554
212	0x3ced4c88	0.028967157
213	0xbc8fa767	-0.017535878
214	0xbdb0ae38	-0.086269796
215	0xbf0cf142	-0.5505563
216	0x3d3ef116	0.046616636
217	0xbe46b33d	-0.19404311
218	0xbde2e96a	-0.110796764
219	0x3da8e6e0	0.08247161
220	0xc0991374	-4.7836246
221	0x3db5702c	0.08859286
222	0x3d17261c	0.03690158
223	0x3eb99b3e	0.36251253
224	0xbdf2c0b6	-0.11853163
225	0xbdd88ec6	-0.10574107
226	0x3c16b9f7	0.009199611
227	0xbeb81e06	-0.35960406
228	0xbd21ab62	-0.039470084
229	0xbd933e35	-0.071895994
230	0x3d00bc8c	0.031429812
231	0xbfbc6fef	-1.472166
232	0x3e5fb80f	0.21847557
233	0xbd3ec473	-0.046574067
234	0xbf0ad6a0	-0.5423374
235	0x3d080dd4	0.033216313
236	0x3e37d3b8	0.17951858
237	0xbe735ab7	-0.23765074
238	0xbf0a5783	-0.5403978
239	0xb9275800	-0.00015959144
240	0xbe1b8c28	-0.15190184
241	0xbec5f948	-0.3866675
242	0xbc5870d0	-0.01321049
243	0xbe5e7cba	-0.21727267
244	0x3c499f52	0.012306051
245	0xbf03d8ad	-0.51502496
246	0x3e643f0b	0.22289674
247	0x3c528833	0.012849855
248	0xc0bf20d4	-5.9727573
249	0x3d8fbc83	0.07018378
250	0xbd056b37	-0.03257295
251	0xbe8ba6e0	-0.27275753
252	0xc0120137	-2.2813241
253	0x3e796c64	0.24357754
254	0x3e2444f5	0.1604193
255	0x3e00e008	0.12585461

net.2.bias f4 [64]
0	0x3c999946	0.018749844
1	0x3eec0e81	0.46104816
2	0xbdb562d4	-0.088567406
3	0xbd9574bf	-0.07297658
4	0xbca589d8	-0.02020733
5	0xbd0d03f8	-0.034427613
6	0xbe40acc8	-0.18815911
7	0xbd833de9	-0.06408293
8	0x3e081338	0.13288581
9	0xbea24f3d	-0.3170108
10	0xbba0e956	-0.0049106283
11	0x3e44952c	0.1919753
12	0x3e70f1d0	0.23529744
13	0x3ead4874	0.3384434
14	0x3d1a21ec	0.037630007
15	0xbbcea634	-0.006306434
16	0xbe174e0f	-0.1477587
17	0xbd42f676	-0.047598325
18	0xbed2b690	-0.4115491
19	0xbe1a7a22	-0.15085652
20	0x3e947be6	0.29000777
21	0xbe2ca094	-0.1685813
22	0xbc9db393	-0.019250667
23	0xbe14a39a	-0.14515534
24	0x3e8521e4	0.2600242
25	0x3d5d2237	0.053987708
26	0xbf0eeeca	-0.55833113
27	0xbe839b63	-0.25704488
28	0xbd0ffe8a	-0.035154857
29	0xbdad6a77	-0.08467572
30	0xbccdc9b6	-0.025120597
31	0xbe459b3d	-0.192975
32	0xbe2e470e	-0.17019293
33	0xbd940c04	-0.07228854
34	0xbeb8a8ed	-0.3606638
35	0xbdf60ce1	-0.12014175
36	0xbe337dc0	-0.17528439
37	0xbd3d2381	-0.046176437
38	0xbe3ac193	-0.18237905
39	0x3f0db4f2	0.55354226
40	0xbe1361bd	-0.14392753
41	0xbb39cc9e	-0.002835072
42	0x3eb2760d	0.3485569
43	0x3cada2d3	0.021195805
44	0xbdcc15f4	-0.09965125
45	0xbe078bfc	-0.13236994
46	0xbba212d3	-0.0049460917
47	0xbe010ec3	-0.12603287
48	0xbd9f5b13	-0.07781043
49	0xbdb92f3f	-0.090422146
50	0xbe5ca63b	-0.21547787
51	0xbe384865	-0.17996366
52	0xbe219b09	-0.15781797
53	0xbe0d9f1f	-0.13830231
54	0xbe31cd4f	-0.17363475
55	0xbe50418f	-0.20337509
56	0xbe38ea7b	-0.18058197
57	0xbe041a62	-0.12900689
58	0xbea05c29	-0.31320313
59	0xbe2ccefd	-0.16875835
60	0x3f061fde	0.52392375
61	0xbec678ea	-0.38764125
62	0x3dae2844	0.08503774
63	0xbde3a71e	-0.111158594

net.4.weight f4 [6, 64]
0	0x3cfcd5de	0.030863699
1	0xbe2ed6a2	-0.17074063
2	0x3e9eebc2	0.31039244
3	0xc006a624	-2.1038904
4	0xbb9713a9	-0.004610498
5	0xbe2446ff	-0.16042708
6	0x3d2760b4	0.040863708
7	0x3d454c78	0.04816863
8	0x3ec9d03f	0.39416692
9	0x3e26b834	0.16281205
10	0x3e7af1a0	0.24506235
11	0x3cf609ca	0.030033965
12	0xc00145fb	-2.0198963
13	0x3e9c0318	0.3047111
14	0xbeb3fa87	-0.35152075
15	0xbdfa2f5f	-0.122160666
16	0x3cf445a0	0.029818356
17	0x3c0daf98	0.008647822
18	0x3eb50cf6	0.3536145
19	0xbc3cbe09	-0.011519917
20	0x3e03c034	0.12866288
21	0xbbfc9aa2	-0.0077088634
22	0xbd879bdd	-0.066215254
23	0x3d7cb00e	0.061691336
24	0x3d0a9f7d	0.033843506
25	0x3d8b8330	0.068121314
26	0xbfa431ee	-1.2827737
27	0xbc6e2f5a	-0.014537657
28	0xbc637e81	-0.013885141
29	0xbca1104f	-0.019661097
30	0x3e926f86	0.2860071
31	0x3d8c57e4	0.06852701
32	0xbd7ccaed	-0.061716963
33	0x3d6a40b3	0.05719061
34	0xbf1bb003	-0.6081545
35	0x3d04b094	0.03239496
36	0x3da358fd	0.079759575
37	0xbdc19d89	-0.094538756
38	0xbd2e6d3c	-0.042584643
39	0x3e5a47c9	0.21316446
40	0x3c6504dc	0.013978209
41	0x3ecc1034	0.39856112
42	0x3db9a043	0.090637706
43	0xbd27bba1	-0.04095042
44	0x3c9dda61	0.01926917
45	0xc013359f	-2.3001478
46	0xbd47f1fc	-0.04881476
47	0x3d6b9188	0.057511836
48	0x3d3ecd81	0.046582703
49	0xba9d37c3	-0.0011994768
50	0xbd8f3134	-0.069918066
51	0xbd17e106	-0.037079833
52	0x3cf0a747	0.029376639
53	0xbd7cae32	-0.061689563
54	0xbd2f0c0e	-0.042736106
55	0x3e530f09	0.20611204
56	0xbdb80e3c	-0.0898709
57	0xbd3ce4b7	-0.046116557
58	0x3cc8b0e3	0.024498409
59	0xbdf841bd	-0.121219136
60	0x3e9e55e7	0.30924913
61	0xbfcab862	-1.5837519
62	0xbd9f5bae	-0.077811584
63	0xbff94ca6	-1.9476516
64	0xbdd696b6	-0.104779646
65	0x3e5fb2a7	0.21845494
66	0x3f361c36	0.71136796
67	0xbfb75e88	-1.4325724
68	0x3ce676f7	0.028132899
69	0x3e100d73	0.1406763
70	0xbde7635e	-0.1129825
71	0xbd08b825	-0.03337874
72	0xbe478837	-0.19485556
73	0x3e9c85e7	0.3057091
74	0x3e56a032	0.20959547
75	0x3eb59833	0.3546768
76	0x3fa1badd	1.2635151
77	0x3eb5129a	0.35365754
78	0xbf53b84b	-0.82703084
79	0x3dca36d6	0.098737404
80	0xbd3ac544	-0.045598283
81	0xbcc79a62	-0.024365608
82	0xbd092671	-0.033483926
83	0xbfb2080d	-1.3908707
84	0xbdab4049	-0.08361871
85	0x3dd7c1fa	0.10535045
86	0x3d380275	0.04492422
87	0xbd98fd29	-0.074701615
88	0x3ecfe69e	0.40605634
89	0x3ca733a7	0.020410372
90	0xbf66187f	-0.8988113
91	0x3cc7218f	0.024307994
92	0x3cbee8aa	0.023304302
93	0x3c71b506	0.014752632
94	0xbdd7ba7a	-0.105336145
95	0x3dd831b8	0.10556358
96	0x3c81862d	0.01581105
97	0x3db119f4	0.08647528
98	0x3f1c3de8	0.6103196
99	0xbcea06c7	-0.028567685
100	0xbcff003a	-0.031128038
101	0x3accdbc3	0.0015629459
102	0x3d597fa2	0.053100236
103	0xbd6fca71	-0.058542673
104	0x3d69eec9	0.05711249
105	0xbe4d1f56	-0.20031485
106	0xbf107d57	-0.56441253
107	0x3ee8d7ef	0.45477244
108	0x3d4880d4	0.048950985
109	0xc0058612	-2.086308
110	0x3cefc9f2	0.0292711
111	0x3cc04681	0.023471119
112	0xbca29938	-0.019848451
113	0x3c8346cc	0.01602497
114	0x3cff85fd	0.03119182
115	0xbcfe1de3	-0.03102011
116	0x3d438f70	0.047744215
117	0x3d72f85e	0.059318893
118	0x3cc2292e	0.023701277
119	0xbe1da0f6	-0.15393433
120	0xbe0856ea	-0.13314405
121	0xbcb7e468	-0.02244778
122	0xbed51dcc	-0.41624296
123	0xbc17b553	-0.00925954
124	0xbf0bbeb2	-0.5458785
125	0x3f97191a	1.1804535
126	0xbe1ac9c2	-0.15116027
127	0x3e2d1841	0.16903783
128	0xbccbc815	-0.02487568
129	0xbe1a3a3a	-0.15061274
130	0x3e4b97cb	0.19882123
131	0x3f41f3b1	0.7576247
132	0x3d4ac720	0.049506307
133	0x3efe7e51	0.49705747
134	0x3c6c3eef	0.014419301
135	0x3d761ef5	0.060088117
136	0x3f39b68e	0.7254418
137	0x3d0958d9	0.033531997
138	0xbe3a8df7	-0.18218218
139	0x3e73291d	0.23746152
140	0xbfa20dab	-1.2660421
141	0x3d87824d	0.0661665
142	0xbe20e94f	-0.15714
143	0xbd116e35	-0.035505492
144	0x3c58209f	0.013191371
145	0xbd4da4ad	-0.050205875
146	0xbe85c400	-0.261261
147	0x3e935d80	0.28782272
148	0x3ee06a89	0.4383128
149	0x3d90aaba	0.070638135
150	0x3da88c34	0.082298666
151	0x3ccaba63	0.02474708
152	0x3dbe9f09	0.09307677
153	0xbde94dd4	-0.11391798
154	0x3f2dac9f	0.67841524
155	0x3dbce4ca	0.092233256
156	0xbddd483f	-0.108047955
157	0x3cfa0649	0.030520575
158	0x3ec4a42c	0.38406503
159	0xbd3c0b69	-0.04590932
160	0x3bc6fa62	0.0060723284
161	0xbced1ced	-0.028944457
162	0xbc570f6a	-0.013126234
163	0x3c9a9fce	0.018875029
164	0xbc413c77	-0.011794201
165	0x3c291bef	0.010321601
166	0xbb44c3d8	-0.0030023959
167	0xbead1e5e	-0.3381223
168	0x3bb48ad3	0.005509713
169	0xbf2d5c67	-0.6771912
170	0xbdcebc5e	-0.10094522
171	0x3e567dc3	0.20946412
172	0xbd84abb9	-0.06478066
173	0xbe448901	-0.19192888
174	0xbc4348eb	-0.0119192405
175	0xbd4e85db	-0.050420623
176	0xbc3c81c8	-0.011505552
177	0x3cb7cba1	0.022435965
178	0x3d729abe	0.059229605
179	0xba915313	-0.001108738
180	0xbd8be49a	-0.06830712
181	0xbc3b6bd0	-0.011439279
182	0xbddf5b44	-0.109060794
183	0xbea72526	-0.3264553
184	0x3dd15c37	0.10222667
185	0xbdd76771	-0.10517777
186	0xbf6f36b5	-0.9344285
187	0xbe163416	-0.14668307
188	0xbe26418e	-0.16235945
189	0x3f130474	0.5742867
190	0x3f01624c	0.50540614
191	0x3fe2ae95	1.7709528
192	0x3d2934ea	0.04131023
193	0x3d1d3892	0.038384028
194	0xbd22508b	-0.039627593
195	0x3d21d6f5	0.03951164
196	0x3cfd5d9f	0.030928431
197	0x3c84a17b	0.016190281
198	0xbdb46d0e	-0.08809863
199	0xbce4ae80	-0.02791524
200	0x3c8fde6f	0.01756212
201	0xbcbda4f1	-0.02314994
202	0xbce1d493	-0.027567184
203	0xbd6985e1	-0.057012442
204	0x3ce5dc47	0.028059138
205	0xbbd37740	-0.0064534247
206	0xbc27a5ec	-0.01023243
207	0x3c5a1fb0	0.013313219
208	0x3d02deaa	0.03195063
209	0xbc90267f	-0.017596481
210	0xbcb63f4a	-0.022246975
211	0x3df7937a	0.12088676
212	0x3ccdd7de	0.025127348
213	0xbda1099b	-0.0786316
214	0xbe2e8b4c	-0.17045325
215	0xbd496506	-0.04916861
216	0xbd21f29f	-0.039538022
217	0x3d97771f	0.073957674
218	0xbdcf4667	-0.1012085
219	0xbcb96d2c	-0.022635065
220	0xbce29ae8	-0.027661756
221	0x3d70485b	0.058662754
222	0xbd03cf29	-0.032179985
223	0xbc81b902	-0.015835289
224	0x3ca20705	0.019778738
225	0x3c7e8f56	0.015537104
226	0xbbfbf3f6	-0.0076889945
227	0x3d20d93a	0.039269663
228	0x3d87809e	0.06616329
229	0x3d51d2c1	0.05122638
230	0xbd2f2dd3	-0.04276831
231	0xbc819ce8	-0.015821889
232	0x3d50820c	0.050905272
233	0x3d20e8e7	0.039284613
234	0x3b15daf6	0.0022866107
235	0x39d2a770	0.00040179072
236	0xbcaf701c	-0.021415763
237	0x3d142561	0.03616846
238	0xbd1e42c5	-0.038637895
239	0xbe13e751	-0.14443709
240	0x3d49af9c	0.04923974
241	0x3d9f5210	0.07779324
242	0x3db123f7	0.08649438
243	0xbdf5d4be	-0.12003468
244	0x3d928177	0.071536
245	0xbc7c0ab3	-0.01538341
246	0x3db925d2	0.09040417
247	0x3bded17c	0.006799875
248	0xbc332019	-0.010932946
249	0x3c7dc624	0.015489135
250	0x3d09a8b4	0.033608153
251	0x3b4c79b0	0.003120046
252	0xbcf8e8b7	-0.030384405
253	0x3dd4b88f	0.10386764
254	0xbd969a84	-0.0735369
255	0x3d864a5e	0.06557153

net.4.bias f4 [6]
0	0x3ed38ef1	0.41319993
1	0xbecfc126	-0.40577048
2	0xbdba1a61	-0.090870626
3	0xbf107310	-0.5642557
4	0xbedb648d	-0.42850152
5	0xbecefad1	-0.40425733
