log/GC_SAC/maze3Env/20210728-1811/GC_SAC_HER_actor.pth (torch_old, 22887 bytes, 6 tensors)

net.0.weight f4 [64, 13]
00000000: 669c 8cbf 349e bd3e 6eea bbbd 6c3f 3bbe
00000010: 8dee a6be 96dd 8bbd 9182 5e3e 71d2 6b3e
00000020: 5800 9cbe f5e7 a1bd f3d8 693f 4a55 32bf
00000030: f402 bb3d d49b 8cbe 1e32 403e cfa9 17be
00000040: c840 843b 833b dfbd 5065 dbbc fd46 a43b
00000050: 063f 403c f781 493e fb4e 97bd 2027 33bf
00000060: 00a7 8a3f 70c8 423e 4566 8e3e b002 253e
00000070: 6a93 c6bd 9582 fcbd ff99 febd e0e0 f33c
00000080: 193b 16be b377 77be 7f1c 803d 25ab 86bc
00000090: 58a9 9abf 087b 07bf 6466 563e 1597 8e3e
000000a0: 4efc 8a3f 1cd6 aa3d b508 743e 862a cc3e
000000b0: 4a66 403e 8893 c8be 376b 71be 7bef 24be
000000c0: 510c 0ebe 87d8 78be 994a 56be b225 673e
000000d0: effb 28be e657 82be ae42 093e ea4d 0fbe
000000e0: 74fd 14be 2023 6cbc 3062 adbd eacb 71be
000000f0: 3824 cf3d 20e1 f9bc c2e3 0ebe 6d6b 41be
00000100: 48bb bf3d 8950 fc3e f984 a6bf 8052 e33c
00000110: caa0 1fbf 9aee 083f 00a4 d83d eb44 0ebe
00000120: 8545 7ebd 78da e43d dd6b 59be 9037 543e
00000130: 9162 823f ccc4 80be 0cc5 d33e 49b1 33bf
00000140: 9efa 81be 89c7 843f cc2d 51bf 60dc 6bbe
00000150: 7d00 77bd 89eb 2bbd 85f7 a0be c47c 803d
00000160: c37c 83bf 8362 f4bd 8230 083e bacb ebbd
00000170: f80d 993d 1ca9 adbd 7dac 8b3e 21e5 1bbe
00000180: 6cf2 f9bd 5425 68bd dcca 75be 14e0 c33d
00000190: 70af bb3c fe2e d5bd 5892 ba3d 3c20 dc3d
000001a0: c925 ae3d 8c09 343e 5e59 21be 1d9a 2f3e
000001b0: cef7 543d cef9 01be 320e 4b3d 322d 513d
000001c0: 2f12 fcbd 8f02 05bd 6aa1 d03f 9cd4 adbd
000001d0: baab 4ebe 6843 72be f605 36be 0010 ebbb
000001e0: 4ce1 123e 44f1 60bd 1b40 8dbe 1910 8bbe
000001f0: 1b25 0bbe 240d d33d 0c53 80bd 6477 be3d
00000200: 4018 04bc 20f1 403e 94cf 0fbe 0d71 5fbe
00000210: 02e0 79be 0476 cabc 4f04 4abe 983a 8bbd
00000220: 926b 1d3e 6bea 5e3c efd3 86bc a75f 8dbe
00000230: a2f1 8abc 8407 00be 0460 033e f99c 7fbe
00000240: 8780 4abe 5849 463e d6e0 333d 1d82 3c3e
00000250: e2a4 2a3e c467 a0bc a449 083e b0be 7cbe
00000260: b4e4 c53d c4f9 103d 5eaf 48be 58d3 1b3d
00000270: 0ccb 4bbd f2e7 8cbe 3a62 4abe f3cb 78be
00000280: 18b7 603e dd95 1abe 181a 25be 4f7f 80be
00000290: 406d db3c 7127 853e f2eb 67be feff 2dbe
000002a0: 0280 28be c3f1 433f 112b 013f 18a0 0cbe
000002b0: e75f c83c 67d5 06bc 6937 8abe 78aa 823d
000002c0: 15f5 c1be 6752 90be 6867 94bd 5137 ea3d
000002d0: 8ac9 12bd ac08 7ebd c3aa 1abf 936f babd
000002e0: 9629 0ebe 9c61 17bf 03e5 3c3e 20df 0a3d
000002f0: 842f 2fbe c618 523e 7721 cf3d 38ba 743d
00000300: 6a58 7dbf dc32 01bf a40f 07bd b0fd 95bc
00000310: ef13 0ebe 7c41 49be bcd2 913d defd 773e
00000320: 3aac 8dbe ffae 5abe 8e6e bbbd 3871 183e
00000330: a06d c03c 06c0 023e 0073 c5ba cc4e 75be
00000340: 8377 01bd c642 1bbe 09c6 863e 0044 663c
00000350: 28eb ee3d 804c 5a3c 06f9 4fbe b8c0 3cbc
00000360: 94b5 543e 2d4f 48be 1650 bdbd c29a 5bbe
00000370: fcf8 403e ce34 12be 4743 fabe 5865 f1bc
00000380: fba3 f7bf 4187 c1bf c0f7 cfbc 246f 4e3e
00000390: ece6 5f3e f46d a83d 8f49 fabd e22f 043f
000003a0: dc6e b23e 0ada 13be 61b6 c2bd 69bc 663d
000003b0: de40 233e cfdf cd3d 00e4 3bbd 60e1 af3d
000003c0: 32e3 c1bd e457 53bd f89d cf3d eb2e 9abe
000003d0: 6e9f 0fbe 89c3 dfbc 80ae f93b 457b 0cbf
000003e0: 16fc 6ebf f550 5dbe baa6 27bf 5e00 26bf
000003f0: 3046 a13c 3fb8 423e c3ab 613e 6d0b 343e
-1.0985229 0.37034762 -0.09175573 -0.18285912 -0.32603875 -0.068293735 0.21729495 0.23029496
-0.30469012 -0.079055704 0.91346663 -0.6966139 0.09131423 -0.27462637 0.18769118 -0.1481087
0.004036043 -0.10900023 -0.026781708 0.0050133453 0.011733776 0.19678484 -0.07388111 -0.69981575
1.0832214 0.19021773 0.278124 0.16114306 -0.09696086 -0.12329594 -0.12431716 0.029770315
-0.14670981 -0.24166755 0.06255435 -0.01643903 -1.208293 -0.52922106 0.20937496 0.2784964
1.0858247 0.08341619 0.23831446 0.39876193 0.1878902 -0.39175057 -0.23576055 -0.1610698
-0.13871886 -0.24301349 -0.20926894 0.22572973 -0.16502355 -0.25457686 0.13404343 -0.13994566
-0.1454981 -0.014412671 -0.084659934 -0.23612943 0.1011433 -0.030502856 -0.1395407 -0.18888636
0.09361893 0.49280193 -1.300933 0.0277493 -0.6235472 0.5348908 0.105781555 -0.13893478
-0.062078018 0.11174482 -0.21232553 0.2072432 1.018633 -0.25150144 0.41361272 -0.7019239
-0.25386518 1.0373393 -0.81710505 -0.23033285 -0.0603032 -0.04197267 -0.31438842 0.06273797
-1.0272449 -0.11932852 0.13299754 -0.11513467 0.074733675 -0.08479521 0.27280036 -0.15224124
-0.122044414 -0.056676224 -0.24003166 0.09564224 0.022910804 -0.10409354 0.09109944 0.10748336
0.08503301 0.17581767 -0.15756747 0.17148633 0.051994137 -0.12692949 0.049574085 0.051068492
-0.12308156 -0.032473143 1.629926 -0.08487818 -0.20182696 -0.23658526 -0.17775711 -0.007173538
0.14343756 -0.05491759 -0.2758797 -0.2716072 -0.13588373 0.10305241 -0.0626584 0.09300116
-0.008062422 0.18841982 -0.14044029 -0.21820469 -0.24401858 -0.024714477 -0.19728206 -0.06798285
0.15373066 0.013605694 -0.01645848 -0.2761204 -0.016960923 -0.12502867 0.12829596 -0.24962224
-0.19775592 0.19363916 0.043915592 0.1840901 0.1666446 -0.01958073 0.13309342 -0.24682117
0.09662762 0.035394445 -0.19598147 0.03804335 -0.049754187 -0.2752071 -0.19764033 -0.2429655
0.21944845 -0.15096231 -0.16123235 -0.2509713 0.026785493 0.26006654 -0.226486 -0.16992185
-0.16455081 0.76540774 0.5045634 -0.13732946 0.024459792 -0.00822959 -0.269954 0.063801706
-0.37882295 -0.28187868 -0.07246286 0.11436332 -0.035836734 -0.06201999 -0.6041681 -0.09103312
-0.13883051 -0.59133315 0.18446736 0.033904195 -0.1710797 0.20517263 0.10113805 0.059747905
-0.98963034 -0.5046823 -0.0329739 -0.018309444 -0.13874792 -0.19653887 0.071202725 0.24217936
-0.2767046 -0.21355818 -0.09151946 0.1488694 0.023489773 0.12768564 -0.001506418 -0.2395584
-0.031608116 -0.15162191 0.26322964 0.014054298 0.11665946 0.013323903 -0.20309839 -0.011520557
0.20772392 -0.19561453 -0.09243791 -0.21445754 0.1884498 -0.14277956 -0.48879454 -0.02946727
-1.9346918 -1.5119401 -0.025386691 0.20159584 0.21865433 0.08224097 -0.122210614 0.51635563
0.34850204 -0.14438644 -0.09507442 0.056332026 0.15942714 0.10052454 -0.045871735 0.08587909
-0.09467162 -0.05159749 0.10137552 -0.3011392 -0.14025661 -0.027314918 0.007619679 -0.54875594
-0.933534 -0.21612914 -0.6548878 -0.6484431 0.019686788 0.19015597 0.22038178 0.17582484

net.0.bias f4 [64]
00000000: 9261 4e3e c718 103d 1ad8 43be 867e 59be
00000010: 0946 6fbe 3da0 f23d a6fd 8cbe 6491 17be
00000020: 3884 9fbd 4c44 593e 115f 5b3e 6964 87bc
00000030: 6aac 19be 7d0b 8cbe 56a9 94bd 4edd 8cbd
00000040: dc4f 6b3e 8c25 87be a1ba 1b3e 0d2b 12bd
00000050: 81e3 733e 1e2b ab3c be23 8ebd 0681 8bbd
00000060: 55fb 27be 9245 25bc e291 a2be c3e5 76be
00000070: e0b1 85bd 290a 3d3d d740 ac3e 78ca 843d
00000080: aad5 9a3d ce3e c53d ad32 adbe 6844 f0bc
00000090: c0b5 29be 1f6a abbd 288e 98bd 3c2a f7bb
000000a0: 53e0 253d 27ca 213e 6381 a43d 41dc 2fbe
000000b0: a67f cebd 58a8 1a3e 0ad8 22be 508d 773d
000000c0: b48b 1cbe 9cbf fc3a 5dc7 be3c ab50 e9bd
000000d0: 4e6c 783e 2eb0 69be 4031 943d 866a 1cbe
000000e0: 9c67 ef3c 9cd7 e5bd bc79 853d db14 87be
000000f0: cf7f 563d 294b 94bd eda0 093d 8c7c 8ebb
0.20154408 0.03517988 -0.19125405 -0.21239671 -0.2336656 0.11846969 -0.27537268 -0.14801556
-0.077888906 0.2121746 0.21422984 -0.016527371 -0.15007177 -0.27352515 -0.07258861 -0.06878148
0.22979683 -0.26395833 0.15207912 -0.035685588 0.23817255 0.020894583 -0.06940411 -0.06811719
-0.1640447 -0.010087388 -0.31751925 -0.24111085 -0.065280676 0.046152268 0.3364322 0.0648393
0.075602844 0.0963112 -0.33827725 -0.029329494 -0.16573238 -0.0836985 -0.07448989 -0.0075428765
0.040497135 0.15799771 0.08032491 -0.17173864 -0.10082941 0.1510328 -0.15902725 0.0604375
-0.15287668 0.0019283178 0.023288423 -0.11392339 0.24260065 -0.22821113 0.07235956 -0.1527501
0.02922421 -0.11222765 0.065173596 -0.263831 0.05236798 -0.07240898 0.033600736 -0.0043483432

net.2.weight f4 [64, 64]
00000000: f62b af3e fe14 ddba b25d ebbd b047 26be
00000010: 68ed 96bc 96d2 6fbe e0c3 39ba 9684 d1bd
00000020: 29e3 80be 02f2 dc3d e04d 353d 1a0d cbbd
00000030: 40ff 67bd b4cd e03e 3c52 59be a415 a13d
00000040: 802f 413b 0d78 8f3e ca82 87bd 6433 02bf
00000050: 33cb 13be 1cad 7e3e a212 19be 8ac0 a3bd
00000060: a0e3 da3d ead2 45bf 5628 4b3d 9257 a83d
00000070: c44c a7be 7893 1a3e 9844 953e 0c50 443d
00000080: 4ec8 de3c 468d 70bf a373 b1bf 5812 9a3d
00000090: 2cd2 85bd 5e9d 16be a609 363e 5aa9 05bf
000000a0: 3048 55bc 66ab 9fbd a826 773d 5cc5 cfbf
000000b0: f89b 84be 968c 4e3e 922d b5c0 385d 51bd
000000c0: 739b f5be d488 f33d da44 473d abe7 b73e
000000d0: 9899 71bd 9c6a 28bd cb53 bdbd 9638 b63d
000000e0: 8ff9 953e fe6e 82be c02a adbc 23f7 8bbd
000000f0: 0db6 7e3e 4679 24be ca21 a63d f6d0 dcbd
00000100: 8d18 adbe 4f58 b4bd 4860 0dbd 0d02 d1bf
00000110: ba97 833d 9f6b 5bbf 7c6a fbbc 44bc 45bd
00000120: 4382 fe3d 60ff cd3b 7b37 ca3d f840 e23c
00000130: 46d3 c53d 05db a1bd 57df 7c3d 001c 933a
00000140: 6a6f 81bd eb83 fdbd a8ad ccbd a768 9abe
00000150: 239b d43e 6934 c73e 932e 41be 6ff5 f4bd
00000160: 3c33 743d 13a8 c1be 7d4d 46be 4a01 d0bd
00000170: e942 4bbe e615 34bc fb0f 4e3e 00a2 7a3d
00000180: 319c 09c0 1441 88be 29eb 7abe 40ff 62bd
00000190: 18dd 023d 7499 f5bd dcb5 eb3e a261 9ebf
000001a0: 231e a43d 699b bbbd 04b6 9dbd f33a 77bd
000001b0: 04ed 23bf 84e7 a53e b5be 06be c645 df3d
000001c0: ae9c bcbe c02d 30bb 08c6 c63d 77cd d9be
000001d0: 608b 2f3c 8280 8fbe 10ab f0bc 2276 8d3d
000001e0: fd02 073a d0f9 35bd 5c4a 12bd b45a 03bf
000001f0: 151c bf3d bd37 34be 5435 813d 3c5e c1bd
00000200: dec8 7fbd 0bbd 633e 4b1f 423d 6111 7cbf
00000210: 5a1f ce3d b7b6 2ebf b7a1 ddbd d4ee e23d
00000220: 510b 8bbf 507d 1f3d 5e80 be3d b956 ebbd
00000230: bab1 83bd 696f bdbf bf8b 74be f86c ebbc
00000240: 50b3 443c 1666 56be 595e 5c3d 8ab7 1b3f
00000250: d31b d9bd 780f 15bf c907 0cbf 0418 7bbe
00000260: 042d 2e3d cb02 3abf bd5a cd3d 0d67 d93d
00000270: 69f7 19be 14af 60ba 2cf8 16c0 8093 ba3d
00000280: a0ef f8bd 0975 efbe 75a9 1e3e e611 933d
00000290: 2c0e a23d bc01 21bc 39d1 24be 8a39 f7bd
000002a0: 52af c43d 0d49 0bbd aac8 da3d e52d 9e3e
000002b0: 9f8c 50be 0e71 203f 5884 b63d bcea 523d
000002c0: d559 a23e 268f f93d 5572 0cbe 965d c6be
000002d0: c00c a1bb ffe5 e2bd 8293 0cbe 9496 e03d
000002e0: 136a 633e 79ee ac3d 7474 d63d 0951 d8bd
000002f0: 0278 3abe 0aff 033f e876 00bd 14f8 a7bd
00000300: c3b4 753e d55c c5bd 9bc8 833e 7dba 9abe
00000310: e29b d43d 0917 ecbe 16e0 9dbe dc12 8e3d
00000320: bd5b 1bbf b2a9 ca3d 5a30 2abd a87c 44bd
00000330: 8860 2ebd d87a 913c 345f a4bd d467 f43d
00000340: 1a5b 1d3c f239 d6be 1574 76bd e67a c4be
00000350: a044 153f d52d a7be 2844 1fbf ae28 8cbf
00000360: 4041 a5bd 10d9 d5bd dafe f23e 69cb 06be
00000370: ae10 f9bd de9a b5bd 8a61 30bd 205d d03d
00000380: 56f8 843e a4de d33e 62c3 a2bf 4012 0bbd
00000390: d4be d8bd 4af8 663d 240e 8abf 18df 2d3f
000003a0: a9d2 33bc 7760 8fbc 6bdd 5e3d 6cd6 ae3e
000003b0: 8a47 a9be 2d43 8a3d 9680 573d 0eea c6bd
000003c0: eba1 97be 6206 adbd a554 abbd 52c0 393f
000003d0: cc1d 38bd a042 c53c 54e9 b63d 3865 873d
000003e0: 3e09 703e 085f 95bf 009b 863c 262e a4bd
000003f0: e83e c73d 6102 9cbe 261d 9fbd 9c21 463d
0.34213227 -0.0016867218 -0.1149248 -0.16238284 -0.018423751 -0.23420176 -0.00070863776 -0.10230367
-0.2517331 0.10788347 0.04426372 -0.09914608 -0.05663991 0.4390694 -0.21222776 0.07865456
0.0029477775 0.2802128 -0.06616743 -0.50859666 -0.14432983 0.24870723 -0.14948514 -0.07995708
0.10687947 -0.77274954 0.049599014 0.08219828 -0.32675755 0.15095317 0.29153895 0.0479279
0.027195122 -0.93965566 -1.3863415 0.0752303 -0.06534228 -0.14708468 0.17777118 -0.52211535
-0.013017699 -0.077963635 0.0603396 -1.6232104 -0.25900245 0.20170817 -5.661813 -0.05111429
-0.4797016 0.11891332 0.048649646 0.35918936 -0.05898437 -0.041117296 -0.09244498 0.08897512
0.2929196 -0.25475305 -0.021138549 -0.06834247 0.24874134 -0.16061887 0.081119135 -0.10782044
-0.33807793 -0.08805906 -0.03451565 -1.6328751 0.06425424 -0.8571109 -0.030690424 -0.048275247
0.12427189 0.0062865466 0.09873863 0.02761887 0.09659438 -0.07903103 0.06173643 0.0011223555
-0.06320079 -0.12378677 -0.0999406 -0.30157968 0.4152461 0.38907173 -0.18865423 -0.11960875
0.059619173 -0.37823543 -0.19365497 -0.10156496 -0.19849743 -0.010991549 0.20123284 0.06118965
-2.1501582 -0.2661215 -0.24503769 -0.055419207 0.031949133 -0.119921595 0.46037185 -1.2373545
0.080135606 -0.091605015 -0.07700732 -0.060358953 -0.6403353 0.32403195 -0.13158686 0.1090198
-0.36838287 -0.0026882738 0.0970574 -0.4253957 0.010714382 -0.2802773 -0.029378444 0.06907298
0.00051502866 -0.044427693 -0.035715446 -0.51310277 0.09331528 -0.17599387 0.06309 -0.09441802
-0.06244742 0.22240083 0.047393125 -0.9846402 0.100645736 -0.6824755 -0.1082186 0.11080709
-1.0862828 0.038937867 0.09301828 -0.114911504 -0.06430383 -1.4799625 -0.23881434 -0.028738484
0.012005642 -0.2093738 0.053800914 0.60826933 -0.1060101 -0.5822673 -0.5469938 -0.2452088
0.0425234 -0.7266051 0.100270726 0.106153585 -0.15035786 -0.00085710105 -2.3588972 0.09110165
-0.1215508 -0.46768978 0.1549433 0.07181148 0.07912859 -0.009827074 -0.16095437 -0.120715216
0.09603752 -0.034005214 0.10682805 0.3089439 -0.20366143 0.6267251 0.08911961 0.05149339
0.3170916 0.121855065 -0.13715489 -0.38743275 -0.00491485 -0.110790245 -0.13728145 0.109662205
0.22208433 0.084439225 0.104714304 -0.10562331 -0.18209842 0.51561034 -0.031363398 -0.08201614
0.23994736 -0.09636847 0.25738987 -0.30220404 0.10381295 -0.46111324 -0.30835027 0.06937191
-0.60686857 0.09895648 -0.041550018 -0.047970444 -0.042572528 0.017758772 -0.08025971 0.11933866
0.00960424 -0.41841084 -0.0601693 -0.38375014 0.5830784 -0.32652155 -0.62213373 -1.0949914
-0.08069086 -0.10441792 0.4746006 -0.13163532 -0.121613845 -0.08867429 -0.04306177 0.10174012
0.25970715 0.413808 -1.2715876 -0.03395295 -0.105832726 0.05638913 -1.0785565 0.6791854
-0.010975518 -0.017502053 0.05441038 0.34147966 -0.33062392 0.06751094 0.052612863 -0.09712611
-0.2961572 -0.08448483 -0.08365754 0.7255908 -0.04495029 0.02407962 0.089312226 0.06611103
0.23441026 -1.1669626 0.016431332 -0.080166146 0.09728795 -0.30470565 -0.077692315 0.048371896

net.2.bias f4 [64]
00000000: c5dc 18be a902 38be 6092 953e c1c0 d63d
00000010: 3fb7 a3be 7b1e 023d c2eb 1d3f e3ea 36bd
00000020: f2b4 0bbd 07e8 bdbd 4cc3 a7bd 769a e53e
00000030: c326 4dbf 8f40 7cbf 635e 8abd 2ff3 1e3f
00000040: f235 de3e be1e 25bf ff01 c93e e270 10be
00000050: 257c 97bc 4807 46be 844d 0bbe 9ae0 bdbc
00000060: e3d5 c53d 4d8a 553e 144e 1e3e cece 2fbe
00000070: d267 253f 2846 dd3e 92ae f6bc 05c0 0bbf
00000080: a777 3abf 8992 323f f921 8fbd ef91 20bd
00000090: 4445 183f a2ac 90be f520 00bf f58a 89bd
000000a0: 5aae 0e3e 66cb cd3e 6fe1 9fbe 6168 d83e
000000b0: 2a5b 5ebe 8f0a 093f 6bc8 76be d0c7 de3e
000000c0: 5366 0fbe a185 153d ae81 bbbe 5130 d4bd
000000d0: 8251 f5be 6dc0 07bf 819c acbd 9c13 9cbe
000000e0: ef49 08bf bb1c 84be 2fe0 b4be 0eb4 e43e
000000f0: be97 513f ca11 d6be a744 373e 8f81 44bf
-0.14927967 -0.17969765 0.29213238 0.10485984 -0.31975743 0.03176735 0.6168786 -0.0446576
-0.03410811 -0.09272771 -0.08191547 0.44844407 -0.8013727 -0.9853601 -0.06756284 0.6208982
0.43400532 -0.64500034 0.39259335 -0.14105561 -0.018491814 -0.19338715 -0.13603789 -0.023178387
0.09659936 0.20853539 0.15459472 -0.17168733 0.6461154 0.43217587 -0.030112538 -0.54589874
-0.72838825 0.69754845 -0.06988902 -0.039201673 0.5948069 -0.28256708 -0.5005029 -0.06715957
0.13933697 0.40194243 -0.3122668 0.42267135 -0.21714464 0.53531736 -0.24099891 0.4351182
-0.14003877 0.03650439 -0.36622375 -0.10360778 -0.47913748 -0.53027993 -0.08428288 -0.3048371
-0.53237814 -0.2580317 -0.35327289 0.4466862 0.81872165 -0.41810447 0.17897283 -0.7676019

net.4.weight f4 [6, 64]
00000000: 3197 073f db90 c6be 9c19 fdbd cceb 403e
00000010: 35c9 5f3e 7c4e e5bb 4d12 383f 1b54 a63d
00000020: 4edb 5cbe b885 0b3d e5d3 0bbd 536c 803e
00000030: c0cc c03e 31d8 f23d 1e4b a5bd 7d2f a2be
00000040: adfc 94be d275 f9be a1a4 f8bd dac8 b93d
00000050: f990 c43d ef2e a7be 0e5c 5cbd 3102 103e
00000060: aa03 013e eee4 5dbd cba1 b7be b92a 6b3e
00000070: 19aa a73f 526d 7bbe 8058 0f3d c674 e7bc
00000080: 4cc0 95bd b884 cebb 0a98 c23c 3bed 853d
00000090: 2789 90be b1f8 963e 657c f7bb 8818 2bbc
000000a0: c1b8 87be f2e5 513e 27a8 403e ea8e 11be
000000b0: d79c e03a ebab b8bd 0475 053c b0f9 2e3d
000000c0: 3f16 06bd 1b4d 543d ddd0 743e f1dc 61bc
000000d0: d5b1 2f3d 1bf5 77be 5351 3cbd 1b81 6d3e
000000e0: 5261 9bbe fcfb a73e e814 2e3f 46c9 663d
000000f0: 3044 c6bd 6dd9 ba3d 6d43 24be 3626 5f3e
00000100: 1f00 023f 0851 30bf 67f0 643c 3c79 8e3e
00000110: 38ef 7c3d 2dbd 8d3d 08ee 213d a6c4 823d
00000120: 0e2c c3bc f798 85bd 4195 4d3d 8e30 16be
00000130: 0b8b f93d 0447 5e3e 9f03 a03c 8327 edbe
00000140: a17a 4bbe 6166 b53e 94e4 2d3c 2305 94bd
00000150: 138f dc3d aaec 8d3d b1b9 3dbd e4a0 6abe
00000160: 8780 b33d cdef 57be 90b0 66bd 95c7 4a3e
00000170: b6a1 69bf 7d94 a3be 1435 1bbe 80ce 073e
00000180: 4f64 be3d cf9f a33b a198 eabd 32c6 883d
00000190: 5089 cabe 4851 cc3e aeee 953e cd0c a7bd
000001a0: fa20 bebe 339e 813e 2ad4 883e be87 97be
000001b0: 3c0c f23c a208 e83d 8d15 b73d a49a 553e
000001c0: ddb8 fd3d 44b6 1bbf 7395 b13e 1f89 66bb
000001d0: 9f24 eb3d 6c00 e03e 6384 cabc ab4b 77bc
000001e0: 7e9d 74be e2b4 35bf 84b6 a4be d670 b1bd
000001f0: 80b4 3fbc 714f 54be 1764 f43e 0d23 f8be
00000200: 6d27 163f 550d 15be 5253 ad3e 7216 34be
00000210: f0b3 32be f595 8ebe 47f3 4d3f c883 d43d
00000220: ab12 8c3e e36d 2d3d 3fe5 18bd 1093 91bd
00000230: c3a8 d6be 2e2e f93d 7527 b4bd ad16 233f
00000240: 230e 353e 688b 1f3f 71ed 3f3d b881 853c
00000250: 4cc8 733e 7d66 7cbe 512f 9b3d 3a7b aebe
00000260: a2c8 22be eb0f ed3d 4ff5 febe 306e 613e
00000270: 3ba3 98bf 91c7 23bd cf2c 83bd c81e 25bd
00000280: 8bc2 a6be 1021 5c3e ba27 ff3c 96b2 883d
00000290: dc1d 5a3e 4cd4 3c3e 5950 8e3d ba8e 35bd
000002a0: 7d02 d73d 22af a33e 1510 f93d 4967 acbd
000002b0: dba8 41bd 6a35 2cbd d532 06bd f5a7 2bbd
000002c0: 7f2d 86bd 1a63 f0bd c01a 9a3c ca04 cabc
000002d0: 54e1 8dbe bd70 e33d 1723 903d ddd3 7fbe
000002e0: daa4 c8be 8d70 803d 4ddb 4bbf 535b 323e
000002f0: 558e bebe b007 b7bd cbd8 183d e6fc 66be
00000300: fc20 293e e9fb 713c dcac adbb 312e b2bb
00000310: 70af 0c3d a631 c2bd f0f2 173d 9ac9 91bd
00000320: 61a6 15bd a795 1e3e 6627 553d 209e c63c
00000330: 1399 5b3d 9220 b43b 726a c0bd 187d dfbd
00000340: d4cc 5f3b 9802 a2bd a308 65be 8efc 353d
00000350: 38a3 873c 4ab9 943c 1f96 fe3c b0df 72ba
00000360: 6b81 2fbd bec6 963c 4601 06bd 8a04 e8bb
00000370: 4a06 1d3d e8f0 89bc e03e 573c be52 373c
00000380: 8102 06be 9fbf 863e 6a81 7ab8 35dd ba3c
00000390: d416 adbd c259 59be 309d b5bc cbd8 c6bd
000003a0: 6337 94bd b6b2 063c 0c44 4aba 1590 123d
000003b0: ebdc dcbb 67ed a83d d886 953d 1aae cc3c
000003c0: c188 59bd f4da 26be cb52 5f3c 278c 62bd
000003d0: bc82 eb3c c5fb edbd f647 9abc 86ae ebbd
000003e0: f0dc 85bd a074 f3bc 8f8a b0bd dc38 4b3d
000003f0: d5c6 93bd 344a 733c d38f 96bd f9ef af3d
0.52965075 -0.3878239 -0.123584 0.1883995 0.21854098 -0.0069978815 0.71902925 0.081215106
-0.21568033 0.03406307 -0.034137625 0.25082645 0.37656212 0.118576415 -0.08070968 -0.31676856
-0.29099026 -0.48722702 -0.121407755 0.090715125 0.09597964 -0.32652995 -0.053798728 0.14063336
0.12599054 -0.054173402 -0.35865626 0.22965516 1.3098785 -0.24553421 0.03499651 -0.028253924
-0.07312068 -0.0063024424 0.023754138 0.06539389 -0.2822964 0.2948661 -0.007552671 -0.01044286
-0.26508144 0.20497873 0.18814145 -0.14214674 0.0017136586 -0.09017166 0.0081455745 0.04271859
-0.03273606 0.051831346 0.239078 -0.013785587 0.042894203 -0.24214594 -0.045975994 0.23193781
-0.30347687 0.32809436 0.6800065 0.056344293 -0.096809745 0.09123502 -0.16041346 0.2179192
0.50781435 -0.68873644 0.013973332 0.2782687 0.061751574 0.06920848 0.039533645 0.06385164
-0.023824718 -0.06523316 0.050191168 -0.1466696 0.121847235 0.21706778 0.019532977 -0.46319208
-0.19870998 0.3542967 0.010613579 -0.07227542 0.10769477 0.06929906 -0.046319667 -0.22912937
0.08764749 -0.2108757 -0.056320727 0.19802697 -0.91262376 -0.31949225 -0.15156966 0.13262367
0.09296476 0.004993416 -0.11454893 0.06678428 -0.39557886 0.39905763 0.2928366 -0.081567384
-0.37134534 0.2531601 0.26724368 -0.2959575 0.02954685 0.113297716 0.08939657 0.20859772
0.123887755 -0.6082499 0.34684333 -0.0035176945 0.11481594 0.43750322 -0.02472133 -0.015093724
-0.23888204 -0.7097913 -0.32170498 -0.086641 -0.011700749 -0.2073343 0.47732612 -0.48464242
0.5865391 -0.14555867 0.3385263 -0.17586687 -0.17451453 -0.27848783 0.80449337 0.10376698
0.27357993 0.042341124 -0.037328 -0.07108128 -0.4192563 0.12167011 -0.08796588 0.63706475
0.17681174 0.6232209 0.0468573 0.016297206 0.23806876 -0.24648471 0.07577384 -0.3407839
-0.15896848 0.11575302 -0.4979653 0.2201469 -1.1924814 -0.039985243 -0.06405031 -0.04031256
-0.325703 0.21496987 0.031146873 0.066746876 0.21300453 0.1844036 0.06948919 -0.044325568
0.104985215 0.31969553 0.121612705 -0.084181376 -0.047280174 -0.042043127 -0.03276332 -0.041908223
-0.065516464 -0.11737652 0.018811584 -0.024660487 -0.27710974 0.111054875 0.07037943 -0.24983163
-0.39188272 0.06271467 -0.796315 0.1741765 -0.37217966 -0.08937013 0.037316125 -0.2255741
0.16516489 0.014769533 -0.0053001475 -0.0054376354 0.034346998 -0.09482126 0.037096918 -0.071185306
-0.036535624 0.15486775 0.052039526 0.024245322 0.05361278 0.0054970467 -0.09395303 -0.109125316
0.0034149187 -0.07910651 -0.22366576 0.044430308 0.016557321 0.018154759 0.031077443 -0.00092648994
-0.042848032 0.018405315 -0.03271606 -0.007080619 0.038336076 -0.016838506 0.013137549 0.011189161
-0.13086893 0.2631807 -5.972517e-05 0.022810558 -0.0845162 -0.21225646 -0.02216968 -0.09709319
-0.07237127 0.008221319 -0.0007715828 0.03578194 -0.0067402027 0.08248406 0.0730111 0.024985362
-0.053108934 -0.16294461 0.013630579 -0.05530944 0.028748862 -0.11620287 -0.018833142 -0.11507897
-0.06536281 -0.029718697 -0.08620178 0.049614772 -0.072156586 0.014849234 -0.07351651 0.08590693

net.4.bias f4 [6]
00000000: b551 b93c d1de a8bc e23b 283c 034b f4be
00000010: 3184 0bbe 9a9f 93be
0.022621969 -0.02061406 0.010268183 -0.4771348 -0.13624646 -0.28832704
