log/GC_SAC/square3Env/20210721-1118/20210721-1118GC_SAC_HER_actor.pth (torch, 24159 bytes, 6 tensors)

net.0.weight f4 [64, 13]
000000 d3 ba 1a 3e 7b 4a 98 be fb d0 54 be 0e f8 5d 3e
       0.1511033 -0.29744324 -0.20782845 0.21676657
000010 65 02 55 be 3d d0 74 be 81 b1 9a be 37 ad 17 3e
       -0.20801695 -0.23907562 -0.3021355 0.1481217
000020 16 b8 cc 3e ff f2 01 3c d3 d3 34 bf d9 df 01 bf
       0.39984196 0.00793147 -0.7063572 -0.5073219
000030 b0 97 57 3d 3f a9 2d 3e a0 00 14 3e 22 a8 aa bd
       0.052634895 0.16959094 0.14453363 -0.0833285
000040 1a a7 90 3e 53 d4 88 3d a6 01 f0 bd bf e7 5f be
       0.28252488 0.06681123 -0.117190644 -0.21865748
000050 12 1e bf 3e 9e 71 b8 be 08 d6 89 3d c8 ad 54 bf
       0.3732763 -0.36024183 0.06730276 -0.8307767
000060 52 00 f3 bd 48 69 43 3e 88 3f a7 3c c6 6b 1d 3e
       -0.118652955 0.1908313 0.020416036 0.15373144
000070 b5 9e 7e be 13 18 3a bf 17 3a 79 3f 80 84 9e 3b
       -0.2486523 -0.72692984 0.97354263 0.0048375726
000080 07 bf 7a bc 92 cc a7 be 5f 57 e6 be 47 ae 00 be
       -0.0153043335 -0.32773262 -0.44988534 -0.12566482
000090 c6 e9 eb be 88 01 53 3f de 59 77 3e fe 9b 3d bf
       -0.46076792 0.8242421 0.24155375 -0.7406615
0000a0 4d a8 d1 3d 84 c2 07 be 4c f8 a0 be 92 8e 3c 3e
       0.10237179 -0.13257796 -0.31439435 0.18413761
0000b0 98 a4 70 3d da d4 a8 3e 3b e2 c5 3e 38 16 cf 3e
       0.05875072 0.32974893 0.38649163 0.4044664
0000c0 f9 2a 68 be 42 8d c8 3c e3 8e 30 bc 50 67 8c bc
       -0.22672643 0.02448142 -0.010776254 -0.017139107
0000d0 7c 81 75 be b5 29 6b bd b6 2c e6 bd 95 26 43 bc
       -0.23975176 -0.05741282 -0.11238997 -0.011911054
0000e0 bc cf 9c bd c4 38 e8 bd 4a c8 69 bd 05 32 59 3d
       -0.0765681 -0.11338952 -0.057075776 0.053026218
0000f0 07 fe 37 be 98 2f d8 bd 2e 3d 36 be eb c5 11 bd
       -0.17967997 -0.10555953 -0.17796776 -0.03558914
000100 b0 a5 9a 3c ec 30 6c be 10 74 e2 bd 9c 45 ed bd
       0.018877834 -0.23065537 -0.110572934 -0.115855426
000110 d0 6e d6 bd 2e 65 46 be 14 f2 0a 3e 0d 4d 05 be
       -0.104703546 -0.19374534 0.13568908 -0.13017674
000120 3a 4e 3b be f4 17 d6 bd 6b 23 28 be 66 1f 19 be
       -0.1829156 -0.104537874 -0.16419761 -0.14953384
000130 80 b4 fd 3b 43 66 8c 3e 07 33 8c be f5 94 cf bd
       0.0077424645 0.2742177 -0.2738268 -0.10135833
000140 88 51 24 be 6d 05 c7 3d 77 b6 c8 3c ce 95 f3 bd
       -0.16046727 0.09717832 0.024501069 -0.11893807
000150 22 dd 53 3d 05 2f b3 3c 6c 42 09 3d 4a 4c 35 be
       0.05172456 0.021873007 0.03351061 -0.17704883
000160 83 fc 16 3c e1 da 72 be 10 25 86 be bf bd 04 be
       0.009215477 -0.23716308 -0.2620015 -0.12963007
000170 45 a1 dd 3d d4 31 5a bd 2c 11 e8 3d e7 1e 49 3d
       0.10821775 -0.053270176 0.113314 0.049101736
000180 c8 13 94 3d 39 46 c1 3e d5 e3 97 3e 1e 47 18 3d
       0.072303355 0.37748888 0.2966601 0.037177198
000190 fe de bc 3d bd c0 28 bf ce c7 e3 be 04 d5 98 bd
       0.0922222 -0.65919095 -0.44488376 -0.074625045
0001a0 fc 5b c2 bd 81 fe 81 3e bc 45 e4 3d b2 0d e4 bb
       -0.09490201 0.25389484 0.11146113 -0.0069596404
0001b0 6f 7d 4c bd e6 f5 bf bd ff c2 ff bd 90 4d c4 3e
       -0.04992431 -0.09373073 -0.124883644 0.38340425
0001c0 3c 29 e4 be 4e b9 e7 3c 2e 6e bc be 36 5e 11 3f
       -0.4456271 0.028286602 -0.3680281 0.5678438
0001d0 0f 8c 5d be 13 6a 37 bd 91 10 f7 3d a0 60 43 bc
       -0.2163546 -0.044778895 0.12063707 -0.011924893
0001e0 c7 04 44 3e 75 6b ea 3b 10 e4 12 3d fb 04 d4 bc
       0.19142447 0.007153923 0.03586203 -0.025881281
0001f0 cf a9 30 be 62 58 c5 be 8e 7e 29 be 55 5e cf bf
       -0.17252277 -0.38543993 -0.16552183 -1.6200663
000200 2b 9c 67 bf 80 f8 d5 bc 9e 31 ad 3d 88 e9 4d 3d
       -0.9047267 -0.02611947 0.08456729 0.05027154
000210 20 41 e7 3c 72 44 4a 3f 03 12 2a 3d 71 10 84 3e
       0.028229296 0.7901069 0.041521084 0.25793794
000220 14 4c 18 be c8 6b 6a bf 7b 51 01 bf ef 7a 40 3d
       -0.14872772 -0.9157071 -0.50514954 0.04699224
000230 38 99 ff be 5c 6e c1 3d bc 76 a7 bd 7e c7 89 bd
       -0.49921584 0.094448775 -0.08176944 -0.06727503
000240 38 1c 28 be 4a df 93 bd 3b e0 bd bc a6 ca ba bd
       -0.16417015 -0.072203234 -0.02317821 -0.09120683
000250 d0 50 f3 3c d3 78 d5 bd 5d 53 2f 3e de 54 6c 3d
       0.02970162 -0.10423436 0.17121644 0.057698123
000260 07 26 9c 3e 45 63 1a 3f 57 16 84 be c4 dd e9 3d
       0.30497763 0.60307723 -0.25798294 0.114192516
000270 1f f6 fa be 1b 69 1d 3e 28 91 db 3d 7a d7 7f bf
       -0.490159 0.15372126 0.10721046 -0.99938166
000280 5f 42 1e be ae 4a 4e 3e d3 4c 4a 3e 63 d7 85 3d
       -0.15455006 0.20145676 0.19755869 0.065352224
000290 b6 6d 48 be 6b 65 d8 be a7 64 7e be 29 51 22 3e
       -0.19573101 -0.42264876 -0.24843083 0.15851273
0002a0 91 c2 88 3e 5b e2 a0 bb fe 4c f4 3c da a3 7b 3e
       0.26710942 -0.004909796 0.029821869 0.24574223
0002b0 70 cf 09 3e 57 33 7f bf a8 6c 60 3d a9 be ed bd
       0.13458037 -0.99687713 0.054791123 -0.11608631
0002c0 95 56 ed 3d 19 8c 25 3d f0 ad 7e be 6d 98 eb 3d
       0.1158878 0.04041681 -0.2487104 0.11503682
0002d0 99 8b 33 be de b0 76 3e 9d 21 d6 be 0e eb 80 3e
       -0.17533721 0.24090907 -0.4182252 0.25179332
0002e0 38 91 67 be d6 0a a4 3d 31 6b c1 bd 80 41 0f 3b
       -0.2261399 0.08009879 -0.09444273 0.002185911
0002f0 54 2c 2b bc bd 05 45 3e 6e 58 b6 3e a9 92 c6 be
       -0.01044758 0.1924047 0.35614341 -0.38783768
000300 6f 86 86 bd 2c 6d 07 3f c6 40 57 3e 96 d3 47 be
       -0.0656861 0.5290096 0.21020803 -0.19514307
000310 8a 13 64 be 30 44 57 be 3f 5b 15 bd 56 a5 9d bd
       -0.22273079 -0.21022105 -0.036463972 -0.07697551
000320 00 b6 ce 3b bb 75 3c 3d a6 1c a6 bd 45 77 c6 bd
       0.006308317 0.046010714 -0.08110933 -0.096907176
000330 6a c0 f1 3a 3d d2 8c bd 82 cf bb 3d 60 89 2c be
       0.0018444185 -0.06876037 0.09170438 -0.1684928
000340 0d b4 c5 3d 2a 8c 89 be c5 84 88 3e 7a 8a c5 3d
       0.096534826 -0.2686475 0.26663795 0.09645553
000350 af 85 eb bd 5c 07 ba 3d fe 3a 0e 3d 52 dc 01 3e
       -0.115001075 0.09083435 0.034724228 0.12681702
000360 c9 7e 61 3e 73 34 ba 3e 58 a4 0d 3f 06 dc e0 be
       0.22021021 0.3636814 0.55328894 -0.43917865
000370 91 01 76 be ae f0 96 3d 4a 3b e8 3c 00 d2 02 be
       -0.24024035 0.07370125 0.028348584 -0.12775421
000380 cf 3a 4d 3d 19 01 ee bb a7 d6 8d 3e ca 3c a1 3d
       0.050104912 -0.0072633144 0.2770283 0.07872923
000390 25 c6 a8 3d 5a 23 9d bb 84 12 9e be fa 1c 9a 3f
       0.08240918 -0.004795474 -0.308735 1.2040093
0003a0 e1 43 d5 3c c6 ef 46 3e c2 c0 1e bf 35 29 27 3d
       0.026033344 0.19427404 -0.62012875 0.040810782
0003b0 e0 8e 28 be 62 fd 0b bf ea a8 cf bd 88 34 2f 3d
       -0.16460752 -0.54683506 -0.1013964 0.042774707
0003c0 9b f1 2c 3d 33 61 77 3d b0 28 0d 3f f6 79 01 bf
       0.0422226 0.06039543 0.5514021 -0.5057672
0003d0 c7 c1 68 3e 00 6f 10 3f 4b 16 88 be 12 da 54 bd
       0.2273017 0.5641937 -0.26579508 -0.05196578
0003e0 8a 63 50 bf aa 86 1b be 9b dc 89 3e 09 91 a6 be
       -0.81401885 -0.15188089 0.2692612 -0.32532528
0003f0 96 b2 32 be 07 65 f5 be fb 7a 93 3d ca 3e 10 3e
       -0.17450938 -0.4792864 0.07201191 0.14086452

net.0.bias f4 [64]
000000 83 14 3e 3e be 4c 89 be 59 19 4c be 94 28 f1 3d
       0.18562512 -0.26816362 -0.19931544 0.11775318
000010 fb 32 1a 3e a4 2d 84 3d a6 4e 97 be 72 26 7a 3e
       0.1505851 0.06454018 -0.29552191 0.24428728
000020 24 5a 8e be 1e 43 bc be b9 04 82 be 28 8a 5f be
       -0.27803147 -0.36769956 -0.25394228 -0.21830046
000030 90 9e 54 3d c0 b6 42 3c f0 8d b8 bc ba 86 30 3e
       0.05190903 0.011884391 -0.022528619 0.17238894
000040 a6 86 5a be 4c 0a 10 be e3 13 13 3d e2 cb b9 3e
       -0.21340427 -0.14066428 0.035907637 0.36288363
000050 92 c2 e8 bc 34 ca 4f 3e 31 b3 e4 bc 7a b4 d9 be
       -0.02841309 0.20291978 -0.027917476 -0.42520505
000060 19 c9 3a 3d f2 6e 4a 3d 23 54 23 bd c1 27 dc 3d
       0.045601938 0.049422212 -0.03987516 0.1074977
000070 3e 5e 3b 3e df 1a 75 be 26 4f f9 bd e0 a5 f3 bc
       0.1829767 -0.23936032 -0.121732995 -0.029742181
000080 11 e1 61 be e1 86 0f bd ac c8 8b 3e cd 3d 46 be
       -0.22058512 -0.03504074 0.27301538 -0.19359513
000090 1f d2 4d be 92 a7 89 3e e4 0b 87 bc 06 b5 a2 be
       -0.20099686 0.26885659 -0.016485162 -0.31778735
0000a0 8e d2 82 3c 25 3a 48 be 5d eb 0c be 93 23 71 be
       0.01596954 -0.1955343 -0.13761659 -0.23548727
0000b0 63 0a 13 be 5f 46 4d 3e a5 40 e4 be 76 00 b7 3e
       -0.14359431 0.20046376 -0.4458057 0.3574254
0000c0 4b b1 26 be bb d8 3b 3e cb 70 56 be 4a e8 91 be
       -0.1627857 0.18344395 -0.20941465 -0.28497535
0000d0 09 72 43 bd 45 2a 82 3e b8 1c 8f bd 24 0e 2f 3e
       -0.047716174 0.25422874 -0.069878995 0.17095238
0000e0 cd 18 9f 3e 6e 7d db 3e d6 fe 2d be 3b 73 87 bc
       0.3107361 0.42869133 -0.16991743 -0.016534438
0000f0 b6 81 a9 be d2 19 2d be 4e 04 50 3c 30 28 96 bd
       -0.33106774 -0.16904381 0.012696339 -0.07331884

net.2.weight f4 [64, 64]
000000 94 7a 4f bd 10 e2 b9 bd a4 d8 71 bc 17 b7 fa bd
       -0.05065401 -0.09076321 -0.014761124 -0.12241953
000010 90 c9 1b bd d8 4d 9a 3c 8c 04 b8 3d 3b a5 06 bd
       -0.03803402 0.018835947 0.08985242 -0.03287242
000020 78 e0 95 bd 74 65 93 bd 0a 83 4c 3d e8 9f 11 bd
       -0.07318205 -0.07197085 0.049929656 -0.03555289
000030 19 f7 fe bb e5 e0 02 bd 91 d9 a3 ba 00 2f 69 bb
       -0.007780921 -0.031952757 -0.0012500753 -0.0035580993
000040 ac c2 fc 3b 00 6c b7 ba 20 1d 04 bc 4c d8 94 3d
       0.0077136364 -0.0013993979 -0.008063585 0.07267818
000050 e1 0a 61 3b a0 c4 3f 3d fc 50 9a bd 2c aa 6e 3d
       0.003433876 0.046818376 -0.07534978 0.058267757
000060 c9 b2 19 ba 18 9c 43 bd b8 de e6 bc 23 10 06 be
       -0.0005863128 -0.047756284 -0.028182372 -0.13092093
000070 84 58 2d bd 50 f4 cb bc 44 ae c6 bd a8 2f 02 3d
       -0.042320743 -0.02489677 -0.09701207 0.03178373
000080 48 ee 19 3d 68 9a c3 3d 0a a7 d9 bd b0 f0 41 bd
       0.03758076 0.09550935 -0.10627563 -0.047348678
000090 4c b9 b8 bc d2 2d 34 bd 77 80 0c be e6 d7 11 3b
       -0.022549294 -0.04398901 -0.1372088 0.002225393
0000a0 a0 fe 50 bd e5 cf 02 bd be 04 f7 3d 08 07 dc bd
       -0.05102408 -0.031936545 0.120614514 -0.107435286
0000b0 c2 fc dd 3d 6c ea 91 bd 88 e9 19 3d 16 9a 9d 3c
       0.10839225 -0.071247905 0.03757623 0.019238513
0000c0 04 ef 36 bd 55 2d 90 3c 8c f4 7d bd 14 f4 92 bd
       -0.044661537 0.017599741 -0.062000796 -0.071754605
0000d0 f7 5c 18 3c 70 eb 44 3c d7 c5 26 3d 40 c2 97 bd
       0.009299508 0.012019023 0.04071602 -0.07410097
0000e0 c2 79 10 bd 00 3f 11 ba 22 a0 82 bd f4 8b c1 bd
       -0.035272367 -0.0005540699 -0.06378199 -0.09450522
0000f0 86 60 e5 ba 2d 72 83 bd 8f 5e 1a bd de 47 2b be
       -0.001750008 -0.06418262 -0.037687834 -0.16726634
000100 73 c9 01 bf 3e cf 6a 3e 46 e0 1b 3f 8c a9 d9 3d
       -0.5069801 0.22930619 0.6088909 0.106280416
000110 2c 65 a7 3c 60 b3 a4 3d fe 8c 94 bd c8 1a b8 bd
       0.020433985 0.080420256 -0.072534546 -0.08989483
000120 dc a8 c9 3e 42 e4 fb be a9 aa 60 3b fa 4f 34 be
       0.39386642 -0.49197584 0.003428141 -0.17608634
000130 42 b6 d0 3d 20 77 5a be 41 13 8a be d4 e5 48 3d
       0.10191013 -0.21334505 -0.26967815 0.049047306
000140 8a b1 cb 3e 38 4d 20 3d 3a 8d df 3e 7d 53 65 be
       0.3978389 0.03913614 0.43662435 -0.2239513
000150 7b 18 05 bf e6 ee 69 bf df a4 ad be 08 ff 91 bd
       -0.5199048 -0.91380155 -0.3391485 -0.071287215
000160 38 09 29 3e d0 00 a0 3d c4 47 35 bf 6a b1 ac bc
       0.16507423 0.07812655 -0.7081263 -0.021080691
000170 d1 80 84 3d c1 6e 2e bf 3b 52 d6 bd 64 d4 84 3d
       0.06469882 -0.6813775 -0.10464903 0.06485823
000180 59 87 86 bf e8 2c 9b bd a4 7c 02 bf d2 8a 9b bf
       -1.0510055 -0.075769246 -0.50971437 -1.215174
000190 0d 96 97 3f 31 96 12 be 7d f7 6f bc 38 e5 a8 bd
       1.1842667 -0.14315106 -0.014646408 -0.08246845
0001a0 fa e3 28 bc 86 fe 9d 3d f2 b5 62 bd 85 4a 29 bf
       -0.01030826 0.07714562 -0.055349298 -0.6612933
0001b0 0d 38 ba 3e ea 72 46 bf 99 26 19 be 62 2f 20 be
       0.36370888 -0.77519095 -0.1495613 -0.15643075
0001c0 1f 37 8c be 17 9b 91 3d 4e 76 ef be 10 8b 95 be
       -0.27385804 0.07109659 -0.46769947 -0.2920766
0001d0 8e 8b 80 bd a9 77 ac be 07 77 af bd bc 1f fa 3d
       -0.06276618 -0.33685043 -0.085676245 0.12213084
0001e0 97 d8 9a be 55 65 9f 3e 90 e6 c2 be cc 02 0e be
       -0.3024337 0.31131998 -0.3806653 -0.13868254
0001f0 06 8a 4c be 9b 4f d4 3d fc 76 1f bf 19 0b b7 3e
       -0.19974527 0.10366746 -0.6229093 0.35750654
000200 0f dc 3e 3e 2b c4 08 bf 39 a6 45 bd 91 2a a3 3e
       0.18638633 -0.5342433 -0.048254225 0.31868413
000210 04 59 d8 3d 70 00 05 3c f0 64 a8 3c 37 7a 6c be
       0.105638534 0.00811778 0.020555943 -0.23093496
000220 e2 8c 87 bf 21 ad 90 be d9 0c 93 be 1c 3b 03 3e
       -1.0589869 -0.28257087 -0.2872074 0.12815517
000230 64 1c a1 3d b4 f6 40 3d cf 55 a1 be 06 94 cf 3d
       0.07866743 0.047110274 -0.3151078 0.10135655
000240 bd d5 0b 3e 5a e6 ad bd 48 3d 9b 3e a7 dd 20 bf
       0.13655753 -0.08491202 0.3032019 -0.62838215
000250 f8 ea 5e be 31 55 75 bf 7a 1e 14 be 96 cc dc bd
       -0.21769321 -0.95833117 -0.14464751 -0.10781209
000260 c3 64 f2 be 62 7e 1c 3e bc ea 10 3e a4 f8 aa bc
       -0.473425 0.15282586 0.14152044 -0.020870514
000270 4f e8 8e 3d 5e f4 56 be 49 65 91 bd 60 c9 bc 3b
       0.06977903 -0.20991656 -0.07099397 0.0057613105
000280 c1 82 24 3e 08 29 a6 3e 6b fd 33 3f 69 bc 87 bf
       0.16065504 0.3245318 0.7030856 -1.0604373
000290 d6 e6 4f 3e ac 40 ec be 75 cd 0b 3c b0 6e 53 bd
       0.203029 -0.4614309 0.0085328715 -0.05161923
0002a0 77 25 41 3d ac 32 5a bf 61 d9 62 3e 4f 48 f3 3d
       0.04715487 -0.8523357 0.22153236 0.11879026
0002b0 32 41 55 be 83 2f 6c be bc 4d d5 3e dc 7f ea bc
       -0.20825651 -0.23065 0.4166087 -0.028625421
0002c0 1e b3 82 3e 9b 8d 0a 3e 07 ee c2 be 98 5d 20 bf
       0.2552728 0.1353058 -0.38072225 -0.6264281
0002d0 1b f9 bd bc 53 cd d3 3e 2e 6f bb 3d 68 14 7d 3d
       -0.023190072 0.41367587 0.09152065 0.06178704
0002e0 b1 83 2d 3e 52 f0 63 3d 1e cf 3a be 51 ae a2 be
       0.16944768 0.05564911 -0.18243071 -0.31773618
0002f0 be 16 0a bf 63 21 b3 3c 4f 14 06 3e 92 9c 96 be
       -0.5394095 0.021866506 0.13093685 -0.2941633
000300 42 d0 14 bd 7b 7d 0c bf 51 02 81 be c6 16 09 3f
       -0.036331423 -0.5487897 -0.2519708 0.53550375
000310 5c 0d 26 bd 02 2d a6 3d 25 dc 03 be b4 8a e5 be
       -0.040540084 0.08114053 -0.12876947 -0.44832385
000320 05 25 5a bf 34 cf c0 be 3e 1b 14 be 48 c5 f7 be
       -0.8521274 -0.37658083 -0.14463517 -0.483927
000330 4f 13 6c be 82 06 be bd 11 a3 b6 3e 68 de e1 3d
       -0.2305424 -0.09278585 0.35671285 0.11028749
000340 2a ed c7 be 21 0d 5b bd ae 67 68 bf d8 e7 28 be
       -0.3904813 -0.053479318 -0.907832 -0.16494691
000350 72 77 78 be 55 45 0a 3e 4f a9 09 bf 40 4c 42 3c
       -0.24264315 0.1350301 -0.5377397 0.011859
000360 a0 8b 74 3e e6 82 38 bf d0 52 0f bf 82 75 43 bc
       0.23881388 -0.72074735 -0.55985737 -0.0119298715
000370 f8 aa c4 be 69 ba 93 bf 04 58 6a 3d 4e e4 b5 bd
       -0.3841169 -1.1541263 0.057212844 -0.08881436
000380 e4 6d 1f 3e 3e 0f b0 3e 54 a5 27 be e7 7b 99 bd
       0.15569264 0.3438663 -0.16371661 -0.074943356
000390 de 52 31 3e 6e 50 29 3e c8 81 89 3d bc fb 5f 3d
       0.17316768 0.16534588 0.06714207 0.054683432
0003a0 71 32 9e bb b0 bb 6e bf ea ca 7b 3d 15 11 61 bf
       -0.0048277904 -0.9325514 0.06147281 -0.8791669
0003b0 5b 96 48 3d 9a 95 19 3e ee 88 e0 3d 57 d0 e9 3d
       0.048971515 0.14998475 0.10963617 0.11416691
0003c0 34 bd 84 bf 3f da df 3e 09 92 a4 3e 17 29 56 be
       -1.037024 0.43721196 0.32142666 -0.20914112
0003d0 7f b0 c3 be 7d cc 86 bf 62 af 9e be 40 60 a6 3c
       -0.38220593 -1.0531155 -0.3099318 0.020309567
0003e0 84 b0 02 be 44 8b 02 3f f9 a0 c4 3c 34 8d 63 bc
       -0.12762648 0.5099375 0.024002539 -0.013888646
0003f0 ae f1 2b be 14 e1 4a b7 af b5 72 3e aa 88 9f 3e
       -0.16791412 -1.2092543e-05 0.2370212 0.31158954

net.2.bias f4 [64]
000000 68 d5 30 3d 27 20 5c 3e 0e ca 02 3e bc 0b 30 3e
       0.04317227 0.2149664 0.1277239 0.17191976
000010 27 3a 4a 3e af 68 f0 3b 63 55 2e bc 5d 26 6b 3e
       0.19748746 0.007336698 -0.010640475 0.22963853
000020 10 55 16 3d 56 04 81 3e df 07 20 be d3 96 cb bd
       0.036702216 0.2519862 -0.15628003 -0.09940877
000030 8a 56 97 be c9 d2 c7 3e f4 3d 14 be 04 fe a4 bd
       -0.29558212 0.39028004 -0.14476758 -0.08056262
000040 70 39 d3 3d 49 43 dc bc 3f 14 a4 3e b8 01 46 be
       0.1031369 -0.026887553 0.32046697 -0.19336593
000050 67 be 69 3e 29 45 d6 3e 04 2b 24 be b3 2f 3b bd
       0.22826539 0.4184964 -0.16032034 -0.045699786
000060 3f c2 6a 3d ca 34 4e be fe 7e df bd a8 6c d3 3d
       0.057314154 -0.20137325 -0.10912894 0.10323459
000070 d6 fb c5 3c 68 fd b1 bd ee 40 0d be 7a 00 c5 bc
       0.024167936 -0.086909115 -0.137943 -0.024048079
000080 32 6d b8 bd a3 70 81 3e f7 54 c8 bc b7 7b 43 be
       -0.09005202 0.25281247 -0.024454577 -0.19090162
000090 9f c4 f2 bd dd c4 2b bd 8e 37 06 bd 33 78 ad 3e
       -0.11853909 -0.04193579 -0.032767825 0.33880767
0000a0 3b f6 cc bd 64 0a 5d 3e b5 8e 40 bd 9b 64 33 be
       -0.10007902 0.21585995 -0.047011096 -0.17518847
0000b0 f0 0a 83 3e 63 3a c1 bd c4 86 13 be 9e 9d 4e 3e
       0.25594282 -0.094349645 -0.14406878 0.20177314
0000c0 29 ab 2b 3e f4 5a 8f 3e 28 2f 08 3e ac af 21 be
       0.16764511 0.2799908 0.13299239 -0.1578967
0000d0 a1 97 be 3e 37 81 1c 3e a9 a4 c1 3d bb 16 9b 3e
       0.3722506 0.15283667 0.094552346 0.3029078
0000e0 36 22 f4 37 d3 cb 2b be 5d a8 aa be 0a 54 5c bc
       2.9102997e-05 -0.16776972 -0.33331576 -0.013447771
0000f0 1b 43 f7 bd a4 c9 0f be e6 20 53 3d 2b 5f b0 3e
       -0.12073346 -0.14041764 0.051545046 0.34447607

net.4.weight f4 [6, 64]
000000 6d 2d a1 bd ca 87 fd be 04 8b 92 be 4e 44 15 3f
       -0.078699924 -0.4951766 -0.28621686 0.5830735
000010 70 19 ff bc eb c4 89 3d 46 e5 29 3c b1 18 27 bf
       -0.03114006 0.06727012 0.010369604 -0.6527205
000020 79 e2 88 3e 6c 51 91 be bf d9 a9 bd c8 93 96 be
       0.26735285 -0.28382432 -0.08293485 -0.29409623
000030 a7 9e 2d be 9e 79 9a be d7 2a 4d 3d f9 fc b7 3e
       -0.16955052 -0.30170912 0.050089683 0.3593519
000040 80 03 05 3f 49 f3 13 be 9f 16 90 bd ad 40 7a bc
       0.51958466 -0.14448275 -0.07035565 -0.015274209
000050 65 2f 35 be a3 8c 98 be 5f 80 15 3d 41 a6 06 3f
       -0.17693861 -0.29794797 0.036499377 0.52597433
000060 92 30 59 3f 72 23 93 3d 9f e6 c4 3d 31 0b 29 3e
       0.8483974 0.07184495 0.096143 0.16508175
000070 5d 7d 0b be 15 0f d3 be a1 6c 66 bd 24 2a 72 3c
       -0.13622041 -0.41222444 -0.05625594 0.014780555
000080 5b 16 ca bc a8 7d 17 be be 66 a2 3d 7c 49 f2 bd
       -0.024668863 -0.14794028 0.07929753 -0.11830422
000090 aa 1c 23 bd 81 d5 cc 3e b4 c2 80 3d aa 7e c2 be
       -0.039822258 0.4000664 0.06287137 -0.37987262
0000a0 71 c1 86 3d b7 7d af 3e d2 37 1c bc 47 ed 03 bd
       0.06579865 0.342756 -0.009534793 -0.032208707
0000b0 04 59 8a 3e 75 9d 03 bd 33 eb ba bd ca a8 0e be
       0.2702104 -0.032132585 -0.09126892 -0.13931575
0000c0 92 af aa be d9 0d 86 be 9a 43 54 3e c7 4e b5 3d
       -0.33337075 -0.2618244 0.20728913 0.08852916
0000d0 41 5a 1d 3f 6c 86 3c bf e3 b6 92 bd e9 25 99 be
       0.6146584 -0.7364261 -0.07163789 -0.29911736
0000e0 3e f3 59 3d 9b c1 f9 3e 86 06 ce 3e 1c 93 79 bc
       0.05321049 0.48780522 0.40239352 -0.0152328275
0000f0 e4 05 b8 3d 2a 55 8a bd e1 9e f0 3e 9b e8 6d bd
       0.089854985 -0.06754525 0.46996215 -0.058083158
000100 12 ac 6a 3d af a4 1d 3f 35 f9 87 3e 70 48 7c be
       0.057293005 0.6157941 0.26557317 -0.24637008
000110 f2 3c b5 be 5a b5 ac bd 72 65 c6 bc af 9b 13 bf
       -0.3539806 -0.084330276 -0.024218295 -0.5765943
000120 bb dd 04 bc 7e a2 6d 3e ec 63 0f bd e9 17 e5 3d
       -0.008109505 0.23206517 -0.035007402 0.11186201
000130 12 e5 49 be 39 b3 05 3e a6 89 d9 3b d3 e2 88 3e
       -0.1971629 0.1305665 0.0066387234 0.26735553
000140 67 3b ea be 2a 2e 99 be e3 fc 13 be cf 70 01 3d
       -0.45748445 -0.29918033 -0.14451937 0.031601723
000150 59 7d 14 3e 52 db 8f 3e 65 f6 c8 bd f0 b8 ac 3e
       0.14500941 0.28097016 -0.09812621 0.33734846
000160 12 4d 52 bf 42 30 ba 3c a5 4a 19 3d bb 82 86 3d
       -0.8214885 0.02272809 0.037424702 0.065679036
000170 8d b2 55 be 74 0d b2 3e b9 8e cf bb 1a 55 4d 3a
       -0.20868893 0.3477589 -0.0063341525 0.00078328105
000180 a2 ab e7 bd 8c cf 8b bd 0b 4a 95 bd 70 ca 96 3d
       -0.11312033 -0.06826696 -0.07289513 0.07362831
000190 54 73 e0 3c 53 27 07 3e 94 10 17 3c 25 dc 81 be
       0.027398743 0.13198595 0.009220261 -0.2536327
0001a0 69 03 d9 3c 73 8e cc 3e 79 4c 18 be 10 5f 9c 3d
       0.026490884 0.3995243 -0.14872922 0.07635319
0001b0 82 5f 8c 3e 7b 39 3d 3d 4d d8 3b 3d 59 75 a5 bd
       0.27416617 0.046197396 0.045860577 -0.08079023
0001c0 01 09 1d 3e 11 56 21 be 10 5f 8c 3e 3f ff 63 3d
       0.15335466 -0.15755488 0.27416277 0.055663344
0001d0 0e 1b 3e bf 8b 64 12 bd 5d a7 18 3e 5d 6f ad 3e
       -0.7426003 -0.035740416 0.14907594 0.33874026
0001e0 5c 75 5d bc 0f be ea 3e ff 3f 13 bf 20 f4 8c bd
       -0.01351675 0.45848128 -0.57519525 -0.06882501
0001f0 29 8f 84 3e 6c 52 64 bd 96 eb 10 bf 6e 4c 6c 3e
       0.25890473 -0.055742666 -0.56609476 0.2307603
000200 e3 2f 25 bc 09 07 85 3e 70 f0 8c be b3 55 f9 3e
       -0.010082218 0.2598193 -0.2752719 0.48698196
000210 7b f0 5e 3d e1 09 b9 3d 74 59 9f ba 1c bb b7 bd
       0.05442856 0.090350874 -0.0012157396 -0.08971235
000220 9a 77 cc 3e 6b 41 38 be 6d 40 3d bc bf bd 91 be
       0.39935 -0.17993705 -0.011551005 -0.28465077
000230 12 cb a4 bd f6 b5 0b bf f9 82 8b bd 1b 88 98 3d
       -0.08046545 -0.54574525 -0.068120904 0.07447835
000240 c6 e6 9c be 17 fe c4 be c9 1c ba be da 3e 81 be
       -0.30644816 -0.38475105 -0.36350086 -0.25243264
000250 1e c7 5a be 12 b7 90 be eb 63 17 3c 73 e4 28 3f
       -0.2136502 -0.28264672 0.009240131 0.65973586
000260 91 7d 18 3e bc bc 08 bc f7 11 5f 3d 1e 7e 7d 3e
       0.1489165 -0.008345779 0.054460492 0.24755141
000270 68 aa a0 3e 0d 76 f8 bd 34 3c 9f bc cd e7 fe 3d
       0.3138001 -0.121318914 -0.019437887 0.12446556
000280 30 30 31 3c b2 d5 8b be 28 68 84 3d 55 97 b3 3c
       0.010814711 -0.27311474 0.06465179 0.021922747
000290 75 02 39 3d 23 5e 45 3e 89 00 9b bd 01 20 8a 3e
       0.04516836 0.19274192 -0.075684614 0.26977542
0002a0 f3 2c d2 3c 29 86 b4 bc 6d cf c4 bc 2f 35 89 bd
       0.0256562 -0.022036629 -0.02402469 -0.06699597
0002b0 4d db ae 3e 63 b0 93 3d 57 9c 37 3d 0c 1d 1d 3e
       0.34151688 0.072113775 0.04482683 0.15343112
0002c0 c8 3c 9a 3e bb aa 1d 3e 2c d4 d2 3d e6 5e 38 3d
       0.30124497 0.1539716 0.10294375 0.045012377
0002d0 bb ed c5 3e 70 4f 67 bf 0c f0 98 bd 33 6f e0 3b
       0.38657936 -0.90355587 -0.0746766 0.0068491935
0002e0 7c 54 10 3d c5 2d cb 3e d2 04 e4 3d a5 1d 19 bd
       0.03523682 0.39683357 0.11133732 -0.037381787
0002f0 ea 8a be 3e fe c5 b4 3d 64 40 eb 3e 69 d8 91 be
       0.37215358 0.088268265 0.45947564 -0.2848542
000300 a9 7e d9 3d 09 26 8b 3c ec 93 20 be 4a 2e 93 bd
       0.10619862 0.01698591 -0.15681428 -0.07186563
000310 1b 05 78 be b5 14 87 bd 61 2c 61 3d 8d f4 f3 bd
       -0.24220698 -0.065957464 0.054973964 -0.11911879
000320 0d bc 87 bd ac d6 97 bd cd be ff 3d 9e 7f 79 bd
       -0.06627665 -0.07413992 0.12487564 -0.06091272
000330 d7 8b d2 b9 8b 7e f4 3d 22 9f 59 3d cd 1b 18 3e
       -0.0004015851 0.11938199 0.053130277 0.14854355
000340 94 41 0a 3e 4f b9 31 bd ab 70 d4 3b 22 ce 11 bd
       0.13501579 -0.043389615 0.0064831576 -0.035596974
000350 3c 09 3e bc b5 dc 02 be ae 7e c9 3d fb cb f1 3d
       -0.011598881 -0.12779506 0.09838615 0.11806484
000360 6f 3b bc bc 10 36 71 bc 11 3d c8 3d b9 80 4f 3d
       -0.022977559 -0.014722362 0.097772725 0.05065987
000370 af 48 ef bd d7 6d ad bd 71 8e 14 3a 08 48 2c 3d
       -0.11683785 -0.08468216 0.00056669774 0.04206088
000380 4d 84 93 3d 10 17 e3 3c f9 59 a0 3d 6c 53 05 bd
       0.07202969 0.027720958 0.07829661 -0.03255026
000390 42 35 66 3d dc 1e 7d 3d e9 a8 ff bd 6b c3 0d 3d
       0.056203134 0.061797008 -0.12483389 0.034610193
0003a0 da 83 21 3e 9e cf c1 bc 8e e3 cd bc 81 4b 9e bb
       0.15772954 -0.02365857 -0.02513292 -0.004830778
0003b0 30 6a 92 3b b8 07 d5 3d bf 7c 61 3d ef cd 49 bd
       0.004468225 0.10401863 0.055050608 -0.04926866
0003c0 b6 00 92 bd 9e 03 c2 bd 23 b7 c9 bd e9 29 2e bd
       -0.07129042 -0.09473346 -0.09849384 -0.042520437
0003d0 df dc b2 bc 92 af 10 be c2 fb fd 3d bb 39 63 bd
       -0.021833835 -0.14129475 0.124015346 -0.055474978
0003e0 b3 a2 d9 3d b4 37 6f 3c 61 e7 6d bd de f6 d0 bc
       0.106267355 0.014600683 -0.05808199 -0.02550834
0003f0 fc c4 3a be c6 b3 9e bd 34 62 50 3d 65 9d b8 be
       -0.18239206 -0.07749133 0.050874904 -0.36057582

net.4.bias f4 [6]
000000 46 d6 43 3c 5c d2 15 bc 0c ce 88 3d c4 08 93 be
       0.011952942 -0.009144392 0.06679925 -0.28717625
000010 6a 83 22 be a0 79 28 be
       -0.15870443 -0.16452646
