log/GC_SAC/square3Env/20210721-1118/20210721-1118GC_SAC_HER_critic.pth (torch, 46735 bytes, 10 tensors)

net1.0.weight f4 [64, 16]
00000000: b177 c5bb 03da 19bd 84ce 8b3d 6a02 89bf
00000010: 455f 203f 38ed f6bd 9698 a7bd 93c7 0d3d
00000020: e971 b1be 250b 81bd 2a44 b63f 096f b7be
00000030: 3281 033e fed2 623e bbf3 a8be 2126 24bd
00000040: f672 c6bd 770b aa3d 7c03 8d3d 166b 653f
00000050: 2eb9 483e a4e2 d93d f4f4 07bf c56b 8bbf
00000060: 7bbc 39bf 4e27 98bd c51b e3be 34a0 21be
00000070: dc2e 0dbe 1823 a13e 7a7b a1bc e39f 873f
00000080: 3856 2a3c 4cfe cbbd 4cda 323e 1396 81bf
00000090: d6c0 a83f b6bb 7a3e 4a54 353c 5167 39be
000000a0: 2b9f 72bf 2193 d23e 781b 7bbe 8028 fcbe
000000b0: 20c7 273c 1605 53bd 35da 2ebf 17f7 de3d
000000c0: 996c 51be d609 9d3e 2a2d 7ebe e7de e23e
000000d0: abc8 a13f 743b 6cbe 1af4 f1bd cd73 12be
000000e0: 4b62 8cbf a7b9 94bd 09f8 bfbd e44a 06be
000000f0: a28c 37be fc03 22bf 9c75 803d 8e4f 0e3f
00000100: cec3 b03c 120a 36be 901c 50be a8f2 5a3f
00000110: 6e79 05bf b4f8 47be 8d19 823d 1b8c b43b
00000120: 16c3 c43d 4a35 ba3e 4579 0dbf 1e13 0cbf
00000130: f47a 1ebe 93c1 01c0 ad78 a6bf 02de a3bf
00000140: 9a6a f4bd ad1e 1a3e a28e 573e 173c f3bc
00000150: 5658 bdbe 2ce0 69be 2696 a4be 55af b73e
00000160: eabc b5be 2154 e9bd fb35 7abf cee0 9a3e
00000170: 5616 28be 052d 803f ed86 aabe 2dc6 413f
00000180: 0689 0e3a f408 993e 00e4 2ebd afd8 84be
00000190: abf5 093f 1262 41be 3fd4 6dbd 88bf 6ebe
000001a0: 3729 aebc 2d02 0ebe bf4e 403d 1575 1dbe
000001b0: c28a 65be 11d9 d3be 8af6 babe 91e2 50bf
000001c0: a872 f1bc 3ee7 e23d c058 d23d 749c 0a3e
000001d0: ff50 a83d d6ff 7fbe d353 24be 9e32 87be
000001e0: 5bbb a9be e3e4 bcbe 5ef2 db3c 2b57 dd3c
000001f0: 12f0 7a3e 31e7 123f 7691 453f 8972 873f
00000200: cd4d 633e 2fe2 b53d 42ef 513e be95 7fbd
00000210: 1500 2ebe 0064 863c 3bba 09bf ba32 7abe
00000220: 44de ecbd b061 57be 5187 643f b7d9 e83f
00000230: 7e13 033e 2ea6 ff3d ffe3 8dbd 406a d5ba
00000240: 57e9 163e 6cbc 62bb b216 6e3e 393c b03e
00000250: ff2e 3f3f 9812 873d 621e af3e 3cdb 133e
00000260: cdd3 153e eda7 223b de08 b83e af68 933d
00000270: ac87 78be 7cca 9cbf 2c47 3bbf 94bf a13f
00000280: 8b96 3ebe 1b10 053e 4805 23be 63f7 003e
00000290: 4fdd e83e 7c5d 55be 2aec 8e3d 2fa4 69bd
000002a0: 7a72 85be ba86 083e b24b 17bf 1ccd 03be
000002b0: 528e 773e e28b 87bf b290 f5bf 0421 543e
000002c0: 31ed 6bbd 1924 afbc 2804 6f3d 2e02 9c3e
000002d0: c8dc dc3d d0c1 79be 16a2 79bd 1a09 f23e
000002e0: 1bd3 3c3e 8133 b53e 06bb 47c0 28ef 4dbf
000002f0: e057 9fbd beeb 87bd b8a6 0f3d a057 8abd
00000300: b46e 54be aa8b b4be 0666 54be 29a2 30bf
00000310: a9ff 2bbf f086 7c3d 5243 4f3e 8fc7 f33c
00000320: c809 333e d787 b23d 9ba6 413e 2f57 ab3e
00000330: b884 22be f75a 573f 28b1 263e 33ed adbe
00000340: de6d a53e f5dd 06be 6e98 6dbe 418f c23d
00000350: 4c8c 003f 90d7 bf3c 0f4b d2bc 4372 bdbf
00000360: 53dc 6ebf a0ae 96be e1d7 193d b33c d43e
00000370: b0bb 19bd b6d8 6a3d 186a 28be 4634 4c3e
00000380: 4955 ea3c fd49 243d 30ba c8bc 40da 9fbd
00000390: e06b 933f b8be 5c3e 290b fb3d 8743 633e
000003a0: be0c 993e b930 c9be b258 13bf b729 ae3e
000003b0: 00f1 1ebc 4504 7c3e a874 42bd 666f 88bd
000003c0: 8b3c a7bd 61d4 973d 9c5a f8bd b07f 713f
000003d0: 5393 a1be de00 573e fd8c 223e bfa9 b73d
000003e0: 7339 1f3e 8130 aebe f587 323f ec26 7d3f
000003f0: 8eda 233e 8069 adbe 35a1 b7bd f2ae 24bd
-0.006026231 -0.037561428 0.06826499 -1.0703862 0.6264537 -0.12056965 -0.081834 0.034614157
-0.3465722 -0.06300954 1.4239552 -0.358269 0.12842253 0.221508 -0.32998452 -0.040075425
-0.09689896 0.08302968 0.0688543 0.89616525 0.1960189 0.106389314 -0.53108144 -1.0892264
-0.72553223 -0.07429372 -0.44357124 -0.15783769 -0.13787407 0.31472087 -0.019712199 1.0595669
0.010396533 -0.09960613 0.17466086 -1.0123924 1.3183849 0.24485669 0.011067459 -0.18105818
-0.9477412 0.41127875 -0.24522197 -0.4924965 0.010240346 -0.051518522 -0.6830171 0.108869724
-0.20451583 0.30671567 -0.24821916 0.44310686 1.2639364 -0.23069555 -0.11814137 -0.14301987
-1.0967497 -0.07261973 -0.09373481 -0.13114506 -0.17924741 -0.6328733 0.06272432 0.5559014
0.021577742 -0.17777279 -0.20323396 0.85526514 -0.5213841 -0.19528466 0.0635253 0.005509866
0.09607522 0.3636878 -0.5526317 -0.5471667 -0.1547659 -2.0274398 -1.3005577 -1.2802126
-0.11934395 0.15050764 0.21050504 -0.029691739 -0.36981457 -0.22839421 -0.32145804 0.35875955
-0.35495692 -0.113929994 -0.9773862 0.30249637 -0.1641477 1.0013739 -0.33306065 0.7569302
0.0005437288 0.29889643 -0.042697906 -0.25946566 0.53890485 -0.18885067 -0.05806374 -0.23315251
-0.021259887 -0.13868017 0.046950098 -0.15376695 -0.22416213 -0.41376546 -0.3651622 -0.8159571
-0.029473618 0.11079262 0.10270834 0.13536245 0.08218574 -0.24999937 -0.16047601 -0.26405805
-0.33150753 -0.36893377 0.026848968 0.027019104 0.24505642 0.5738402 0.7717508 1.0581828
0.22197647 0.08881032 0.20501426 -0.062398665 -0.16992219 0.016405106 -0.5379979 -0.24433413
-0.11565831 -0.21033359 0.89268976 1.8191441 0.12800404 0.12482868 -0.069282524 -0.0016282275
0.1473745 -0.0034597171 0.23250845 0.34420946 0.74681085 0.06595343 0.34202868 0.144391
0.14631577 0.002481933 0.35944265 0.07197701 -0.24270505 -1.2249293 -0.73155475 1.263659
-0.18612115 0.12994425 -0.15919983 0.1259437 0.45481345 -0.20836443 0.069786385 -0.057041343
-0.260639 0.13332644 -0.59099877 -0.12871212 0.24175385 -1.0589564 -1.9184783 0.2071572
-0.05759925 -0.021379517 0.058353573 0.30470413 0.10784298 -0.2439034 -0.060945593 0.4727257
0.18439905 0.35390857 -3.12079 -0.8044305 -0.07780433 -0.06636761 0.035071105 -0.067549944
-0.20745355 -0.35262805 -0.20742044 -0.68997437 -0.6718698 0.061652124 0.20240524 0.029758243
0.174842 0.08717316 0.18911211 0.33464953 -0.1587094 0.84123176 0.16278517 -0.3397003
0.32310385 -0.13170607 -0.23202679 0.0949998 0.50214076 0.023418218 -0.025670556 -1.4800495
-0.9330494 -0.29430103 0.037559394 0.4145256 -0.03753251 0.057335578 -0.16446722 0.19941816
0.02860512 0.040109623 -0.024502844 -0.078053 1.1517296 0.21557128 0.12257988 0.22193728
0.29892534 -0.39294985 -0.57557213 0.340162 -0.009701014 0.24611004 -0.047474533 -0.066618726
-0.081658445 0.07413555 -0.12126657 0.9433546 -0.31557712 0.20996425 0.15874095 0.089679234
0.15549259 -0.3402138 0.69738704 0.98887515 0.16001341 -0.33869553 -0.08966295 -0.040205903

net1.0.bias f4 [64]
00000000: 85bf a8bd f545 ccbe b611 fdbe 0cfa 37be
00000010: 0468 18bc 9c02 70be 8e86 98bd 8e7e 85be
00000020: a936 d23d cea9 323e a621 20be 8d59 c33e
00000030: d00b 9a3e c5ed a6be e3dd d8bd 5251 903e
00000040: ff28 aebd 1ad7 4c3e 4988 5f3e ff17 c43e
00000050: 2391 c9bd d1e4 0a3e 9437 e83d 2384 c63c
00000060: 3b06 5abe 6059 36bd 8532 d0bd 982c d23e
00000070: 6aa1 473d 3d8c a13e fb8d 923e b3ca 643e
00000080: fb4e 50be b81c 53be 835a d3bd 1f0a 513e
00000090: cb3e d3bd e54d 66be 85a4 12be 2bbc a5be
000000a0: e6e1 88be ce8a 213d 27f0 1e3d fd86 0a3b
000000b0: a8be 803d d630 7bbd c443 e53d 3afd 58be
000000c0: 981b acbe ecbe 4fba 2936 583e f161 9c3d
000000d0: 4e37 b7be a78c 5bbe d2e8 083d f955 62be
000000e0: ff07 eabd cb88 883e 6f00 8c3e 35e0 17be
000000f0: b02c 06bd 1112 f6bd 25c9 933d a9ee 81bd
-0.082396545 -0.39897123 -0.49427575 -0.17966479 -0.009302143 -0.23438495 -0.07447539 -0.26073116
0.10264332 0.17447588 -0.15637836 0.3815426 0.30087137 -0.3260328 -0.105891965 0.28187042
-0.08503913 0.2000393 0.21829332 0.38299558 -0.09842136 0.13563849 0.11338726 0.02423293
-0.21291439 -0.04451883 -0.10165886 0.41049647 0.04873792 0.31552306 0.28623948 0.22342949
-0.20342629 -0.20616424 -0.10319998 0.20414017 -0.10314711 -0.22490652 -0.14320572 -0.32370123
-0.26734847 0.039439015 0.038803246 0.0021137588 0.06286365 -0.06132587 0.11194566 -0.21190348
-0.33614802 -0.0007924873 0.2111441 0.07635868 -0.35784382 -0.21440373 0.03342516 -0.22103108
-0.114273064 0.26666865 0.2734408 -0.14831622 -0.03275746 -0.12015165 0.072161 -0.06344349

net1.2.weight f4 [64, 64]
00000000: a36a cfbd f26d bb3d 8ebb a63d e3b0 27be
00000010: 4b7d a7bd a135 46bd f8c2 f63d 2cfd c73d
00000020: c08e dd3c dd7a ebbc c9a4 a73c 1f20 80bd
00000030: 912f b33d 6caf 1c3b c291 603c 07ea 883b
00000040: 5d3a ebbc 3ac0 d4bb f3e5 f1bd d58d 353d
00000050: 56c6 bcbc cc3d 5c3d f72a a53d 4305 8bbd
00000060: fc50 32bc 0282 b8ba e05a 9d3d 155e 4e3d
00000070: 30ae de3b dfdd 6dbd 301b 3a3b 6106 90bd
00000080: b47c 933d 03d4 3bbd 89be ea3c 233d cb3d
00000090: ceed bf39 237f 1b3d 7188 803c b94a a83d
000000a0: 3ead 8dbd bebd efbb 7b4c bc3b 0fbc 0c3e
000000b0: d812 c6bd 8f51 a8bd 689f 5cbd bf2f cd3d
000000c0: b7d2 68bc d0ed c43d 992c d83c 838a 1a3d
000000d0: 470e 903d fdf1 033e 6c51 343d 812c ecbc
000000e0: a855 7abc 3f50 2a3d a40e 643d 5aa7 343d
000000f0: 4565 613d 77b1 53bd a52b 37bd 1578 b83c
00000100: 8aae fb3d e158 b33d e635 b73c 3711 1abe
00000110: d5e8 87be 6e20 cdbe d38b 8fbc 775c 95be
00000120: f8e4 9c3e 3ebd 9abc bc00 0cbe ea4b c9be
00000130: 9a22 083e 9ee8 343f 2933 af3d a78f 873d
00000140: b24a 3a3e 726d 9f3d d082 2cbe 363f 27bc
00000150: 7806 b6bc 8fd8 7a3e bbc7 e03d 072b 6cba
00000160: d384 d13e 00f1 443e b52c c0be 3894 36be
00000170: f14c ca3d 7ba9 763d 9057 003f b1c5 9d3c
00000180: e328 4d3e 7ae9 203f caee a03d ae0a f4bd
00000190: bc5c 9cbe 5ac1 e23d b09b 03bd f4db d5bd
000001a0: ef68 233e 0cff 793e f689 b13c 0098 8d3d
000001b0: 1847 92bc 9415 10be ed95 28bd 1340 f03d
000001c0: 4b80 c63e 541c a0bd fed3 193f c05e a6bc
000001d0: 7f17 973e 43ae 0f3e 0edf 983f fa7b 0e3e
000001e0: 168f cabd 48bb 16bf 5121 d2be 8080 56bf
000001f0: 599e 2bbe 4cea 65bd 7ed7 1ebe 039d 643e
00000200: 3a61 f73d 6f1b 3c3e 08e4 bb3e 4569 a73e
00000210: fb92 b93e 16ca b83e bf97 05be f735 78be
00000220: 4550 cdbf 39e3 043c c661 ce3e 2496 f63e
00000230: eee2 e3be a663 41bf 37f2 ba3d 14f1 80bf
00000240: eb43 00c0 289d a9bd a5e5 c0be 89a3 9dbd
00000250: e4c4 f33d 459a 54bf aa70 5ebe 9e4e c13d
00000260: 61a2 1e3e a99a 153e ef3a 2f3f 0181 81bf
00000270: dd63 54be 41c8 d0be 6374 6ebd f798 f1bf
00000280: 24b0 9abe 9003 f1bd abc8 29be 87e8 c5bd
00000290: e9c2 bf3e 6525 3a3e d52b 8abd 71cb e73e
000002a0: 1a92 9d3c 3541 24bf 81e2 8bbe 3a22 8d3c
000002b0: bb16 7e3e 7a10 be3e a058 d83e 28f5 bd3e
000002c0: 7123 433e f5bb 4e3e a323 28bd db68 04be
000002d0: b825 31be 2dda 4d3d 7801 17be de46 e2be
000002e0: 91f1 62be d20d 31bf df5d 813d bf53 f43d
000002f0: f5e8 f33c d480 483e 665e f2be 57fa debf
00000300: 9224 e1bd d2ad 32be 665e 1cbd fe1a 873d
00000310: 2b6d 59be b06c 4dbd 68d9 5fbe 43b8 eabd
00000320: 87d4 423e d7ba 3b3e a395 7f3e 1f9a 873e
00000330: d882 1dbd 5c1b 4c3d 9844 e0bc 5b7d 90bb
00000340: 2b0b b03c 92a8 2fbe edf1 08be 44c8 35bd
00000350: f46c 28be d763 b93d 76d0 0f3d ac01 97be
00000360: ec15 33be a6fa 7d3c f633 a1be d444 6abd
00000370: 8b68 e63d 3c42 6abc 55a3 2fbe 2675 21bd
00000380: 6eb4 8dbe d268 d73d 9e16 19be 1d62 193b
00000390: 2fa7 903e 10e7 d5be 8a26 6ebe cd02 08be
000003a0: 43f7 253d 3461 4cbe bd3e 793e e346 ee3d
000003b0: 6ecf 343e 9c01 e2bd 9c0e a9be f4ca 1bbe
000003c0: 93f8 adbd a1b4 2cbf cdc6 d03e f041 ac3d
000003d0: eb87 773e 15bd c6bd 431e bfbd b483 4fbe
000003e0: 302f 31be bb6a f3be 91ed 573a 11ec 23be
000003f0: 763f 733d 1572 88bd 8b23 da3c 077e 303e
-0.10127761 0.0915183 0.08141242 -0.1637607 -0.081781946 -0.04839099 0.12048906 0.097650856
0.027045608 -0.02874511 0.020464318 -0.062561266 0.08749307 0.002390827 0.013706626 0.004178289
-0.028714353 -0.0064926418 -0.118114375 0.044324715 -0.023043793 0.05376987 0.080648355 -0.06788113
-0.010883566 -0.0014076831 0.07683349 0.050382692 0.006795667 -0.05807292 0.0028397553 -0.07032467
0.072015196 -0.045856487 0.028655307 0.0992377 0.00036607537 0.037963044 0.01569006 0.08217377
-0.06917809 -0.00731632 0.005746422 0.13743614 -0.09671563 -0.08218681 -0.05386296 0.100188725
-0.014210395 0.09615672 0.026388453 0.03772975 0.07033973 0.1288528 0.044022962 -0.028829815
-0.015279211 0.041580435 0.055678025 0.04410491 0.05502822 -0.051682916 -0.044719357 0.022518197
0.1228915 0.08757187 0.022364568 -0.1504563 -0.26544824 -0.40063804 -0.017522728 -0.29172108
0.3064344 -0.018889066 -0.13672155 -0.3931573 0.1329445 0.70667446 0.0855468 0.066191964
0.18192557 0.07784547 -0.16846776 -0.010207942 -0.022219881 0.24496673 0.109755956 -0.0009009097
0.4092165 0.19232559 -0.3753411 -0.17829978 0.09877957 0.060220223 0.5013361 0.019259306
0.20035128 0.62856257 0.078580454 -0.119160995 -0.305395 0.11072035 -0.032130897 -0.10442343
0.15957998 0.24413699 0.02167223 0.06913757 -0.017856166 -0.14070731 -0.041158605 0.11730971
0.38769755 -0.07817903 0.600891 -0.020308852 0.29510114 0.1403132 1.1943071 0.13914481
-0.09890573 -0.5887952 -0.41041043 -0.83789825 -0.16759624 -0.056131646 -0.15511891 0.2232552
0.12079091 0.1836984 0.36697412 0.32697502 0.3624495 0.3609168 -0.13046168 -0.24239336
-1.6040121 0.008110815 0.4030897 0.48161423 -0.4450907 -0.75542676 0.0912823 -1.0073571
-2.0041454 -0.08281928 -0.37675205 -0.076972075 0.11902788 -0.83047897 -0.21722665 0.09438823
0.1549163 0.1460978 0.684493 -1.0117494 -0.2074122 -0.40777782 -0.058216464 -1.8874806
-0.3021251 -0.117682576 -0.16580455 -0.09663492 0.37453392 0.18178327 -0.067466415 0.452724
0.019234706 -0.64162 -0.27321246 0.017228235 0.24813358 0.37121946 0.42255116 0.37101102
0.19056489 0.20188887 -0.04104961 -0.12930624 -0.17299545 0.050256897 -0.14746654 -0.44194692
-0.22162463 -0.69161713 0.063167326 0.11930036 0.029774169 0.19580394 -0.47337645 -1.7420148
-0.10993303 -0.1744912 -0.038175963 0.06596945 -0.2123305 -0.05015248 -0.21860278 -0.114609264
0.19026385 0.18332992 0.24959426 0.26484773 -0.03845486 0.04983078 -0.027376458 -0.004409475
0.0214897 -0.17154148 -0.13373537 -0.04438044 -0.16447812 0.09052246 0.035110913 -0.29493463
-0.17488831 0.015501654 -0.31484956 -0.057194546 0.11250409 -0.014298018 -0.1715215 -0.039418362
-0.2767672 0.1051804 -0.14950034 0.0023404427 0.2825255 -0.4177785 -0.23256889 -0.13282318
0.04051901 -0.19958955 0.24340339 0.11634614 0.17657253 -0.11035463 -0.3301896 -0.15214139
-0.084946774 -0.6746312 0.40776673 0.08411014 0.24172942 -0.09704033 -0.09331944 -0.20265085
-0.17303157 -0.47542366 0.0008236999 -0.16008021 0.059386693 -0.066623844 0.026628276 0.17235576

net1.2.bias f4 [64]
00000000: ba8d 9b3d ce45 abbd 4976 c83c 4b2b 91bd
00000010: 9d71 d13c 1659 4fbe c023 0bbd 09a0 17be
00000020: 7890 493d 1f1f 8bbb 15d7 2c3e fa6c e13d
00000030: 4580 88be 2caa a5be a256 14be 0486 6abe
00000040: 3050 05be 3b0e 523b 1fa0 d8ba e16a c4ba
00000050: 08ec 773d 064d 443c 9e3b 3dbd f387 65be
00000060: 5b48 5cbe 57b8 9cbd fde0 353e fc21 d63d
00000070: 9d66 863e 16a3 443d eb93 9fbd 0ed3 fabc
00000080: 55b3 643e 22ea a5be d3d3 02be d823 aebe
00000090: be9b 93be 3659 f2bd 8a08 d9be 16bb 8c3d
000000a0: 984a 803e cd7b 02bc 3c76 ceba b868 993d
000000b0: 7957 043e aa7d 573d 59fa 3f3e 224e bfbd
000000c0: 1443 003e 146d 0abe 153f d1bd 6c4f f5bd
000000d0: a88c 723e 7be7 ee3b 351e 95bd e784 203d
000000e0: cc17 a7bd 3b1f 4bbd f0fb 8e3d b8e6 373d
000000f0: 1c6f c53a 9ade adbe f5d1 6abe 3849 333b
0.075953916 -0.083629236 0.024470465 -0.070883356 0.02556687 -0.20248827 -0.03396964 -0.14807142
0.04921004 -0.0042456533 0.16878922 0.11007114 -0.26660362 -0.32356393 -0.14486173 -0.22902685
-0.1301887 0.003205194 -0.0016527212 -0.0014985466 0.06052783 0.011981254 -0.046199434 -0.22415142
-0.21511976 -0.076523475 0.17761607 0.10455701 0.26250163 0.048007093 -0.07791885 -0.030618217
0.22334035 -0.32405192 -0.12776117 -0.34011722 -0.2882976 -0.11833422 -0.42389327 0.06871621
0.2505691 -0.007964087 -0.0015751789 0.07490677 0.12923993 0.052610077 0.18747844 -0.093410745
0.12525588 -0.13518173 -0.1021711 -0.11978039 0.23686469 0.007290778 -0.07281152 0.039189246
-0.08158836 -0.04959033 0.06981647 0.044897765 0.001506302 -0.33958894 -0.22931655 0.0027356874

net1.4.weight f4 [1, 64]
00000000: b946 0cb9 b94e 28bf f822 3a3f f8d0 de3d
00000010: 0fc2 a4be ebe6 70be b28d b63d 38c3 e43d
00000020: a990 063e 1b28 753d 54bf ea3e d261 4bb9
00000030: 1418 32bf 04fe b0bf 9f25 bdbf d9d7 93bf
00000040: 4afe 963e d5e0 e7ba 8adf 223f 1505 d93d
00000050: 1e85 4ebf cd36 c7bf 8ad4 e7be 985e febe
00000060: ece0 58bf ffdf 823d 42e3 1abf 02c4 bf3b
00000070: 6dc0 4f3f 8c98 203e 8ece b6ba 9906 b7be
00000080: 8acd b5be fab4 9ebf c3b5 88be 6b4b 71bf
00000090: 35a0 98bf fbb8 39bf 02dd 87bf 16d7 8b3b
000000a0: 375a cd3d 9236 84be 48b1 423d c605 463e
000000b0: 47fd 6f3e 1971 ff3e 4718 01bc 68b1 d63d
000000c0: e598 cd3d 3840 d8bf 7142 68b9 19bb 66be
000000d0: d3ce 2abf 82d5 2e3e 90f4 b13d 3db2 d7bb
000000e0: ffc7 c33e 69c7 d53d 3eb4 303e 6347 043e
000000f0: c1e3 233f 3d20 24bf 622d 63bf 2ad6 9d3d
-0.00013377787 -0.6574512 0.7270961 0.108797014 -0.32179305 -0.23525588 0.08913745 0.111700475
0.13141121 0.0598527 0.45849097 -0.0001939603 -0.6956799 -1.382752 -1.4777106 -1.1550246
0.29490882 -0.0017690907 0.63622344 0.105966724 -0.8067187 -1.5563599 -0.45279342 -0.49681544
-0.84718204 0.0639038 -0.6050302 0.0058522234 0.81152993 0.15683192 -0.0013947056 -0.3574722
-0.35508376 -1.239898 -0.26701173 -0.94255704 -1.1923891 -0.7254788 -1.0614321 0.0042675836
0.10026973 -0.25822884 0.04753235 0.1933814 0.23436461 0.49890974 -0.007879323 0.10483056
0.10038928 -1.6894598 -0.00022149995 -0.2253231 -0.6672184 0.17073634 0.08689225 -0.006582527
0.38238522 0.10438425 0.17256257 0.12917857 0.640194 -0.6411169 -0.88741124 0.07706864

net2.0.weight f4 [64, 16]
00000000: 4ba4 edbf e3f4 c13d 80c5 4dbc b682 403d
00000010: 5cdf 8fbd 6ef4 1fbe 13c6 5a3d e48a fb3d
00000020: 91d8 923e b4dd f4bf ff76 833d 4aa5 b2be
00000030: 2cff 8cbd 71ad 8dbe fc81 9ebc 3920 203e
00000040: 74f0 503e 3164 ffbd ba3b 6cbe a609 9cbf
00000050: eb7d 84be e0be aabd bad8 1e3c ca15 573e
00000060: 6e21 213e e0e0 403e 261c fbbe 56ee a5be
00000070: b2f8 293e 9b82 833e 3442 58be 8894 f43c
00000080: 0884 2b3e be66 7c3d a03a 1abd 6cb2 dfbe
00000090: ac1d d43d 0062 aabc 4a37 fcbe 6991 9e3b
000000a0: 7b3a e3be 0528 ae3d 5db0 2c40 2bdf debd
000000b0: 6412 dcbd 349c ce3c 4550 5abd d2cc 933d
000000c0: 17d1 52be 2287 643e d6c1 5abe d678 483f
000000d0: c418 8f3f e4ca 41be 0430 58be 600e b7be
000000e0: 81f7 08c0 4620 89bd ef89 d53e ff82 f33c
000000f0: f8c3 afbd ccf1 2dbf f8f1 e6be 92ed 673d
00000100: 66dc dcbc 7d4e 003d ea13 4ebe 9013 d2be
00000110: 5a72 2abe 5e22 5d3e 1111 aabd 42b6 d7bd
00000120: 0c74 99bd 7728 15be 7073 ed3d 859d 7ebe
00000130: aae9 53be d8aa b7bf e83c bebf 094f fabf
00000140: 2d22 a7be 117b debf b841 c13d 3b6c a03f
00000150: 71d1 073d f253 143e beb6 e3bf 4b4d ca3e
00000160: e27a 0b3e 29de 0ebf d148 223e 6fa8 d23e
00000170: 3a2e 293e 94b4 47bf 4bfe 893f f6ea df3d
00000180: f9dd b7be 1fcd 0ec0 f0bb a13d 6ec8 d43f
00000190: cc02 9ebf 9ed2 6cbe 86b7 12c0 19fd 653e
000001a0: 6a44 b4bc 2ddf 11bc a558 06be e366 7d3e
000001b0: a24a 483e 9432 34be 488b 4f3f 4381 f23e
000001c0: f3d8 343d b836 4dbc 1803 083d e880 3abd
000001d0: 27f1 cbbe a478 cebd 85d2 7b3e 5b58 653d
000001e0: 2091 ab3d ec71 8cbe 0194 6bbd 41e4 3540
000001f0: 2a1b 703e 3688 0bbd 73b9 ae3d c359 e8bb
00000200: b96a 95bd 14cd 93bb b067 babc b001 96be
00000210: 1295 ef3d e0fa 60be a244 583e abbc 823d
00000220: af50 e73d ca01 24be d280 75be d3fd e33e
00000230: f0c5 e7bd 4844 693f bc8e 90bf 1606 203f
00000240: b74c f93d b776 efbf b6e5 2f3e d48a c43d
00000250: c6a5 89bf 6222 23be 03c0 e4bf 93f0 0f3d
00000260: f866 8dbe 7bbd a73d ade9 e1bc da2d a03e
00000270: 2a70 263e 34f0 9e3f 473f 193e 7b1e e93e
00000280: 8c5f 85bd 2da1 063e 1e9f 13be ead3 913d
00000290: 5d76 8e3e 606e 733d 1755 a33d 4d50 bd3e
000002a0: fba4 99be 0229 193f 9cbf b9bf 6adf 25c0
000002b0: c0ba 93bd c6d0 053e efc4 133d e8d2 41bc
000002c0: 9c20 7b3e a13b 6abe da26 153e 5258 5e3f
000002d0: f1b8 8ebf b0d5 8c3c 75a3 cabd 5493 f23b
000002e0: 1cf8 8fba 8484 363e 6cb4 cf3f 9bee 55be
000002f0: 6690 283e f472 54bf 97a8 09bf a811 9abf
00000300: 4300 d73d 3f9f 253e 284e 3ebe b9ba 8abe
00000310: 8f40 d43d a86a 1dbe 90cc c13e 84f5 a83d
00000320: 1a43 94bd 067d 2a3c 1352 e3bc 1836 c8bd
00000330: 20c4 4f3c 4d5e 1a3f 6153 033e 5bb9 3f3e
00000340: 7a15 1f3e 182c 883d cca8 bbbd f9f2 883e
00000350: c698 56bd bc10 773e 8392 23bd 6d36 10be
00000360: 80e1 b73d f26e e7be 3432 dbbf 384c 1040
00000370: 0050 be3d 1bcb 833b 6b92 8abc 84ab 5ebd
00000380: bf77 0f3e a0f9 c6bd e01d b0bc 17d3 3ebf
00000390: d106 59be 70ee 253e a5f1 ae3e 91fa 17bf
000003a0: 1417 d6be 305a d5bd b92b d7be e935 97bd
000003b0: 68fc 653d 6e93 46bf bf83 22c0 6b00 60bf
000003c0: 5113 893d 9a9c 9f3c e03b e3bd 4011 2b3e
000003d0: 92ea a1be e8c9 ec3d c8f7 c73d 4a9b cd3e
000003e0: 6f94 803f 7f82 893d 963a 173f 5656 bc3e
000003f0: e09e 08bd edbb 0240 c33a bcbf 96c0 a0bf
-1.8565763 0.094705366 -0.012559295 0.046999656 -0.07025024 -0.15620586 0.053411555 0.12282351
0.28680852 -1.9130158 0.06419181 -0.3489173 -0.06884608 -0.27671388 -0.01934909 0.15637292
0.20404226 -0.12470282 -0.23069659 -1.2190444 -0.25877318 -0.08337188 0.009695226 0.21004406
0.15735409 0.18835783 -0.49044913 -0.32408398 0.16598776 0.25685582 -0.21119004 0.029855981
0.16749585 0.06162142 -0.037653565 -0.43690813 0.10357222 -0.020798683 -0.49260932 0.0048391116
-0.44380555 0.08503727 2.6982644 -0.1088241 -0.10745695 0.025220968 -0.053299207 0.07216801
-0.20587574 0.22317174 -0.21363005 0.7830938 1.1179433 -0.18925053 -0.21112067 -0.35753155
-2.1401064 -0.06695609 0.41706797 0.02972555 -0.085823 -0.6794708 -0.45106483 0.05662305
-0.026960563 0.031324852 -0.20124784 -0.4103055 -0.16645184 0.21595141 -0.083040364 -0.1053281
-0.07492837 -0.14566217 0.115942836 -0.24864776 -0.20694605 -1.4349012 -1.4862337 -1.955537
-0.32643262 -1.7381307 0.09436363 1.2533029 0.033158723 0.14485148 -1.7790143 0.39512095
0.13621095 -0.5580774 0.1584809 0.4114413 0.1652154 -0.78009915 1.0780729 0.10933487
-0.3591154 -2.2312696 0.07897174 1.6623666 -1.2344604 -0.23127219 -2.2924514 0.2245983
-0.022005279 -0.008903307 -0.13119753 0.2474628 0.1955972 -0.17597419 0.810719 0.47364244
0.04415221 -0.012525253 0.033206075 -0.04553309 -0.39832422 -0.10081604 0.24592026 0.055992465
0.0837729 -0.27430665 -0.057514194 2.8420565 0.23447862 -0.034065448 0.085314654 -0.0070907786
-0.07295746 -0.004510531 -0.02275452 -0.29298162 0.11698355 -0.21970701 0.21119931 0.06383642
0.11294686 -0.16016307 -0.23974922 0.4452959 -0.113170505 0.91119814 -1.1293559 0.62509286
0.12172835 -1.8708104 0.17177472 0.09596792 -1.0753715 -0.15931085 -1.7871097 0.03514154
-0.2761762 0.081904374 -0.027577246 0.31284982 0.16253725 1.2417054 0.14965545 0.45531067
-0.06512365 0.13147421 -0.14416167 0.071204975 0.2782468 0.059431434 0.07975214 0.36975327
-0.30008683 0.598282 -1.45116 -2.591761 -0.07213354 0.13067922 0.036076482 -0.011830069
0.24524158 -0.22874309 0.14565602 0.86853516 -1.115019 0.017191738 -0.09894458 0.007402817
-0.0010983977 0.17823988 1.6226935 -0.20891802 0.16461334 -0.82987905 -0.5377287 -1.2036638
0.10498097 0.16174029 -0.18584502 -0.27095583 0.10363876 -0.15372717 0.3785138 0.082499534
-0.07239361 0.0104057845 -0.027749097 -0.097759426 0.012681037 0.6030014 0.12824775 0.18723051
0.15535536 0.06649035 -0.09163055 0.26747873 -0.05239179 0.24127477 -0.039934646 -0.14083262
0.089785576 -0.45201832 -1.7124696 2.254652 0.092926025 0.004022015 -0.01691552 -0.05436279
0.14010523 -0.09715581 -0.02149862 -0.7454085 -0.21194007 0.16204238 0.34168735 -0.5936671
-0.41814482 -0.104175925 -0.42025545 -0.073833294 0.056148916 -0.7756871 -2.5392911 -0.8750064
0.066931374 0.019483853 -0.110954046 0.16705799 -0.31624275 0.11561948 0.097640574 0.4015754
1.0045298 0.06714343 0.5907377 0.3678462 -0.03335464 2.04272 -1.4705433 -1.2558773

net2.0.bias f4 [64]
00000000: d7ea 283e 4238 463e 58ab 74bd 232e 5abd
00000010: a063 13be e25f ee3d f2e3 0bbd 9cfb b23e
00000020: b957 bb3d 36bc 3bbd 619c e5bd 60bb 35be
00000030: bcc6 a13d 8b5a 26bd d254 32be dd20 c43e
00000040: 6ce5 3fbe 4923 bb3d 619d 413e 0f50 223e
00000050: 4ca9 813d 0a2e 663e 4031 75be 4a0a 803c
00000060: 444d 1e3e d9bb 983e ba47 be3d a9d5 d73e
00000070: 9d9e 65be 58f8 afbe 7291 afbe 396b 1e3e
00000080: 6ef7 35bc 09be 6f3d b56a 953e 3005 e33d
00000090: f4fd 09be f133 273e 4705 8c3e ee42 2cbd
000000a0: 78c6 7d3e 74bb 963e 4c82 523e 5cca 05bd
000000b0: 7dfe c0be c0e9 b0bc b628 eabd 0b23 043e
000000c0: dcff cebd d420 89be 9fa7 abbe 493d bcbe
000000d0: 9e5f 79be 89b3 163e 1ecb 4f3e ae86 bc3e
000000e0: 9391 253e 9f3a 6b3e 8b19 8d3d a973 42be
000000f0: bef9 473e 093a 353c b4dd 22b9 85e4 d3bd
0.16495834 0.19357398 -0.05973372 -0.053266656 -0.14393473 0.11639382 -0.034152932 0.34957588
0.09147591 -0.04583379 -0.112114675 -0.17747259 0.07899234 -0.040613692 -0.17415169 0.38306323
-0.18739861 0.091375895 0.18907692 0.15850852 0.06331119 0.224785 -0.23944569 0.015629906
0.15459162 0.29830816 0.092910245 0.42155197 -0.22423787 -0.3436916 -0.34290653 0.1547059
-0.011106355 0.05853084 0.29182974 0.11084974 -0.13475782 0.16328408 0.27347776 -0.042056017
0.24782741 0.2943989 0.20557517 -0.032663688 -0.3769416 -0.021595836 -0.11433546 0.12903993
-0.10107395 -0.26782858 -0.33526322 -0.36765507 -0.24352881 0.14716925 0.20292327 0.36821502
0.16168813 0.22971581 0.068896376 -0.18989433 0.19528863 0.0110612 -0.00015532115 -0.10346321

net2.2.weight f4 [64, 64]
00000000: 52d6 d2bd 2761 8b3c 8ce3 1d3e 02ad a43d
00000010: 090f af3c a41a 963e 4f54 893e a81f bd3c
00000020: 8387 b5be 8434 39bd 7eda 0a3f b81b b1be
00000030: 27e6 693e 984b f1bd 54f3 073e 7e8d 3ebe
00000040: 8bcb 323d 0a2e 913e 7420 2d3e f040 d73d
00000050: 81f7 8c3c 6128 8d3e bbd1 893d 6f68 b93c
00000060: 9002 15be af22 4d3e 8d73 47be f22c 8b3d
00000070: ef48 15bd 7e1f 003e 36e6 433e 98b2 893c
00000080: 62ec c53d f2c5 193e 998f 87bb 6cf1 97be
00000090: dfdc c4bd 07db 8a3d a81c 30bb a5a6 4d3d
000000a0: ecaf 113e ac60 79be 376e 0d3b 1e5a 19bf
000000b0: 38d4 283e c922 103e 5357 0bbe 0d86 c5bd
000000c0: 5e91 473e 2e0a 14be dfc5 8fbd acee 10be
000000d0: 30b0 a9bd 98df 873e 2f73 9ebd ce2f 0fbe
000000e0: d28c 92bd d940 703c e0ce 5bbe 9452 b3bc
000000f0: 646a 33bd e08e c63e 8f68 993d 2dc4 153e
00000100: 17c7 2e3e fadd 993e e755 adbd fa5f 88be
00000110: 1f3a 993d 2443 753d bbaa 5b3e ed46 d9be
00000120: 7b40 dcbd d0ab 843d e844 6abe ebe1 1ebe
00000130: fd72 f7bc feb6 d43c b676 a93a 8319 87be
00000140: ace2 82bf f991 fbbe 061b c03e a4be 9d3e
00000150: 1e91 44bd 4442 023d caeb d3bd b55a 05bf
00000160: 8fd2 9f3e 3481 5abf 1001 b5bd 5917 e4bc
00000170: 795f 523c 5342 1ebf 3aa2 dc3d 803b 3f3e
00000180: 986c 84bf 4419 aabe ccf9 c5be ae65 5abe
00000190: 0b5c b13e ab69 953e 5fef 803d a6d5 d93d
000001a0: 7189 3a3e 7478 5b3e 3e30 9cbf f75e b53e
000001b0: e7ce 273e fc16 a03e 0a54 a7bf ff4e c2bd
000001c0: 81f7 66bf 7cd9 943e 7194 a13e 9821 f43e
000001d0: 56a2 7d3d da73 45bd 2693 bb3e 60d4 483d
000001e0: 78b0 0dbe 3fc7 0dbc e82f a1bf e494 b23e
000001f0: 07d8 43be 4b07 b6be 28ed a9bd 452c 51be
00000200: b5bc 03be 8800 843d 05ed adbe 4fc8 f33d
00000210: bfb6 8bbd 1c34 96bd 9b35 f8bd 4547 b1bd
00000220: fa72 95be 4e37 243e c066 09bf ebd7 71be
00000230: e7ad 9d3d c052 bf3c eccd 133e c8c5 2d3e
00000240: 4938 44be 03ba 2dbe e9cf 75bd 19e0 b2ba
00000250: 6d34 32be 8629 253e a82d 21be 5bca b73d
00000260: f155 a3be 58da c3be ae14 c9bd d614 ad3d
00000270: 513b 79bd 7a4f e7be 0091 4b3e ff47 86bd
00000280: 5f7a 633d d396 8fbd 965a ecbd 705d 97bd
00000290: 5f13 fcbd 1ed6 b1be 7566 93bd e6b7 e43c
000002a0: 8ef1 a1bd 75ea 713e be63 93be 0637 bc3e
000002b0: 5878 113e a247 f83c a573 23bf 1a6e b03e
000002c0: f8bf 89be 659c a1bd ce6b c33d 1ea1 8b3d
000002d0: 4071 e1bd ec0f 71bd 6369 a0bc 2d17 87be
000002e0: f9fe 04bd fb5b 87be 0399 f03b 6261 cbbd
000002f0: a389 c2bd 7688 fb3c ce7a 6bbe 009b 19bf
00000300: 674b 0d3e b2e4 e8bd 4ceb 823c 5992 d63e
00000310: e739 ef3e afb2 323e 5138 d63e ebda 07bf
00000320: 95bc 633d c157 883e b4f1 4cbc 6e70 fdbd
00000330: 1a50 ff3d dfb0 90bb 43fa 6d3e d084 3fbe
00000340: 4b73 83bf 11f6 97bf efab 233d ea55 003f
00000350: a89d 1f3d b226 c43d e97c 1bbf 449e a6bf
00000360: 4512 313f 7da1 f2be 2782 bc3b 5f8d 363e
00000370: c978 633e ed79 6abf 5f00 353e b8ee 293e
00000380: b2c1 9dbe d8f2 45bf db50 44bf 9be5 50bf
00000390: c809 f63c 29cb 223e 69b9 683e ed20 983d
000003a0: 09be b53d 5cbe 653e c339 80bf ed23 023e
000003b0: 4c67 cc3d ab52 23bf e7a0 53bf 10a9 a43d
000003c0: af0e ecbe 6bdb 123f b29c b43e fed2 ea3e
000003d0: 3592 d33e cb0a 83bf 4315 1ebe 5fee c4be
000003e0: 327c 0cbc 07bf 133e 6056 46bf 6b6f 1cbd
000003f0: f4ac e9bd f6bd 0dbf 02ec 57bd dac8 96be
-0.102947846 0.0170141 0.15418833 0.08040811 0.021369474 0.293172 0.26822135 0.023086384
-0.3545495 -0.0452161 0.5423964 -0.3459146 0.22841702 -0.117819965 0.13276416 -0.18608662
0.043651145 0.28355438 0.16906911 0.10510433 0.017207863 0.2756987 0.06729456 0.022632806
-0.14551759 0.20032762 -0.19477673 0.06795682 -0.036446508 0.12512013 0.19130787 0.016808793
0.09664227 0.15016916 -0.004136991 -0.29676378 -0.0961244 0.067800574 -0.002687255 0.050207753
0.14227265 -0.24353284 0.0021580586 -0.5990313 0.16487205 0.1407577 -0.1360753 -0.09644709
0.19489047 -0.14457008 -0.07020163 -0.14153546 -0.08285558 0.26537776 -0.07736813 -0.1398308
-0.071557656 0.014663898 -0.21465635 -0.021889962 -0.043802634 0.3878088 0.07490646 0.14625616
0.17068134 0.30052167 -0.0846365 -0.26635724 0.07481789 0.059878483 0.21451847 -0.42436925
-0.10754486 0.06478083 -0.22877848 -0.15515868 -0.030206198 0.025966164 0.0012929055 -0.2638665
-1.0225425 -0.49134806 0.37520617 0.3080951 -0.047989957 0.031801477 -0.103477076 -0.5209153
0.3121533 -0.853534 -0.08838093 -0.027843164 0.012840145 -0.6181995 0.1077313 0.18675041
-1.034564 -0.332224 -0.38667142 -0.2132785 0.34640536 0.2918218 0.062956564 0.10636453
0.18216492 0.21432668 -1.2202222 0.35424015 0.1638752 0.31267536 -1.3072522 -0.094877236
-0.9022141 0.29072177 0.31558564 0.4768188 0.061922394 -0.048206188 0.36635703 0.04903066
-0.13836849 -0.008653461 -1.2592745 0.3487922 -0.19125377 -0.3555244 -0.08297187 -0.20427044
-0.12864955 0.06445414 -0.33969894 0.1190344 -0.068219654 -0.07334158 -0.121195994 -0.08656172
-0.29189283 0.16036722 -0.5367241 -0.23617522 0.07699185 0.023354888 0.14434022 0.16969979
-0.19162096 -0.16965489 -0.06001273 -0.0013647109 -0.17402811 0.16129121 -0.15740073 0.08974143
-0.31901506 -0.3825252 -0.098183975 0.0845124 -0.060847584 -0.45177823 0.19879532 -0.06556701
0.055536624 -0.07011189 -0.115407154 -0.07390869 -0.12308382 -0.3473367 -0.071972765 0.02791972
-0.07907401 0.23624595 -0.28787035 0.3676073 0.14206064 0.030307595 -0.63848335 0.34459
-0.26904273 -0.07891158 0.095420465 0.0681784 -0.11007929 -0.058853075 -0.019581502 -0.2638487
-0.032469723 -0.26437363 0.007342459 -0.09930684 -0.09498908 0.030704718 -0.22996065 -0.60002136
0.13798295 -0.11371745 0.015981339 0.4190853 0.46723863 0.17450975 0.4183984 -0.5306842
0.055599768 0.2662945 -0.012508798 -0.1237496 0.1246645 -0.004415616 0.23239999 -0.18703008
-1.026956 -1.1871969 0.03995889 0.50131094 0.038968712 0.09577693 -0.6073747 -1.3017049
0.691685 -0.4738883 0.00575282 0.17827366 0.22214045 -0.91592294 0.17675923 0.1659497
-0.3081184 -0.77323675 -0.76685876 -0.8160035 0.030033961 0.15897812 0.22726978 0.07428155
0.08874137 0.22435898 -1.0017627 0.12709017 0.0998064 -0.63798016 -0.8266739 0.080400586
-0.46104953 0.57366055 0.352758 0.458641 0.41322485 -1.0237669 -0.15437798 -0.38463113
-0.008574532 0.1442834 -0.7747555 -0.038192194 -0.11409941 -0.5536798 -0.05271531 -0.29450113

net2.2.bias f4 [64]
00000000: 1713 953c 05d3 eabc a7f2 493d 5135 38be
00000010: b0d9 b6be 4c46 85be 4056 6b3c 25b9 c33d
00000020: 9b4a 98be 5ed1 88be f416 24bd d70f ecbd
00000030: 5c93 d1bd a9a3 823c 1c21 87be 994a 393c
00000040: f91c 0cbe 1e0a 3a3e 3d29 16bc 403d 35bd
00000050: d001 193d a1d9 e2be aa5b d7bd 3d7b 18bd
00000060: 965f b0be 061d b0be bbc3 a4bd da6a c8bd
00000070: f1b4 cbbb 7fef 86bd 378b b4be 220f c7bd
00000080: 6b53 e73d 04d5 85bd 6585 823d c9cc 16be
00000090: 8386 babe 93d2 56bd 8f8a e93d 7c10 acbe
000000a0: b071 7abd d1ae bd3d 8726 a0be a0fd 4abe
000000b0: 3bc2 ff3d 1369 48be 0d38 e23c 1dda b63d
000000c0: 3960 debe 7a97 8cbd 24f1 7cbe 9973 1a3d
000000d0: 0e72 293e 3c2c bc3b 727a 44bd 0029 543c
000000e0: 19dd 43bd b42d 40be 38e9 debd 555c ad3d
000000f0: 832e bb3c ce98 a6be c1aa 353d 815d a83d
0.01819758 -0.028665075 0.049303677 -0.17989089 -0.35712957 -0.26030195 0.014363825 0.09556798
-0.2974442 -0.26722234 -0.040060952 -0.11526459 -0.10233185 0.01594718 -0.26392448 0.011309289
-0.13682927 0.18167922 -0.009165105 -0.044247866 0.037355244 -0.44306663 -0.105155304 -0.037226904
-0.34447926 -0.34397143 -0.08045145 -0.09786005 -0.0062166383 -0.06588649 -0.35262462 -0.09719683
0.112952076 -0.0653477 0.06373099 -0.14726557 -0.3643075 -0.052446913 0.11403381 -0.33606327
-0.061143577 0.09261859 -0.31279394 -0.19823313 0.124882184 -0.19571333 0.027614618 0.089283206
-0.43432787 -0.06864829 -0.24701363 0.0377079 0.16547415 0.005742578 -0.047968335 0.012949228
-0.047818277 -0.18767434 -0.10884327 0.084648766 0.022849327 -0.32538456 0.044352297 0.082209595

net2.4.weight f4 [1, 64]
00000000: 0df7 5ebe b171 b8be e73e 623e fb38 ddbe
00000010: c9e8 62bf 77f1 ee3e f215 b73e 3d61 79be
00000020: deb1 03bf 0a73 13bf 10f4 f53d 77de 313f
00000030: 0a8d d73e 3d98 f53d 4977 26bf 6f63 0a3f
00000040: 8f9b 8dbe 5e36 f1be 7999 a93d 1c40 d3bf
00000050: a356 cf3e 6f9d 62bf ed0c 173e f7d7 923d
00000060: 3939 94bf 8636 75be 633a 39bf adae 78bf
00000070: eae2 993d bc15 ef39 b316 6dbf 7f95 29bf
00000080: eeb1 9fbe 6bc5 de3e b234 fb3d 3ba4 1abf
00000090: b1f2 e9be b58e c5bf 5e21 10bf ca25 acbe
000000a0: b3c2 04bf 0860 ae3d 11d1 55bf f271 90be
000000b0: 7361 20bf 4539 6abf c596 853e 5aa8 333f
000000c0: 4c50 aabf 1a7c 573d 8713 54be 3c11 8e3d
000000d0: 318e 22bf 0b79 85bf b2b3 3f3e 0239 b73d
000000e0: 2528 673d b41c e6be 5b08 28bf e3b5 fa3e
000000f0: 39bf 863d 2ec8 d0be 7f96 453a 2a16 cabe
-0.2177393 -0.3602424 0.22094308 -0.43207535 -0.8863645 0.46668598 0.3575893 -0.243535
-0.5144328 -0.5759741 0.12009442 0.6948008 0.42099792 0.11991928 -0.65025765 0.54057974
-0.27657744 -0.4711179 0.08281226 -1.650394 0.40495786 -0.88521475 0.14751025 0.07170098
-1.1579963 -0.2394658 -0.72354716 -0.97141534 0.075139835 0.00045601826 -0.9261276 -0.6624374
-0.31190437 0.43509993 0.1226591 -0.60406846 -0.4569297 -1.5434176 -0.56300914 -0.3362258
-0.5185959 0.0851441 -0.83522135 -0.28211933 -0.62648696 -0.91493636 0.2609159 0.7017876
-1.3305755 0.052608587 -0.20710574 0.06936881 -0.63498217 -1.0427564 0.18720892 0.0894642
0.05643477 -0.44943774 -0.6563775 0.48966894 0.065794416 -0.40777725 0.0007537379 -0.39470035
